models/weights_bak/layers_30_lr_0.001.pt (torch, 5729 bytes, 3 tensors)

mlp.0.weight f4 [30, 31]
00000000: 163e 44bd c5da 3e3d 87dc 773d c336 05be
00000010: 8b09 83bf e364 24bf 127e d2bc a3a6 3ebd
00000020: aa45 bf3e 0abb c8bd 10a7 bfbd d323 db3e
00000030: 0c12 97be 8f9a 003d d666 84bd 94d0 573e
00000040: 25e3 d6bd 90b7 ee3d 0cec 96bd fe34 e63c
00000050: ad80 513d ccad 5bbe d6d2 ca3c 0492 163e
00000060: 460a a0bd 10ae ffbd 6480 48bd dcbd 9d3d
00000070: 869e 96bd 0fdb 4b3e 84cd 773e 02a7 4abe
00000080: c269 b6bc ca08 0cbe d950 febd 621b 983d
00000090: e7ab 8fbd 709f 693e 5a99 8f3c 8c10 42be
000000a0: 87eb 1c3e 6685 7cbd 6fb3 46be a8be 7b3e
000000b0: 14dd 1ebe 0890 5dbe dff3 843e 8e45 4fbe
000000c0: fac3 693e 78bd bdbd 28f0 003d 3628 9bbc
000000d0: 5109 e33d 746d a33c 6266 f83d 4e11 27be
000000e0: 674b 4dbc 1367 7bbe 6b65 9f3d fc33 983c
000000f0: cd58 1a3e 7ad5 bc3d f863 77be 2a96 a4bd
00000100: 4c92 83be 8fc5 66bb 1b60 4e3e 1919 ab3c
00000110: a4de fd3d db58 293e be6e 8c3d 783c efbd
00000120: c0f1 44be 6db5 073e 67f4 36be bc45 043e
00000130: 0e8d 9f3e dca7 003d e352 093e 9c06 9e3d
00000140: c62a 0bbe 0a66 95be 72c9 c83c 1cf1 6fbc
00000150: d06a 91bb 5f61 57be c0ab 36be 7767 013d
00000160: 6d08 263e a41d 6abd e14b 5d3e 0eff 52bd
00000170: fc85 6e3d 46bd 0bbe e092 abbe 53bc 1ebd
00000180: 197b a23d 8714 843d c3cb 823d 8246 ca3c
00000190: 55cc c03d 83a6 533b e121 cdbe 5fb5 953e
000001a0: eb1d c03d 6ea7 273e 9e05 373c 8663 e03c
000001b0: ab6e 28be bb0d 1c3e b3e1 94bd ee6b 4ebd
000001c0: ed03 cdbd 91e1 cb3d 2b20 473d 7929 ea3b
000001d0: 4d4c 5d3d 9c62 ecbd 5d2e e5bd 6833 0c3e
000001e0: b277 39be c5e9 2cbe c3f4 d2bd c9c2 7d3e
000001f0: e9a0 30be 9b87 5bbe 01ae d2bd 1c92 e0bd
00000200: 185b 023d 7126 12bd f055 6a3c c1aa 0dbe
00000210: 5bb7 b7bd ea4b 6c3d 98be 133e 31a7 66bc
00000220: f299 073c d349 bc3e 8491 afbd 6128 8e3d
00000230: 5ff0 6a3b 9445 dabd 61a5 a23e a512 313c
00000240: cae3 4c3c 0c01 8f3e be1c 7ebe 9a35 71bc
00000250: 4e1e c6bd 322e 3bbd 5f5a 5fbd 782e 44be
00000260: ef70 bb3d 763e a63e 7de8 0abe d634 c5bd
00000270: b899 d03d 8f80 bcbc 1969 1dbd 99c4 edbd
00000280: 0ee7 8fbe 90e1 753e d6de 8ebd 6704 3abd
00000290: 18c2 c83e e8d8 18bc 74df cabd 94c4 9dbd
000002a0: 012a e6bd ab6d 083d 46df e23e f66f 673d
000002b0: 666c 0bbe fbb3 a8bd 4795 f73b edb9 25be
000002c0: 6157 93bd de20 943e f19f 18bd 6132 d23d
000002d0: 70dd 0e3e bc00 ccbd 2e58 a1bd 0dc9 b6bd
000002e0: 4698 35bd 4828 31bd e79e b8be b734 5abe
000002f0: 9eee 243e 1638 e43c 47c7 1e3e e776 8abd
00000300: 3ed0 9fbc ea7e b83d 065d ae3d e126 dd3d
00000310: 7d0c 873d c8e0 b03e b0cf 313e 6247 2e3d
00000320: 52dd f03d 1f01 dd3c 7b99 b2bd 8306 09be
00000330: 581b 973d e85e fa3e 7b60 9cbe bcb1 74be
00000340: 9185 d6bc bcd9 0f39 da22 623e 926e 913d
00000350: 170e 113d 9e60 1a3c 7243 5c3d 9467 203d
00000360: 7f9e 96bd c8e7 bd3e f9ad 68be 8e75 553c
00000370: 8fa5 543b 5aac 6f3d d107 07bd 74df e3bd
00000380: 7554 f93c 99a2 f63d a836 bfbd 2734 b23d
00000390: 6e00 3abd 9ede 3bbd 64db 0abc 78cb 2abd
000003a0: bce2 afbb 3d0f 023d ce81 08bd b4c9 1e3d
000003b0: bacd 1d3d 79c0 53bd 0f05 a2bd 7e9d 7cbf
000003c0: 9d53 503e 1a38 96be 6cb9 a5bd a2de aabe
000003d0: aab2 ebbc 079c 9d3d fb53 57be 6c87 433e
000003e0: 522c 3f3e f879 293e a4f8 d13d d68d 5e3e
000003f0: 46aa 10bf ec6f 053d 07a0 103c 12de d0be
-0.047910772 0.046595354 0.060513046 -0.13009171 -1.0237287 -0.6421644 -0.02569488 -0.046545636
0.37357837 -0.098013 -0.093580365 0.4280077 -0.29505956 0.0313974 -0.06464927 0.2107566
-0.10492543 0.116561055 -0.07369241 0.02810144 0.051148105 -0.21453017 0.024758738 0.14704138
-0.078144595 -0.12484372 -0.048950568 0.077022284 -0.07354455 0.19907783 0.24199492 -0.19790271
-0.022267226 -0.13675228 -0.12417764 0.07427098 -0.0701521 0.22814727 0.017529178 -0.18951625
0.15324222 -0.061650656 -0.19404386 0.24584448 -0.15514022 -0.21636975 0.2596731 -0.20241377
0.22828665 -0.09264654 0.03147903 -0.018940073 0.11085761 0.019949652 0.12128903 -0.16315195
-0.012530184 -0.24551038 0.07783016 0.018579476 0.15072937 0.09220405 -0.24159229 -0.08036454
-0.25697553 -0.003521297 0.20153849 0.020885991 0.12395981 0.16537802 0.0685706 -0.116814554
-0.19232845 0.13252802 -0.1786667 0.12917227 0.31162304 0.031410083 0.13410525 0.077161044
-0.13590536 -0.29179412 0.02451012 -0.014644887 -0.004437782 -0.21033238 -0.17838955 0.031592812
0.16214152 -0.057157174 0.21610977 -0.05151277 0.058233246 -0.13646421 -0.33510494 -0.03875382
0.07933635 0.06449228 0.06386521 0.024691824 0.09413973 0.0032295294 -0.4006491 0.29239938
0.093807064 0.16372463 0.011170773 0.027391206 -0.16448466 0.15239613 -0.07269611 -0.0503959
-0.100105144 0.09955133 0.048614662 0.007146057 0.054027844 -0.11542246 -0.11190484 0.13691485
-0.18112066 -0.16886051 -0.10300591 0.24781336 -0.17248882 -0.21438448 -0.10287095 -0.10965368
0.031825155 -0.03568119 0.014302716 -0.13834669 -0.08970519 0.057689585 0.14428174 -0.0140779475
0.0082764495 0.36775073 -0.08572677 0.069412954 0.0035848839 -0.10657802 0.317668 0.010807668
0.012505481 0.27930486 -0.24815652 -0.014722252 -0.09673749 -0.045698352 -0.054529544 -0.19158351
0.091524 0.3246953 -0.1356525 -0.09629218 0.101855695 -0.02301052 -0.038430307 -0.11609764
-0.28105968 0.24011827 -0.06976096 -0.045414355 0.39210582 -0.009329058 -0.099059016 -0.0770351
-0.1123848 0.033307713 0.4431097 0.05650326 -0.1361557 -0.082374536 0.007555637 -0.16184206
-0.071944006 0.28931326 -0.037261907 0.10263515 0.13951659 -0.099610776 -0.07878147 -0.08925066
-0.044334672 -0.043251306 -0.36058733 -0.21309172 0.1610665 0.027858775 0.15505706 -0.0676096
-0.019508477 0.09008582 0.085138366 0.10798431 0.06594179 0.34546494 0.17364383 0.042548545
0.117609635 0.026978074 -0.0872068 -0.1338139 0.07378262 0.48900533 -0.3054236 -0.23895925
-0.026186736 0.00013718655 0.22083607 0.07101168 0.035413828 0.009422449 0.05377526 0.03916128
-0.073544495 0.37090898 -0.22722615 0.0130285155 0.0032447313 0.058513977 -0.03296644 -0.11126605
0.03043578 0.12042732 -0.09336597 0.087013535 -0.045410566 -0.0458666 -0.008475158 -0.04169795
-0.005367605 0.031752814 -0.033326916 0.038766578 0.038526274 -0.051697228 -0.07911121 -0.98677814
0.20344396 -0.29339677 -0.08092007 -0.3337298 -0.028771717 0.076957755 -0.2102813 0.19094628
0.1866925 0.16550434 0.102525026 0.21733794 -0.56509817 0.03257744 0.008827216 -0.40794426

mlp.0.bias f4 [30]
00000000: 7d0d 093f 14e1 373e f1a4 633e df49 c4bd
00000010: 063d fc3d a941 61be 323b 883c 59ef 30bf
00000020: 7acb 2b3d fded 57bf baa8 0bbf cb27 d1be
00000030: 69bd 623e aaa3 4ebf 61a6 173f b213 8e3e
00000040: 1bea 52be ff05 073f 237e fd3d 374e 8bbe
00000050: 423f 01bf 4f7f 813e 2fbc b8be dd2b 1c3e
00000060: 0ec7 93bf a2f5 68be 583e fabe 5530 2b3e
00000070: 4642 cebe c888 c43f
0.53536206 0.17956954 0.22230889 -0.09584402 0.12316327 -0.21997704 0.016629789 -0.69115216
0.041942097 -0.84347516 -0.5455433 -0.40850672 0.22142567 -0.8071848 0.5923825 0.277494
-0.20597117 0.52743524 0.12377574 -0.2720811 -0.5048715 0.2529244 -0.36081073 0.15251108
-1.1545122 -0.22749951 -0.4887569 0.16717656 -0.40284938 1.5354242

mlp.2.weight f4 [1, 30]
00000000: 80ce 7a3f 995e 07bf b6f5 efbe a35f 04bf
00000010: 976c 03bf 2a73 223f 74c9 15bf 0a86 90bf
00000020: 4bfa 3e3f cfd2 c83f 00b0 ab40 ab6e 8640
00000030: 51a6 5abf 707f b43f 678d 42bf b26a 1ebf
00000040: 247e 123f 68ea 2dbf d573 38bf 59b5 cabe
00000050: e31f 903f 8c18 c0bf 64f2 373f 3442 48bf
00000060: ea3e e2bf a7c9 433f e139 a1bf 9ae5 823f
00000070: 7d8d 773f 9f89 fa3f
0.97971344 -0.5287872 -0.4686715 -0.5170843 -0.5133757 0.63456976 -0.5851052 -1.1290905
0.74600667 1.5689334 5.3652344 4.2010093 -0.8541003 1.4101391 -0.7599701 -0.61881554
0.57223725 -0.679358 -0.72051746 -0.39591482 1.1259731 -1.5007491 0.71854234 -0.7822602
-1.767545 0.7647957 -1.2595788 1.0226319 0.9670027 1.9573249
