models/weights_bak/layers_100_100_drop_lr_0.0001.pt (torch, 56071 bytes, 5 tensors)

mlp.0.weight f4 [100, 31]
000000 8b 35 06 be 66 b8 1b bd 96 9e 4f bc 84 7b 49 be
       -0.13106363 -0.038017653 -0.012672087 -0.19676024
000010 8b ff 31 3e ec 9d 87 bd 7a d8 40 bd d3 09 75 be
       0.17382638 -0.06621918 -0.04708145 -0.23929529
000020 ac 18 63 3d a6 77 7d bd 79 0e 35 be e9 85 3b 3e
       0.05544345 -0.061881684 -0.17681302 0.18312801
000030 62 0c 0e 3e 40 66 a3 3d 6d 39 d4 bd 5a 10 18 bd
       0.13871911 0.07978487 -0.103625156 -0.03712497
000040 5d b4 85 bc ad 43 2c be ec 1a ff 3c b3 d3 16 bd
       -0.016321355 -0.16822691 0.031140767 -0.036822986
000050 5d 88 c8 3c 3f 7a db 3d d6 44 00 3e 77 39 a0 bb
       0.024479086 0.10716676 0.12526259 -0.004889663
000060 39 59 12 3c 44 0f 25 bd d0 d8 07 3e da df 2c 3e
       0.008932405 -0.04029776 0.13266301 0.16882268
000070 9c 66 a6 3d e2 1b e0 bd 9b fd e7 bd 72 b9 a0 3e
       0.0812504 -0.10942818 -0.11327668 0.31391484
000080 3d 9f cd 3e 45 c0 c1 bd f5 47 db bc 95 3e 6d 3e
       0.40160552 -0.09460501 -0.02676771 0.23168404
000090 98 58 43 be 97 19 ea 3d 87 b9 58 bd a3 8f cd 3c
       -0.19076765 0.11430662 -0.052911308 0.025092905
0000a0 a8 49 a9 3d c6 11 6f 3e b7 13 9f 3d b9 3a 3d bc
       0.08266002 0.23346624 0.07767432 -0.011549645
0000b0 cb 1e 70 3e fc de f6 bd 6d 63 a9 bd 37 4b 0d bb
       0.23449247 -0.1205425 -0.08270917 -0.0021559724
0000c0 a0 54 5f be 6f c7 7f bd 08 5e 28 be 55 8e f9 3d
       -0.21809626 -0.062446054 -0.1644212 0.12185351
0000d0 c4 2d c6 bc 29 0d f4 3c ee b5 00 3e ed 62 07 3e
       -0.024191745 0.029791432 0.125694 0.13221331
0000e0 8c 4b db bd 62 66 27 be 07 b0 56 3d 47 1b 47 3e
       -0.10707769 -0.1634765 0.052413967 0.19443999
0000f0 b9 48 ca 3c ab 73 22 3d 93 dd a6 bd 60 a0 b3 3c
       0.02469288 0.03966109 -0.08147731 0.021927059
000100 e9 25 03 3d c8 f5 0f 3e ed d2 1b 3e 9b 89 f6 3d
       0.032018576 0.14058602 0.1521718 0.12037965
000110 db 86 89 bd 76 19 0e bc 99 bf 01 3e 81 99 2c 3e
       -0.06715175 -0.008673063 0.12670745 0.16855432
000120 e3 d3 40 3e 00 7b 4d be cd c0 20 be c2 56 51 3d
       0.18830828 -0.20066452 -0.15698548 0.05110813
000130 cd e8 84 be 64 48 24 3e f9 cd 71 3e c8 a3 fe bc
       -0.25958863 0.1604324 0.23613729 -0.031083956
000140 4b 43 46 bc d4 b1 95 3b 63 a3 20 3e fe 36 dc bc
       -0.012101005 0.004568318 0.15687327 -0.026881691
000150 79 f2 85 be 20 11 a9 3d 00 eb b3 bd c5 60 15 3e
       -0.26161554 0.082552195 -0.08785057 0.14587696
000160 27 be f8 bd b2 42 0d be f4 eb dd bd 9d d1 07 be
       -0.12145644 -0.13794973 -0.1083602 -0.13263555
000170 bb 35 17 3e 0e 28 75 bd 4b a1 e9 bc d8 1d 03 be
       0.1476659 -0.059852652 -0.028519293 -0.12804353
000180 3a e6 1b be a6 e7 f2 bd ca 03 d6 3e 6a 90 ef 3c
       -0.15224543 -0.1186059 0.41799766 0.029243667
000190 64 56 39 be cd 08 df bd 5a 3c 7e 3e b4 ea 8a 3e
       -0.18099362 -0.108903505 0.2482771 0.2713219
0001a0 e8 a1 3b 3e 60 87 ba bd d7 b9 96 3d f4 39 a2 3d
       0.18323481 -0.09107852 0.07359665 0.0792121
0001b0 0e 84 33 bc 29 e9 a5 3e 7b 8c 4c bd 83 88 15 be
       -0.010956777 0.3240445 -0.04993866 -0.14602856
0001c0 10 b2 58 3d 71 ba cb 3c 9b af 0e be 47 dc 31 3c
       0.05290419 0.024869176 -0.13934176 0.010855741
0001d0 13 d0 e4 3c af 0f 31 be 0f 7e c1 bd 76 02 4c bd
       0.027931249 -0.17291139 -0.09447872 -0.049807034
0001e0 50 2f 26 3e 8b bf df ba b1 d7 28 3e 0d 9f 86 be
       0.16228986 -0.0017070634 0.1648853 -0.2629322
0001f0 83 9f 78 3c 9d ed ec 3d 4e 62 0c 3e 86 47 b6 3d
       0.015174749 0.11568759 0.13709375 0.08900361
000200 ee 58 fe 3c d6 42 f7 bd 53 95 eb 3d df 79 2c be
       0.031048264 -0.12073295 0.11503091 -0.16843365
000210 07 56 04 3e 0b 96 9f 3d f5 35 2a 3e 4f 64 4d be
       0.12923442 0.0779229 0.16622145 -0.20057796
000220 43 c8 cd 3d c0 4b d9 bd 14 8a e7 3e eb f0 20 be
       0.100479625 -0.10610151 0.45222533 -0.15716903
000230 07 24 63 3d 2c 80 89 3e d7 0f 93 bd 84 a9 1c 3e
       0.05545428 0.268556 -0.071807556 0.1529904
000240 0c 79 77 3d a7 e2 66 3e 6e 6f 71 3d 92 cd 3b 3e
       0.060418174 0.22547399 0.05894416 0.18340138
000250 c2 71 64 bd c7 4a 11 3e 7c 11 ba bc 32 25 b0 3d
       -0.05577255 0.14188682 -0.022713415 0.086008444
000260 77 57 6e 3d e5 c2 d1 3d be 03 3e 3d 96 7e 1a 3e
       0.05818888 0.10242251 0.046390288 0.15087351
000270 da a3 5c be b4 34 69 3d 25 a6 f7 3c 30 e2 95 3e
       -0.2154688 0.056935027 0.030230591 0.2927413
000280 e3 25 19 be 40 e5 05 be 50 68 ad 3d f8 3c 4b 3d
       -0.14955859 -0.13075733 0.08467162 0.04961869
000290 fc c3 00 be 27 80 4b 3d 3a dc 85 bd ef 4a 4a be
       -0.12574762 0.049682762 -0.065361455 -0.19755147
0002a0 93 3e 25 3d 4c 30 82 3d 23 ce 14 3d 9c 5b cc 3d
       0.04034288 0.06356868 0.0363294 0.099784106
0002b0 f9 02 15 be 37 aa 5f bb 47 f9 a9 3c 82 34 4a 3e
       -0.14551915 -0.0034128556 0.020748748 0.19746593
0002c0 74 a8 b5 bd 6f f8 70 3d 7e e4 b5 3d cd d6 77 3e
       -0.088700205 0.058830675 0.08881472 0.24203034
0002d0 49 91 2d bd b7 ac fd bd ea 7a e0 3c 1e e5 1a be
       -0.042374883 -0.12386458 0.02740236 -0.15126464
0002e0 0f 12 ed bd 7a 45 39 be fe 74 20 3e 4b 41 5b bc
       -0.1157571 -0.1809291 0.15669629 -0.013382266
0002f0 6a 1b 31 bc b3 bb d9 bc 70 9b 52 bf c1 83 5d 3f
       -0.010809759 -0.02657876 -0.8226843 0.86529166
000300 87 1d be bc 51 84 b9 3c 35 ff e4 bd 72 25 b8 3c
       -0.02320744 0.022646101 -0.111814894 0.022478793
000310 d0 9a 21 3d d5 55 1b 3d a1 80 82 3d cd 0d d2 bd
       0.03945428 0.037923653 0.0637219 -0.102565385
000320 eb f9 1b 3c 2a 8b 45 3c 7c 7a 54 3e 1e 12 95 bd
       0.009520034 0.012057105 0.20749849 -0.07278846
000330 10 cc 4d be 8c 9a 5f bc dd 38 d5 3b 0b 7e 85 3d
       -0.20097375 -0.013647687 0.006507023 0.065181814
000340 fe 60 0e be 8b 2e 9c 3d 54 44 cb bb 09 8a f2 bd
       -0.13904187 0.07626065 -0.0062032137 -0.11842734
000350 37 4e 13 bd d6 1e 91 bd 65 c7 63 3d 49 6f 5d 3d
       -0.035963263 -0.070859596 0.05561008 0.054061208
000360 d2 5c 53 3e 0d 63 35 3e 83 ac a9 be 01 c6 9d be
       0.20640877 0.17713566 -0.33139428 -0.30815127
000370 9b 41 3f be 00 22 1a 3e 83 00 fe bd 55 ac be bd
       -0.1867737 0.15052032 -0.12402441 -0.093102135
000380 d1 98 ca 3d 5f b5 20 bc 66 40 8e 3c 49 5e 99 3d
       0.09892429 -0.009808867 0.017364692 0.074886866
000390 63 75 4e bd 6f 9b ab bd 2f 4e 97 3c 22 28 f0 3c
       -0.050404917 -0.08379256 0.018469898 0.029316012
0003a0 2a d1 77 3d ca f6 75 bd fd a3 ae be c5 62 cb 3c
       0.06050221 -0.06004981 -0.34109488 0.02482737
0003b0 a8 95 20 3c 9e fe 87 bb 35 55 b1 3c b1 41 b1 bd
       0.009801306 -0.004150226 0.021647075 -0.08655108
0003c0 50 aa cd bd 07 2d 18 3d e8 bd 8d 3d 0e c3 08 3c
       -0.1004225 0.037152316 0.06920987 0.008347286
0003d0 8c bb 59 bd 53 86 9d 3d 74 29 c2 bd 65 da 9d 3e
       -0.053157374 0.07691636 -0.09480563 0.30830684
0003e0 cd 20 50 3d 50 62 a7 3c 6c 99 21 3e 95 60 66 be
       0.05081253 0.020432621 0.15781182 -0.2249778
0003f0 d7 bb f6 3d 26 0f e2 bd 7c 0d ea bd 81 2f 93 3d
       0.12047546 -0.110380456 -0.11428353 0.07186795

mlp.0.bias f4 [100]
000000 e1 1c 85 3e 08 fd 0b 3d 29 58 11 3e 17 ef 81 be
       0.25998595 0.034176856 0.14193787 -0.25377724
000010 cc ff 39 3d be df 80 bd 82 1e 20 bd 75 60 67 bb
       0.045409963 -0.062926754 -0.039091595 -0.0035305296
000020 cd 07 a2 3e c9 12 1c bd 14 87 69 3e 9f b8 cb 3e
       0.31646577 -0.038103852 0.22805434 0.39789292
000030 f1 b4 c4 bd d1 61 0d be 73 35 98 bd a0 0b 00 be
       -0.09604824 -0.13806845 -0.0743207 -0.12504435
000040 d8 89 28 ba f7 8c 3b 3d ea a0 8f be 89 46 b6 bb
       -0.0006429232 0.04578873 -0.28052455 -0.0055626077
000050 58 5b 24 be 9e a8 90 bd 8c 49 ab 3d ae 0b 2c 3e
       -0.1605047 -0.07063411 0.08363637 0.1680133
000060 21 d6 c0 be ac 1a cc 3c a8 16 ab 3d 38 3e 88 3b
       -0.37663367 0.024915062 0.08353931 0.0041578077
000070 63 23 cd 3d 57 e2 88 be 0f eb 61 be 5d d4 35 bf
       0.10016515 -0.26735184 -0.22062324 -0.71027166
000080 e9 a5 9b 3d 8c 5d ab 3d 5f 24 6f 3b 40 96 64 bd
       0.07600004 0.08367452 0.0036490185 -0.055807352
000090 0d 75 64 be 64 26 2d be 3a cf 97 be 3c d3 2c be
       -0.22310276 -0.16909176 -0.2965029 -0.16877455
0000a0 2d fe 67 3e ea 33 9d be de c0 06 bf 15 8f 3c be
       0.22655554 -0.3070367 -0.5263804 -0.18413956
0000b0 e1 e4 8f bc 42 f4 c5 bd bf 5c 1a be a2 76 4f 3e
       -0.017565193 -0.09665729 -0.15074442 0.20260099
0000c0 ff 54 43 3d fb 84 ad bc f0 86 bf bd 48 38 a3 bd
       0.04768848 -0.021181574 -0.09351909 -0.07969719
0000d0 8e 47 48 3f dc a8 ac 3d 47 0e 45 bd cb 3b ee bd
       0.78234184 0.08430645 -0.04810932 -0.11632498
0000e0 93 c7 0d be 30 ed 24 3e 18 6c 9e bc c2 51 15 be
       -0.13845663 0.16106105 -0.019338652 -0.1458197
0000f0 45 bf 00 bf c5 3d 90 bd ab 61 3e 3c 50 76 23 3e
       -0.50291854 -0.070430316 0.011619966 0.15963101
000100 09 1a d9 3d 78 56 fb bd fe 06 0d 3e 7a aa 47 3d
       0.10600669 -0.12272352 0.13772199 0.048746563
000110 38 bc b8 3c 11 d0 a9 bd 71 d2 36 be 35 b1 8e be
       0.022550687 -0.08291639 -0.17853715 -0.27869573
000120 d7 e8 0d bd 23 a7 b9 be 37 e8 6a 3e 70 15 99 3e
       -0.03464588 -0.36260328 0.22940145 0.29899168
000130 60 ac 96 be 11 f9 0a bd 01 ff 2e be 61 e5 44 be
       -0.29428387 -0.033928934 -0.17089464 -0.19228126
000140 98 3e a4 bd 23 97 18 3e 85 0b 5a bf c6 17 68 3e
       -0.08019751 0.14901404 -0.8517383 0.22665319
000150 80 09 1f 3e 1b 91 ef be be 04 dd 3d 55 b4 21 be
       0.15530968 -0.46790394 0.1079192 -0.15791447
000160 82 2d 6e 3e b0 25 f0 bd 0f 12 2c bf 16 35 51 be
       0.23259547 -0.11725938 -0.67215055 -0.20430407
000170 7e 25 a3 3e 38 7b 8f bd 49 cc bd bc 75 0e a1 3d
       0.31864542 -0.07005924 -0.0231687 0.078640856
000180 30 3c 5b be ad 6c 46 be be 79 0c 3e 2b 98 aa bc
       -0.21409678 -0.19377394 0.13718316 -0.020824512

mlp.2.weight f4 [100, 100]
000000 c4 79 47 3c 7f 29 cd bd 8d d6 8e 3d 85 14 e1 bb
       0.012175027 -0.100176804 0.06974516 -0.006868901
000010 91 c1 93 3d 13 a5 b3 3d 13 5f f6 bd 29 a6 92 bd
       0.07214654 0.0877172 -0.12029853 -0.07160599
000020 08 fb 97 bc 48 c1 5e 3b d4 73 4c be 1d 16 71 bc
       -0.018552318 0.0033989716 -0.1996606 -0.014714745
000030 0f 3e 38 be d3 14 1a 3e 7b b8 72 3c c5 34 83 3c
       -0.17992423 0.15047006 0.014814491 0.016016373
000040 5f f3 ce bd f6 91 9b bd 94 03 ae 3d d1 65 01 3e
       -0.10105013 -0.07596199 0.08496776 0.12636496
000050 ee bb a2 3d a6 9d db bc 9f cf e0 bd 85 38 24 3e
       0.07946001 -0.026808571 -0.109771006 0.16037185
000060 48 c7 82 3d 51 53 59 3c 02 a5 0c bd 0b cb a7 bd
       0.06385666 0.013264493 -0.03433705 -0.08193024
000070 8c 59 cf 3d 4c 2b ec 3c d6 94 09 3c 82 dc a7 3d
       0.101245016 0.02882924 0.008397302 0.081963554
000080 43 d2 b9 bd 1a 05 3e 3e bb 45 bb bd fd ac 3e bd
       -0.09073307 0.18556634 -0.091441594 -0.046551693
000090 74 f4 08 bd 54 f6 ad 3c 77 c5 90 bd 2d ac 22 be
       -0.033436254 0.021235622 -0.070689134 -0.15885992
0000a0 b3 6c cc 3b 71 15 11 3e 2d a2 f7 3c 47 b4 93 bd
       0.006238544 0.14168335 0.030228699 -0.072121195
0000b0 5f 46 a4 ba 88 dd 16 3e 1f 06 98 bc 3a 52 47 bd
       -0.0012533179 0.14732945 -0.018557606 -0.0486624
0000c0 92 18 56 3e 1c 6e f4 bd 84 32 13 bd 84 ea b3 3d
       0.2090781 -0.11935064 -0.035936847 0.08784965
0000d0 62 9b 0f 3e ef d7 ef bd 5d c7 cb 3d 06 a7 9f 3d
       0.14024118 -0.11711108 0.09950135 0.07795529
0000e0 14 74 a4 3d d9 67 92 bd 1a cd 1f bd ac 63 72 3d
       0.08029953 -0.071487136 -0.03901396 0.059177086
0000f0 02 a2 5a bc 41 5e 20 3e ab 0d 9b 3d 4d 88 22 3c
       -0.01334429 0.15660955 0.07570966 0.009920192
000100 17 83 1d 3d 9f c2 0a 3e c7 2d 9d bb 91 0e 11 bd
       0.038455095 0.13550805 -0.004796717 -0.035414282
000110 81 1b 07 3e 26 5f 88 3d 93 02 3e 3e 16 41 6b 3e
       0.13194086 0.06658773 0.1855567 0.22974047
000120 a4 e8 e0 3c 58 c4 dc 3d d3 7a a8 bd a7 a8 cb bd
       0.027454682 0.10779637 -0.08226552 -0.09944277
000130 48 f3 fd 3c 7a 78 92 bd 58 40 61 bc d8 42 db 3d
       0.030999795 -0.07151885 -0.013748251 0.10706109
000140 b3 a4 a1 bc 39 34 e5 3d d8 68 80 3d 7b 63 0a bd
       -0.019731855 0.11191601 0.06269997 -0.03378628
000150 43 20 af bd 05 6a e9 3d 3d 23 cc bd 10 dc dc 3d
       -0.08551075 0.11397175 -0.09967659 0.10784161
000160 0b 06 d2 bd 8d 9d ce bd 3a 8b 38 bd e5 7c 34 3d
       -0.10255059 -0.10088644 -0.04505465 0.04406442
000170 01 cb 87 bc 74 9f 17 be ea b1 e5 bd c3 4c ea 3d
       -0.016576292 -0.1480692 -0.11215575 0.114404224
000180 96 cf 89 3d c0 f1 5e bd 6a 2f c8 3c 5d 53 c2 bd
       0.06729047 -0.05442977 0.024436671 -0.094885565
000190 07 6a 0a bd 5d be 5c 3d c9 94 a0 3d 9f c5 81 bc
       -0.03379252 0.053892482 0.078408785 -0.015841303
0001a0 f8 8b 86 3d d7 d5 d1 3c d8 fb 7e 3d 4e 88 c8 bd
       0.06569666 0.025614662 0.062251896 -0.09791623
0001b0 46 ca 8e bd 76 f9 0f bd 70 85 ca bc f9 2d d2 bc
       -0.06972174 -0.035150014 -0.024721831 -0.025656687
0001c0 c6 c3 5d bd 2e 1e b3 3d 0e 5e 45 3d 4d e6 84 ba
       -0.054141782 0.08745991 0.0481854 -0.0010139436
0001d0 0e 80 81 bd fc fb f7 3d 94 20 8c bd 8c 4e c9 3c
       -0.063232526 0.12108609 -0.06842151 0.024573587
0001e0 50 19 a7 bd 33 8a 07 3e 04 3d a2 3c 33 00 a6 3d
       -0.08159125 0.13236313 0.019804485 0.08105507
0001f0 d7 8b 57 bc 9b eb a9 3d b8 78 87 3c 19 25 99 3c
       -0.013155899 0.08296891 0.016537055 0.018694447
000200 a8 56 50 bd 84 3d 94 3c 1c c0 d3 3d 87 73 26 3d
       -0.05086389 0.01809574 0.10339376 0.04063752
000210 93 ad 8d 3d 77 de bf 3d 1d ee ee bb 47 a9 f3 3c
       0.06917872 0.09368604 -0.007291569 0.029743804
000220 15 44 89 bc 24 8d 17 3c a7 60 ba bd 59 08 92 3d
       -0.016756097 0.009249959 -0.09100466 0.071304984
000230 68 fb 61 bc 90 df f3 3d b9 47 80 bd c8 7c 98 3d
       -0.01379285 0.119078755 -0.0626368 0.07445675
000240 dd 34 82 bc 7c 3f 00 3d aa 95 a9 3d 04 7b a8 3d
       -0.015894348 0.031310543 0.08280499 0.08226588
000250 51 7f 96 3d 0b d5 97 3d 24 48 d3 bd 20 e7 0f 3d
       0.073485024 0.074136816 -0.10316494 0.035132527
000260 3f 38 7b bd 7f ff 94 bd d2 d1 8a 3d 9d 4c 81 bd
       -0.061332937 -0.072752945 0.06778301 -0.06313441
000270 49 10 67 bd 86 cd 4a 3c 8d 7d e6 3c 20 d7 2d 3d
       -0.056412015 0.012378102 0.02813604 0.042441487
000280 d2 7e ca bd 64 f0 98 3d 4d 41 30 3d 1f 35 a0 bc
       -0.0988747 0.07467726 0.043031026 -0.01955658
000290 7e 0b 1c 3b 69 e5 20 3d 0f be 8b 3d 40 cc 63 3d
       0.002381056 0.039281283 0.0682336 0.05561471
0002a0 21 a7 87 bb 6e 9f 0c bd b8 75 ea ba 3d ca 0e 3a
       -0.0041397964 -0.03433173 -0.0017887866 0.0005447006
0002b0 c1 2e 9a bc a8 f5 9a bd 71 d7 4d ba c9 c2 26 3d
       -0.018821122 -0.075663865 -0.00078522327 0.040713105
0002c0 af 42 df 3d 69 12 aa ba ee 68 c0 bd e2 6d 5f bc
       0.10901391 -0.0012975457 -0.09395014 -0.013637038
0002d0 45 c1 71 bc a7 6b 92 3d 09 cc d2 bb d5 40 9b 3d
       -0.014755552 0.07149439 -0.0064330143 0.07580725
0002e0 2c 7c 48 bd 55 f4 a6 3c ab 13 ab bd 1b 3c d5 bb
       -0.048946545 0.020380178 -0.08353361 -0.0065074093
0002f0 7b 9a b1 3d 76 dd e5 bb e6 af 58 bd 89 cb 29 3d
       0.08672043 -0.0070149256 -0.052902125 0.041453872
000300 9c fc e3 3c 70 69 9e 3d f2 87 94 3d 57 80 0f bd
       0.027830414 0.07734954 0.07252492 -0.035034504
000310 44 11 76 bd b1 07 c7 bc d6 71 8a 3d 18 f0 1b bd
       -0.06007506 -0.02429566 0.06759994 -0.038070768
000320 7c c4 74 3d d6 29 10 bd 5c 26 44 3d 71 f0 79 3d
       0.059757695 -0.035196148 0.047888145 0.06102032
000330 33 c6 71 bd fd dd 17 bd 62 17 72 3c 4a 18 05 bd
       -0.059026908 -0.03707694 0.014776083 -0.032493867
000340 22 e0 8f 3d 91 eb ce bc 60 49 ef bb 48 cd 37 3d
       0.07025172 -0.025258811 -0.007302448 0.044873506
000350 52 38 3e 3d af 6a fe 3c ce ec e7 3d 2d 8e 48 bd
       0.04644043 0.03105673 0.11324464 -0.048963714
000360 77 42 9b bd b6 a9 b6 bd 31 3a aa 3d a9 85 b5 bb
       -0.075810365 -0.089190885 0.083118804 -0.005539615
000370 b1 e5 c7 bd f8 ef a0 bd ef 5d 36 bd 04 91 6c 3d
       -0.09760607 -0.078582704 -0.044523176 0.057755485
000380 33 8f 0a 3e 88 97 30 bd 8b 80 25 bd ae db c1 3d
       0.13531189 -0.04311326 -0.04040579 0.09465729
000390 22 b2 e3 bc 68 45 e3 3b 4e 59 d4 bd 26 df af bb
       -0.027794901 0.006935764 -0.10368596 -0.0053671775
0003a0 5a b5 00 3d 5b 5c 16 bd 0d 00 d6 bd 2b cc 8d bd
       0.03142295 -0.03670917 -0.104492284 -0.069237076
0003b0 57 4a d3 3d 81 60 52 3d c6 d9 96 3c 23 91 9d bc
       0.103169136 0.051361565 0.01841439 -0.019234246
0003c0 b9 bf 91 bd aa 42 bb bd ea f8 cf bd c1 28 05 3e
       -0.07116646 -0.091435745 -0.101548985 0.13003828
0003d0 53 e3 25 3e 0f 44 0c be 1b 73 8d 3c d6 f0 97 bb
       0.16199999 -0.13697837 0.0172668 -0.004636864
0003e0 0a ce 33 bb ff ff 44 3d be 12 cc 3d 5a ad 8a 3d
       -0.0027436041 0.0480957 0.09964512 0.067713454
0003f0 a8 1f b6 3d 9e 06 e9 bc 3a d4 62 3d ec fc af bc
       0.08892757 -0.028445538 0.055378176 -0.021482907

mlp.2.bias f4 [100]
000000 60 05 93 be a1 d8 8f 3d e4 5f a8 bb 8f e8 2e 3d
       -0.28715038 0.070237406 -0.005138384 0.042702254
000010 70 ad a7 bc d3 93 89 3e 57 64 d5 be 47 ea c7 bd
       -0.020468444 0.26870593 -0.41678116 -0.09761482
000020 a1 c3 8e 3d f5 58 74 3e e1 1a b3 3d 23 38 b7 3d
       0.06970907 0.2386206 0.08745361 0.08946254
000030 02 59 96 3c a3 b9 25 bd 3c b7 9d bd 58 bb 25 bd
       0.01835299 -0.04046024 -0.07700965 -0.040461868
000040 b0 35 0e bd 09 0a 5e bd 8f d6 24 bd 90 5b ce 3c
       -0.03471917 -0.05420879 -0.04024368 0.025190145
000050 ac a2 8f be e5 58 1c 3e 2f 74 63 bd 06 6e 69 bd
       -0.28053796 0.15268286 -0.055530723 -0.056989692
000060 af ce 2c be 77 da df bd 50 3f 20 be 0b dc cc be
       -0.16875719 -0.10930341 -0.15649152 -0.4001163
000070 8f f6 cd bd 40 b5 7e bd b8 88 a7 bc 11 8d a5 bd
       -0.10056793 -0.062184572 -0.020450935 -0.08083547
000080 8f ec 8a bd e8 82 08 3d 2f ab b8 3d 80 89 45 bd
       -0.06783401 0.033327967 0.09017026 -0.048226833
000090 d4 cf d8 bb dc 6d d8 bc df 11 9f bd 6b 97 30 3e
       -0.006616572 -0.026419573 -0.077670805 0.17245261
0000a0 97 da 80 bb 30 43 93 bd 2e 8b 92 be 2b 0b 0a 3d
       -0.003932308 -0.071905494 -0.2862181 0.033702057
0000b0 98 89 86 bd 6b cc 86 bd 0a 89 4d bd 2e 15 eb bd
       -0.06569213 -0.065819584 -0.05017952 -0.11478649
0000c0 13 11 1e be a0 70 1a bc 41 8d 65 3c d8 ba b0 3d
       -0.15436201 -0.009426266 0.014010728 0.086293876
0000d0 62 5b db 3d 01 75 e6 be 46 37 a7 bd f5 bc ad 3d
       0.10710789 -0.45011142 -0.081648394 0.08483306
0000e0 98 ba 17 bd 86 06 4b 3d 41 5b b1 3d 75 c9 82 3d
       -0.037043184 0.049566768 0.086599834 0.06386081
0000f0 39 1b 2e be 9b da 16 3d 80 47 da 3d d2 d7 c5 bd
       -0.17002572 0.036829572 0.10658169 -0.09660305
000100 3d 6f 3d be 45 26 75 bd aa 71 89 bd 29 2b 37 3e
       -0.18499465 -0.05985095 -0.06711133 0.17887558
000110 9d 85 24 be 61 f2 ad 3d af 11 91 3d 40 b9 70 bd
       -0.16066594 0.08493496 0.07083451 -0.05877042
000120 25 7d df 3d 63 52 b4 bd 80 e6 2f be bf b9 46 bd
       0.10912541 -0.088047765 -0.17177773 -0.048516985
000130 51 eb 8f bd 7b 1d fc bb 27 af 5a bf c3 21 26 3e
       -0.07027305 -0.007693944 -0.8542351 0.16223817
000140 24 ff 1b 3e de 0e fa bd 27 c5 85 bd 53 7a 14 3e
       0.15234047 -0.12209867 -0.065317445 0.14499788
000150 93 f3 b5 bd 63 54 ad 3d 28 57 4a 3d 99 c3 10 3e
       -0.08884349 0.08463361 0.049399525 0.14137115
000160 d7 85 f0 3d a9 47 45 bc 8a 5f ae bd 0d 00 f0 3c
       0.11744278 -0.012041011 -0.085143164 0.0292969
000170 98 f9 89 3d 3c df 76 3d 4f b9 aa bc ee 6f 43 bd
       0.06737059 0.060271487 -0.020840315 -0.047714166
000180 53 28 b4 bd 7f 19 20 3e b7 ee 86 bd 2a 2e a2 bc
       -0.08796754 0.15634726 -0.065885 -0.019797403

mlp.5.weight f4 [1, 100]
000000 81 5d 3c 3f 6e d5 85 3d dc 42 d1 be 32 fb da be
       0.73580176 0.06534849 -0.40871322 -0.42769772
000010 b6 5b 25 bf 40 6c 0c bf 7a b8 3f 3f ef 50 1b bf
       -0.64593065 -0.54852676 0.74890864 -0.6067037
000020 b7 e6 0f bf 7b 77 4a 3f d7 70 4f bf e6 25 5a bf
       -0.5621142 0.7908856 -0.81031555 -0.8521408
000030 b3 b3 09 3f b1 f9 13 be 93 da 96 3e 93 a6 b1 be
       0.53789824 -0.14450718 0.29463634 -0.346974
000040 ed 79 06 bf 9f b5 0e bf f8 6f 18 bf 65 ae 26 3f
       -0.52529794 -0.5574588 -0.5954585 0.65109855
000050 3a bf 06 3f e2 f9 dd be 30 70 89 3e b1 41 9c be
       0.5263554 -0.43354708 0.26843405 -0.3051887
000060 d7 a5 c8 3e 9a 26 28 3d 4c d4 ba 3e 07 08 96 3f
       0.39189026 0.04105244 0.36490095 1.17212
000070 93 65 8a be 07 03 2c bf b0 a0 b9 be 33 f5 17 3e
       -0.2703062 -0.6719212 -0.36255407 0.1483963
000080 bd d0 60 3f a3 e3 eb 3e ce 48 58 3e 37 18 2f be
       0.8781851 0.4607211 0.21121523 -0.17099081
000090 fe 7d 11 3e b4 39 9e be 50 fe 74 bd a1 29 f4 be
       0.14208218 -0.309034 -0.059812844 -0.4768801
0000a0 67 6c e4 3d d8 1b 97 3e 46 39 2d 3f 71 6c da be
       0.111534886 0.2951343 0.6766552 -0.4266086
0000b0 63 c7 fd be 67 db fe be be bf d7 be 3a d2 a5 3e
       -0.49566182 -0.49776766 -0.42138475 0.32386953
0000c0 74 77 26 3f 4b 01 3e be ed 77 db bd f4 26 80 be
       0.6502602 -0.1855518 -0.107162334 -0.2502972
0000d0 dd d7 5d 3f e9 2a ab 3f 35 b0 c3 3e 43 ae 42 3f
       0.86657506 1.337247 0.38220373 0.7604715
0000e0 f1 59 08 3e 45 50 9e be ad c1 86 3d f9 9c eb be
       0.1331556 -0.30920616 0.065799095 -0.46018198
0000f0 e3 be 37 3f 76 da 93 bd 61 79 6f bf 1b 19 aa 3e
       0.71775645 -0.072194025 -0.93544585 0.3322228
000100 2a 82 c9 3e b1 fa d3 3e 95 ff 4a 3e 7a c4 02 bf
       0.3935712 0.414022 0.1982406 -0.5108105
000110 75 35 55 3e e4 01 0d 3e c4 99 1e bf b4 a2 89 3e
       0.20821173 0.13770252 -0.6195338 0.26881945
000120 69 b7 1e 3f b0 5d ef 3d 56 c0 ea be 29 aa fd 3e
       0.6199861 0.11687791 -0.45849866 0.49543884
000130 a5 9f 31 3f 18 7f 5d 3e e8 63 0b 40 e2 dd ed be
       0.69384223 0.21630514 2.1779728 -0.46458346
000140 12 e8 4d 3f cc 17 1a bf c5 b2 c7 be f8 19 a2 be
       0.80432236 -0.6019256 -0.39003578 -0.31660438
000150 b5 b0 de be b6 79 aa 3e 2a 93 fb be 61 54 c9 be
       -0.43494192 0.33295983 -0.49135715 -0.39322188
000160 17 e4 1a bf a1 8f f2 3e 45 d2 1e bf da 6c 7c 3d
       -0.6050429 0.47375205 -0.62039596 0.061627246
000170 f4 09 d4 be 2b 0f 0b bf 0d ef 24 be e7 d7 42 bf
       -0.41413844 -0.5432002 -0.16106816 -0.7611069
000180 41 ce 63 be 5a b1 45 3f d5 15 1a bd f1 c4 5e bd
       -0.22246648 0.7722374 -0.037618477 -0.054387037
