models/weights_bak/layers_50_drop_lr_1e-05.pt (torch, 8447 bytes, 3 tensors)

mlp.0.weight f4 [50, 31]
-0.20774658 -0.18991731 0.07031238 0.19561373 0.49287212 0.094700426 0.17552024 0.22989093
-0.13426773 -0.0015711269 0.03638507 -0.11425547 0.026957465 0.06474595 0.025823012 -0.39746034
-0.15575913 -0.14977811 -0.13894574 -0.014324805 -0.22709575 -0.0046656546 0.1511771 0.16303483
-0.17964701 0.08881175 0.10181391 -0.05822405 -0.09492221 0.08563769 0.13292943 0.18430737
0.15492085 -0.2747974 -0.08371265 0.010879976 0.079905406 0.14786854 0.009397487 0.16456455
0.31373417 0.10302904 -0.22432218 0.11682549 0.09663447 -0.13266991 0.06822696 -0.13708256
-0.019105164 0.21773978 0.13949858 0.04473602 0.036476105 0.07578505 -0.023085328 0.0874174
0.031292066 -0.1941739 -0.09005177 0.17762569 0.13399146 0.11623729 -0.030354654 -0.13425425
-0.17853186 0.009819069 -0.038282774 -0.17435968 -0.0072632185 0.0843965 0.024717765 0.17793766
-0.16847642 0.033621408 0.008365673 -0.075597964 -0.21946001 -0.11708378 -0.109191164 -0.030931495
-0.18617219 -0.058005504 0.20199965 0.13489525 0.009720168 0.21787217 -0.22506723 -0.053095445
-0.021731589 -0.117494166 -0.019981185 0.039500408 -0.08774752 0.07459473 -0.17169675 0.06933027
0.011695489 0.14225408 0.057636164 -0.08284342 0.013746491 -0.14350379 -0.22109632 0.24885583
0.047326382 -0.1150094 -0.005574677 -0.15932722 0.100327715 -0.020144034 0.017892478 0.18935648
0.08786354 0.1281703 0.16728017 -0.5968459 0.027733348 -0.5040188 0.02493513 -0.46229815
0.044343166 -0.032440826 -0.03267912 0.24241458 -0.04739695 -0.009166685 -0.030811202 -0.006137432
-2.138062 1.1853207 0.03941346 -0.034554463 -0.09148092 -0.012315803 -0.0491972 0.05126355
0.034814622 0.011046993 -0.00039286772 0.024488628 0.021844802 -0.11583115 -0.050295603 0.003447303
-0.06991033 -0.0494533 -0.04000957 0.14023907 0.0038666998 -0.058150712 -0.24412894 0.16008142
0.82063824 -0.09051661 0.14262517 0.051399287 -0.29026026 0.13484794 0.022203634 0.29700807
-0.29678622 0.14854394 -0.2598705 -0.20283592 -0.16973755 0.11862138 0.16414253 -0.0484025
0.2492474 -0.0348003 0.09219971 -0.28210115 -0.28619602 0.044264764 -0.012930343 -0.10872476
-0.087224156 0.033972025 0.29206938 -0.47887042 0.10197424 -0.007036129 -0.02765498 0.4627236
-0.07336109 -0.12703378 0.08006573 -0.10725768 -0.15127939 0.11776986 -0.036598753 -0.021674
0.002282522 0.12186507 0.15498137 0.019782487 0.108424045 0.13392991 -0.10646685 0.070064016
0.22948885 0.20152733 -0.12601307 -0.015137607 0.044757776 0.031320825 -0.02702519 -0.18308403
-0.050558317 -0.06285481 -0.06870977 0.081910476 -0.12813693 -0.21663518 -0.06356342 0.07702072
-0.18158701 0.24548326 0.32889006 -0.25337666 -0.019403286 0.26753956 -0.30627137 -0.017244278
0.017707052 -0.19163728 -0.2104947 0.043869242 -0.11675073 0.12194665 -0.07759139 -0.05420107
0.04205867 -0.17087337 0.07292952 -0.07526128 -0.37853467 0.22105415 0.295781 -0.062133227
0.02877871 -0.11575809 -0.023296254 -0.2859616 0.2396742 0.50061464 0.014836051 -0.058097057
-0.25407898 0.10699182 0.0012308232 -0.18133849 -0.08869056 0.11969309 -0.074205525 -0.01975479
00000000: 85bb 54be af79 42be f0ff 8f3d f74e 483e
00000010: bc59 fc3e 4cf2 c13d 94bb 333e 8768 6b3e
00000020: 7b7d 09be 45ee cdba 8308 153d c6fe e9bd
00000030: e7d5 dc3c 8699 843d c88a d33c ec7f cbbe
00000040: 527f 1fbe 6f5f 19be cb47 0ebe 96b2 6abc
00000050: ca8b 68be 59e2 98bb 2bce 1a3e 9af2 263e
00000060: 63f5 37be efe2 b53d d083 d03d 577c 6ebd
00000070: 9366 c2bd d062 af3d a71e 083e 12bb 3c3e
00000080: 92a3 1e3e 3fb2 8cbe 8a71 abbd ed41 323c
00000090: 72a5 a33d da6a 173e ebf7 193c 9c83 283e
000000a0: c4a1 a03e e400 d33d b7b4 65be 3442 ef3d
000000b0: 4be8 c53d 9fda 07be 94ba 8b3d 5f5f 0cbe
000000c0: 6f82 9cbc 2df7 5e3e b7d8 0e3e 1e3d 373d
000000d0: f867 153d 3135 9b3d 711d bdbc e507 b33d
000000e0: 1c2c 003d 86d5 46be 106d b8bd 82e3 353e
000000f0: 0f35 093e d10d ee3d 53aa f8bc f279 09be
00000100: 0ed1 36be 29e0 203c 66ce 1cbd 588b 32be
00000110: 4b00 eebb 12d8 ac3d e97c ca3c 4a35 363e
00000120: 1585 2cbe 9ab6 093d 2d10 093c 1bd3 9abd
00000130: 20ba 60be 9fc9 efbd 9e9f dfbd 0c64 fdbc
00000140: eca3 3ebe 2e97 6dbd ffd8 4e3e fb21 0a3e
00000150: 5741 1f3c e219 5f3e 0678 66be 9c7a 59bd
00000160: 7206 b2bc c8a0 f0bd 95af a3bc 2ecb 213d
00000170: f9b4 b3bd 1fc5 983d 46d1 2fbe 07fd 8d3d
00000180: 709e 3f3c 0eab 113e e613 6c3d d0a9 a9bd
00000190: f638 613c a8f2 12be 1367 62be 10d4 7e3e
000001a0: 4fd9 413d 0c8a ebbd c8ab b6bb ad26 23be
000001b0: 9e78 cd3d 1a05 a5bc 3f93 923c aae6 413e
000001c0: cdf1 b33d 133f 033e 7e4b 2b3e e5ca 18bf
000001d0: 0c31 e33c 6007 01bf c244 cc3c 58b2 ecbe
000001e0: 2ea1 353d ace0 04bd 8ada 05bd 873b 783e
000001f0: 4e23 42bd dd2f 16bc c667 fcbc 831c c9bb
00000200: 02d6 08c0 97b8 973f 0270 213d fb88 0dbd
00000210: 595a bbbd 39c8 49bc 0183 49bd baf9 513d
00000220: c799 0e3d 72fe 343c d0f9 cdb9 609c c83c
00000230: dff3 b23c e238 edbd c302 4ebd 26ec 613b
00000240: 262d 8fbd 8b8f 4abd 13e1 23bd d59a 0f3e
00000250: 7568 7d3b 712f 6ebd f0fc 79be 62ec 233e
00000260: 5915 523f c660 b9bd 550c 123e 0f88 523d
00000270: fe9c 94be 9415 0a3e 65e4 b53c 7111 983e
00000280: 5df4 97be e71b 183e bf0d 85be 38b4 4fbe
00000290: aecf 2dbe c4ef f23d fb14 283e b341 46bd
000002a0: b63a 7f3e c28a 0ebd 34d3 bc3d 906f 90be
000002b0: 4988 92be f84e 353d cad9 53bc 16ab debd
000002c0: 94a2 b2bd 4026 0b3d 1e8a 953e 812e f5be
000002d0: dfd7 d03d 548f e6bb b28c e2bc 1cea ec3e
000002e0: 573e 96bd 2515 02be 80f9 a33d eaa9 dbbd
000002f0: fce8 1abe 5331 f13d 93e8 15bd ac8d b1bc
00000300: 5d96 153b 6594 f93d 70b3 1e3e e20e a23c
00000310: 6d0d de3d ec24 093e 4b0b dabd b97d 8f3d
00000320: 20ff 6a3e 2e5d 4e3e 9209 01be ba03 78bc
00000330: ee53 373d 444a 003d ee63 ddbc 617a 3bbe
00000340: 3d16 4fbd 06ba 80bd b5b7 8cbd aec0 a73d
00000350: 5436 03be 9dd5 5dbe 8a2d 82bd 0abd 9d3d
00000360: f2f1 39be f75f 7b3e 4764 a83e 96ba 81be
00000370: a4f3 9ebc f2fa 883e 9acf 9cbe df43 8dbc
00000380: 610e 913c 903c 44be ec8b 57be 3cb0 333d
00000390: 021b efbd 2abf f93d 3ce8 9ebd f101 5ebd
000003a0: b645 2c3d 6ef9 2ebe 125c 953d 9622 9abd
000003b0: 4ccf c1be 055c 623e 9b70 973e 697f 7ebd
000003c0: 54c1 eb3c 9412 edbd c9d7 bebc 8f69 92be
000003d0: 276d 753e 4828 003f e812 733c 2ef7 6dbd
000003e0: a416 82be 871e db3d 9353 a13a ccb0 39be
000003f0: 65a3 b5bd a721 f53d 11f9 97bd ccd4 a1bc

mlp.0.bias f4 [50]
-0.43745878 0.25969374 0.19270638 -0.3763166 0.88094294 0.34333387 0.20693088 0.56790656
-0.043919336 -0.10582263 0.1979232 0.22471508 0.010472818 -0.348066 -0.046069857 0.16886464
-0.4306218 0.06819805 0.07450975 -0.1467087 0.022767758 -0.50346565 -0.15925291 -0.13664705
-0.16657934 0.041334525 0.0095458515 -0.19809762 -0.19841552 -0.22533092 0.042824253 -0.033751044
-0.62859875 -0.06969216 -0.10683657 -0.21951431 -2.710193 -0.8595578 0.45895413 -0.2856175
-0.11660558 -0.02223039 0.025077289 -0.02592389 -0.05998366 0.14664783 -1.1816202 0.044118285
-0.09392082 -0.16653427
00000000: 99fa dfbe 94f6 843e d254 453e 92ac c0be
00000010: 7a85 613f 75c9 af3e b0e5 533e 5362 113f
00000020: c3e4 33bd 89b9 d8bd 61ac 4a3e b61b 663e
00000030: 2f96 2b3c b535 b2be bfb3 3cbd daea 2c3e
00000040: 767a dcbe 6bab 8b3d 9198 983d ce3a 16be
00000050: 7383 ba3c 20e3 00bf 3213 23be 34ed 0bbe
00000060: c693 2abe 644e 293d 3466 1c3c 1ada 4abe
00000070: 702d 4bbe 26bd 66be 7c68 2f3d 893e 0abd
00000080: d9eb 20bf c3ba 8ebd 22cd dabd 5cc8 60be
00000090: cd73 2dc0 fb0b 5cbf 09fc ea3e 753c 92be
000000a0: e8ce eebd 821c b6bc e36e cd3c 565e d4bc
000000b0: 6db1 75bd d92a 163e 553f 97bf 60b5 343d
000000c0: 8f59 c0bd f687 2abe

mlp.2.weight f4 [1, 50]
0.75482434 -0.47521642 -0.29714125 -0.82686734 1.648394 -0.69908524 -0.18181197 -0.6979484
-0.5790524 0.56054384 -0.67566574 -0.6072452 -0.53530174 0.8171407 -0.42200705 -0.5461918
-0.89432406 0.57564294 -0.40636548 0.57678664 -0.28376564 5.7513576 0.7537562 1.1568363
0.5284963 -0.6292133 -0.1596537 0.67975503 0.6547427 -1.4451373 -0.512454 0.8841374
-1.0195702 0.65891904 -0.39653644 0.73022807 3.2909606 -1.3420854 0.9303955 0.8761008
2.3329077 0.67847633 0.96625155 0.6988598 0.53803444 -0.48103294 -1.8406804 -0.58923626
-0.6763383 -0.56646067
00000000: 2b3c 413f 914f f3be e622 98be 94ad 53bf
00000010: 93fe d23f 40f7 32bf eb2c 3abe bfac 32bf
00000020: c73c 14bf cd7f 0f3f 6ef8 2cbf 6c74 1bbf
00000030: 8909 09bf 2230 513f 4f11 d8be 3ad3 0bbf
00000040: 6cf2 64bf 565d 133f 230f d0be 4aa8 133f
00000050: bb49 91be 1f0b b840 2bf6 403f 3613 943f
00000060: 894b 073f 1f14 21bf 427c 23be 6d04 2e3f
00000070: 389d 273f 42fa b8bf 2f30 03bf d456 623f
00000080: 4781 82bf ebae 283f d306 cbbe 3af0 3a3f
00000090: 199f 5240 74c9 abbf 662e 6e3f 2448 603f
000000a0: 5c4e 1540 a0b0 2d3f 435c 773f 7ae8 323f
000000b0: a0bc 093f f349 f6be 6a9b ebbf 30d8 16bf
000000c0: 8224 2dbf 9103 11bf
