models/weights_bak/layers_200_200_200_drop_lr_1e-06.pt (torch, 350985 bytes, 7 tensors)

mlp.0.weight f4 [200, 31]
0	0xbe567b3e	-0.2094545
1	0xbdff7921	-0.124742754
2	0xbe0a8dcd	-0.13530655
3	0xbe45d043	-0.19317727
4	0x3d103f3e	0.035216562
5	0xb86fb7b2	-5.715312e-05
6	0xbe26cb97	-0.16288601
7	0xbe10ee19	-0.14153327
8	0x3e493af6	0.19651398
9	0x3dd0f9b3	0.10203876
10	0xbdd91853	-0.106003426
11	0x3e3e1a87	0.18564807
12	0xbea53096	-0.3226363
13	0xbe80bc17	-0.251435
14	0xbe2e963d	-0.17049499
15	0x3e9c13db	0.304839
16	0x3e2c2447	0.16810714
17	0x3e515896	0.20443949
18	0xbd89c6d6	-0.06727378
19	0x3d024a67	0.031809237
20	0xbe1c24b6	-0.15248379
21	0x3cfa5b99	0.030561255
22	0x3e7c6183	0.24646573
23	0x3e30f663	0.17281489
24	0x3e125688	0.14290822
25	0xbdd55d3a	-0.10418172
26	0x3c0f32d2	0.008740144
27	0x3e0fe170	0.14050841
28	0xbd98f370	-0.07468307
29	0xbe869eb2	-0.2629295
30	0x3d8ef485	0.06980232
31	0x3e5a7bd2	0.21336296
32	0xbdb92a20	-0.09041238
33	0x3dd23409	0.10263831
34	0xbbfdf97f	-0.0077506895
35	0xbf68e499	-0.9097381
36	0x3f6c5341	0.92314535
37	0x3c511230	0.012760684
38	0xbd282289	-0.04104856
39	0x3acf8ae9	0.0015834245
40	0xbd3c3a38	-0.04595396
41	0x3d902cf4	0.07039824
42	0xbddf6e86	-0.109097525
43	0x3d56a950	0.052407563
44	0xbde2a368	-0.110663235
45	0xbe0e9b49	-0.13926424
46	0x3d46ae1b	0.048505884
47	0x3e4e4e56	0.2014707
48	0x3db1b700	0.086774826
49	0xbcf78e51	-0.030219229
50	0xbe44aba9	-0.19206108
51	0x3d9fa3ce	0.07794915
52	0x3df1c11e	0.11804412
53	0x3e749002	0.2388306
54	0x3e38f21d	0.18061109
55	0xbe244b5b	-0.16044371
56	0xbd9158d0	-0.07097018
57	0xbe105ba1	-0.14097454
58	0x3d9ad1ab	0.07559522
59	0xbdc4ac4d	-0.09603176
60	0x3e5fcdb1	0.21855809
61	0x3dcb99f2	0.09941472
62	0xbdb6593f	-0.08903741
63	0xbd3690ed	-0.044571806
64	0xbc395f62	-0.011314245
65	0x3c99bb45	0.018766055
66	0x3f172623	0.59042567
67	0x3f0bec46	0.546574
68	0xbd6cc286	-0.0578027
69	0xbd6f2281	-0.058382515
70	0xbe77f2b3	-0.24213676
71	0x3c94711c	0.018120341
72	0xbd635eda	-0.05551038
73	0x3d7f8d6e	0.062390737
74	0xbd7b2f1b	-0.06132422
75	0x3c82ddef	0.015974967
76	0x3d26ae7a	0.040693738
77	0xbd89de31	-0.06731833
78	0x3db1c5fd	0.086803414
79	0x3b91840d	0.0044407905
80	0xbd7c2ed7	-0.061568107
81	0x3b690483	0.0035555668
82	0xbbd285eb	-0.0064246557
83	0x3dc0252b	0.09382089
84	0x3b0141a6	0.0019722967
85	0x3e810943	0.2520238
86	0xbd04f343	-0.032458555
87	0x3e06c1e2	0.13159898
88	0x3c9e6e9e	0.019339856
89	0x3d3dc711	0.046332423
90	0xbdee518a	-0.11636646
91	0xbd81a7cd	-0.063308336
92	0xbd8c2fd3	-0.06845059
93	0xbd620c26	-0.055187367
94	0xbc6da289	-0.014504083
95	0xbe1f79ba	-0.15573779
96	0xbe5cb642	-0.21553901
97	0xbe21aac2	-0.15787795
98	0x3e76881b	0.24075358
99	0xbe2bbada	-0.16770497
100	0x3db9d6a0	0.090741396
101	0x3d1a841e	0.037723653
102	0x3c654b22	0.013994964
103	0x3d33c9e7	0.04389372
104	0x3d2aa942	0.041665323
105	0x3d921baa	0.07134183
106	0x3da45a0c	0.080249876
107	0xbe6d3502	-0.23164752
108	0xbe88e0f2	-0.2673412
109	0xbc764b13	-0.0150325475
110	0xbd458113	-0.048218798
111	0x3dd14a4f	0.10219251
112	0x3e411dcf	0.18859027
113	0xbd9b67b5	-0.0758814
114	0xbdee0978	-0.116229
115	0x3e13bd73	0.14427738
116	0xbe43f410	-0.19136071
117	0xbe16b2df	-0.14716671
118	0xbdc5174b	-0.096235834
119	0x3d3389e1	0.043832663
120	0xbd03b1c6	-0.03215196
121	0x3e0c04e7	0.13673745
122	0x3e14fe62	0.14550164
123	0xbb89258f	-0.0041853855
124	0xbdda7db7	-0.106685095
125	0xbb909d3a	-0.004413274
126	0xbbdfa974	-0.0068256203
127	0xbd94c5a7	-0.07264262
128	0xbea351f8	-0.31898475
129	0x3e31b570	0.17354369
130	0x3da7b5e9	0.081889935
131	0x3d6efabb	0.058344584
132	0xbeb22dad	-0.34800473
133	0x3e45b32a	0.19306627
134	0x3d39660f	0.045263346
135	0xbe44d42b	-0.1922156
136	0x3e49da9c	0.19712299
137	0x3d7eb8d7	0.062187996
138	0xbe903dcd	-0.2817215
139	0xbd2e2060	-0.042511344
140	0xbe23516e	-0.15949032
141	0x3c52de2b	0.012870352
142	0xbe6b3346	-0.22968778
143	0xbc1334c4	-0.008984748
144	0x3d32af94	0.043624476
145	0x3d9982b8	0.07495636
146	0xbdd0439f	-0.10169148
147	0xbe738ceb	-0.23784225
148	0xbdb7f5bd	-0.08982418
149	0xbdd23fba	-0.10266061
150	0xbe45d6c3	-0.19320206
151	0xbd9c5784	-0.0763388
152	0x3d2e5269	0.04255906
153	0xbe200892	-0.1562827
154	0x3e48f360	0.1962409
155	0x3da1fd51	0.079096444
156	0x3e410bd0	0.18852162
157	0xbe06a1a7	-0.13147603
158	0x38d64c7d	0.00010218562
159	0xbd4317e9	-0.047630224
160	0x3d3e884c	0.0465167
161	0x3d9a284b	0.075272165
162	0xbd0fe23b	-0.03512786
163	0x3e6c6e4e	0.23088953
164	0x3d5da930	0.054116428
165	0xbd44a273	-0.048006486
166	0x3e11f812	0.14254788
167	0xbe224a4b	-0.15848653
168	0x3e18e179	0.14929761
169	0xbe53ee52	-0.2069638
170	0x3e69bd92	0.22826222
171	0x3d988d18	0.074487865
172	0xbe1f2aaa	-0.15543619
173	0x3de074ea	0.109597996
174	0xbc8d4d22	-0.017248694
175	0x3e448f43	0.19195275
176	0xbe239aed	-0.15977068
177	0xbcdd2274	-0.026993968
178	0x3d67ef1b	0.056624513
179	0xbe482122	-0.19543889
180	0x3e2b923e	0.16755006
181	0xbc8dc2e0	-0.017304838
182	0xbe55d99d	-0.20883794
183	0x3e448a92	0.19193485
184	0x3dab0cc0	0.08352041
185	0xbcb111eb	-0.02161499
186	0xbe9281d6	-0.28614682
187	0xbdbddf95	-0.092711605
188	0xbe4ee5e0	-0.20204878
189	0x3e66c67b	0.22536652
190	0x3e6032b7	0.21894346
191	0x3d5b089e	0.053475015
192	0xbe80967e	-0.25114816
193	0xbd8efa8a	-0.0698138
194	0x3e8226ae	0.25420135
195	0x3de06da4	0.10958412
196	0x3b97ffc7	0.0046386453
197	0x3dcafab8	0.09911102
198	0xbd7663eb	-0.060153883
199	0xbbf98a81	-0.007615388
200	0xbd5805db	-0.05273996
201	0xbe47dcec	-0.19517869
202	0x3bcd720b	0.0062696985
203	0xbdf2b1bf	-0.118503086
204	0x3e19b3a9	0.15009941
205	0x3ce9cd34	0.028540231
206	0xbdbfa4d3	-0.093576096
207	0xbe104a89	-0.14090933
208	0xbed39012	-0.41320854
209	0xbe97b2c4	-0.29628575
210	0xbe118079	-0.14209165
211	0x3de56306	0.11200528
212	0xbe6c56db	-0.23080008
213	0xbd48f94d	-0.049065877
214	0x3e36b800	0.17843628
215	0x3da0816e	0.07837187
216	0xbda6ebb8	-0.081504285
217	0x3e55cffd	0.20880122
218	0x3e793e2f	0.24340127
219	0x3e60b501	0.21944048
220	0x3d7d6b39	0.061869834
221	0xbee0d1a3	-0.4390994
222	0x3f185a1a	0.59512484
223	0xbdaf270b	-0.08552369
224	0x3d88d504	0.066812545
225	0xbd5a4e36	-0.053297244
226	0xbe7b4948	-0.24539673
227	0xbe52a1b1	-0.20569493
228	0x3c8fc1f6	0.017548542
229	0xbcdf3d33	-0.027250862
230	0xbc38344e	-0.011242939
231	0xbd43ee10	-0.047834456
232	0xbe5a9b4c	-0.21348304
233	0xbdc557d5	-0.09635893
234	0xbe3d5c9c	-0.18492359
235	0xbe0b6970	-0.1361444
236	0xbdd8ce15	-0.10586182
237	0x3e4facbf	0.20280741
238	0x3dba7061	0.09103466
239	0x3d90210c	0.07037553
240	0x3e2b9a02	0.16757968
241	0x3cf42d30	0.029806703
242	0x3b95b417	0.0045685875
243	0xbd82dacb	-0.06389388
244	0xbbcd64aa	-0.0062681036
245	0xbd3184ac	-0.043339416
246	0xbdfee72d	-0.12446437
247	0x3e20c98c	0.15701884
248	0xbb70ad82	-0.0036724512
249	0x3d0a5ee5	0.033781905
250	0xbd8d7b9c	-0.06908342
251	0xbd2b6b84	-0.04185058
252	0x3dbf0126	0.09326391
253	0xbe667848	-0.22506821
254	0xbd8d5354	-0.06900659
255	0xbcf23c35	-0.029569725

mlp.0.bias f4 [200]
0	0xbe010a6c	-0.12601632
1	0xbdcf54ff	-0.101236336
2	0x3e31aaee	0.17350361
3	0xbdae7406	-0.085182235
4	0xbe09cc96	-0.1345695
5	0x3cb19369	0.021676736
6	0xbe524032	-0.20532301
7	0xbdf24594	-0.11829677
8	0x3d899790	0.067183614
9	0xbe02040c	-0.12696856
10	0x3ddfd7fb	0.10929867
11	0xbdfade68	-0.12249452
12	0xbeb664c6	-0.3562376
13	0xbe1ee906	-0.15518579
14	0x3d379765	0.044822115
15	0x3b55a92d	0.0032602057
16	0x3d9cf51c	0.076639384
17	0xbb44ffa4	-0.00300596
18	0x3b3f7c43	0.0029218353
19	0xbe2ba61c	-0.16762584
20	0x3df63bcb	0.12023123
21	0xbda1ebbf	-0.07906293
22	0x3cd0926b	0.025460443
23	0xbeb07a88	-0.34468484
24	0xbd8a5cad	-0.06755958
25	0x3c0b66bc	0.0085083805
26	0x3d46912a	0.048478283
27	0x3cf84480	0.0303061
28	0xbe844377	-0.25832722
29	0xbdc45d75	-0.09588138
30	0xbd36fa7a	-0.044672467
31	0xbe493466	-0.19648895
32	0xbd32b924	-0.043633595
33	0x3e014271	0.12623002
34	0xbe69e903	-0.22842793
35	0x3d907da9	0.07055218
36	0xbdc4b5da	-0.09604998
37	0xbe476231	-0.19471051
38	0xbddc02ab	-0.107426964
39	0x3cd7309f	0.026268302
40	0x3dd73cf5	0.105096735
41	0xbe7e572d	-0.24837942
42	0xbd7f03fb	-0.062259655
43	0xbdcfb148	-0.101412356
44	0xbe3cd72d	-0.18441458
45	0x3dc74c81	0.09731389
46	0xbe23af49	-0.15984835
47	0x3d1208e7	0.03565302
48	0xbe92965e	-0.28630346
49	0x3ca071eb	0.01958557
50	0xbe6c8e1f	-0.2310109
51	0xbda9c304	-0.082891494
52	0xbce2267f	-0.027606247
53	0xbd0915c5	-0.033468027
54	0xbcd8fecd	-0.026488686
55	0xbe0c0552	-0.13673905
56	0x3d1f76c9	0.03893164
57	0xbe54e555	-0.20790608
58	0x3d945e96	0.07244603
59	0xbcc1819e	-0.023621377
60	0xbf506125	-0.8139823
61	0x3d68a38c	0.056796595
62	0xbdd71d76	-0.10503666
63	0xbd9cf4e7	-0.07663899
64	0xbe781a6b	-0.24228828
65	0xbceacc2c	-0.02866181
66	0x3ce939ca	0.028469939
67	0xbe77817f	-0.24170493
68	0xbd56da95	-0.05245455
69	0x3dc8f8e5	0.09813098
70	0xbe0c008d	-0.13672085
71	0xbdf3436c	-0.11878094
72	0x3b55e006	0.003263475
73	0xbe7b59ef	-0.24546026
74	0xbe3a8e48	-0.18218338
75	0xbe074dff	-0.13213347
76	0xbeb8fc6d	-0.36130086
77	0x3e5b3801	0.21408083
78	0xbe1c4ab2	-0.15262869
79	0xbe7e79a1	-0.24851085
80	0xbd86456a	-0.065562084
81	0xbe8128ab	-0.2522634
82	0x3dfdc467	0.123909764
83	0x3a372e97	0.00069878384
84	0xbdc667ea	-0.09687789
85	0x3e21628b	0.15760247
86	0xbd87ee80	-0.06637287
87	0xbe67639e	-0.22596595
88	0xbe645433	-0.22297744
89	0xbde5b4da	-0.11216135
90	0x3d4a6ccb	0.04942016
91	0xbda507a9	-0.08058102
92	0xbd971516	-0.07377069
93	0x3ddcfb46	0.10790114
94	0xbde9806c	-0.11401448
95	0xbe4756b7	-0.19466673
96	0x3d819583	0.06327345
97	0xbea0f019	-0.3143318
98	0xbe51c9f1	-0.20487191
99	0x3cf6101b	0.030036977
100	0xbe3a5ec2	-0.1820021
101	0xbca4d465	-0.020120809
102	0xbebd90ea	-0.37024623
103	0xbdba2bc1	-0.09090377
104	0xbec9698d	-0.3933834
105	0xbe7ba25b	-0.24573652
106	0xbe47e766	-0.19521865
107	0xbd960962	-0.073260084
108	0xbd2b6f47	-0.04185417
109	0xbe801b4f	-0.25020835
110	0xbe298b24	-0.16556984
111	0x3d137805	0.03600313
112	0x3e17b958	0.14816797
113	0xbec2a712	-0.3801809
114	0xbeb3241f	-0.34988496
115	0xbe554717	-0.208279
116	0xbe2c22e8	-0.1681019
117	0xbe32e82e	-0.17471382
118	0x3e049176	0.12946114
119	0xbea6ed6b	-0.3260301
120	0x3c218e2d	0.0098605575
121	0x3de31709	0.11088378
122	0xbe30d576	-0.17268929
123	0xbe7073d9	-0.23481692
124	0xbe6d8ac1	-0.23197462
125	0xbe0303b2	-0.12794378
126	0xbdcf6948	-0.10127503
127	0xbd872fd1	-0.06600917
128	0xbdd3ae3e	-0.103359684
129	0xbe893eee	-0.26805824
130	0x3d628943	0.055306684
131	0xbe47b8c2	-0.19504073
132	0xbdfbc0df	-0.122926466
133	0xbdc86169	-0.097842045
134	0xbe7d6139	-0.24744119
135	0xbe54f939	-0.20798196
136	0xbe7ade29	-0.2449881
137	0xbe1ae50d	-0.15126438
138	0xbe9552c6	-0.29164714
139	0xbe6f2056	-0.23352179
140	0xbe784f3f	-0.2424898
141	0xbeba3acf	-0.36372992
142	0x3b8eacba	0.0043540867
143	0x3e35a7b4	0.17739755
144	0xbdc8ad36	-0.09798662
145	0xbeaefcaa	-0.34177142
146	0xbd9d9644	-0.076946765
147	0xbe7edd7a	-0.24889174
148	0xbeeb28af	-0.45929477
149	0xbe29a50c	-0.16566867
150	0xbe1ecd6e	-0.15508053
151	0xbe9788f6	-0.2959668
152	0xbe2c505c	-0.1682753
153	0xbd2d4c04	-0.042308822
154	0x3d1e7426	0.038684987
155	0xbe3b5201	-0.18293001
156	0x3de9c065	0.114136495
157	0xbdfa05eb	-0.1220816
158	0xbe6b6ec5	-0.22991474
159	0xbd809cc3	-0.062799
160	0xbcc9d8f1	-0.024639579
161	0x3d82f54f	0.06394445
162	0x3c32ec45	0.010920589
163	0xbe9e2ed8	-0.30895114
164	0x3bcedb0b	0.006312733
165	0xbb97dfc1	-0.004634828
166	0x3c252a87	0.01008094
167	0xbea382c9	-0.3193572
168	0xbe2327d9	-0.1593317
169	0xbdefc4f4	-0.11707488
170	0xbeb91728	-0.3615048
171	0xbd6dafb2	-0.058028884
172	0x3da3cf76	0.079985544
173	0x3cf1ecbe	0.029531833
174	0xbef938c1	-0.48676112
175	0x3e059f11	0.1304896
176	0xbe3ca4a1	-0.18422176
177	0xbd6170b0	-0.055039108
178	0xbe409dd4	-0.18810207
179	0xbd084f4a	-0.03327874
180	0xbdad68df	-0.08467268
181	0xbc866dbe	-0.016409751
182	0xbda00ed7	-0.078153305
183	0xbe10fe27	-0.14159451
184	0xbe06f401	-0.13179018
185	0xbdf192de	-0.11795591
186	0x3e6366fe	0.22207257
187	0x3deae2e8	0.1146906
188	0xbe5363cc	-0.20643538
189	0xbe4ee043	-0.20202737
190	0x3e14b9fb	0.14524071
191	0xbd9a45c5	-0.07532839
192	0xbcbc955b	-0.023020437
193	0xbd18e8cf	-0.0373314
194	0xbda4fed0	-0.08056414
195	0x3e7027ad	0.23452635
196	0xbb0e790a	-0.0021739625
197	0xbd1157fd	-0.035484303
198	0x3c8772d3	0.016534245
199	0xbc88e231	-0.016709419

mlp.2.weight f4 [200, 200]
0	0xbceff04b	-0.029289385
1	0x3bbac9dc	0.005700333
2	0x3dcb61cb	0.09930762
3	0x3c8e53ef	0.017374007
4	0x3d4161d6	0.047212444
5	0xbe2315de	-0.1592631
6	0xbd2e640a	-0.042575873
7	0x3b527d44	0.003211812
8	0xbd9178b2	-0.07103099
9	0x3df6d86b	0.12052997
10	0xbd15c0a4	-0.03656067
11	0xbe075481	-0.1321583
12	0xbc9e0991	-0.019291671
13	0x3cd8605a	0.026413132
14	0x3d2d3851	0.042290036
15	0x3cccd4a9	0.025003748
16	0x3c12ec7e	0.008967517
17	0xbd3d077b	-0.046149712
18	0x3b548f94	0.0032434212
19	0x3d80b975	0.06285373
20	0xbd2ef67f	-0.042715546
21	0xbe0dd6c8	-0.13851464
22	0xbd44a8b8	-0.048012465
23	0x3dae85b6	0.08521597
24	0xbca0bb33	-0.019620514
25	0xbdc0c936	-0.09413378
26	0xbd24f815	-0.040275652
27	0xbccab3e1	-0.024743976
28	0x3d476dd4	0.048688725
29	0xbe0ca5bc	-0.13735098
30	0x3ce87972	0.028378222
31	0xbb9f1d7c	-0.0048558097
32	0xbe136288	-0.14393055
33	0x3d04a03b	0.03237937
34	0x3cc98b95	0.02460269
35	0xbd0d648d	-0.03451972
36	0xbdb3a36c	-0.087714046
37	0x3d319df6	0.043363534
38	0xbda49769	-0.08036692
39	0xbd561f50	-0.052275956
40	0x3cb02531	0.02150211
41	0xbd26ce4f	-0.040724095
42	0x3d094ef8	0.033522576
43	0x3ce37cf3	0.027769541
44	0x3d13e565	0.03610744
45	0xbcff64b7	-0.031175954
46	0x3c1c637e	0.009545205
47	0x3e03b9c5	0.12863834
48	0x3da49ece	0.08038102
49	0xbcb1014e	-0.021607067
50	0xbddd5f63	-0.10809209
51	0xbcc941b2	-0.024567459
52	0xbc313fc1	-0.010818423
53	0xbceaa290	-0.028641969
54	0xbc0ac59e	-0.008469967
55	0xbdd5cea4	-0.10439804
56	0xbd3bbf8d	-0.045836974
57	0xbe07edee	-0.13274357
58	0xbcaf792c	-0.021420084
59	0xbdccf958	-0.10008496
60	0xbc91b3db	-0.017785957
61	0xbcee0255	-0.029053846
62	0xbdcedd69	-0.101008244
63	0x3bea7342	0.007154853
64	0x3d0bf753	0.034171414
65	0x3d8dcefe	0.06924246
66	0xbcba8e8d	-0.022773052
67	0x3cd78716	0.026309531
68	0xbdcee698	-0.10102576
69	0x3e19f43b	0.15034573
70	0xbc23609c	-0.009971764
71	0x3c50bb23	0.012739929
72	0xbd89464b	-0.067028604
73	0x3d5fe124	0.05465807
74	0xbd9d69ec	-0.076862186
75	0xbda51aab	-0.08061727
76	0x3de5afea	0.112151936
77	0x3d30fd06	0.043210052
78	0x3dd0f45d	0.102028586
79	0xbd88a4fc	-0.06672093
80	0x3d20474f	0.039130505
81	0x3dba8aa1	0.091084726
82	0xbdc64f4b	-0.09683093
83	0xbe63beca	-0.22240749
84	0xbc674fe0	-0.014118165
85	0xbd6442d3	-0.05572779
86	0xbda40cb2	-0.08010234
87	0xbcd64958	-0.02615802
88	0x3c36800a	0.011138925
89	0x3d91370a	0.07090576
90	0xbcbdccc2	-0.023168925
91	0xbdf7ddc4	-0.12102845
92	0xbc95d6cd	-0.018290902
93	0xbd281092	-0.041031428
94	0x3db2ddbe	0.087337
95	0xbd047542	-0.03233839
96	0xbc357346	-0.011074847
97	0xbcd1ef16	-0.0256267
98	0xbdcb06ce	-0.09913407
99	0xbd91b000	-0.071136475
100	0x3dec95fa	0.11552043
101	0xbc03cc52	-0.008044319
102	0x3d6a4d55	0.057202656
103	0xbd3de05f	-0.046356555
104	0xbd176db6	-0.036969863
105	0xbe14ecf2	-0.14543512
106	0xbda353d6	-0.07974975
107	0xbc2d2f0f	-0.010570302
108	0x3dcfc8e4	0.10145739
109	0x3c0e7fe6	0.008697486
110	0x3d5215c2	0.05129028
111	0x3c9192bb	0.017770162
112	0xbc3b8a16	-0.0114464965
113	0x3d4793f9	0.048725102
114	0xbe1b8b54	-0.15189868
115	0xbdc0aa4f	-0.09407484
116	0x3d916782	0.07099821
117	0xbd7c13b3	-0.061542224
118	0x3c247444	0.0100374855
119	0x3e032ef8	0.12810886
120	0xbcda42b5	-0.026643137
121	0xbd378a1e	-0.044809453
122	0x3dbe29cc	0.09285316
123	0xbd4a344c	-0.04936628
124	0x3d3dabb9	0.046306346
125	0xbda5d9d4	-0.08098188
126	0x3c9ac8b7	0.018894536
127	0x3d54b5e2	0.05193127
128	0x3dc25e24	0.09490612
129	0xbd160b0c	-0.03663163
130	0xbd30ac05	-0.0431328
131	0x3d09cb8f	0.033641394
132	0xbd1123a4	-0.03543438
133	0xbcc0c8ce	-0.023533251
134	0xbd752e3f	-0.059858557
135	0xbd9818cb	-0.07426604
136	0x3caf72ad	0.021416986
137	0x3c2245dd	0.009904352
138	0x3d5f0ed7	0.05445751
139	0xbc627f86	-0.013824349
140	0xbcd6180b	-0.026134511
141	0x3a4be852	0.0007778454
142	0xbc372de6	-0.011180377
143	0xbd1f9001	-0.038955692
144	0x3da5d76b	0.08097728
145	0xbd35e345	-0.044406194
146	0x3ca61b78	0.02027677
147	0x3e13ca72	0.14432696
148	0x3ddeacfb	0.10872837
149	0xbcb975ba	-0.022639144
150	0x3d0a0dc1	0.033704523
151	0xbde00929	-0.10939247
152	0x3da55d38	0.08074421
153	0xbcfb42c3	-0.030671483
154	0xbd82a961	-0.06379963
155	0xbd0b4749	-0.03400353
156	0x3ddf8bb2	0.10915317
157	0x3dfc9f9b	0.1233513
158	0x3d8a89e7	0.06764584
159	0x3caf2e3e	0.021384355
160	0x3e301c75	0.17198355
161	0x3d625bbe	0.055263273
162	0xbbc4ca54	-0.0060055647
163	0x3ccbb4de	0.024866518
164	0xbc27550e	-0.01021315
165	0xbd1d103c	-0.03834556
166	0xbd056425	-0.03256621
167	0x3cc1df3c	0.023666017
168	0x3cd2962e	0.025706377
169	0xbd43e94c	-0.04782991
170	0xbcaaa3d0	-0.020830065
171	0x3d16be0e	0.036802344
172	0xbceebe2d	-0.029143417
173	0x3df8217e	0.12115763
174	0x3c7c6d97	0.015406988
175	0x3b9721f5	0.0046122023
176	0xbcc04bbb	-0.023473611
177	0xbda93739	-0.08262486
178	0x3c753f3a	0.014968688
179	0xbd696c8e	-0.05698829
180	0x3dafd768	0.08586007
181	0x3cba813c	0.022766702
182	0x3e017237	0.12641226
183	0xbd08e3ee	-0.033420496
184	0x3d8f1642	0.06986667
185	0x3cb2301d	0.021751458
186	0x39bc4de6	0.00035916193
187	0x3c9a6039	0.01884471
188	0xbd0a2b3b	-0.033732634
189	0x3db13634	0.086529166
190	0xbc81db2c	-0.01585158
191	0xbc4771b9	-0.01217311
192	0x3c16e125	0.009208952
193	0x3ce028d9	0.027363228
194	0xbd2ff411	-0.04295737
195	0xbd1c7c44	-0.038204446
196	0xbd8942c6	-0.06702189
197	0x3d6bf59a	0.05760727
198	0xbd145ced	-0.036221433
199	0x3cd9bdd3	0.026579773
200	0xbda55cc3	-0.080743335
201	0xbd8e7057	-0.06955021
202	0xbd716524	-0.058934346
203	0x3cb6ea77	0.022328598
204	0xbcd0e8b2	-0.025501583
205	0xbcb21ce6	-0.021742295
206	0xbcb42fa9	-0.021995382
207	0x3e22139a	0.1582779
208	0x3d106de4	0.03526105
209	0x3d8e4219	0.06946201
210	0x3ceed16f	0.0291526
211	0x3d805f03	0.06268122
212	0xbc5fb78a	-0.013654599
213	0x3d2c29ed	0.04203217
214	0x3cf22217	0.02955727
215	0xbb9dc795	-0.004815052
216	0x39eb7d73	0.0004491616
217	0xbd8bca2b	-0.0682567
218	0xbd572a46	-0.05253055
219	0x3dc40952	0.0957209
220	0x3cdbe956	0.026844662
221	0x3cfd2943	0.030903464
222	0x3d7bb518	0.061452
223	0x3dc213d6	0.0947644
224	0x3db22c30	0.08699834
225	0xbcc538d2	-0.024074946
226	0x3d2b1229	0.041765366
227	0xbcb0436d	-0.021516526
228	0x3ce4de69	0.027938085
229	0xbe31ca4c	-0.17362326
230	0xbd4430ea	-0.04789821
231	0xbdc740ff	-0.09729194
232	0x3d6d9baf	0.0580098
233	0xbd91100c	-0.07083139
234	0xbb910339	-0.004425433
235	0xbdfef038	-0.12448162
236	0xbdb16019	-0.08660907
237	0xbda2cc35	-0.07949106
238	0x3dc99c4d	0.09844265
239	0x3cbc2645	0.022967467
240	0x3c41292e	0.011789603
241	0x3d8604de	0.06543897
242	0xbd06df17	-0.0329276
243	0xbe23318f	-0.15936874
244	0xbd32e927	-0.043679383
245	0xbcc74af8	-0.02432774
246	0xbc7107f9	-0.0147113735
247	0x3c266ace	0.0101573
248	0xbdc01a81	-0.09380055
249	0xbcc22fde	-0.023704465
250	0x3d3fa166	0.04678478
251	0xbc3e1786	-0.011602288
252	0xbdc3827f	-0.095463745
253	0x3e0b7683	0.13619427
254	0xbcbdf240	-0.023186803
255	0x3b16038c	0.0022890298

mlp.2.bias f4 [200]
0	0x3dae9774	0.08524981
1	0x3c8ab459	0.0169317
2	0xbc19542a	-0.009358445
3	0x3a95e51a	0.0011436075
4	0x3d254c43	0.040355932
5	0xbdeaed4b	-0.11471041
6	0xbc2b2cbd	-0.010447678
7	0x3c1e873e	0.009675799
8	0xbca55579	-0.020182358
9	0xbe647c66	-0.22313079
10	0x3e57e955	0.21085103
11	0xbdb22d62	-0.08700062
12	0x3d81256b	0.06305965
13	0x3d1fab93	0.038981985
14	0xbd77e77f	-0.060523506
15	0xbc8679d2	-0.01641551
16	0xbdc630e3	-0.09677293
17	0xbdd69ee4	-0.10479525
18	0x3cd4ddc6	0.025984656
19	0xbcf35bce	-0.029706862
20	0xbdf5f68f	-0.12009918
21	0xbc9312d6	-0.017953318
22	0xbe4d3d07	-0.20042811
23	0xbe0c5201	-0.13703157
24	0x3cafbebb	0.021453252
25	0xbcb333a6	-0.021875214
26	0xbdc211de	-0.09476064
27	0xbdc6d042	-0.09707691
28	0xbda5d896	-0.08097951
29	0xbe29d50e	-0.1658518
30	0xbda561e4	-0.08075312
31	0xbdc98988	-0.09840685
32	0x3d8e90f3	0.069612406
33	0xbcf19cb0	-0.02949366
34	0x3cef337f	0.02919936
35	0xbe1a82f8	-0.15089023
36	0xbd8a15a5	-0.067424096
37	0x3ceb6110	0.028732806
38	0x3d352fde	0.044235103
39	0x3cd2e68b	0.025744697
40	0xbd3fdbf3	-0.04684062
41	0x3dd1f04e	0.102509126
42	0xbd933cc4	-0.071893245
43	0xbdd97b2f	-0.106191985
44	0x3e31047f	0.17286871
45	0xbe28dab6	-0.16489682
46	0xbcc3e0de	-0.023910936
47	0xbd8169e5	-0.06319026
48	0x3cc81262	0.024422828
49	0xbcc21dbd	-0.023695821
50	0x3d88b75a	0.066755965
51	0xbe0b2128	-0.13586867
52	0xbdba73f7	-0.0910415
53	0xbcbabded	-0.022795642
54	0xbd85991c	-0.06523344
55	0x3ba01746	0.004885587
56	0x3ccaa4ba	0.02473675
57	0x3da0f3c7	0.07858997
58	0xbac2756f	-0.0014836023
59	0xbdd9d097	-0.106354885
60	0x3e1b8779	0.15188397
61	0xbda6c514	-0.081430584
62	0xbd295cc8	-0.04134825
63	0xbdacfaaa	-0.08446248
64	0xbeb3b3bb	-0.3509806
65	0xbdc0eb41	-0.09419871
66	0xbd03c6f9	-0.032172177
67	0xbb0c45cb	-0.0021403905
68	0xbda9979b	-0.082808696
69	0xbe0dda18	-0.13852727
70	0xbe249107	-0.16070949
71	0xbe7161dd	-0.23572488
72	0x3d360942	0.044442423
73	0x3d060765	0.032721896
74	0xbe161303	-0.1465569
75	0xbcbf992f	-0.023388473
76	0x3db5d7c9	0.088790484
77	0x3c722a08	0.014780529
78	0xbe86eff4	-0.26354945
79	0xbc97726f	-0.018487183
80	0x3c4f4964	0.012651775
81	0x3d2943f0	0.041324556
82	0x3dd5c290	0.104375005
83	0xbd622b29	-0.055216942
84	0xbdadf909	-0.08494765
85	0xbe325639	-0.17415704
86	0x3d22d8fd	0.039757717
87	0x3c40896c	0.011751514
88	0xbc02ffaa	-0.007995525
89	0xbd92c6b5	-0.071668066
90	0xbe89a01f	-0.26879975
91	0x3d5f418d	0.054505873
92	0x3c59fc37	0.013304762
93	0x3e0ba5ee	0.13637516
94	0x3dd730de	0.105073676
95	0x3d776ab6	0.0604045
96	0x3cb8ede8	0.02257438
97	0xbcfc7b27	-0.030820442
98	0xbd0f74a3	-0.035023343
99	0xbb096f59	-0.002097091
100	0x3d9dd11a	0.077058986
101	0xbd4b2567	-0.049596217
102	0x3d626660	0.055273414
103	0x3d981b4c	0.074270815
104	0xbda10fed	-0.07864366
105	0x3c8e76bf	0.017390607
106	0xbe14bbd3	-0.14524774
107	0x3da82f9e	0.08212207
108	0xbea57279	-0.32313898
109	0x3c5f7487	0.013638622
110	0xbdbbed30	-0.09176099
111	0x3d3218cf	0.04348069
112	0x3bbd4311	0.005775817
113	0x3d935d7d	0.07195566
114	0xbd0b0479	-0.033939812
115	0xbdb154de	-0.08658765
116	0xba8a1a3e	-0.0010536385
117	0xbe4eacbe	-0.20183083
118	0x3dbe2148	0.09283692
119	0xbc8f2302	-0.017472748
120	0x3d9d8428	0.076912224
121	0xbcdb14b3	-0.026743269
122	0xbde42676	-0.11140148
123	0xbdadf7c8	-0.08494526
124	0xbe1b099c	-0.15140384
125	0xbcd9646f	-0.026537148
126	0xbc71c487	-0.014756328
127	0xbeecf3b8	-0.46279693
128	0xbf1690dc	-0.5881479
129	0xbc5f55ec	-0.013631325
130	0xbc74dfdf	-0.014945953
131	0x3cb5d402	0.02219582
132	0xbcd800a1	-0.026367487
133	0xbd2e7c27	-0.04259887
134	0xbd152d6a	-0.036420263
135	0xbdc97771	-0.09837235
136	0xbcdcf6d8	-0.026973173
137	0xbf101ef8	-0.56297255
138	0x3aa9deb1	0.0012960044
139	0xbd0ffcaa	-0.03515307
140	0x3c9dfafc	0.019284718
141	0xbd9d2a19	-0.07674045
142	0xbd26e9b4	-0.04075022
143	0xbe1eca5d	-0.15506883
144	0xbe283b3e	-0.16428849
145	0xbc016b4c	-0.007899117
146	0x3dc321fa	0.09527965
147	0xbe2fc4b7	-0.17164885
148	0x3dc68b5d	0.0969455
149	0xbdcc90f9	-0.09988589
150	0xbdbc0f47	-0.091826014
151	0xbe292077	-0.1651629
152	0xbdc554bd	-0.09635303
153	0xbd9512f9	-0.07279009
154	0x3d3840f0	0.044983804
155	0x3d46ecc4	0.04856564
156	0xbdb3d69a	-0.087811664
157	0xbc8e5732	-0.017375562
158	0xbdf8bf43	-0.12145855
159	0xbe24df50	-0.16100812
160	0xbdbe2c45	-0.092857875
161	0xbe94f1c5	-0.29090706
162	0xbe2c0751	-0.16799666
163	0xbde20323	-0.110357545
164	0x3db09572	0.086222544
165	0x3d91cd41	0.07119227
166	0xbe0db1df	-0.13837384
167	0xbdfbbdb7	-0.122920446
168	0xbd18124e	-0.03712683
169	0xbc98bee1	-0.018645706
170	0xbe83a21d	-0.2570962
171	0xbd0539bd	-0.032525767
172	0xbc8cbd44	-0.017180093
173	0xbde098ae	-0.10966621
174	0x3d847dc0	0.064692974
175	0xbe14bc78	-0.1452502
176	0xbd3a3e5c	-0.045469627
177	0x3c49828e	0.012299193
178	0x3c89cf05	0.016822347
179	0xbcbba5ec	-0.022906266
180	0xbc2b5821	-0.010458023
181	0x3d983873	0.07432642
182	0x3d672ef1	0.05644125
183	0xbc96bf34	-0.01840172
184	0xbcf40c03	-0.029790884
185	0x3d054830	0.032539546
186	0xbb253f52	-0.0025214744
187	0x3dd78cf9	0.10524935
188	0xbe1dc445	-0.15406902
189	0x3e03f91e	0.12888
190	0xbd210d41	-0.03931928
191	0x3d3262d0	0.043551266
192	0xbde11d17	-0.109918766
193	0xbd908886	-0.0705729
194	0xbdec7a3c	-0.11546752
195	0x3cab202f	0.02088937
196	0xbd81ac3d	-0.0633168
197	0xbcfb848e	-0.030702855
198	0x3df8e085	0.12152199
199	0xbe26ef17	-0.16302143

mlp.5.weight f4 [200, 200]
0	0x3da7f2fe	0.08200644
1	0xbce7b224	-0.028283186
2	0xbd15e6ba	-0.03659699
3	0x3d0250a6	0.031815194
4	0xbdd7f5bc	-0.10544917
5	0x3d93b647	0.07212501
6	0x3d8586bf	0.065198414
7	0xbd0c3c67	-0.03423729
8	0xbdbf00c4	-0.09326318
9	0x3e0d6e3a	0.1381158
10	0x3dce2319	0.10065288
11	0xbd9e56ed	-0.077314235
12	0xb8df4be1	-0.00010647602
13	0xbcbfd925	-0.023418972
14	0xbcbe0050	-0.023193508
15	0x3dc5797e	0.096423134
16	0x3e136aec	0.14396256
17	0x3ad3026a	0.0016098742
18	0x3cec49d7	0.028843803
19	0xbb15ab64	-0.0022837752
20	0x3db8aa25	0.090168275
21	0xbc49eaf4	-0.012324084
22	0x3e0dab5d	0.13834901
23	0xbd686b64	-0.05674304
24	0x3cf3d867	0.029766275
25	0xbd2b8df0	-0.04188341
26	0x3c6c4b18	0.014422201
27	0x3caededf	0.021346508
28	0x3db5d620	0.08878732
29	0xbdc5cb0e	-0.0965787
30	0x39ebf233	0.00045003145
31	0x3cdbe898	0.026844308
32	0xbb901913	-0.0043975203
33	0x3af4346c	0.0018631346
34	0xbc875b9b	-0.016523173
35	0xbdaf9d16	-0.08574884
36	0xbc8bc344	-0.017060883
37	0x3d390649	0.04517201
38	0x3c13af24	0.009013925
39	0xbbf6c3f2	-0.0075306827
40	0x3d3c02de	0.045901172
41	0x3d2b4b20	0.04181969
42	0x3d05c8de	0.032662265
43	0xbcbf3c2a	-0.023344118
44	0x3db56143	0.08856442
45	0xbc469c3d	-0.012122211
46	0xbc9988a0	-0.018741906
47	0x3da9d58f	0.08292686
48	0x3dc0828c	0.093999
49	0x3ddc4af1	0.107564814
50	0x3d652565	0.055943865
51	0xbd945cd5	-0.07244269
52	0xbdcc3706	-0.099714324
53	0x3d2b4c7b	0.041820984
54	0xbc5d8ccd	-0.013522339
55	0xbd8d7415	-0.069069065
56	0xbd57bfe3	-0.05267323
57	0x3d7571a0	0.059922814
58	0xbcde3f73	-0.027129864
59	0xbdb19895	-0.08671681
60	0xbbe59783	-0.007006587
61	0xbd85cae9	-0.06532843
62	0x3db9eb9c	0.09078142
63	0xbd2adad0	-0.041712582
64	0x3e5c06b4	0.21486932
65	0x3d23c44b	0.03998212
66	0xbcc6a84f	-0.024250178
67	0x3d896f4c	0.06710681
68	0x3cb863aa	0.022508461
69	0xbcc428c1	-0.023945214
70	0x3d98e83e	0.07466172
71	0x3d9f606c	0.07782063
72	0xb98202c0	-0.0002479758
73	0xbd7f8fbd	-0.06239294
74	0x3dc4a74e	0.09602223
75	0xbe01e930	-0.1268661
76	0xbb758593	-0.003746365
77	0xbda54345	-0.08069471
78	0x3d96ed52	0.07369484
79	0xbd94efe1	-0.07272316
80	0x3c9f72a5	0.019463846
81	0x3d5e0318	0.05420217
82	0xbb1ee9d3	-0.0024248257
83	0xbda3b60d	-0.07993708
84	0x3df10980	0.1176939
85	0xbda5bd1a	-0.08092709
86	0x3df2fde5	0.11864833
87	0xbdacedec	-0.084438175
88	0x3c5dd8e4	0.01354048
89	0xbc15d2b5	-0.009144475
90	0x3dae061f	0.08497261
91	0xbd77febe	-0.060545675
92	0x3da98d8f	0.08278953
93	0xbccaa8ec	-0.024738751
94	0x3d9d619e	0.076846346
95	0x3dd89151	0.10574592
96	0x3d16dfa4	0.036834374
97	0x3d5e4b04	0.05427076
98	0x3cb27813	0.021785771
99	0x3d186536	0.037205897
100	0x3ced1dde	0.028944906
101	0x3d4f4352	0.05060131
102	0xbd38a0f7	-0.045075383
103	0xbd26051b	-0.040532213
104	0xbd1a1c7d	-0.037624825
105	0x3d70116e	0.058610372
106	0xbd17fce3	-0.037106406
107	0x3d9b67d7	0.07588165
108	0x3e060f98	0.13091886
109	0x3d581b30	0.052760303
110	0xba9a4119	-0.0011768668
111	0x3d328ab7	0.04358932
112	0xbd08ede4	-0.033429995
113	0x3cdb1548	0.026743546
114	0xbe1def31	-0.15423276
115	0x3ad9b36f	0.0016609262
116	0x3d8b8b0e	0.06813632
117	0xbdf39a55	-0.11894671
118	0x3dcb6baf	0.099326484
119	0x3b6ff200	0.003661275
120	0x3cc669c3	0.024220353
121	0x3d783496	0.060597025
122	0xbc436a6c	-0.011927228
123	0xbd222c69	-0.039593134
124	0xbd98241e	-0.07428764
125	0xbd1e6c33	-0.038677406
126	0x3d736ed5	0.05943187
127	0xbdba21e1	-0.09088493
128	0x3e8c1cf3	0.27365837
129	0xbca538a3	-0.020168608
130	0x3dfa25fa	0.12214275
131	0x3dd79633	0.10526695
132	0x3dc9bf70	0.09850967
133	0xbdd0bedd	-0.10192654
134	0x3c30c07b	0.010788078
135	0xbd8d372b	-0.06895288
136	0x3c2abd57	0.010421119
137	0x3e646c04	0.2230683
138	0xbdec300a	-0.115326
139	0xbdee38d6	-0.11631934
140	0x3d659da2	0.056058533
141	0x3c6408eb	0.013918142
142	0xbdabd7c4	-0.083907634
143	0x3cd48eef	0.025947062
144	0xbdc2e4dc	-0.09516308
145	0x3dc71d74	0.097224146
146	0xbd350066	-0.044189833
147	0x3e21003f	0.1572275
148	0xbd853877	-0.065049104
149	0x3df1c530	0.11805189
150	0x3d12aac3	0.035807382
151	0x3e0e4222	0.13892415
152	0x3d7c81a1	0.06164706
153	0xbc29e90e	-0.010370506
154	0x3d13182e	0.03591173
155	0xb733c37e	-1.0714748e-05
156	0xbd3ad691	-0.045614783
157	0xbb26f4f8	-0.0025475603
158	0xbd71ab7e	-0.05900144
159	0x3d97ccfe	0.07412146
160	0xbc60c12e	-0.013717933
161	0x3d4eaacf	0.050455865
162	0x3d890685	0.066906966
163	0xbbb56a54	-0.005536357
164	0x3b663d5b	0.0035131786
165	0xbd3d2a7e	-0.0461831
166	0xbd863723	-0.06553485
167	0x3e2c713b	0.16840069
168	0x3e24affb	0.16082756
169	0x3d86b3f4	0.06577292
170	0x3dfb22fe	0.122625336
171	0xbc1d2aee	-0.009592755
172	0xbd8ee69f	-0.06977581
173	0x3d7b7edf	0.06140029
174	0xbd187c7b	-0.03722809
175	0x3db2cd39	0.08730549
176	0xbd259057	-0.040420856
177	0xbc735149	-0.014850923
178	0xbdfb7dd4	-0.12279859
179	0xbceb83e3	-0.028749412
180	0xbd52e568	-0.05148831
181	0x3c2640ea	0.010147313
182	0xbc111936	-0.008856108
183	0xbd13cfa7	-0.036086705
184	0xbd8f5e13	-0.07000365
185	0xbd0ce3fd	-0.034397114
186	0xbd92247c	-0.07135865
187	0x3ce2d10f	0.027687578
188	0x3e0afd9c	0.13573307
189	0x3d2a4776	0.041572057
190	0x3c836ee3	0.016044086
191	0xbd809090	-0.06277573
192	0x3aa4b910	0.001256736
193	0x3d8b8fab	0.06814512
194	0xbd8b3930	-0.06798017
195	0xbd8b7f9f	-0.06811451
196	0xbe062f90	-0.13104081
197	0xbe09a091	-0.13440157
198	0x3d8aef35	0.06783906
199	0xbd8988a0	-0.06715512
200	0x3c2e892e	0.010652823
201	0xbd2292c8	-0.039690763
202	0xbd687939	-0.056756232
203	0x3d6fe181	0.058564667
204	0x3cbb5581	0.02286792
205	0x3c491117	0.012272141
206	0xbd244952	-0.040108986
207	0xbcffae57	-0.031211061
208	0x3c154353	0.00911029
209	0xbd6f22d1	-0.058382813
210	0xbcb30620	-0.021853507
211	0x3cc875a6	0.024470162
212	0x3d5a3e56	0.053282104
213	0x3cce8bf7	0.025213225
214	0xbb8fac9d	-0.004384591
215	0xbc98590a	-0.018597145
216	0x3c83d977	0.016094906
217	0xbcb2114a	-0.02173676
218	0x3cbd1b38	0.023084268
219	0x3cf0184d	0.029308463
220	0x3d443b0f	0.047907885
221	0xbd5a397c	-0.053277478
222	0x3d66b945	0.05632903
223	0xbd987c30	-0.07445562
224	0x3cb54393	0.022126948
225	0xbd9f63b6	-0.0778269
226	0x3d41ec90	0.047344744
227	0xbd862874	-0.065506846
228	0xbd63dfa5	-0.055633206
229	0xbd1ff178	-0.039048642
230	0xbd842353	-0.0645205
231	0xbd383359	-0.044970844
232	0x3cea862f	0.028628437
233	0xbbdd775a	-0.0067586126
234	0x3d82afeb	0.0638121
235	0xbbd97b8f	-0.006637044
236	0xbc6283a9	-0.013825336
237	0x3d208e49	0.039198194
238	0x3d2f11a6	0.04274144
239	0xbd8dea9b	-0.06929513
240	0xbc0d45b7	-0.008622578
241	0xbd7db6f3	-0.061942052
242	0xbd0eacba	-0.034832694
243	0x3cf3a4fe	0.02974176
244	0x3ce77d60	0.028258026
245	0xbd2d0589	-0.042241607
246	0x3c9e66ff	0.019336222
247	0x3cb2e803	0.021839147
248	0xbc6da230	-0.014504001
249	0x3d4ecf1b	0.05049048
250	0x3d4d1a26	0.050073765
251	0xbd787731	-0.060660545
252	0xbd2a7766	-0.041617773
253	0x3d83db71	0.064383395
254	0xbce70eaa	-0.028205235
255	0xbd51741a	-0.051136114

mlp.5.bias f4 [200]
0	0x3d32cbc8	0.043651372
1	0x3d10fdfd	0.035398472
2	0x3c2ea10c	0.010658514
3	0x3d286a55	0.04111703
4	0x3c84c071	0.016205044
5	0x3bff9383	0.007799567
6	0x3d6f8a71	0.058481637
7	0x3d693456	0.056934677
8	0x3cd02a80	0.02541089
9	0x3d05ae54	0.032636955
10	0xbd39ad35	-0.0453312
11	0x3d31a7ed	0.043373037
12	0x3cd7be7a	0.026335943
13	0x3ce0b5dc	0.027430467
14	0x3d1ba6fd	0.03800105
15	0x3d2ca584	0.042150036
16	0x3c66e780	0.01409328
17	0xbcd0b2da	-0.025475908
18	0x3cca1e41	0.02467263
19	0xbd46f445	-0.048572797
20	0x3ce3c4e7	0.027803851
21	0x3d97cc18	0.07411975
22	0x3cfbbc23	0.030729359
23	0x3d531390	0.051532328
24	0x3d4bd47b	0.049763184
25	0x3d0550bd	0.0325477
26	0x3d04b752	0.03240139
27	0xbc25e74a	-0.010125944
28	0x3bd6b916	0.0065528257
29	0x3c8e4b64	0.017369933
30	0x3d18fca6	0.03735032
31	0x3c7c2f33	0.015392113
32	0x3d8a84fe	0.067636475
33	0x3d4e74dc	0.050404415
34	0x3caef25b	0.021355798
35	0x3cdff03a	0.027336229
36	0x3d63b755	0.05559476
37	0x3d4c842c	0.049930736
38	0x3cc58af1	0.024114104
39	0x3d20bebc	0.0392444
40	0x3d3f6e83	0.04673625
41	0xbc951621	-0.018199028
42	0x3c03d8ff	0.008047341
43	0x3da1a5d0	0.07892954
44	0x3d10c09f	0.035339948
45	0x3d16b7f6	0.036796533
46	0x3d58aabe	0.052897207
47	0x3d0e142a	0.0346872
48	0x3d0c46e9	0.034247313
49	0x3ca0081d	0.019535119
50	0x3d452146	0.048127435
51	0x3d5b2b3d	0.053508032
52	0xbd33a4d3	-0.04385836
53	0x3d09705e	0.033554427
54	0x3d4703e5	0.0485877
55	0x3bfe9b1e	0.0077699563
56	0x3c95b2ff	0.018273829
57	0xbb988254	-0.004654208
58	0xbd683b3c	-0.056697115
59	0x3d7c2b93	0.061564993
60	0x3d66d6c1	0.05635715
61	0x3bb756e1	0.0055950736
62	0xbd679cb6	-0.056545936
63	0xbc93455d	-0.01797741
64	0xbd0463c9	-0.032321725
65	0x3d04b38c	0.03239779
66	0xbc2156b7	-0.009847335
67	0x3d810978	0.06300634
68	0x3bdcb521	0.0067354594
69	0x3d70c7c1	0.05878425
70	0x3caef469	0.021356778
71	0x3b0f87ac	0.0021900935
72	0x3cf5a0cc	0.0299839
73	0x3d0be874	0.03415723
74	0xbd54eeea	-0.05198566
75	0x3cca63fe	0.024705883
76	0x3d3bbd82	0.045835026
77	0xbd6ce48d	-0.05783515
78	0x3d80e6bc	0.06294009
79	0xbc13de82	-0.009025218
80	0x3d8eb803	0.06968691
81	0x3d17f620	0.037099957
82	0x3d92ff0b	0.07177552
83	0x3c09bafc	0.008406397
84	0x3caebda4	0.021330662
85	0x3d4af822	0.049553044
86	0x3d06fc40	0.032955408
87	0xbcfa145f	-0.030527292
88	0xbc2eccd2	-0.01066895
89	0x3d8ca5b1	0.06867541
90	0x3d2b1cb3	0.041775417
91	0x3d6cf46c	0.057850286
92	0x3d621e00	0.05520439
93	0xbd7e5c3e	-0.062099688
94	0xbaada8d0	-0.0013249163
95	0x3ce5ffa7	0.028076006
96	0x3bbca55a	0.005757016
97	0x3d38fc68	0.04516259
98	0x3d527759	0.05138335
99	0xbd2f7287	-0.04283383
100	0x3c25928f	0.010105743
101	0x3d81b472	0.06333245
102	0xbd1fe75b	-0.039038997
103	0x3d67bff9	0.056579564
104	0x3d392816	0.045204245
105	0x3d9ac7d0	0.075576425
106	0x3d60ec18	0.054912657
107	0xbcd99882	-0.02656198
108	0x3d3362b5	0.043795306
109	0x3cc58436	0.024110895
110	0xbd979e72	-0.07403268
111	0xbc1999ae	-0.009375019
112	0x3dabf233	0.08395805
113	0x3d41ef5d	0.047347415
114	0x3d91e961	0.071245916
115	0x3c036c4b	0.0080214245
116	0xbd47558a	-0.04866556
117	0x3bae2796	0.0053147776
118	0xbcac4a96	-0.02103166
119	0xbd3b50e3	-0.045731436
120	0x3d770536	0.060307704
121	0x3cefceda	0.02927344
122	0xbd7c0a7c	-0.061533436
123	0x3d6eb41e	0.058277242
124	0x3d34b1fb	0.044115048
125	0x3d21f273	0.03953786
126	0x3d91b660	0.071148634
127	0x3d1bb84a	0.03801755
128	0x3d82383c	0.06358382
129	0x3d50867e	0.05090951
130	0x3d6333b3	0.055469226
131	0x3bbaed61	0.0057045673
132	0x3d7a16bc	0.061056837
133	0x3c0fe84d	0.008783412
134	0x3dc8baa1	0.09801222
135	0xbd77b0f4	-0.06047149
136	0x3cdbe67e	0.026843306
137	0x3d543a70	0.051813543
138	0x3d519d52	0.051175423
139	0xbd0fc3a2	-0.03509868
140	0x3d184cfa	0.037182786
141	0x3d222859	0.03958926
142	0xbc37e734	-0.011224557
143	0x3c694db7	0.01423972
144	0x3d8428db	0.06453105
145	0x3cb59bd5	0.022169033
146	0x3d965c46	0.073418185
147	0x3d87d222	0.066318765
148	0x3d81dd09	0.06340987
149	0xbda4acf2	-0.08040799
150	0x3d095ab8	0.03353378
151	0x3d10f14d	0.035386372
152	0x3ccd7e7e	0.02508473
153	0x3d89429d	0.067021586
154	0x3cb0e531	0.021593662
155	0xbd2a740f	-0.04161459
156	0x3d803fe7	0.062621884
157	0x3d43aa1f	0.047769662
158	0xbd8805ce	-0.06641732
159	0x3c637075	0.013881792
160	0x3d35d83e	0.044395678
161	0x3ca906f4	0.020633198
162	0x3d425dce	0.04745274
163	0x3d3111cf	0.043229874
164	0x3d57d1a5	0.052690167
165	0x3d2854c3	0.04109646
166	0x3d2e91af	0.042619403
167	0x3d7ed266	0.06221237
168	0x3d2ab04c	0.041672036
169	0xbd0f16f2	-0.03493399
170	0xbd905f31	-0.07049406
171	0x3d366947	0.044533994
172	0x3c5f84cc	0.013642501
173	0xbcd2c396	-0.025728028
174	0x3d7c7e2a	0.061643757
175	0x3d54b5f0	0.05193132
176	0x3cf01c07	0.02931024
177	0x3d116a77	0.035501923
178	0x3bce4acc	0.0062955376
179	0x3d800fba	0.062529996
180	0x3d857819	0.065170474
181	0x3d67d51a	0.056599714
182	0x3d566582	0.0523429
183	0xbce19741	-0.027537944
184	0xbd4ecb9b	-0.050487142
185	0xbd7e41cc	-0.062074468
186	0xbb575060	-0.0032854304
187	0xbc8cc50e	-0.017183807
188	0x3d74eab4	0.059794143
189	0x3da1d54e	0.07902013
190	0x3bbbf36d	0.0057358057
191	0xbd8764f9	-0.06611056
192	0x3d85e92e	0.06538616
193	0x3d0fcd7e	0.035108082
194	0xbc18f110	-0.0093348175
195	0xbc85a567	-0.016314222
196	0x3d6572d3	0.056017708
197	0x3d0fed01	0.035138134
198	0x3c89b9ad	0.01681217
199	0x3cf9d634	0.030497648

mlp.8.weight f4 [1, 200]
0	0x3f5e9aea	0.8695513
1	0x3dfa9d51	0.12237037
2	0x3f056525	0.5210746
3	0xbe087ba9	-0.13328423
4	0xbe7c141e	-0.24617049
5	0x3a83aca5	0.0010045959
6	0xbf5d93be	-0.8655356
7	0xbd91a413	-0.07111373
8	0xbf1426d9	-0.57871777
9	0xbf26c989	-0.6515127
10	0x3d75ed77	0.060040917
11	0x3eba17ce	0.36346287
12	0x3e730034	0.23730546
13	0x3eecb224	0.4622966
14	0x3f637b47	0.8885998
15	0x3ddbb198	0.10727233
16	0x3f2e615e	0.6811732
17	0xbce7a125	-0.028275082
18	0x3ceedec8	0.029158965
19	0xbd3711b6	-0.044694625
20	0xbeb972b5	-0.36220327
21	0x3e55e074	0.20886403
22	0xbf62404a	-0.8837935
23	0xbeecdc0a	-0.46261626
24	0xbf2ded49	-0.67940193
25	0xbefc2cbe	-0.49252886
26	0x3e008a82	0.12552837
27	0x3d3aa7d0	0.045570195
28	0x3eccc675	0.3999516
29	0x3da93def	0.08263766
30	0xbf1501bf	-0.5820579
31	0x3f05dd4f	0.52290815
32	0xbf2f4cee	-0.6847676
33	0xbec42b9c	-0.3831452
34	0xbe848d1a	-0.25888902
35	0x3f369c25	0.7133201
36	0xbe9e4ffe	-0.30920404
37	0x3dff46a1	0.12464643
38	0x3ea01d6b	0.31272444
39	0xbf1daede	-0.6159495
40	0xbd3cdfbf	-0.04611182
41	0x3e33bf3e	0.17553422
42	0x3ea138d7	0.31488678
43	0x3eef3f27	0.4672787
44	0xbe36c160	-0.17847204
45	0x3e4d7af1	0.2006643
46	0x3f1588c7	0.5841183
47	0x3ec124f1	0.37723497
48	0x3ec84d97	0.39121696
49	0x3e910c0e	0.2832951
50	0x3e77cc0b	0.2419893
51	0x3ed1a1c1	0.4094372
52	0xbb81f06d	-0.0039654286
53	0xbeadb6f8	-0.33928657
54	0xbeb9ec12	-0.3631292
55	0x3debabd8	0.11507386
56	0x3db63abd	0.08897922
57	0x3eb84ac3	0.3599454
58	0xbd26972a	-0.040671505
59	0x3ecc342f	0.39883563
60	0x3eedaf46	0.46422786
61	0x3d9666c6	0.07343821
62	0x3cb01d32	0.021498296
63	0xbd2b8b18	-0.041880697
64	0xbd88c7c9	-0.06678731
65	0x3e7cbd03	0.24681477
66	0x3dbffe87	0.09374719
67	0xbf40fc32	-0.7538482
68	0xbdbb3b50	-0.09142172
69	0xbca94ad9	-0.020665573
70	0x3c35b188	0.01108969
71	0x3e1f2b6a	0.15543905
72	0xbebdd34c	-0.3707527
73	0xbe0a1818	-0.13485754
74	0x3c2b8709	0.010469207
75	0x3e6b28b1	0.22964741
76	0x3de48e17	0.11159914
77	0xbc61c0de	-0.013778893
78	0xbf522ac7	-0.82096523
79	0x3e973dcb	0.29539332
80	0xbf53bf95	-0.82714206
81	0xbe04e96f	-0.12979673
82	0xbe13c1f6	-0.14429459
83	0x3ecbf469	0.39834908
84	0x3efa01f4	0.48829615
85	0x3d7ae6b4	0.061255172
86	0x3ef0c294	0.4702345
87	0x3d95310d	0.07284746
88	0x3dc6b60d	0.09702692
89	0xbf257c10	-0.6464243
90	0xbf2b4b52	-0.66911805
91	0x3f1fc4c4	0.62409616
92	0xbedd42c6	-0.43215007
93	0x3cbfff39	0.02343713
94	0xbcbe4d67	-0.023230268
95	0x3e15f602	0.14644626
96	0x3eebcec5	0.4605619
97	0x3c229b5e	0.009924738
98	0xbf65ea89	-0.89811
99	0x3dd1ed99	0.10250396
100	0x3ca2a73c	0.019855134
101	0x3f0750f0	0.52857876
102	0xbb9dd73c	-0.0048169177
103	0x3ebd6fff	0.3699951
104	0xbdf36501	-0.11884499
105	0xbe77f882	-0.24215892
106	0x3e96e346	0.2947027
107	0x3cdf882e	0.027286615
108	0xbf20310b	-0.62574834
109	0x3e23ad53	0.15984087
110	0xbc8b2c51	-0.016988905
111	0x3ef79b23	0.48360547
112	0xbd31a3ee	-0.043369226
113	0x3f1164b8	0.5679431
114	0xbf801566	-1.000653
115	0xbc85e482	-0.016344313
116	0x3baa5a8d	0.005198783
117	0xbe74ddcc	-0.23912734
118	0x3d8da845	0.069168605
119	0x3cf88ac6	0.03033961
120	0xbf7f52b9	-0.997356
121	0x3e22b898	0.1589073
122	0x3c8a2cbb	0.016867032
123	0x3e8075a8	0.25089765
124	0x3eca118f	0.3946652
125	0x3df7d625	0.12101392
126	0xbe6abc73	-0.2292345
127	0xbe516c1a	-0.20451394
128	0xbe3bb9d4	-0.18332607
129	0xbee66e8e	-0.45006222
130	0x3ef863e8	0.48513722
131	0x3e4cd401	0.20002748
132	0xbf43fa71	-0.7655402
133	0xbe006cd1	-0.1254151
134	0xbf80d879	-1.0066062
135	0x3eb37208	0.35047936
136	0x3e0ef4a9	0.13960518
137	0xbf5450e1	-0.8293591
138	0xbebb5379	-0.36587122
139	0x3d00ddcb	0.03146152
140	0xbf06cf75	-0.52660304
141	0xbee291d0	-0.4425187
142	0x3d91db1b	0.07121869
143	0x3e219533	0.15779571
144	0x3ea962cd	0.33083192
145	0x3ec0483a	0.37555104
146	0x3f30ffad	0.6914013
147	0xbe20dd3d	-0.15709396
148	0xbf40ff38	-0.7538943
149	0x3cbccb78	0.02304624
150	0xbd3ec117	-0.046570864
151	0x3eadc0ec	0.3393625
152	0x3ea635f9	0.32463053
153	0x3ee647ec	0.44976747
154	0x3ef4272b	0.47686133
155	0x3e6ba7e0	0.23013258
156	0xbedfd8e4	-0.43720162
157	0x3f1c7d38	0.6112857
158	0xbccb7eef	-0.0248408
159	0x3e59c5b3	0.21266823
160	0x3e5ff80d	0.21871968
161	0x3f397683	0.7244646
162	0x3dab5336	0.083654806
163	0x3e9e777c	0.30950534
164	0xbf6c5b7d	-0.923271
165	0xbe04950a	-0.12947479
166	0xbd4002e3	-0.046877753
167	0x3d437db7	0.047727313
168	0x3f11b48c	0.5691612
169	0xbb7a93da	-0.00382351
170	0x3daca067	0.08429032
171	0x3ea02e41	0.3128529
172	0x3f080ba8	0.53142786
173	0xbe0f40bc	-0.13989538
174	0xbf453cc5	-0.7704585
175	0xbef5b557	-0.47989914
176	0x3f0fb582	0.56136334
177	0x3dd1b56f	0.10239684
178	0x3e9d1224	0.30677903
179	0xbce41551	-0.027842196
180	0x3edd37ca	0.43206626
181	0x3e9b10bf	0.30286214
182	0xbf7c55b8	-0.98568296
183	0xbcba5900	-0.022747517
184	0x3d7335fe	0.059377663
185	0x3dc06404	0.093940765
186	0x3ebb5d93	0.3659483
187	0x3bcb51b7	0.0062048095
188	0xbf599682	-0.8499528
189	0xbf8c45b0	-1.0958767
190	0x3f27a1b2	0.654811
191	0xbd6f80be	-0.058472387
192	0xbf0deeb0	-0.55442333
193	0xbdef2909	-0.11677749
194	0xbc0df18a	-0.008663544
195	0xbd905752	-0.07047905
196	0x3ee97eea	0.4560464
197	0xbd86e9b5	-0.06587545
198	0xbe8bae59	-0.27281454
199	0xbf16c1ef	-0.5888967
