models/weights_bak/layers_20_20_20_lr_1e-05.pt (torch, 8953 bytes, 7 tensors)

mlp.0.weight f4 [20, 31]
0	0x3e54976a	0.20760885
1	0xbd81e641	-0.063427456
2	0x3c558af2	0.013033615
3	0x3c8473af	0.016168443
4	0x3e0d88fa	0.13821784
5	0xbe151e83	-0.1456242
6	0xbd61e686	-0.055151485
7	0x3c90da1f	0.017682133
8	0xbd114bf7	-0.035472836
9	0xbc6b2473	-0.014351952
10	0xbd813211	-0.063083775
11	0xbd33711b	-0.043809038
12	0x3c91c945	0.017796168
13	0xbbaf9278	-0.0053580366
14	0xbe0565df	-0.13027142
15	0xbcb62d29	-0.02223833
16	0x3d5efd4b	0.054440778
17	0x3d8ebd43	0.069696926
18	0xbe21e98e	-0.1581175
19	0x3d840ce8	0.06447774
20	0xbe1052ab	-0.14094035
21	0xbe1e3ecb	-0.15453641
22	0xbf057edc	-0.521467
23	0xbd5e4f40	-0.054274797
24	0x3d11854b	0.03552751
25	0x3bd6304a	0.006536518
26	0xbc171d60	-0.009223312
27	0xbdb4da87	-0.08830743
28	0x3d64f68e	0.055899195
29	0xbd75f2e0	-0.060046077
30	0x3dd7ea2e	0.10542713
31	0x3e49d702	0.19710925
32	0xbad2d95c	-0.0016086507
33	0xbbdf6efe	-0.006818651
34	0xbc03685d	-0.008020488
35	0x3f18e903	0.5973055
36	0xbce31821	-0.027721466
37	0x3e008ab7	0.12552916
38	0xbddcbe0a	-0.107784346
39	0xbd773da4	-0.06036152
40	0x3e66b130	0.22528529
41	0x3d4e47f2	0.05036158
42	0xbdaff6e7	-0.08592015
43	0xbcea462d	-0.028597916
44	0xbcbae386	-0.02281357
45	0x3d9b5d7f	0.07586192
46	0xbdd1b988	-0.102404654
47	0x3e0186b2	0.12649038
48	0xbd48dfe8	-0.04904166
49	0x3d3caa11	0.046060625
50	0x3bb69805	0.0055723214
51	0xbba4b74c	-0.0050267335
52	0x3de85c69	0.11345751
53	0x3e1b35ee	0.15157291
54	0xbdd73e41	-0.10509921
55	0x3b80e75d	0.0039338307
56	0x3d87898a	0.0661803
57	0x3cf31dc2	0.029677276
58	0xbe4f96dd	-0.20272394
59	0xbe865584	-0.26237118
60	0x3bc1d093	0.0059147566
61	0xbdd52796	-0.10407941
62	0xbe861e3f	-0.2619495
63	0xbcdb4c3e	-0.026769754
64	0x3b0ff2de	0.0021964828
65	0x3d2b19ca	0.04177264
66	0xbfc451c2	-1.533745
67	0x3fcc21d3	1.5947822
68	0xbcf505b8	-0.029909953
69	0x3dad3778	0.084578454
70	0x3c2ca620	0.010537654
71	0x3bdd9d6e	0.006763152
72	0x3d801b89	0.06255252
73	0xbd9c0ea1	-0.07619978
74	0xbc7e5312	-0.015522735
75	0x3c3d815b	0.011566485
76	0x3c6a6848	0.014307089
77	0xbcd3b1c5	-0.025841603
78	0xbd5cf0fe	-0.053940766
79	0x3cf5d388	0.030008093
80	0x3d599856	0.053123794
81	0x3ce634c3	0.02810133
82	0xbc262645	-0.01014096
83	0x3c7d5bf4	0.015463818
84	0x3db97528	0.09055549
85	0xbd7be54c	-0.06149797
86	0xbc53db1b	-0.012930657
87	0xbd4f0625	-0.05054297
88	0xbea584ef	-0.32327983
89	0x3e7c3afb	0.24631874
90	0xbc0e8c34	-0.008700419
91	0x3d2da774	0.042396024
92	0x3e06e472	0.13173082
93	0xbeb29552	-0.34879547
94	0x3c2bf336	0.010494998
95	0x3b9144cb	0.0044332496
96	0x3c80a593	0.015703952
97	0x3c6055ae	0.013692303
98	0x3d1c38f4	0.038140252
99	0x3c14c34c	0.0090797655
100	0x3d4440c0	0.047913313
101	0x3e4f3623	0.20235495
102	0x3dfdd113	0.12393393
103	0x3d86b0b2	0.06576671
104	0x3d14319a	0.036180116
105	0x3daa32ab	0.083104454
106	0xba7fa394	-0.0009751853
107	0x3c578e29	0.013156452
108	0x3e1d5a63	0.15366511
109	0x3e2f4e1c	0.1711964
110	0x3d198b47	0.03748634
111	0xbdc1bd47	-0.0945993
112	0xbc97da61	-0.018536748
113	0xbc864e19	-0.016394662
114	0x3d7648b5	0.060127933
115	0xbe406836	-0.18789753
116	0xbebf28e0	-0.37335873
117	0xbe26a4c6	-0.16273794
118	0x3d217b70	0.03942436
119	0xbd065fb2	-0.032806106
120	0xbce55ca8	-0.027998284
121	0x3b8b0085	0.0042420053
122	0x3e5ca7c0	0.21548367
123	0x3e9910f4	0.29895747
124	0x3da9023c	0.08252379
125	0xbd2d2054	-0.04226716
126	0xbdc32777	-0.09529012
127	0x3e05f90d	0.13083287
128	0xbd873ecc	-0.066037744
129	0xbefb7d5b	-0.49119076
130	0x3d5de286	0.054171108
131	0x3e1f8bc4	0.1558066
132	0xbdc23a39	-0.09483761
133	0x3dbeeabc	0.09322116
134	0x3e06ba7e	0.13157079
135	0xbd912ad8	-0.0708825
136	0x3bf62364	0.007511543
137	0x3d89ad62	0.06722523
138	0xbd46daa4	-0.048548356
139	0xbd889d10	-0.06670582
140	0xbd338231	-0.043825332
141	0xb8e13a88	-0.00010739738
142	0xbd8e852e	-0.06958996
143	0x3e6324d6	0.2218202
144	0xbd686a13	-0.056741785
145	0x3d97686e	0.07392965
146	0x3d8dfe50	0.06933272
147	0xbe17aae4	-0.14811283
148	0xbd8799ab	-0.06621107
149	0x3de1aa3b	0.11018797
150	0xbd31d16d	-0.043412615
151	0x3d0149a7	0.03156438
152	0x3cd9941e	0.026559886
153	0x3d65d1d0	0.056108296
154	0xbe9834c2	-0.2972775
155	0xbd462be0	-0.048381686
156	0x3a91e3a9	0.001113047
157	0x3b60bad1	0.0034291039
158	0x3c297a8f	0.010344162
159	0x3f5bff64	0.8593657
160	0xbe55aefa	-0.2086753
161	0xbd4edc2b	-0.050502937
162	0x3d1068ad	0.035256077
163	0x3dc08984	0.09401229
164	0xbd4fde3a	-0.05074904
165	0x3cd6cb3a	0.026219953
166	0xbcbe24e8	-0.023210958
167	0xbbeab309	-0.007162456
168	0xbcb7ad12	-0.022421394
169	0xbb5f26ea	-0.0034050294
170	0xbb0faaca	-0.0021921867
171	0xbde6b397	-0.11264723
172	0x3d792bde	0.06083285
173	0x3c820618	0.015872046
174	0xbbc613e1	-0.00604485
175	0x3c0c0efa	0.008548493
176	0xbb9c2a2d	-0.00476577
177	0x3c213389	0.009838947
178	0x3e12c9c6	0.14334783
179	0xbdd4f269	-0.103977986
180	0xbda8cdc5	-0.082423724
181	0x3e7348a0	0.23758173
182	0xbf020e38	-0.50802946
183	0xbece22e7	-0.40261003
184	0x3e204a2d	0.15653296
185	0xbdd5b5b1	-0.104350455
186	0x3ee08edf	0.43859002
187	0x3a9bfebb	0.0011901477
188	0xbca26872	-0.019825194
189	0x3d96243e	0.073311314
190	0xbf3dce13	-0.7414257
191	0x3f2a1c84	0.6644976
192	0xbd3030c3	-0.043015253
193	0x3bb8643a	0.0056271823
194	0x3d685ccf	0.056729134
195	0xbc7ada66	-0.015310859
196	0xbbfaa299	-0.0076487777
197	0xbdddbea0	-0.108273745
198	0x3de1d866	0.11027603
199	0x3d641e16	0.055692755
200	0x3d40f50d	0.0471087
201	0xbe36848c	-0.17824
202	0xbbc68b59	-0.006059092
203	0x3dad58d0	0.08464205
204	0xbd76c811	-0.060249392
205	0xbcc15dbe	-0.02360427
206	0x3d01e7f9	0.031715367
207	0x3e05655c	0.13026947
208	0x3d4fcf7b	0.05073498
209	0x3e7b4017	0.24536167
210	0x3e81cb17	0.25350258
211	0x3c29c8c6	0.0103628095
212	0xbdf6f86f	-0.12059104
213	0xbe839203	-0.25697336
214	0x3ea9701d	0.33093348
215	0xbcfef6bc	-0.031123511
216	0xbe0b37ad	-0.13595457
217	0x3d7c2418	0.06155786
218	0x3c4ffacf	0.012694075
219	0xbce4b1ab	-0.02791675
220	0x3c3dc229	0.011581936
221	0xbf0bc775	-0.5460122
222	0x3f5e7dd4	0.8691075
223	0xbc0ca2ae	-0.008583708
224	0xbd406ad2	-0.04697687
225	0x3e06e821	0.13174488
226	0x390f3be8	0.0001365986
227	0x3d0213e1	0.03175724
228	0x3e8a1dda	0.269759
229	0xbe84c54c	-0.25931776
230	0xbd68b217	-0.056810465
231	0xbd874fea	-0.06607039
232	0x3d6e1718	0.058127493
233	0xbe62607d	-0.2210712
234	0xbc1af463	-0.00945768
235	0xbc86f344	-0.01647342
236	0x3ddfec5e	0.10933755
237	0x3e04935b	0.12946837
238	0xbda7e0bf	-0.08197164
239	0x3e33a9cf	0.17545246
240	0x3d0f83a6	0.03503766
241	0xbbb30ac3	-0.0054639294
242	0x3db17240	0.086643696
243	0x3cc86686	0.02446295
244	0x3d7c38f2	0.061577745
245	0xbdd2f789	-0.1030112
246	0x3d247c50	0.040157616
247	0x3e91d4f3	0.2848278
248	0x3d60ba4c	0.054865167
249	0xbb32c481	-0.002727777
250	0xbd0d8586	-0.034551166
251	0xbdaa3510	-0.08310902
252	0xbefdce84	-0.4957162
253	0x3ecba30d	0.39772835
254	0x3cd53f47	0.02603115
255	0xbe06b7a4	-0.13155991

mlp.0.bias f4 [20]
0	0xbebd1e44	-0.36937153
1	0xbeda1209	-0.42591885
2	0x3e4f12e0	0.20222044
3	0x3e3324af	0.17494462
4	0xbe9f5ca4	-0.31125367
5	0xbf5897b8	-0.84606504
6	0x3f20d0de	0.62818706
7	0x3ea3d833	0.32000884
8	0x3cbecb0f	0.023290185
9	0xbe16af61	-0.14715339
10	0x3f16ee45	0.5895732
11	0xbf4db7d0	-0.803586
12	0xbe06a300	-0.13148117
13	0x3e372de3	0.17888598
14	0xbd91d048	-0.071198046
15	0xbeeb7bd2	-0.45992905
16	0xbde4bcf4	-0.111688524
17	0x3d30e6ef	0.043188985
18	0xbdb28ae8	-0.087179005
19	0xbe6070fb	-0.21918099

mlp.2.weight f4 [20, 20]
0	0xbcfe5363	-0.031045621
1	0xbd4149fa	-0.04718969
2	0x3df6a896	0.12043874
3	0x3caccd79	0.02109407
4	0xbebc70fa	-0.36804944
5	0x3c454e2e	0.012042565
6	0xbe86c0da	-0.2631901
7	0xbd51d235	-0.05122586
8	0x3e5cf46e	0.21577618
9	0x3d5e790e	0.054314665
10	0xbc6aa5da	-0.014321769
11	0x3e80a31b	0.2512444
12	0x3e8a93df	0.27065942
13	0xbe5b1d95	-0.21398003
14	0x3db3f7e2	0.08787514
15	0x3d947cc9	0.072503634
16	0x3ea70f2a	0.32628757
17	0x3dfe25f0	0.1240958
18	0x3e12c139	0.14331521
19	0xbe1cbdd2	-0.15306786
20	0x3d051fbb	0.032500964
21	0xbd9db60e	-0.0770074
22	0x3d3f0542	0.046635874
23	0x3db80d43	0.089869045
24	0xbea6917a	-0.32532865
25	0x3e152620	0.14565325
26	0x3e2be793	0.16787557
27	0x3ec39ce2	0.3820563
28	0xbda4c7b9	-0.080459066
29	0xbe71b222	-0.23603109
30	0xbec26259	-0.37965658
31	0xbc2ccb1c	-0.010546472
32	0xbd94c520	-0.07264161
33	0x3e10a7ea	0.14126554
34	0x3ddd4b16	0.10805337
35	0xbe2bff2d	-0.1679656
36	0x3d737c92	0.05944497
37	0xbdcc1949	-0.0996576
38	0x3e864ca4	0.26230347
39	0xbe08ffe8	-0.1337887
40	0xbdd5e824	-0.10444668
41	0xbd29bdb6	-0.041440688
42	0x3e636c63	0.22209315
43	0x3e1dda68	0.15415347
44	0xbe610be9	-0.219772
45	0xbe18de67	-0.1492859
46	0x3ded45c6	0.11585574
47	0x3d917567	0.07102471
48	0xbe3bfe84	-0.18358809
49	0x3d69c201	0.057069782
50	0x3c4f9d3d	0.012671766
51	0x3c6dc59c	0.014512446
52	0xbd929399	-0.07157058
53	0x3dbab725	0.09116963
54	0x3d21cf86	0.03950455
55	0x3de826eb	0.11335548
56	0x3e3a2d31	0.18181302
57	0x3e20b280	0.15693092
58	0x3de46345	0.11151747
59	0xbea5acef	-0.323585
60	0xbe1fce10	-0.1560595
61	0xbe108cc9	-0.14116205
62	0x3e86e431	0.2634597
63	0x3de518dd	0.11186383
64	0x3da7f6c3	0.08201363
65	0x3d34b838	0.044120997
66	0xbe4e373f	-0.20138262
67	0x3e7d710e	0.24750158
68	0x3e3322fb	0.17493813
69	0x3b8e3d3c	0.004340796
70	0x3cfe96dd	0.031077797
71	0x3c213b04	0.009840731
72	0xbe3e2158	-0.18567407
73	0xbd888a1f	-0.066669695
74	0xbdc2cde5	-0.095119275
75	0x3d86b7c8	0.06578022
76	0x3dd34fe3	0.103179716
77	0xbe7a8540	-0.24464893
78	0xbd948396	-0.072516605
79	0x3d1aa80b	0.037757915
80	0x3e26e012	0.16296414
81	0x3e872a1c	0.26399314
82	0x3e7ad0ef	0.24493764
83	0x3e006467	0.125383
84	0xbe418e5d	-0.18901964
85	0x3eeb2bcb	0.4593185
86	0x3e8215ae	0.25407165
87	0x3d30d22d	0.04316919
88	0x3e582ec5	0.21111591
89	0xbbea4e58	-0.0071504526
90	0xbdd7ed84	-0.105433494
91	0xbde7d214	-0.11319366
92	0xbc90654a	-0.017626423
93	0x3e7b8d9d	0.2456574
94	0xbd7ecaf4	-0.06220527
95	0xbec6d803	-0.3883668
96	0x3d87511a	0.06607266
97	0xbd4c54b9	-0.049885485
98	0x3d8b651e	0.06806396
99	0x3f68ebc4	0.9098475
100	0x3dc9037a	0.09815116
101	0x3e04e4da	0.12977925
102	0xbe05664b	-0.13027303
103	0x3e8859a3	0.26630887
104	0xbe0ec105	-0.13940819
105	0x3e071d55	0.13194783
106	0x3e7fd28e	0.24982664
107	0xbd0d3970	-0.034478605
108	0xbbf716ae	-0.0075405454
109	0x3d4c890a	0.049935378
110	0x3ec86e3b	0.391466
111	0x3ec3784c	0.38177717
112	0x3d5b170d	0.05348878
113	0xbdfed1a2	-0.12442328
114	0xbbdd905f	-0.006761595
115	0xbd2db4de	-0.042408817
116	0x3d7014cd	0.058613587
117	0x3e5d4f10	0.21612191
118	0x3e8e8302	0.27834326
119	0xbeb34614	-0.35014403
120	0xbdc011b4	-0.093783766
121	0x3dc3da87	0.09563165
122	0xbe4adc38	-0.1981057
123	0x3d1000e6	0.035157107
124	0xbce713ee	-0.028207745
125	0xbe333baa	-0.17503229
126	0xbddd166c	-0.10795292
127	0xbe3c91b4	-0.18414956
128	0xbe4304fb	-0.19044869
129	0xbd9d25ef	-0.07673251
130	0x3d9d069b	0.076672755
131	0x3e22672b	0.15859668
132	0x3dc3d6bb	0.09562441
133	0x3e5ba4fe	0.21449658
134	0x3e0a6896	0.13516459
135	0xbe015b18	-0.12632406
136	0x3e0dc767	0.13845597
137	0xbd0015db	-0.031270843
138	0xbdf0b32c	-0.11752924
139	0xbda035b5	-0.07822744
140	0xbe2f792b	-0.17136066
141	0x3d8720de	0.06598066
142	0xbd331a67	-0.04372635
143	0xbe015c79	-0.12632932
144	0xbde60af2	-0.112325564
145	0x3e4b75f6	0.19869217
146	0xbda31c00	-0.07964325
147	0xbdaf5a1c	-0.08562109
148	0xbddc6b33	-0.10762634
149	0x3c431a40	0.011908114
150	0x3def4634	0.11683312
151	0x3dc89cc5	0.097955264
152	0xbbd176af	-0.006392322
153	0xbdc87fdb	-0.097900115
154	0x3bc89935	0.0061217793
155	0x3cffb171	0.03121254
156	0x3e27df0d	0.16393681
157	0xbdfe81d6	-0.12427108
158	0x3e34c41f	0.1765294
159	0x3d29cd0d	0.041455317
160	0xbe3d7ff6	-0.18505844
161	0x3e1f33b9	0.15547074
162	0x3dd4e416	0.103950664
163	0xbd76c130	-0.06024283
164	0x3e13edda	0.14446202
165	0x3e16fd99	0.14745177
166	0x3e27561b	0.1634144
167	0x3e448807	0.19192515
168	0xbe4bc060	-0.19897604
169	0xbd5ee908	-0.054421455
170	0xbe1f0d1e	-0.15532348
171	0xbcea2ab7	-0.028584821
172	0xbca71526	-0.020395827
173	0xbce2d914	-0.027691402
174	0xbd4182a1	-0.047243718
175	0x3ee15085	0.44006744
176	0x3d4e47c5	0.050361414
177	0xbe2cb5ec	-0.16866273
178	0x3e3d778c	0.18502635
179	0x3f1a03f2	0.6016227
180	0x3e29b00b	0.16571061
181	0xbcd7f049	-0.026359694
182	0xbe376a27	-0.17911588
183	0x3d9f479e	0.07777332
184	0xbe06d21f	-0.13166092
185	0xbde69692	-0.11259188
186	0xbd20ee73	-0.039289903
187	0xbcb618f4	-0.022228695
188	0xbdb5e025	-0.08880643
189	0x3dc9110d	0.09817705
190	0xbe592a28	-0.21207488
191	0xbd81d70a	-0.063398436
192	0xbdff365d	-0.12461541
193	0xbe4c9f1b	-0.19982569
194	0xbe2e60eb	-0.17029159
195	0xbccf00cb	-0.025268933
196	0x3d466c1b	0.04844294
197	0xbe42dafc	-0.19028848
198	0x3e03f5d3	0.12886743
199	0xbe544a7c	-0.20731539
200	0x3e7eeeca	0.24895778
201	0x3d935f14	0.07195869
202	0x3d19a511	0.037510935
203	0x3ecc4ae3	0.39900884
204	0xbe3de95e	-0.18546054
205	0x3e46f2da	0.19428578
206	0xbe7bb1a7	-0.24579488
207	0x3da9a495	0.08283345
208	0xbe1aab7b	-0.15104477
209	0xbd9d57b8	-0.07682747
210	0x3e976c24	0.29574692
211	0xbe6c5c2c	-0.23082036
212	0xbab9f001	-0.0014185907
213	0xbdcea48f	-0.10089981
214	0x3e2acb2e	0.1667907
215	0xbf2afc0b	-0.6679084
216	0xbecb0cee	-0.39658302
217	0x3e4bd606	0.19905862
218	0x3db85a9d	0.09001658
219	0x3f062d1b	0.52412575
220	0xbe06fbef	-0.13182043
221	0x3e079258	0.1323942
222	0x3eb72526	0.3577053
223	0x3df43bb4	0.1192545
224	0xbdc6a47e	-0.09699343
225	0x3eafd4a7	0.34341928
226	0x3e9bd598	0.30436397
227	0x3db2ee6e	0.08736883
228	0x3e4130a9	0.18866219
229	0xbcd7ca1f	-0.026341496
230	0xbe13dd1c	-0.14439815
231	0xbc53d89e	-0.0129300635
232	0x3c9229f4	0.01784227
233	0x3e8db533	0.27677307
234	0xbdcc6b7c	-0.099814385
235	0xbf254b2a	-0.64567816
236	0x3df313d7	0.118690185
237	0x3d43d7b3	0.04781313
238	0x3dd32e5f	0.10311579
239	0x3f98e8b1	1.1946012
240	0x3b67ee4d	0.003538984
241	0x3cba6a52	0.022755776
242	0xbdc84663	-0.0977905
243	0xbcc2e626	-0.023791384
244	0xbd21664d	-0.039404202
245	0xbcc27b29	-0.023740368
246	0x3e49e4d6	0.197162
247	0xbd05deef	-0.03268331
248	0x3de14be8	0.11000806
249	0x3e312c25	0.17301996
250	0x3d72b3c7	0.05925348
251	0x3e1b79c0	0.15183163
252	0x3e4cdf55	0.2000707
253	0xbd9d1d62	-0.0767162
254	0x3e6ad66b	0.22933356
255	0x3e3b2d51	0.18279006

mlp.2.bias f4 [20]
0	0xbc56d2dc	-0.013111796
1	0xbe2e521d	-0.17023511
2	0x3e86743d	0.26260558
3	0x3cf0d2e7	0.029397441
4	0x3ed794b1	0.4210563
5	0x3f0f9531	0.56087023
6	0xbe6b2a76	-0.22965416
7	0xbe57b6b8	-0.21065795
8	0x3ca054ef	0.01957175
9	0xbd7e8f0f	-0.06214815
10	0x3ebb6ca7	0.36606333
11	0x3f691b7a	0.9105755
12	0xbe102e09	-0.14080061
13	0x3e94e30b	0.2907947
14	0x3c69a644	0.014260832
15	0xbe01fbbb	-0.12693684
16	0xbe30f77d	-0.1728191
17	0x3e6fd8a5	0.23422487
18	0xbc5e555d	-0.013570157
19	0xbf737aeb	-0.9510943

mlp.4.weight f4 [20, 20]
0	0x3d4b529a	0.049639322
1	0xbda71de4	-0.08159998
2	0xbc422b92	-0.011851208
3	0xbdedc237	-0.11609309
4	0x3df269a1	0.11836553
5	0x3d2ecfdc	0.0426787
6	0xbe29f3b0	-0.16596866
7	0xbe1a255a	-0.15053311
8	0xbe219f6f	-0.15783475
9	0x3e103ef2	0.14086512
10	0xbe3193e8	-0.17341578
11	0xbde3f4f5	-0.11130706
12	0x3d1dd6f0	0.03853506
13	0x3e467f4c	0.19384497
14	0x3e780b64	0.24223095
15	0x3d9c9dbe	0.076472744
16	0x3e14a6d9	0.14516772
17	0x3e65af77	0.22430216
18	0x3e2e1ba0	0.17002726
19	0xbdb9a51c	-0.09064695
20	0xbde60de2	-0.11233117
21	0xbc9e562f	-0.019328205
22	0xbe32f784	-0.17477232
23	0x3de4c394	0.11170116
24	0xbdae5429	-0.08512146
25	0xbdfeff3a	-0.12451024
26	0x3d94304c	0.072357744
27	0x3d53f926	0.05175128
28	0x3d25fb4d	0.040522862
29	0x3ca381a3	0.019959277
30	0xbd86998a	-0.06572254
31	0xbe10bf68	-0.14135516
32	0x3de92aad	0.11385093
33	0xbc352d54	-0.01105817
34	0xbcf7c731	-0.030246349
35	0xbe2f44aa	-0.17116037
36	0x3df9eb45	0.12203077
37	0x3bcb03a7	0.0061955038
38	0x3d6fd08f	0.058548506
39	0xb9ae86d1	-0.00033288312
40	0x3e85e334	0.26149905
41	0xbd864b98	-0.06557387
42	0x3ea746fe	0.3267135
43	0x3e0f9b80	0.14024162
44	0xbe509c1b	-0.2037205
45	0x3e84cd6d	0.25937977
46	0x3dd6173e	0.10453652
47	0xbc54dacb	-0.012991617
48	0xbe01c531	-0.12672879
49	0x3cec4e6e	0.028845992
50	0xbee6346b	-0.44961867
51	0xbea55bfd	-0.32296744
52	0xbe81de2b	-0.25364813
53	0x3e97766d	0.2958254
54	0x3ea44c73	0.32089576
55	0xbe4646db	-0.19362967
56	0x3e6947ac	0.22781247
57	0x3dbf8763	0.09351995
58	0xbdfda563	-0.12385061
59	0xbe813f96	-0.25243825
60	0x3d418f7c	0.047255978
61	0xbd390e53	-0.045179676
62	0xbe1ffee3	-0.15624575
63	0xbe2999e0	-0.16562605
64	0x3e186979	0.14883985
65	0xbc086d25	-0.008326803
66	0xbe356fc9	-0.17718424
67	0x3e09030b	0.13380067
68	0x3e3a97e4	0.18222004
69	0xbe41cf5c	-0.18926758
70	0xbddc5d65	-0.10760001
71	0xbdbbbffc	-0.091674775
72	0xbd9c773a	-0.07639928
73	0x3e3aaa5f	0.18229054
74	0x3e3211b4	0.17389566
75	0xbdd92532	-0.106027976
76	0x3e7d91ba	0.24762622
77	0x3d80fdc5	0.06298403
78	0x3e21bf67	0.1579567
79	0xbe63e444	-0.22255045
80	0xbbf1a368	-0.007374216
81	0x3dba8822	0.091079965
82	0xbd8fb214	-0.070163876
83	0x3e5c5846	0.21518049
84	0xbd7681d3	-0.060182404
85	0x3e381428	0.17976439
86	0x3e58d6a3	0.21175627
87	0xbe705f06	-0.23473749
88	0x3dec024e	0.11523877
89	0xbd23489d	-0.03986417
90	0xbe26bc4b	-0.16282766
91	0xbe561dff	-0.2090988
92	0x3da6efe6	0.08151226
93	0x3e944aa4	0.28963196
94	0x3d31f1ab	0.043443363
95	0xbe709a67	-0.234964
96	0x3e700cc3	0.23442368
97	0x3e16627d	0.14686008
98	0x3e3c9779	0.18417157
99	0xbe81f0a7	-0.25378916
100	0x3e39d353	0.1814702
101	0x3d2d10b3	0.042252254
102	0xbe648002	-0.22314456
103	0x3c4436e6	0.011975979
104	0x3cc03366	0.023462009
105	0x3c44cbee	0.012011511
106	0xbd01fb85	-0.03173401
107	0x3dfc3969	0.123156376
108	0xbdb54170	-0.08850372
109	0xbe024002	-0.1271973
110	0x3de6f3ac	0.112769455
111	0xba7b9f6d	-0.00095986464
112	0x3d2c3c71	0.04204983
113	0x3dfda11b	0.12384244
114	0xbe4e480b	-0.2014467
115	0xbd16f029	-0.03685013
116	0x3e2810d7	0.16412674
117	0xbe5ede1b	-0.21764414
118	0x3c997c53	0.01873604
119	0xbd46e890	-0.048561633
120	0x3d30e2f4	0.04318519
121	0x3da64030	0.081177115
122	0xbdd7836e	-0.10523115
123	0xbd6c3a9b	-0.057673078
124	0x3e3626c6	0.17788228
125	0xbe559deb	-0.20861022
126	0xbd047e28	-0.032346874
127	0xbe0302a4	-0.12793976
128	0x3e70626e	0.23475048
129	0x3e20e8d8	0.15713823
130	0xbe323a4a	-0.17405048
131	0x3e667a20	0.22507524
132	0x3d4895ac	0.048970863
133	0xbdd93f02	-0.10607721
134	0x3e134410	0.14381433
135	0x3e4860fe	0.1956825
136	0xbdf38979	-0.11891455
137	0xbe855a7e	-0.26045603
138	0xbe2edf66	-0.17077407
139	0x3e721765	0.23641737
140	0xbb949d41	-0.0045353477
141	0xbc59d8f7	-0.013296357
142	0x3e3c6e95	0.18401559
143	0x3e6eb359	0.23310603
144	0xbe8994b5	-0.26871267
145	0x3e8c923f	0.27455327
146	0x3e408b14	0.18803054
147	0xbe400ed7	-0.18755661
148	0xbe192cb9	-0.14958467
149	0x3dd5add4	0.10433546
150	0xbe1805b0	-0.1484592
151	0xbdd4afb1	-0.10385073
152	0xbe00abb6	-0.12565503
153	0x3e1ca7d8	0.15298402
154	0x3eb5412b	0.35401282
155	0xbd8accd5	-0.0677735
156	0xbd742d64	-0.0596136
157	0x3d58dcbf	0.052944895
158	0xbde8b1c2	-0.113620296
159	0xbead0dcd	-0.33799592
160	0xbe328fe9	-0.1743771
161	0x3e905976	0.28193253
162	0x3d26ceb4	0.04072447
163	0x3dbf03b1	0.09326876
164	0x3c4744ed	0.012162429
165	0x3ddddb71	0.10832871
166	0x3da59364	0.08084753
167	0xbd0258eb	-0.03182308
168	0x3e9096dd	0.282401
169	0x3dfc1312	0.12308325
170	0x3e4ec24a	0.20191303
171	0x3e81e40b	0.25369295
172	0xbd5f6b4f	-0.054545697
173	0xbe083467	-0.1330124
174	0xbe4d90ca	-0.20074764
175	0x3e3fa8c5	0.18716724
176	0x3d073f12	0.033019133
177	0xbd524b13	-0.051341128
178	0xbe430625	-0.19045313
179	0x3e2f21d3	0.17102747
180	0x3e2d7f64	0.16943127
181	0x3e25a206	0.16175088
182	0xbdfb7ad1	-0.12279285
183	0x3df63b93	0.12023082
184	0x3e5670d8	0.20941484
185	0xbe8c7bb3	-0.27438125
186	0xbe424c48	-0.18974411
187	0xbd74b927	-0.059746888
188	0xbe21d235	-0.15802844
189	0x3e370ea9	0.17876686
190	0x3e887a97	0.2665603
191	0x3de4d4d4	0.11173406
192	0x3e5db542	0.21651176
193	0xbe854a26	-0.26033133
194	0xbb5600e5	-0.0032654342
195	0x3e82416c	0.25440538
196	0xbd6b9661	-0.05751646
197	0x3cd6a7d3	0.026203072
198	0xb92cd0a6	-0.00016480926
199	0x3daca8da	0.084306434
200	0x3d72ea3e	0.059305422
201	0xbe2931fd	-0.16522975
202	0x3e7b09d0	0.24515462
203	0x3e1a17c4	0.15048128
204	0xbd8b405c	-0.06799385
205	0x3d9d4722	0.07679583
206	0xbe5ad50e	-0.21370336
207	0x3e5819f0	0.21103644
208	0xbdee3b04	-0.1163235
209	0xbd93f126	-0.0722373
210	0xbe6977f6	-0.22799668
211	0xbdeea90e	-0.116533384
212	0x3e2f1f52	0.17101792
213	0x3e069e0b	0.13146226
214	0x3e816f1f	0.2528009
215	0xbd2d6216	-0.04232987
216	0x3d95d739	0.07316441
217	0x3e9d6f05	0.30748764
218	0xbd74622d	-0.05966394
219	0xbecb2b6d	-0.3968157
220	0x3e3f44c6	0.18678579
221	0xbe09b3c6	-0.13447484
222	0x3dd79959	0.105272956
223	0xbdf67b74	-0.120352656
224	0xbed89dea	-0.4230798
225	0x3e26303d	0.16229339
226	0x3dc82287	0.097722106
227	0xbe2c9ac4	-0.16855913
228	0xbb649551	-0.0034879039
229	0xbe5527ac	-0.20815915
230	0x3e1e825a	0.15479413
231	0xbf6405d5	-0.890714
232	0x3e720b24	0.23637062
233	0x3e5ad49e	0.2137017
234	0x3f192dec	0.59835696
235	0x3d97dfd7	0.07415741
236	0xbdc89314	-0.09793678
237	0x3e88f070	0.2674594
238	0xbe08f295	-0.13373788
239	0xbe86df33	-0.26342162
240	0xbe0480e2	-0.1293979
241	0x3d8d1e61	0.0689056
242	0x3d017149	0.031602178
243	0x3e0c9164	0.13727337
244	0x3f0c8c6a	0.54901755
245	0xbdc0ed8c	-0.094203085
246	0x3e1fc058	0.15600717
247	0x3d33250a	0.043736495
248	0x3e674119	0.22583427
249	0x3e3847bf	0.17996119
250	0x3ebe6dbf	0.37193105
251	0x3f1c1eb9	0.6098438
252	0x3e8a2e15	0.26988283
253	0x3bb3695e	0.005475207
254	0xbec53449	-0.38516453
255	0x3edf1ade	0.43575186

mlp.4.bias f4 [20]
0	0xbe6d13e5	-0.2315212
1	0x3c3e589d	0.011617807
2	0x3f2d46fd	0.67686445
3	0x3e725a4d	0.2366726
4	0x3e8f2535	0.27958074
5	0xbe06f857	-0.13180672
6	0xbe818704	-0.2529832
7	0x3f02c19b	0.5107667
8	0xbdb59235	-0.088657774
9	0x3dcdba5d	0.100453116
10	0x3e3e33cd	0.18574448
11	0x3ee2c2ef	0.44289348
12	0xbe79208a	-0.24328819
13	0xbe7bf9e7	-0.24607049
14	0xbe2007f2	-0.15628031
15	0x3dcbd5a1	0.09952856
16	0xbdb3ffc8	-0.08789021
17	0xbae65fd8	-0.0017576171
18	0x3dc84aab	0.09779867
19	0x3f1c32b0	0.61014843

mlp.6.weight f4 [1, 20]
0	0xbe86139e	-0.26186842
1	0x3daeb5a5	0.0853074
2	0xbf86cb62	-1.0530818
3	0xbe921207	-0.2852938
4	0xbf023510	-0.50862217
5	0xbdec5fa1	-0.11541677
6	0x3f04d999	0.5189453
7	0xbf3a05b0	-0.7266493
8	0x3ef97295	0.48720232
9	0x3eb779fe	0.3583526
10	0xbf16aa59	-0.5885368
11	0xbfa61222	-1.2974284
12	0x3f9c17aa	1.2194722
13	0x3fb3f0f6	1.405791
14	0xbe1897e5	-0.14901693
15	0xbe8178f3	-0.2528759
16	0xbd216933	-0.039406966
17	0x3da51165	0.08059958
18	0x3e813234	0.25233614
19	0xbfa6e269	-1.3037845
