models/weights_bak/layers_20_20_drop_lr_0.0001.pt (torch, 6775 bytes, 5 tensors)

mlp.0.weight f4 [20, 31]
-0.37149602 -0.08050805 0.019688109 -0.012358215 -0.27730012 -0.7080518 -0.017503304 0.010693042
0.106899805 0.04310832 -0.06375598 -0.02948476 0.11081477 0.012503267 0.09136186 0.0055015706
-0.0564311 0.109915584 0.023506027 0.016189039 0.024532914 0.07560025 -0.030899812 0.060312208
-0.27192813 -0.11732358 0.12343498 -0.3773762 -0.30778277 0.036323223 -0.14511092 0.3813834
-0.027954675 -0.022288527 0.04535953 0.33656585 -0.6936185 -0.035757028 0.08022654 -0.073180206
0.052944805 0.06724409 -0.054810304 0.054762844 -0.15877704 0.19404086 -0.027243251 0.02553193
0.08814945 -0.13993591 -0.060224023 0.06537056 -0.0094458945 0.0030308636 0.029868754 -0.12510917
0.09233156 0.08757955 0.15256298 0.07713031 -0.27510202 0.033150747 -0.02962687 -0.007190889
-0.004009857 0.049697846 -0.7845218 0.8860944 -0.06440445 -0.079025924 0.10043724 0.00082232914
0.018652288 0.16984147 -0.012217469 -0.022004459 0.082670845 0.10234375 -0.10336897 0.18821456
0.007578706 0.016016265 -0.017536981 0.037704702 0.08315231 0.045881804 -0.009185794 0.097331375
-0.28298545 0.0042621014 0.0094945645 0.035472628 -0.025485154 -0.0083604315 -0.04905187 -0.08724951
0.084465 -0.4036234 -0.72805375 -0.16349015 -0.17082715 -0.013551076 0.043472394 0.055556685
-0.0719412 0.14784847 -0.04748468 -0.007635881 -0.04404961 0.111461595 -0.20706001 -0.102548935
-0.0062568723 -0.05971186 -0.033442724 -0.17542483 -0.015713142 -0.2145073 -0.10830747 0.07595973
-0.18354803 0.24448171 -0.17028037 0.27959996 0.00011305538 0.05678802 -0.0065805414 0.0677475
-0.77228165 1.0074447 -0.08223981 0.13075225 -0.042368896 0.18067141 0.122053 -0.21742077
0.027572775 0.009934977 0.07004523 -0.14017299 0.06693515 0.01689791 -0.012165775 0.07432867
0.00014832817 0.1460828 0.1273083 0.091666 -0.1330379 0.008844694 -0.14252046 -0.21462211
0.059465736 0.043213993 0.18797913 0.14787845 -0.02706687 -0.002975083 -0.00034384493 0.9616299
-0.17661476 -0.062777996 0.022858296 0.017938953 0.03572721 0.12075195 -0.105027325 -0.002489645
-0.020283123 0.024496604 0.014055391 -0.09259113 0.10196552 0.03563985 -0.004537343 0.038290285
0.00052016566 -0.07150654 -0.030373532 0.08410691 0.10036451 0.19284803 -0.8069524 -0.45528084
0.235214 -0.15648092 -0.093650594 -0.056873236 -0.03219765 -0.060542863 0.20550513 -0.1626188
0.04864069 -0.071582764 -0.16945349 -0.055842634 0.028540783 0.35882282 -0.16175523 -0.05224024
-0.009764848 0.096837014 -0.11582684 -0.11212671 0.15864885 0.09495156 0.005767588 0.0052385703
0.056823622 -0.044950888 -0.20766105 0.1300472 -0.057101373 0.08176834 -0.09773333 0.26026356
0.22432765 0.064076334 -0.052602917 0.03288108 -0.025967391 0.40811905 -0.40420437 -0.06268766
-0.0015881959 0.10340864 -0.041346204 0.08817175 0.0015082825 -0.12867661 -0.02643401 -0.02909732
0.052645292 0.04336772 0.06991824 0.024435418 -0.06712442 0.05034791 -0.034343157 -0.6945499
-0.12783052 -0.01763602 0.049764406 -0.33395946 0.017815325 -0.031363398 -0.06667096 0.03689727
-0.124737516 -0.00087735837 -0.014509654 -0.037114337 0.55411863 0.37108284 0.004098941 0.003529729
00000000: ba34 bebe 68e1 a4bd f548 a13c 1c7a 4abc
00000010: 48fa 8dbe e242 35bf 1763 8fbc de31 2f3c
00000020: 49ee da3d 5a92 303d 7f92 82bd 068a f1bc
00000030: dbf2 e23d 81da 4c3c ed1b bb3d 8546 b43b
00000040: 4c24 67bd 6c1b e13d b68f c03c e09e 843c
00000050: 40f9 c83c 4ed4 9a3d 9a21 fdbc ef09 773d
00000060: 2a3a 8bbe 5847 f0bd 7bcb fc3d 7437 c1be
00000070: b495 9dbe a9c7 143d f597 14be af44 c33e
00000080: 3401 e5bc 6e96 b6bc eaca 393d 5c52 ac3e
00000090: fb90 31bf f675 12bd d04d a43d 81df 95bd
000000a0: a7dc 583d 45b7 893d c580 60bd 014f 603d
000000b0: 7396 22be a6b2 463e 3d2d dfbc 5728 d13c
000000c0: b387 b43d 5c4b 0fbe 77ad 76bd 00e1 853d
000000d0: f4c2 1abc 74a1 463b 51af f43c 9e1c 00be
000000e0: 5418 bd3d e85c b33d 7839 1c3e 7ff6 9d3d
000000f0: 2cda 8cbe 14c9 073d 0db4 f2bc 8da1 ebbb
00000100: 1e65 83bb f88f 4b3d 6cd6 48bf 15d7 623f
00000110: 7be6 83bd 58d8 a1bd 0ab2 cd3d 9391 573a
00000120: afcc 983c ecea 2d3e c72b 48bc b242 b4bc
00000130: 554f a93d 9a99 d13d 1cb3 d3bd 51bb 403e
00000140: cb56 f83b 8b34 833c b7a9 8fbc 3f70 1a3d
00000150: c24b aa3d 8fee 3b3d 0380 16bc ac55 c73d
00000160: 78e3 90be 19a9 8b3b 178f 1b3c bf4b 113d
00000170: 3ec6 d0bc 31fa 08bc 9dea 48bd dfaf b2bd
00000180: fcfb ac3d baa7 cebe bb61 3abf f669 27be
00000190: 50ed 2ebe 5505 5ebc 1c10 323d 688f 633d
000001a0: e855 93bd 9765 173e 4c7f 42bd 6a36 fabb
000001b0: 5d6d 34bd fa45 e43d 8a07 54be 2d05 d2bd
000001c0: 7306 cdbb 6c94 74bd 3dfb 08bd 91a2 33be
000001d0: d9b8 80bc cda7 5bbe 4fd0 ddbd c690 9b3d
000001e0: 04f4 3bbe 6a59 7a3e fa5d 2ebe ba27 8f3e
000001f0: 2518 ed38 8e9a 683d 95a1 d7bb 34bf 8a3d
00000200: 40b4 45bf f3f3 803f 586d a8bd ebe3 053e
00000210: 028b 2dbd ed01 393e ecf6 f93d 8da3 5ebe
00000220: 4de0 e13c 50c6 223c e073 8f3d 8289 0fbe
00000230: 4c15 893d 7c6d 8a3c f552 47bc a139 983d
00000240: 8a88 1b39 bb96 153e 1b5d 023e 62bb bb3d
00000250: 163b 08be 56e9 103c e2f0 11be e6c5 5bbe
00000260: 5892 733d 2801 313d 9a7d 403e 736d 173e
00000270: 57bb ddbc 9cf9 42bb 1646 b4b9 612d 763f
00000280: 80da 34be c091 80bd 5241 bb3c b6f4 923c
00000290: b256 123d cc4c f73d 9118 d7bd 5029 23bb
000002a0: cb28 a6bc 1aad c83c 9548 663c 6ba0 bdbd
000002b0: 4cd3 d03d 17fb 113d fead 94bb 46d6 1c3d
000002c0: ba5b 083a 0572 92bd ead1 f8bc 3e40 ac3d
000002d0: e98b cd3d f479 453e 6f94 4ebf 921a e9be
000002e0: f0db 703e 893c 20be e2cb bfbd e9f3 68bd
000002f0: afe1 03bd cbfb 77bd f06f 523e 8b85 26be
00000300: 763b 473d fc99 92bd 3785 2dbe 3fbb 64bd
00000310: 5cce e93c a0b7 b73e 2aa3 25be ddf9 55bd
00000320: befc 1fbc 7c52 c63d 9f36 edbd b0a2 e5bd
00000330: d874 223e f775 c23d 09fe bc3b 50a8 ab3b
00000340: e3bf 683d 6c1e 38bd 19a5 54be 182b 053e
00000350: 21e3 69bd 2976 a73d 6a28 c8bd 4441 853e
00000360: 26b6 653e 743a 833d 2876 57bd 50ae 063d
00000370: 91b9 d4bc fbf4 d03e e0f3 cebe 6362 80bd
00000380: 032b d0ba e9c7 d33d a35a 29bd 6493 b43d
00000390: 90b1 c53a cdc3 03be 238c d8bc 815d eebc
000003a0: 97a2 573d 5aa2 313d 4b31 8f3d c92c c83c
000003b0: 8778 89bd 9c39 4e3d 69ab 0cbd 06ce 31bf
000003c0: 01e6 02be 6a79 90bc c3d5 4b3d bcfc aabe
000003d0: 72f1 913c e876 00bd c98a 88bd 9721 173d
000003e0: 6276 ffbd 86fe 65ba e6b9 6dbc 3405 18bd
000003f0: b8da 0d3f 92fe bd3e 6950 863b 0753 673b

mlp.0.bias f4 [20]
-0.57952625 0.016380195 -0.08106733 -0.113203906 -0.10221645 -0.92363745 0.20075087 -0.24494475
0.47867417 0.23687388 -0.21425949 -0.20110157 0.10657952 -0.44788876 0.28177908 -1.2932594
0.0554322 0.122589774 -1.5833813 -0.48978093
00000000: d55b 14bf c22f 863c a106 a6bd 73d7 e7bd
00000010: dc56 d1bd 8173 6cbf a391 4d3e ccd2 7abe
00000020: c814 f53e 118f 723e d766 5bbe 92ed 4dbe
00000030: 5d46 da3d ad51 e5be 5945 903e 8689 a5bf
00000040: e00c 633d 5910 fb3d 3dac cabf 91c4 fabe

mlp.2.weight f4 [20, 20]
0.102355964 0.0767772 -0.14550586 0.0134387 -0.19328485 -0.16095342 0.052723866 0.10100057
-0.18973605 0.1781549 -0.023281652 -0.16578884 -0.045672394 -0.012340569 0.19763589 0.15619916
0.097284436 0.057884064 -0.4900576 -0.49866122 -0.062637664 -0.066719934 0.18746027 -0.17714012
0.10401745 0.46105212 0.09924647 0.05449723 0.021041842 0.119605705 0.24652474 0.019362448
-0.015867176 0.1653621 -0.15539752 -0.27159777 -0.089606345 -0.12288354 -0.030569063 1.8549691
-0.41792306 -0.025870338 -0.06171357 -0.28541562 0.102668956 0.6541546 0.15702836 0.09841019
0.27464747 0.14383885 0.20253569 0.12479785 0.009624265 0.21238127 -0.51945806 -0.1651002
-0.10055652 -0.22714669 -0.06982612 1.2605302 -0.2447952 0.08512957 -0.04088744 0.097052805
-0.235229 -0.23608916 -0.061297964 0.26764485 0.04309987 -0.22085114 -0.0029148352 -0.11779747
0.11182095 -0.15568347 0.02877314 0.5137143 0.071817406 0.041698653 0.04751501 -0.20980053
0.22726503 0.072872326 -0.12211872 -0.006460693 -0.15209393 -0.04037365 0.05290451 0.19141296
-0.035205558 0.01831785 0.13554448 0.022000486 0.09639146 -0.3591925 0.1344195 0.598441
0.05767698 0.09738056 -0.8062504 -0.951355 0.06952428 0.0014325177 0.018282626 0.07209157
-0.3055862 -0.43894866 0.14077294 0.24810293 -0.24578398 0.10564573 -0.11983468 -0.27148172
-0.09211953 0.06340823 0.17122048 0.66609466 0.18405858 0.1301635 -0.34728503 -0.55115217
0.10732605 0.1402924 -0.16963601 0.109137096 -0.15530667 -0.19127704 0.06720133 0.15431836
-0.043959696 0.26608887 0.01067617 -0.15709168 0.123453274 -0.22008812 0.19683784 0.58286697
0.12465701 -0.0048860945 -0.78346765 -0.8265881 0.49329013 -0.17871873 0.26290414 0.3602764
-0.061432213 0.5847602 -0.15827285 -0.12319002 0.22812709 -0.1648371 0.32273972 -0.03576515
-0.09609752 0.4460029 0.24656296 -0.2339229 -0.13421851 -0.17803791 0.5698528 0.37865305
-0.18711856 0.09493757 -0.17991056 0.14118229 -0.020051433 -0.036790755 -0.055129465 0.22290452
0.15408783 -0.17567311 -0.16305068 -0.2906021 -0.09029342 -0.16570772 -4.9669627e-05 0.053505335
0.12791958 -0.07098132 0.17140993 -0.1510061 0.037138283 -0.08920082 0.22491552 -0.1661758
0.17923272 0.43016136 0.0882715 0.056326635 0.0026899541 0.10185043 0.107916705 0.07314855
0.008958436 0.12120811 -0.08475476 -0.31283936 0.062452 -0.069215864 -0.08574132 1.6644968
-0.008454327 0.029264648 -0.006853271 -0.17534325 -0.14922224 -0.12531991 -0.1422544 -0.06952551
-0.20264134 -0.17659062 -0.053724915 -0.07979082 0.02997787 -0.18054692 -0.063918695 0.15437198
-0.1489829 0.110143356 -0.1080154 0.08872055 0.023375407 -0.25754756 -0.07452517 0.076699205
0.024191558 0.12686841 0.0252858 -0.10901086 0.09798165 -0.17611444 -0.057978086 0.11336828
-0.15085168 -0.009499544 -0.09907153 -0.10941211 0.0071641253 0.21996842 0.07155605 -0.22934845
0.18460825 0.11484286 -0.10567619 0.065706335 -0.0842654 -0.18377793 -0.002772769 0.25440615
-0.12165319 -0.030872531 -0.009505954 -0.07741136 0.030340966 -0.03535465 0.13568777 0.5778763
00000000: 01a0 d13d 5d3d 9d3d 7dff 14be fe2d 5c3c
00000010: 77ec 45be f9d0 24be fbf4 573d 63d9 ce3d
00000020: 2b4a 42be 3d6e 363e 2ab9 bebc 8dc4 29be
00000030: fa12 3bbd 1930 4abc 1061 4a3e acf2 1f3e
00000040: 103d c73d d717 6d3d d4e8 fabe 8650 ffbe
00000050: 2d48 80bd 76a4 88bd 96f5 3f3e 3864 35be
00000060: 1a07 d53d 060f ec3e bc41 cb3d 7d38 5f3d
00000070: f15f ac3c d6f3 f43d fb70 7c3e ff9d 9e3c
00000080: e1fb 81bc af54 293e 8720 1fbe dd0e 8bbe
00000090: 8883 b7bd 5eaa fbbd f96b fabc a16f ed3f
000000a0: 03fa d5be 08ee d3bc 5ec7 7cbd ff21 92be
000000b0: 1a44 d23d ad76 273f 0bcc 203e 488b c93d
000000c0: 989e 8c3e 7e4a 133e 8465 4f3e 0496 ff3d
000000d0: 18af 1d3c 7a7a 593e 34fb 04bf 0710 29be
000000e0: 94f0 cdbd 2499 68be ff00 8fbd 0e59 a13f
000000f0: 98ab 7abe 6958 ae3d 9779 27bd 9fc3 c63d
00000100: dfdf 70be 5bc1 71be 9313 7bbd bf08 893e
00000110: 7d89 303d cd26 62be d206 3fbb cd3f f1bd
00000120: 6202 e53d 7d6b 1fbe a6b5 eb3c c882 033f
00000130: 0115 933d 35cc 2a3d 199f 423d f3d5 56be
00000140: 2ab8 683e 163e 953d 6119 fabd 39b4 d3bb
00000150: 83be 1bbe d75e 25bd 66b2 583d c201 443e
00000160: b433 10bd 510f 963c 2ccc 0a3e 5d3a b43c
00000170: e368 c53d 14e8 b7be 44a5 093e 6e33 193f
00000180: b23e 6c3d 766f c73d 6d66 4ebf 008c 73bf
00000190: bf62 8e3d 51c3 bb3a 72c5 953c bfa4 933d
000001a0: cb75 9cbe e1bd e0be c826 103e b20e 7e3e
000001b0: ccae 7bbe ca5c d83d e26b f5bd a7ff 8abe
000001c0: 2aa9 bcbd 2ddc 813d 6c54 2f3e 2e85 2a3f
000001d0: da79 3c3e 9549 053e 58cf b1be 4f18 0dbf
000001e0: c3cd db3d d0a8 0f3e 10b5 2dbe 4583 df3d
000001f0: b608 1fbe 21de 43be daa0 893d a205 1e3e
00000200: 150f 34bd cd3c 883e 1aeb 2e3c a4dc 20be
00000210: 12d5 fc3d c85e 61be dc8f 493e c536 153f
00000220: 2d4c ff3d 881b a0bb 5691 48bf 479b 53bf
00000230: 8690 fc3e 0b02 37be 5f9b 863e 2676 b83e
00000240: 58a0 7bbd d8b2 153f 4712 22be 0d4b fcbd
00000250: 269a 693e 0fcb 28be 243e a53e 7a7e 12bd
00000260: c7ce c4bd 7e5a e43e 007b 7c3e 7c89 6fbe
00000270: 9470 09be 924f 36be e0e1 113f d0de c13e
00000280: 029c 3fbe a16e c23d 793a 38be 1792 103e
00000290: e742 a4bc e7b1 16bd 6fcf 61bd 1541 643e
000002a0: 33c9 1d3e a7e3 33be c2f6 26be ccc9 94be
000002b0: c2eb b8bd 49af 29be 5b54 50b8 6928 5b3d
000002c0: 5afd 023e a85e 91bd 1686 2f3e 58a1 1abe
000002d0: 501e 183d ebae b6bd 4150 663e fd29 2abe
000002e0: c888 373e 1c3e dc3e b0c7 b43d c2b6 663d
000002f0: f149 303b f596 d03d 6f03 dd3d e8ce 953d
00000300: 67c6 123c f53b f83d e793 adbd 7b2c a0be
00000310: abcd 7f3d 0cc1 8dbd 2599 afbd 3b0e d53f
00000320: 0484 0abc 6abc ef3c 6791 e0bb 2e8d 33be
00000330: b7cd 18be dd53 00be 23ab 11be 6463 8ebd
00000340: 3681 4fbe 2cd4 34be a80e 5cbd 5f69 a3bd
00000350: 2694 f53c 4be1 38be cee7 82bd b013 1e3e
00000360: f98e 18be d792 e13d 2e37 ddbd 1fb3 b53d
00000370: c87d bf3c 46dd 83be a7a0 98bd 7914 9d3d
00000380: 602d c63c cbe9 013e 2b24 cf3c 1641 dfbd
00000390: 9aaa c83d 5857 34be 6e7a 6dbd a12d e83d
000003a0: dd78 1abe faa3 1bbc 04e6 cabd 7513 e0bd
000003b0: 0ac1 ea3b 673f 613e fa8b 923d 52da 6abe
000003c0: f209 3d3e bc32 eb3d c26c d8bd 0b91 863d
000003d0: 5793 acbd 4830 3cbe 58b7 35bb 8641 823e
000003e0: 4f25 f9bd 64e8 fcbc dcbe 1bbc d989 9ebd
000003f0: 9e8d f83c 0ad0 10bd bcf1 0a3e b4ef 133f

mlp.2.bias f4 [20]
0.05795921 0.058852997 0.14628823 -0.0026802397 -0.08126098 0.0046677706 -0.19213976 -1.0901253
0.06755725 -0.02750114 -0.06819555 -0.22793661 0.062208585 0.044011533 0.07799841 -0.40687335
0.14308141 -0.35916415 0.096854426 -0.28590268
00000000: a366 6d3d d70f 713d 95cc 153e f6a6 2fbb
00000010: 286c a6bd 19f4 983b 49c0 44be 3a89 8bbf
00000020: 755b 8a3d 124a e1bc 1caa 8bbd 3768 69be
00000030: 6ece 7e3d 7045 343d a1bd 9f3d b451 d0be
00000040: ef83 123e 5de4 b7be 9d5b c63d d661 92be

mlp.5.weight f4 [1, 20]
-0.6796108 1.844384 1.5418904 -0.54396063 -1.2902285 -1.0426629 -1.232714 1.6377949
-0.22068916 1.6368829 0.1871746 -0.14526215 -1.2087783 -0.91216534 1.5953013 1.2503572
-0.8514422 0.6210606 -0.30342224 -1.4096112
00000000: f9fa 2dbf c614 ec3f aa5c c53f 0141 0bbf
00000010: 3526 a5bf fa75 85bf 93c9 9dbf 43a3 d13f
00000020: 57fc 61be 6185 d13f b3aa 3f3e 9abf 14be
00000030: 3fb9 9abf ab83 69bf d532 cc3f b40b a03f
00000040: 1ef8 59bf d4fd 1e3f 295a 9bbe 246e b4bf
