models/weights_bak/layers_100_100_100_drop_lr_0.001.pt (torch, 97097 bytes, 7 tensors)

mlp.0.weight f4 [100, 31]
0	0x3c924bd4	0.017858423
1	0xbd3bc440	-0.045841455
2	0x3cb6e301	0.02232504
3	0xbcf5f5aa	-0.030024368
4	0x3bb6016c	0.0055543687
5	0xbc913d76	-0.017729502
6	0x3d36f5c6	0.04466798
7	0x3ce0f346	0.027459752
8	0x3a9ab248	0.00118024
9	0xbd1bcfa7	-0.03803983
10	0x3d73bb4d	0.059504796
11	0xbd62e121	-0.05539048
12	0xbd369f98	-0.044585794
13	0x3c6295de	0.013829676
14	0xbd9def91	-0.07711709
15	0xbda9952a	-0.08280404
16	0x3db0398b	0.086047255
17	0xbd47fd12	-0.04882533
18	0x3bdac6f9	0.0066765514
19	0xbcd11fdc	-0.025527887
20	0x3d46abdc	0.04850374
21	0x3cbe0303	0.023194795
22	0xbf74415c	-0.9541223
23	0xbe1dbefe	-0.15404889
24	0x3ded0d4f	0.11574804
25	0x3de90a0c	0.113788694
26	0xbe229be4	-0.1587978
27	0xbca13fab	-0.01968368
28	0xbe339925	-0.17538889
29	0xbe55ec27	-0.20890866
30	0xbb80a716	-0.003926168
31	0xbd0541de	-0.03253352
32	0xbda1aa4f	-0.07893812
33	0x3e63cd31	0.22246243
34	0xbd99b24e	-0.07504712
35	0xbe4a3b5a	-0.19749203
36	0x3e295aa4	0.16538483
37	0x3d9d5aab	0.07683309
38	0x3d0c49c6	0.034250043
39	0xbcab1604	-0.020884521
40	0x3c8721b4	0.016495563
41	0x3e03e2d6	0.128795
42	0xbe367a17	-0.17820011
43	0xbd7c0273	-0.061525773
44	0x3e277589	0.1635343
45	0xbdd8cf08	-0.10586363
46	0x3d1b2bda	0.037883617
47	0x3e0c83e1	0.13722183
48	0xbb95b791	-0.004569002
49	0xbd1baa57	-0.038004246
50	0xbd624489	-0.05524114
51	0x3c055826	0.008138692
52	0xbe384ec4	-0.17998797
53	0xbe1eab86	-0.15495118
54	0x3cbf4b4a	0.02335133
55	0xbdb6e8d9	-0.08931131
56	0x3de9f711	0.11424077
57	0xbde69b48	-0.11260086
58	0x3d78da1c	0.06075488
59	0x3e020a1f	0.12699173
60	0xbe1121da	-0.1417307
61	0xbdfbc702	-0.12293817
62	0x3e28ddc9	0.16490854
63	0x3e2f837b	0.1714
64	0xbce9f819	-0.028560685
65	0xbd8c056e	-0.06836973
66	0x3dd31d2a	0.10308297
67	0x3e0f64d9	0.14003314
68	0x3c8c83c4	0.017152674
69	0xbe1f02c0	-0.15528393
70	0x3c0408a8	0.008058704
71	0xbdfb4062	-0.122681394
72	0xbe3f4a0c	-0.1868059
73	0x3dff133c	0.124548405
74	0xbe56e78c	-0.20986766
75	0xbe698f4d	-0.22808571
76	0xbd94ccb7	-0.07265609
77	0xbccaef33	-0.024772262
78	0x3e2e1106	0.16998681
79	0x3d924c7d	0.07143495
80	0xbc6f94b1	-0.014622853
81	0x3e22b0c2	0.1588774
82	0xbe099296	-0.13434824
83	0xbda32ed6	-0.079679176
84	0xbdb22d3e	-0.087000355
85	0xbe104757	-0.14089714
86	0xbdc31184	-0.09524825
87	0x3db92cdb	0.090417586
88	0x3e0a8931	0.13528897
89	0xbd9ea3cd	-0.07746086
90	0x3de2e128	0.110781014
91	0xbe105842	-0.14096168
92	0x39e80eff	0.0004426166
93	0x3d37fb2b	0.044917267
94	0xbde89892	-0.113572255
95	0xbdc74623	-0.097301744
96	0xbdca923c	-0.09891173
97	0xbe277f7f	-0.1635723
98	0x3de3b588	0.11118609
99	0xbdce4a61	-0.100727804
100	0x3da3f124	0.08004978
101	0x3e2e094c	0.16995734
102	0xbdae377f	-0.08506679
103	0xbdae046b	-0.084969364
104	0x3c66c0b4	0.01408403
105	0xbcbdde2e	-0.023177233
106	0xbcba99a9	-0.022778349
107	0xbcfa58ea	-0.030559976
108	0xbdc109c9	-0.094256945
109	0xbd8a5611	-0.06754697
110	0xbe36088d	-0.177767
111	0x3db4cbcb	0.08827933
112	0x3e2f6b61	0.17130806
113	0xbd81ad17	-0.063318424
114	0xbda31228	-0.079624474
115	0x3e5eb526	0.2174879
116	0xbc9e459a	-0.019320298
117	0x3e0972c5	0.13422687
118	0xbe1e2448	-0.15443528
119	0x3b2a13da	0.0025951774
120	0xbbad9174	-0.0052968804
121	0xbe196b8f	-0.14982437
122	0xbc044a8d	-0.008074415
123	0x3e26af93	0.16277914
124	0x3e16e49d	0.14735647
125	0x3e09b16e	0.1344659
126	0xbdb6105b	-0.08889838
127	0x3da39cac	0.07988867
128	0x3e07e924	0.1327253
129	0xbe3f3eb8	-0.18676269
130	0x3d97d829	0.07414276
131	0xbe0231c4	-0.12714297
132	0x3d03edf0	0.032209337
133	0x3dbbe111	0.091737874
134	0x3e1b04bf	0.15138529
135	0x3d842c25	0.064537324
136	0xbddc46d2	-0.107556954
137	0x3c4d4451	0.012528495
138	0x3e1d9931	0.15390469
139	0x3db8acf3	0.090173624
140	0xbd229e14	-0.039701536
141	0xbdfdbaa3	-0.12389114
142	0xbe4d7019	-0.20062293
143	0x3e6d60dd	0.23181482
144	0x3db17e53	0.086666726
145	0x3d3f82f6	0.046755753
146	0xbe0621c2	-0.13098815
147	0x3e274cd6	0.16337904
148	0x3d30d8fd	0.043175686
149	0x3ddb49e5	0.10707454
150	0x3db2cb97	0.08730238
151	0xbd8df926	-0.06932287
152	0xbdee6673	-0.116406344
153	0x3d8cd086	0.0687571
154	0x3da2f668	0.079571545
155	0x3e426842	0.18985084
156	0xbdb69bd4	-0.089164406
157	0x3d431349	0.047625814
158	0xbca1f1be	-0.019768592
159	0x3dc1714c	0.09445438
160	0xbd6a5990	-0.05721432
161	0xbe92d0ba	-0.2867487
162	0x3dae3f98	0.08508223
163	0xbda8e87c	-0.08247468
164	0xbd2a25ac	-0.041539833
165	0x3d37db74	0.04488702
166	0x3d8e12d8	0.06937188
167	0x3cbd624c	0.02311816
168	0xbd762f12	-0.060103483
169	0x3dfe2e03	0.1241112
170	0xbe154ce6	-0.14580116
171	0x3e2c3676	0.1681765
172	0x3d2570be	0.040390722
173	0xbe225a97	-0.1585487
174	0x3e050e0a	0.12993637
175	0xbbfa84e0	-0.0076452345
176	0xbc9a009f	-0.018799124
177	0xbd8530e1	-0.065034635
178	0xbdacc55b	-0.0843608
179	0xbe53ae97	-0.2067207
180	0x3dfe1d85	0.12407974
181	0xbd2ac998	-0.04169616
182	0xbdd793c4	-0.10526231
183	0xbd882537	-0.06647723
184	0xbe53f2d0	-0.20698094
185	0x3d798385	0.060916442
186	0xbe81a5f5	-0.25321928
187	0x3c38a7cf	0.011270477
188	0x3b1e7d50	0.0024183579
189	0xbdce4bb7	-0.10073035
190	0x3deb9036	0.115021154
191	0xbda06c71	-0.078331836
192	0x3e01beb4	0.12670404
193	0xbe080fd9	-0.13287295
194	0x3dc91875	0.09819118
195	0xbb9820f9	-0.0046426025
196	0xbd72815f	-0.05920541
197	0xbdecdd2c	-0.11565623
198	0xbd8ae7bd	-0.06782482
199	0x3d8975d8	0.0671193
200	0xbd9e2d68	-0.07723504
201	0xbdd9bb89	-0.106314726
202	0x3d61c78d	0.055121947
203	0x3e8d38ae	0.27582306
204	0x3ca3a891	0.01997784
205	0x3d9ce7b0	0.076613784
206	0xbe1a487e	-0.15066716
207	0x3c8d31fa	0.017235745
208	0xbd493396	-0.04912146
209	0x3d4d9dcc	0.050199315
210	0x3e8e4d41	0.27793315
211	0x3e311880	0.17294502
212	0x3caa1356	0.020761173
213	0x3da8cce4	0.08242205
214	0x3dac6e65	0.084194936
215	0xbdfbbdda	-0.12292071
216	0x3bce8002	0.006301881
217	0x3b7eb92b	0.0038867693
218	0xbd3e02f1	-0.046389524
219	0xbdd194a2	-0.102334276
220	0x3db4971e	0.08817886
221	0xbda54367	-0.080694966
222	0xbde6fbc9	-0.11278493
223	0x3d443623	0.04790319
224	0x3e6033db	0.21894781
225	0x3de0015d	0.1093776
226	0xbd6727f2	-0.05643458
227	0x3b156a11	0.0022798816
228	0x3dea9be5	0.11455516
229	0xbe5be5c7	-0.21474372
230	0x3e4b2ec2	0.19842055
231	0xbe1bfb5c	-0.15232605
232	0x3ddc049a	0.10743065
233	0xbd57c347	-0.052676465
234	0x3e3a66cd	0.18203278
235	0x3e6f2637	0.23354422
236	0x3e32bbe0	0.17454481
237	0x3dbaced2	0.09121479
238	0xbd686517	-0.05673703
239	0x3e3af4b2	0.18257406
240	0xbe6e4828	-0.23269713
241	0x3dfd7398	0.123755634
242	0x3d61ca4f	0.055124577
243	0xbe55c67b	-0.20876496
244	0x3e84541b	0.25845417
245	0x3c63d1f8	0.013905041
246	0x3d82ab3d	0.06380317
247	0x3da01e2c	0.07818255
248	0x3ea8d10b	0.32971987
249	0xbda28776	-0.079359934
250	0x3c888229	0.016663628
251	0xbd1ee559	-0.03879294
252	0x3d93f9e1	0.07225395
253	0xbd971882	-0.07377721
254	0xbd15eb9e	-0.036601655
255	0xbdc156d8	-0.09440392

mlp.0.bias f4 [100]
0	0xbf72c0b8	-0.94825315
1	0x3af364a7	0.0018569425
2	0xbc8088c7	-0.01569022
3	0x3e306e02	0.17229465
4	0xbe30fd32	-0.17284086
5	0xbe6232e4	-0.22089726
6	0xbda78a1b	-0.081806384
7	0xbdc0e319	-0.094183154
8	0xbe2d6345	-0.169324
9	0xbdefa7c4	-0.11701921
10	0xbd7acf75	-0.061233003
11	0xbd91e4ed	-0.07123742
12	0x3dd32b59	0.10311002
13	0xbde4d31f	-0.11173081
14	0xbd513fcc	-0.051086232
15	0x3d92aae8	0.07161504
16	0x3de38e11	0.111110814
17	0x3d769140	0.060197115
18	0x3dceefb0	0.101043105
19	0x3e8d9ddd	0.27659503
20	0xbc84f5b5	-0.016230443
21	0x3d7a28a5	0.061073918
22	0xbbdc21be	-0.0067178896
23	0xbe78a03b	-0.24279873
24	0xbe98b74e	-0.2982735
25	0xbded3b79	-0.11583609
26	0xbe102caa	-0.14079538
27	0xbeaf5620	-0.34245396
28	0xbd6941ad	-0.0569474
29	0x3d9bbe72	0.07604684
30	0xbe131295	-0.14362557
31	0xbe5e795c	-0.21725982
32	0x3e3ccbf8	0.18437183
33	0xbe72c530	-0.23708034
34	0x3dc23789	0.09483249
35	0xbe3248d5	-0.17410596
36	0xbd0b3d13	-0.03399379
37	0xbe93a5d7	-0.28837463
38	0xbd089fa2	-0.033355363
39	0x3e0795ce	0.1324074
40	0xbdab6f54	-0.083708435
41	0xbdb9d3e0	-0.09073615
42	0xbef310e4	-0.47473824
43	0x3e29d81c	0.16586345
44	0x3c8f8e22	0.017523829
45	0x3d62dbb4	0.055385306
46	0x3e58188a	0.21103111
47	0x3e5e8473	0.21730213
48	0xbe7686d9	-0.24074878
49	0x3e18279f	0.14858864
50	0x3c0463f0	0.008080468
51	0xbdfcd97e	-0.12346171
52	0x3e882b9f	0.2659578
53	0xbe43e2c2	-0.1912947
54	0xbdb7571e	-0.08952163
55	0x3e8bbbb0	0.27291632
56	0x3e0eb7f4	0.1393736
57	0xbe95b07d	-0.29236212
58	0xbdbe8e45	-0.093044795
59	0xbddb31f3	-0.107028864
60	0xbe41ffb8	-0.18945205
61	0x3e0aae30	0.1354301
62	0x3caa312c	0.0207754
63	0xbe3a1e98	-0.18175733
64	0xbb03f4a4	-0.002013483
65	0xbe32adbd	-0.17449088
66	0x3d59824e	0.053102784
67	0x3ca858ce	0.020550158
68	0x3e8d9068	0.27649236
69	0xbe54fd00	-0.20799637
70	0xbe30c88c	-0.17264003
71	0x3cbf0163	0.02331609
72	0x3c799b54	0.015234787
73	0xbe30a4a8	-0.17250311
74	0xbd7ed499	-0.062214468
75	0xbe55edc9	-0.20891489
76	0x3e00086f	0.12503217
77	0xbcea191c	-0.028576426
78	0x3d0b5c71	0.034023706
79	0xbd039f35	-0.032134254
80	0xbd3615eb	-0.044454496
81	0xbd9d1041	-0.07669116
82	0x3d6f3a76	0.058405362
83	0x3e5e3233	0.21698837
84	0x3d03ba0e	0.032159857
85	0xbe865025	-0.2623302
86	0xbeee2045	-0.46508995
87	0x3e1a5f92	0.1507552
88	0xbe289c43	-0.16465859
89	0xbdf7e544	-0.12104276
90	0xbdb00c63	-0.085961126
91	0xbc96059b	-0.01831322
92	0xbe3a995a	-0.18222561
93	0xbd02b957	-0.031915035
94	0xbdf2de0b	-0.118587576
95	0xbe050fa6	-0.1299425
96	0x3df44263	0.11926725
97	0xbe0144f9	-0.12623967
98	0xbe36f134	-0.17865449
99	0x3c50b39a	0.012738133

mlp.2.weight f4 [100, 100]
0	0xbd9f85a8	-0.07789165
1	0x3d59eb30	0.053202808
2	0x3d91d304	0.07120326
3	0x3d211e11	0.039335314
4	0x3d048b7e	0.032359593
5	0xbc2029da	-0.009775603
6	0xbdab4658	-0.083630264
7	0x3d95abfe	0.073081955
8	0x3c3e550b	0.0116169555
9	0x3d42a954	0.047524765
10	0x3c9bdd14	0.019026317
11	0x3d5c75f3	0.053823423
12	0x3dad52a4	0.08463028
13	0x3a962540	0.0011455193
14	0xbd5f1e31	-0.054472152
15	0xbda19441	-0.07889605
16	0x3d628d46	0.05531051
17	0x3c2678a3	0.010160598
18	0x3d56aab8	0.052408904
19	0x3d61746e	0.055042677
20	0x3d5d0388	0.053958446
21	0x3cd953c6	0.026529204
22	0x3bc98716	0.0061501367
23	0xbd417748	-0.047232896
24	0x3dc33b48	0.095327914
25	0x3d2722c9	0.040804658
26	0x3d4330bf	0.04765391
27	0xbd92989d	-0.07158015
28	0xbcab33b4	-0.020898677
29	0xbded4461	-0.11585308
30	0xbde4053b	-0.1113381
31	0x3dd355d7	0.10319107
32	0x3d1d4fe3	0.038406264
33	0xbda73a44	-0.0816541
34	0x3d8ab9c5	0.06773714
35	0x3d4d0236	0.050050937
36	0xbdc5a034	-0.09649697
37	0xbe089d09	-0.13341154
38	0x3dd16aab	0.102254234
39	0x3d6e1e44	0.058134332
40	0xbcb68a8d	-0.022282863
41	0xbd6e3bce	-0.058162503
42	0xbd7b14c1	-0.06129909
43	0xbdbbad20	-0.0916388
44	0x3e04bb32	0.12962034
45	0xbda7df1d	-0.08196852
46	0x3daa4faa	0.08315976
47	0x3c910c63	0.017706102
48	0x3d8ce40e	0.068794355
49	0x3cd026b5	0.025409082
50	0xbd6e10f5	-0.05812164
51	0xbd193138	-0.037400454
52	0xbb451500	-0.0030072331
53	0x3cde33fa	0.027124394
54	0x3e061476	0.13093743
55	0xbb4bd691	-0.0031103233
56	0xbdf12c7d	-0.117760636
57	0xbd7e2bc7	-0.062053468
58	0x3c82ed84	0.015982397
59	0x3d8c209c	0.06842157
60	0x3dea5aad	0.11443076
61	0xbc0ad8c2	-0.008474531
62	0xbcc01cce	-0.023451235
63	0x3cdec3ef	0.027193038
64	0x3cfbb32e	0.030725088
65	0xbcfcc229	-0.030854302
66	0x3bab87e4	0.0052347053
67	0x3d69bef0	0.057066858
68	0xbdc616bb	-0.09672304
69	0x3d2645d1	0.040593926
70	0x3d312876	0.043251477
71	0xbc4fca00	-0.012682438
72	0xbda7f406	-0.08200841
73	0x3b0b64d8	0.0021269824
74	0xbd16620c	-0.0367146
75	0xbd1309bc	-0.035897955
76	0x3d10a5e1	0.035314444
77	0x3dc0f5a4	0.09421852
78	0xbd9817bd	-0.07426403
79	0x3c4b3ee0	0.012405127
80	0xbd885fb6	-0.066588804
81	0x3d6189a5	0.05506291
82	0x3cd18252	0.025574837
83	0xbdba9410	-0.09110272
84	0x3d2b5074	0.041824773
85	0xbcaa6cd2	-0.020803843
86	0x3cbccd77	0.023047192
87	0xbc8281a8	-0.015930966
88	0xbce9a348	-0.028520241
89	0xbb881351	-0.0041526933
90	0xbdbf364e	-0.0933653
91	0xbc154722	-0.009111198
92	0xbd836001	-0.06414796
93	0xbdc0f710	-0.094221234
94	0x3ccfbd5e	0.025358852
95	0x3d97e906	0.074174926
96	0xbc48bd21	-0.012252123
97	0x3da8efb6	0.08248846
98	0x3d05092f	0.03247946
99	0x3d6abebc	0.057310805
100	0xbda34033	-0.079712294
101	0x3daba180	0.08380413
102	0xbc7b0e46	-0.015323227
103	0xbc9fefa0	-0.019523442
104	0x3d6552db	0.05598722
105	0x3d0358fc	0.032067284
106	0xbca39477	-0.019968254
107	0x3d122abf	0.035685297
108	0xbacb8754	-0.0015528002
109	0xbdcffa74	-0.10155192
110	0x3da5ac38	0.08089489
111	0x3cd42a7b	0.025899163
112	0x3e26360b	0.16231553
113	0x3ce661ac	0.028122745
114	0x3d9b79ba	0.07591577
115	0xbdc3cbf6	-0.09560387
116	0xbdca017b	-0.098635636
117	0xbca3a209	-0.019974725
118	0xbde54883	-0.11195471
119	0xbd8ceca7	-0.06881075
120	0x3d2430eb	0.040085714
121	0xbd265405	-0.04060747
122	0xbda77690	-0.08176911
123	0x3dd23ced	0.10265527
124	0x3d9e0472	0.077156916
125	0x3d9b3516	0.07578485
126	0x3d8e0f96	0.069365665
127	0x3da69532	0.081339255
128	0x3c6467f8	0.013940804
129	0xbd85c238	-0.06531185
130	0xbdf37f21	-0.11889482
131	0xbcc06c8f	-0.023489265
132	0x3be5e4a7	0.007015783
133	0xbd54510c	-0.051835105
134	0x3d4ad7da	0.04952226
135	0xbd8adc25	-0.067802705
136	0x3d705601	0.05867577
137	0xbe472a99	-0.19449843
138	0x3e47f937	0.19528662
139	0x3d110d72	0.035413213
140	0xbd750f28	-0.059828907
141	0x3c82c7f7	0.015964491
142	0x3db1481e	0.086563334
143	0xbdbbfd54	-0.09179178
144	0x3db33f28	0.087522805
145	0x3d87af8b	0.06625279
146	0x3d415b34	0.04720612
147	0xbdffe5cc	-0.12495002
148	0x3c5544ae	0.013016863
149	0x3c9b324e	0.018944886
150	0xbdd28c35	-0.102806486
151	0xbd69f563	-0.057118785
152	0xbd97c9b5	-0.074115194
153	0x3db7e274	0.089787394
154	0x3b8eaa1d	0.004353775
155	0x3be90146	0.0071107475
156	0xbd343845	-0.043998975
157	0x3d917722	0.07102801
158	0xbd12e497	-0.03586253
159	0x3ded682e	0.11592136
160	0x3e242730	0.16030574
161	0x3ce95da5	0.028487036
162	0x3dd017a3	0.10160758
163	0x3d3c1360	0.045916915
164	0xbc1de3cd	-0.0096368315
165	0x3d22cf00	0.03974819
166	0x3d8467da	0.064651206
167	0x3e05ed1f	0.13078736
168	0x3da200f4	0.07910338
169	0xbe06f1ae	-0.13178131
170	0x3d08cd7c	0.03339909
171	0x3c05a7b3	0.008157658
172	0xbcbfb7bf	-0.023403047
173	0x3eaa1460	0.3321867
174	0x3b81709f	0.003950193
175	0x3d8a39c7	0.067493014
176	0x3d564c72	0.052318998
177	0x3cc38385	0.023866424
178	0x3d133432	0.03593845
179	0xbcb4ee61	-0.022086324
180	0xbd5fa39b	-0.054599386
181	0xbda7453f	-0.081675045
182	0xbe5a5b9c	-0.21324009
183	0x3d970137	0.073732786
184	0x3e7b67da	0.24551335
185	0xbdb130c9	-0.08651883
186	0x3d023df2	0.031797357
187	0xbd581634	-0.05275555
188	0xbd712934	-0.058877185
189	0xbdf132fe	-0.11777304
190	0xbd8ff773	-0.07029619
191	0x3cfe79d6	0.031063955
192	0x3dc61ca9	0.09673435
193	0x39803a3b	0.00024457448
194	0x3d42fa73	0.04760213
195	0xbe4e77b1	-0.20162846
196	0xbdcb6135	-0.0993065
197	0x3d0e5c94	0.034756258
198	0x3db69d2c	0.08916697
199	0x3d06fe49	0.03295735
200	0x3ce7e581	0.028307678
201	0xbd934167	-0.07190209
202	0xbd043866	-0.03228035
203	0x3d435b84	0.047694698
204	0x3d89dd7b	0.06731697
205	0x3d0cba10	0.03435713
206	0xbdf7fe82	-0.121090904
207	0xbca5c6c5	-0.020236382
208	0xbc8f50d4	-0.017494597
209	0x3d8bcaae	0.068257675
210	0xbd4e5b1b	-0.050379854
211	0x3deb817e	0.11499308
212	0x3c02f984	0.0079940595
213	0x3d6f5540	0.05843091
214	0xbe3682c4	-0.1782332
215	0xbdd0a4e4	-0.101877004
216	0x3d9e8c87	0.07741647
217	0xbcae5c97	-0.021284385
218	0x3db534eb	0.08847984
219	0x3adca009	0.0016832362
220	0x3dbbead3	0.091756485
221	0xbd8cac19	-0.068687625
222	0x3d4bda9c	0.04976903
223	0xbdaa8ec7	-0.08328014
224	0xbd7cbb79	-0.061702225
225	0x3b9abcb3	0.0047222017
226	0x3bc48df0	0.0059983656
227	0xbd9a29b7	-0.07527488
228	0x3dc22fe4	0.09481791
229	0xbe03f1eb	-0.12885253
230	0xbc38cd07	-0.011279351
231	0x3d0b1dc8	0.03396395
232	0x3d7d2a58	0.06180796
233	0xbd34090f	-0.04395395
234	0x3d26b7cb	0.040702622
235	0x3df2249a	0.118233874
236	0xbd1d59b6	-0.038415633
237	0xbdbdff9e	-0.09277271
238	0xbd8fbf10	-0.07018864
239	0x3cc50f15	0.024055043
240	0xbe0125fb	-0.12612145
241	0x3c012b87	0.007883913
242	0x3db6d623	0.08927562
243	0xbc52214a	-0.01282532
244	0xbd9d819b	-0.07690736
245	0xbcf86438	-0.030321226
246	0x3d0131c3	0.031541597
247	0x3dcab362	0.09897496
248	0xbc9f01f1	-0.019410105
249	0xbdf91aec	-0.12163338
250	0xbd6d1180	-0.057878017
251	0x3d3970e8	0.04527369
252	0xbd40575d	-0.046958316
253	0x3c0b0432	0.008484887
254	0xbd690e1c	-0.05689822
255	0x3d57326e	0.052538328

mlp.2.bias f4 [100]
0	0xbe2b3407	-0.16719066
1	0xbe3a8bf4	-0.1821745
2	0xbc4309a1	-0.011904151
3	0xbde3f84a	-0.11131342
4	0xbd1709b1	-0.036874477
5	0x3bfbb0dd	0.007680996
6	0x3afcf7f5	0.0019299971
7	0xbe28b715	-0.1647609
8	0x3da0d655	0.078533806
9	0xbdbe7262	-0.092991605
10	0xbd98558a	-0.0743819
11	0xbd8daff8	-0.06918329
12	0xbf100a67	-0.5626587
13	0xbc1de7ac	-0.009637754
14	0x3d803a55	0.06261126
15	0xbd6620d2	-0.056183644
16	0xbd41df4b	-0.04733209
17	0xbd71f95c	-0.0590757
18	0xbc9d9a7c	-0.019238703
19	0xbda641f9	-0.08118052
20	0xbc529b92	-0.012854474
21	0xbd112e18	-0.03544435
22	0x3e0ccc12	0.13749722
23	0x3d88a397	0.06671827
24	0x3cc3620f	0.023850469
25	0xbdbdab3e	-0.092611775
26	0xbdd1c0a6	-0.10241823
27	0xbcc31324	-0.023812838
28	0xbd41460c	-0.047185943
29	0x3d6b4935	0.057442863
30	0xbd55b0bb	-0.052170496
31	0xbe2cb4a7	-0.16865788
32	0x3e17faec	0.14841813
33	0xbc7b755f	-0.015347808
34	0xbdc8824d	-0.09790478
35	0x3d717b4d	0.05895548
36	0x3b4f6a98	0.0031649228
37	0xbe81b9c6	-0.25337046
38	0xbe11ac64	-0.14225918
39	0x3d64eadc	0.05588804
40	0xbe28c6f9	-0.16482152
41	0x3ce9d214	0.028542556
42	0xbd613059	-0.05497775
43	0xbd87b90f	-0.06627094
44	0xbd5515f8	-0.052022904
45	0xbd1fd0ce	-0.03901749
46	0xbe16de44	-0.14733225
47	0xbdc19cd0	-0.09453738
48	0x3d94bc0d	0.0726243
49	0xbdc24df5	-0.094875254
50	0xbedb26dc	-0.42803085
51	0x3d38ea7d	0.0451455
52	0xbe2e49e4	-0.17020375
53	0xbdb141c6	-0.086551234
54	0xbe00e0c8	-0.12585747
55	0xbda0f123	-0.07858493
56	0xbe432d57	-0.19060265
57	0xbe149c52	-0.14512756
58	0xbd63b919	-0.055596445
59	0xbdce80fd	-0.10083196
60	0x3d6ee76f	0.05832618
61	0xbd78218e	-0.060578875
62	0xbc1c844d	-0.009553027
63	0xbda77c56	-0.08178012
64	0x3ddc6d19	0.10762996
65	0xbdaa3233	-0.08310356
66	0xbc1b4f39	-0.009479337
67	0x3cfa79b9	0.03057562
68	0x3cf09f47	0.029372824
69	0xbc458e35	-0.012057831
70	0x3d26eba2	0.04075206
71	0xbd80e475	-0.06293575
72	0xbd817f3c	-0.06323096
73	0x3d77beac	0.060484573
74	0x3d601e02	0.054716118
75	0xbe507653	-0.20357637
76	0xbf0e8ad4	-0.55680585
77	0xbd34b999	-0.044122312
78	0xbd9ed1fb	-0.07754894
79	0xbe31cb99	-0.17362823
80	0x3e316e1b	0.17327158
81	0xbda6ba87	-0.08141046
82	0xbdf2ee8c	-0.118619055
83	0xbd9f38a1	-0.07774473
84	0xbdb4ee5a	-0.088345245
85	0x3d633a89	0.055475745
86	0x3cdd82fb	0.027039995
87	0xbe8882c4	-0.26662266
88	0x3c52c45e	0.0128642
89	0xbc252202	-0.010078909
90	0xbcc39e40	-0.02387917
91	0xbcd25673	-0.025675988
92	0x3d7286c2	0.059210546
93	0x3c9eeb27	0.019399239
94	0x3bbb1a6c	0.005709937
95	0x3c115ace	0.008871747
96	0xbc26806e	-0.010162456
97	0x3d5c449b	0.053776365
98	0xbe1cef16	-0.15325579
99	0x3d2f7590	0.042836726

mlp.5.weight f4 [100, 100]
0	0x3d7d8032	0.061889835
1	0xbdac180a	-0.084030226
2	0xbdec5e66	-0.115414426
3	0xbdcf4639	-0.10120816
4	0xbc7d8338	-0.0154731795
5	0xbd00696d	-0.03135054
6	0xbc85bc2c	-0.016325079
7	0x3da83e12	0.08214964
8	0x3d17eb0d	0.037089396
9	0x3d9ba4e3	0.07599809
10	0x3d5cddac	0.05392234
11	0x3d4c5cc6	0.049893163
12	0xbce9e314	-0.028550662
13	0x3c2cc1af	0.010544225
14	0xbde5ac2f	-0.11214482
15	0x3d8a2255	0.067448296
16	0x3bb1b469	0.005423118
17	0xbcbeedaa	-0.023306686
18	0x3a9fe2c6	0.0012198321
19	0x3d6227b8	0.05521366
20	0xbd747a9f	-0.059687253
21	0xbbebb9b4	-0.0071937684
22	0xbbfbc954	-0.0076839123
23	0x3c8c444b	0.017122408
24	0x3deec4bb	0.11658617
25	0xbce90519	-0.028444814
26	0x3d9ce136	0.07660143
27	0xbda443fd	-0.0802078
28	0xbbba5c2d	-0.0056872577
29	0x3d073dea	0.03301803
30	0x3d84c224	0.06482342
31	0xbdf36791	-0.11884988
32	0xbdabbb8a	-0.083853796
33	0x3ddd3e36	0.108028814
34	0x3d5e196f	0.054223474
35	0x3ddc0254	0.107426316
36	0x3d86c2cc	0.06580123
37	0xbd786162	-0.060639746
38	0x3d013322	0.031542905
39	0xbcfce3ef	-0.030870406
40	0xbdb7802f	-0.08959996
41	0xbcaa4b04	-0.020787723
42	0xbd853fd7	-0.06506317
43	0xbd95893c	-0.07301566
44	0x3d75cdda	0.06001077
45	0x3dae2dc6	0.08504824
46	0x3cc9b350	0.024621636
47	0xbdbba2c1	-0.09161902
48	0x3dc3a976	0.095538065
49	0xbce0c7d0	-0.027439028
50	0xbe1570c7	-0.14593802
51	0xbd51f234	-0.051256374
52	0x3e022e1b	0.127129
53	0x3dbff434	0.0937275
54	0xbca52c24	-0.02016265
55	0x3db7776d	0.089583255
56	0xbb626ddc	-0.0034550345
57	0xbdf24b52	-0.118307725
58	0x3dd28ed8	0.102811515
59	0x3bd9e51e	0.0066496274
60	0xbd835f7c	-0.064146966
61	0xbc3119e4	-0.010809395
62	0xbd21aa38	-0.039468974
63	0xbd2fd1be	-0.042924635
64	0xbdcb58fa	-0.0992908
65	0x3d813399	0.063086696
66	0x3df8e49c	0.12152979
67	0x3aea8bfd	0.0017894503
68	0x3cdcc29e	0.02694827
69	0x3e0f15d3	0.13973169
70	0x3d8035e8	0.06260282
71	0xbd01656b	-0.03159086
72	0xbd8fc4e5	-0.070199765
73	0x3d825ca3	0.06365325
74	0x3e04dff9	0.12976064
75	0xbd69c7ea	-0.05707542
76	0xbdb7fc4f	-0.08983671
77	0xbd0b9572	-0.03407807
78	0xbdbc1973	-0.091845416
79	0xbc7004ae	-0.014649553
80	0xbd64908d	-0.055801917
81	0x3d7657a1	0.060142163
82	0xbdb81ea8	-0.08990222
83	0x3d8c812a	0.068605736
84	0x3dee047b	0.11621948
85	0x3d933b79	0.07189078
86	0x3d6eb555	0.0582784
87	0x3d10c1ec	0.03534119
88	0x3db726d3	0.08942952
89	0xbd153271	-0.036425058
90	0xbcb9056e	-0.022585597
91	0x3dd5eed8	0.104459465
92	0x3dd93996	0.10606687
93	0xbd557b8f	-0.052119788
94	0x3aea6e2e	0.0017885619
95	0x3d06f0da	0.032944538
96	0xbd261a65	-0.040552516
97	0xbc89f006	-0.016838085
98	0xbd14b166	-0.036301993
99	0xbdf256a3	-0.11832931
100	0xbccc5282	-0.024941687
101	0xba0c3ae8	-0.0005349354
102	0xbdd71cc2	-0.10503532
103	0xbd1ff542	-0.039052255
104	0x3bf64aef	0.007516257
105	0x3c1f9dcb	0.009742211
106	0x3de39699	0.111127086
107	0x3db9ddbb	0.09075495
108	0x3e0c504e	0.13702509
109	0xbdb6578d	-0.08903418
110	0xbda0e951	-0.078570016
111	0xbcad1c16	-0.021131556
112	0xbcf5c22c	-0.029999815
113	0x3c827fe0	0.015930116
114	0xbd6d41e0	-0.05792415
115	0xbbe5b1c1	-0.0070097153
116	0xbc84fab3	-0.016232824
117	0x3d823213	0.06357207
118	0xbcff4f19	-0.031165646
119	0x3dd56e27	0.104214005
120	0xbc9b78a4	-0.018978424
121	0x3ca81a54	0.020520367
122	0x3d4738ac	0.04863803
123	0xbd567ee5	-0.05236711
124	0x3c948012	0.018127475
125	0x3e00401f	0.1252446
126	0x3dcf2e09	0.101162024
127	0x3d6da78e	0.05802112
128	0xbcaa90a9	-0.020820932
129	0xbdb17d34	-0.08666459
130	0x3e331185	0.17487152
131	0x3ce7f476	0.02831481
132	0xbc6b7c76	-0.0143729355
133	0x3d8c3a51	0.068470605
134	0x3beeeed1	0.0072916527
135	0xbc9da980	-0.019245863
136	0x3d23e67d	0.040014733
137	0x3ca17b5b	0.01971214
138	0xbdd84c72	-0.10561456
139	0x3dacdc56	0.08440463
140	0xbe2c94fb	-0.16853707
141	0x3e0fabca	0.14030376
142	0x3da09f2a	0.07842858
143	0xbd30e798	-0.043189615
144	0x3daca20a	0.08429344
145	0xbda19101	-0.078889854
146	0xbc4c0422	-0.012452157
147	0x3c8a1cea	0.01685949
148	0x3dd077e8	0.1017912
149	0xbcb89646	-0.022532593
150	0xbe071b2c	-0.13193959
151	0x3c0d1a72	0.008612262
152	0x3d8678e0	0.06566024
153	0x3dd5a0b0	0.10431039
154	0x3d62a5b7	0.05533382
155	0x3dbaf3ba	0.091285184
156	0xbdce1c44	-0.10063985
157	0xbdc13b69	-0.0943516
158	0x3df16b56	0.11788051
159	0x3c8730f3	0.016502833
160	0x3c37ce7d	0.011218664
161	0x3cc7a39f	0.024370013
162	0xbbbd8fda	-0.0057849707
163	0x3d2befb0	0.04197663
164	0xbe1eee81	-0.1552067
165	0xbcc4c233	-0.024018383
166	0x3cc8482c	0.024448477
167	0x3d204e11	0.03913695
168	0x3dfaa4c5	0.122384585
169	0xbbb338b8	-0.005469408
170	0xbd62a798	-0.05533561
171	0x3d3d3e17	0.04620179
172	0x3c9366e9	0.017993407
173	0x3dce0923	0.100603364
174	0x3db89505	0.09012798
175	0xbd6154dd	-0.055012573
176	0xbd22a0b2	-0.039704032
177	0x3d9f567e	0.07780169
178	0xbdc55959	-0.09636182
179	0xbda3921a	-0.07986851
180	0xbd107e33	-0.035276603
181	0x3d7017eb	0.05861656
182	0x3d4e6b38	0.05039522
183	0x3e41dd0e	0.18931982
184	0x3e2c6e10	0.1683886
185	0x3d456545	0.04819228
186	0x3e12aa53	0.14322786
187	0xbd21a595	-0.039464552
188	0x3dc641d4	0.096805245
189	0x3cf7e282	0.030259375
190	0x3bb4c019	0.005516064
191	0x3dcd83dc	0.10034916
192	0xbd96520a	-0.073398665
193	0x3d598d16	0.053113066
194	0x3da32a14	0.0796701
195	0xbe075fc7	-0.1322013
196	0xbd90d9a1	-0.070727594
197	0xbd22377c	-0.039603695
198	0xbd85fc29	-0.06542236
199	0x3d8d9462	0.069130674
200	0xbd82d903	-0.06389048
201	0xbd4f208c	-0.05056815
202	0xbb4390bd	-0.002984091
203	0xbd225f56	-0.0396417
204	0xbc9feb0f	-0.019521264
205	0x3d164284	0.036684528
206	0x3c47d268	0.012196161
207	0x3d5a0f0d	0.05323701
208	0x3e01802d	0.12646551
209	0x3acab668	0.0015465738
210	0xbdad8c98	-0.08474082
211	0x3dca6b0c	0.09883699
212	0xbdb2fe1a	-0.08739872
213	0xbdb9e592	-0.0907699
214	0xbe022105	-0.12707908
215	0x3e07c214	0.13257629
216	0x3d6d02e1	0.057864074
217	0x3d139023	0.03602613
218	0x3ce9a4ca	0.02852096
219	0xbc3f6b4e	-0.011683298
220	0xbd89dd2b	-0.067316376
221	0xbc3bfa6a	-0.011473278
222	0xbdeba25e	-0.115055785
223	0xbdd99e49	-0.106258936
224	0xbcf66aee	-0.030080285
225	0x3de0103d	0.10940597
226	0x3ce140c2	0.0274967
227	0xbcb33ae3	-0.021878665
228	0x3d793d63	0.06084956
229	0xbdc151d5	-0.09439436
230	0x3dd1d339	0.10245366
231	0xbb0eb1bf	-0.0021773425
232	0xbd7125bf	-0.058873888
233	0x3da749ee	0.08168398
234	0x3e058a59	0.13041057
235	0x3d97883f	0.07399034
236	0xbd88cb05	-0.06679348
237	0xbdf8ade8	-0.12142545
238	0xbccdf541	-0.02514136
239	0x3df72ecd	0.120694734
240	0xbe05a2d1	-0.13050391
241	0x3bc8fbe3	0.006133543
242	0x3de655c3	0.112468265
243	0xbd9ce38a	-0.07660587
244	0x3b3b11cc	0.0028544543
245	0x3ca99dce	0.02070513
246	0xbc5388f5	-0.012911071
247	0x3d228b16	0.039683424
248	0xbd5e5fe0	-0.054290652
249	0xbd4ad71c	-0.04952155
250	0xbe3616a2	-0.17782071
251	0xbe127ec8	-0.14306176
252	0x3dc6d286	0.09708123
253	0x3df99e1e	0.121883616
254	0xbd34e74e	-0.0441659
255	0xbbd984da	-0.0066381516

mlp.5.bias f4 [100]
0	0x3d86f095	0.06588856
1	0x3c864a54	0.016392864
2	0x3d0f2781	0.034949783
3	0x3cb0a307	0.021562112
4	0x3cba721e	0.022759493
5	0x3d79f626	0.06102576
6	0x3d39782b	0.045280617
7	0x3d81530f	0.0631467
8	0x3d7902a9	0.060793553
9	0xbd7b79c0	-0.061395407
10	0x3d888e30	0.06667745
11	0x3d40e5f9	0.04709432
12	0x3bd85425	0.0066018277
13	0xbd9ed8e9	-0.07756216
14	0xbc24fd4d	-0.010070157
15	0x3d10aa11	0.035318438
16	0xbd1a1c3a	-0.037624575
17	0x3d4b1958	0.049584717
18	0x3d9daa53	0.076985024
19	0xbcbbbaa3	-0.022916144
20	0xbd9e5651	-0.07731307
21	0xbd8d56b8	-0.06901306
22	0x3dd14c73	0.1021966
23	0xbce329f7	-0.027729971
24	0x3d3069f2	0.043069787
25	0xbd5dcf28	-0.054152638
26	0xbd538d39	-0.051648352
27	0x3d50e3fe	0.05099868
28	0x3db69740	0.089155674
29	0x3d714548	0.058903962
30	0x3d534593	0.051580023
31	0xbd9d7c27	-0.07689696
32	0xbde918f1	-0.1138171
33	0x3d3fe19c	0.046846017
34	0x3c250c84	0.010073785
35	0x3d977016	0.073944256
36	0xbc56538d	-0.0130814435
37	0x3d3f125b	0.046648365
38	0x3d3c477d	0.045966614
39	0xbd0a5cc9	-0.033779893
40	0x3d4a437f	0.049380776
41	0x3d136eed	0.03599446
42	0xbd85b5e5	-0.06528834
43	0x3d82f6d3	0.06394734
44	0xbcbd243f	-0.023088573
45	0x3d833106	0.06405835
46	0x3d47f962	0.048821814
47	0x3d8f32f9	0.06992144
48	0x3d89e5f3	0.067333125
49	0xbd866e0c	-0.065639585
50	0xbdcc0287	-0.099614196
51	0x3c798158	0.015228592
52	0xbc68c741	-0.014207662
53	0x3ce7af4b	0.028281828
54	0x3cfd7ffd	0.030944819
55	0x3b9675d0	0.004591681
56	0xbdcc59bd	-0.09978054
57	0xbd209dcf	-0.039212998
58	0xbd8ab20c	-0.06772241
59	0x3d2ca17f	0.042146202
60	0x3d630c12	0.055431433
61	0x3cc7402c	0.024322592
62	0x3d4fcc4d	0.050731946
63	0x3cfb4e2e	0.030676927
64	0x3cf09fe7	0.029373122
65	0x3d2b95b1	0.041890804
66	0x3cd8cb35	0.026464084
67	0x3d97cc98	0.0741207
68	0x3d3e4837	0.04645559
69	0xbdb39f21	-0.08770586
70	0x3db2a34b	0.08722552
71	0x3ccc964a	0.024974007
72	0xbc869861	-0.016430082
73	0xbd0be3b6	-0.03415271
74	0x3d72b444	0.059253946
75	0x3d10026c	0.03515856
76	0x3d6b02c5	0.057375688
77	0xbc4af50c	-0.012387525
78	0x3d5404bd	0.05176233
79	0x3cafb5ba	0.021448959
80	0x3d5586ac	0.052130386
81	0x3c9ce211	0.019150766
82	0x3d613dc9	0.054990564
83	0x3da43a1e	0.080188975
84	0x3d890d7e	0.066920266
85	0x3cbc220a	0.02296545
86	0xbd69f71b	-0.057120424
87	0x3da87784	0.08225921
88	0x3d099f0b	0.03359894
89	0x3dad4202	0.084598556
90	0x3d359f88	0.044341594
91	0xbdcaca4f	-0.099018686
92	0xbc239295	-0.009983678
93	0xbd92f858	-0.07176274
94	0x3d233abc	0.039850935
95	0x3d62394b	0.05523042
96	0x3d78cee4	0.06074418
97	0xbdb71a08	-0.08940512
98	0x3d5c2b13	0.053752016
99	0x3a366abd	0.0006958654

mlp.8.weight f4 [1, 100]
0	0xbed98ad1	-0.4248872
1	0xbefba4cc	-0.49149168
2	0xbf2247cc	-0.63390803
3	0x3e8f3c26	0.27975577
4	0xbe2b8bc1	-0.1675253
5	0x3e871403	0.26382455
6	0x3ef93891	0.4867597
7	0xbf13d42f	-0.5774564
8	0xbe3e7e98	-0.18602979
9	0xbcdae474	-0.026720263
10	0x3e650b8f	0.2236769
11	0xbcf4332c	-0.029809557
12	0x3deb02b5	0.11475126
13	0x3cefd225	0.02927501
14	0x3f098af2	0.5372764
15	0x3e788b40	0.2427187
16	0x3da7a4e5	0.08185748
17	0xbd771ad5	-0.060328323
18	0xbf0de55c	-0.554281
19	0x3e7ba52d	0.24574728
20	0xbc535bec	-0.012900334
21	0x3f78f72a	0.9725214
22	0x3f024123	0.5088064
23	0x3e323819	0.17404212
24	0xbf1837c5	-0.594601
25	0xbcd087c1	-0.025455358
26	0x3db5f7c8	0.08885151
27	0xbdace933	-0.08442917
28	0x3e8a9861	0.2706938
29	0x3eb9dc37	0.36300823
30	0xbe8b399b	-0.27192387
31	0x3d4ecd98	0.05048904
32	0x3c53a956	0.012918791
33	0xbf495ac3	-0.78654116
34	0x3f094dcd	0.5363434
35	0xbe91b2ba	-0.2845667
36	0x3f50b7de	0.8153056
37	0xbcd77c1b	-0.026304295
38	0x3db7ae17	0.08968752
39	0x3f04739a	0.51738894
40	0x3e4e6698	0.20156324
41	0xbf36a4ab	-0.71345013
42	0x3d6ba87d	0.05753373
43	0x3f0acabe	0.5421561
44	0x3f33a928	0.70179987
45	0x3ef13d74	0.47117198
46	0x3e9d7fac	0.30761468
47	0xbcf834b9	-0.030298578
48	0x3e7d146d	0.24714823
49	0x3d9a08da	0.075212196
50	0xbd2935dd	-0.041311134
51	0x3f374c41	0.7160073
52	0x3f2d205b	0.67627496
53	0x3e4f94da	0.20271626
54	0xbf40f007	-0.7536625
55	0xbf3f80d8	-0.74805975
56	0x3c58ac87	0.0132247275
57	0xbd9d32c1	-0.07675696
58	0x3c29c0fb	0.010360952
59	0x3dd4e3b4	0.103949934
60	0xbef38f56	-0.47570294
61	0xbee1e246	-0.44117945
62	0x3ed74ed5	0.42052332
63	0x3e8699a6	0.262891
64	0xbe33df49	-0.17565645
65	0xbe8a7c38	-0.27047896
66	0xbe0e3074	-0.13885671
67	0x3e921e7a	0.28538877
68	0xbd5823a2	-0.052768357
69	0xbd00ec18	-0.031475157
70	0x3ce2e48b	0.027696868
71	0x3f2dc2c1	0.67875296
72	0x3f07ef48	0.5309949
73	0xbca486bf	-0.020083783
74	0xbeced2da	-0.40395242
75	0xbf0b8d38	-0.5451236
76	0xbf0ef96f	-0.55849355
77	0xbde8af31	-0.1136154
78	0xbe3dd68b	-0.18538873
79	0x3dcd1990	0.10014641
80	0xbf27c384	-0.6553271
81	0x3edbae06	0.42906207
82	0xbedb81d2	-0.42872483
83	0xbe58993b	-0.21152203
84	0xbeb23cbc	-0.34811962
85	0xbdbcc599	-0.09217376
86	0x3f2860e3	0.6577284
87	0xbf143953	-0.5789997
88	0xbeb130eb	-0.34607634
89	0x3e8c5519	0.27408674
90	0x3f04fbec	0.519469
91	0x3d9accd1	0.07558597
92	0xbd61249e	-0.05496656
93	0x3d2f6f4b	0.042830747
94	0xbf082776	-0.5318521
95	0xbcf896b2	-0.030345295
96	0x3e434150	0.19067883
97	0x3d60dbe0	0.05489719
98	0xbf2e37e3	-0.68054026
99	0xbca43c56	-0.020048302
