models/weights_bak/layers_100_100_100_drop_lr_1e-06.pt (torch, 97097 bytes, 7 tensors)

mlp.0.weight f4 [100, 31]
000000 6a e0 a1 3e 43 0a eb 3d 73 9c 19 3e b2 66 14 be
       0.31616527 0.11476567 0.15001087 -0.144923
000010 a0 dc fd 3e f2 ed c3 be f9 ae 26 be 24 eb 97 3d
       0.49582386 -0.38267475 -0.16277684 0.074178964
000020 1e 41 32 be 2c c5 34 39 26 e6 78 bc 1f 6d 0c 3e
       -0.17407653 0.0001723959 -0.01519159 0.13713501
000030 f8 1c 90 bd 15 0f 81 ba f7 6c 3e 3d 64 47 c7 bc
       -0.07036775 -0.0009846414 0.046490636 -0.024326034
000040 58 92 ef bb c0 c9 0a bd ea 08 e1 3b 6c 17 e9 3d
       -0.0073111467 -0.03388381 0.0068675177 0.113814205
000050 5e c0 9e ba 90 92 f3 bc 41 6d fa 3d 33 d8 b9 3d
       -0.0012111773 -0.029732972 0.1222787 0.0907444
000060 cc 90 59 be 0f 5b b7 bd 93 9c 37 bd 75 89 55 3c
       -0.21246642 -0.08952915 -0.044827055 0.013033261
000070 60 16 86 3e c3 ed c0 3d 9c 94 1d be 7e 47 12 bd
       0.26188946 0.094203494 -0.15388721 -0.03571271
000080 f5 8c 4c 3d bd 97 3d bd 79 7d 73 3e 6e 44 52 be
       0.049939115 -0.046287287 0.23778333 -0.20533916
000090 88 dc d3 bd 25 34 53 3e 80 f7 23 be 52 2f 64 3e
       -0.103447974 0.2062536 -0.16012383 0.22283676
0000a0 7c ff 9e 3d 98 9a 41 be d0 90 90 bd 79 c2 d6 bc
       0.077635735 -0.18906629 -0.07058871 -0.026215779
0000b0 03 0b 9f bc c1 8d f6 3d 32 14 18 3e f7 08 9d bd
       -0.01941443 0.12038756 0.14851454 -0.076677255
0000c0 b9 a7 61 3d 05 bf dd 3b e6 7c 39 be ab 95 87 3e
       0.055091593 0.006767156 -0.18114051 0.26481375
0000d0 11 0d 1a 3e 1b ec 19 bc 7d 6f 84 3e f6 01 cb 3d
       0.15044047 -0.009394671 0.2586631 0.099124834
0000e0 c3 4b 36 bc f6 8b 0c be c9 6b 3f 3e 13 2b 20 be
       -0.011126461 -0.13725266 0.1869346 -0.15641432
0000f0 5c 4e 08 be ff 19 e3 bc dd a4 df bd 81 04 39 bd
       -0.13311142 -0.027722357 -0.10920117 -0.04517031
000100 54 74 4b 3d 37 80 8a 3c 1b 5b cf be 00 2f c0 be
       0.049671486 0.01690684 -0.40499195 -0.37535858
000110 56 06 9c bd f3 a1 fd 3d 1d e8 b8 3d cd bc 84 bd
       -0.07618396 0.12384405 0.09028647 -0.064813234
000120 e1 87 bc 3d dc 43 8a b9 ce 49 fa bc 54 bf e2 3d
       0.09205604 -0.0002637197 -0.030552771 0.11071649
000130 8e 8f ea bd d5 99 de 3c 54 48 50 bb fb b8 9c 3d
       -0.11453162 0.027172962 -0.0031781392 0.0765247
000140 89 87 4f 3e b9 da 13 3d d8 83 2f 3d 2f 56 3c 3e
       0.20266546 0.036097262 0.042850345 0.18392251
000150 20 aa 04 bf 80 03 52 bd 7b 0f 41 be a3 12 0d be
       -0.5182209 -0.05127287 -0.18853562 -0.1377664
000160 3e 5c bc bd e1 96 78 3c 84 30 09 bd 11 e6 f6 bc
       -0.09197281 0.015172691 -0.033493534 -0.030139001
000170 eb 1d ec bd de 99 b6 be 1a a7 c6 3d be 5c a3 bc
       -0.11529144 -0.35664266 0.09699841 -0.019941684
000180 bc 69 5e be 30 b5 e2 bd ed ac 23 3c 99 f0 0a be
       -0.21720022 -0.11069715 0.009989959 -0.13568343
000190 1a b8 12 3e 01 61 fb 3d b6 66 f7 bd 87 b9 1e bd
       0.14328042 0.122743614 -0.120801374 -0.03875115
0001a0 8e f4 80 3e 47 41 61 be 45 73 39 be 04 ef 99 be
       0.2518658 -0.21997558 -0.18110378 -0.30065167
0001b0 d7 92 29 3e 1a 80 48 3e 07 c3 54 3e 0b 86 ec bd
       0.16559921 0.19580117 0.20777522 -0.11549004
0001c0 6d 90 9b 3d d9 fe 47 3e 9f da 01 3b 13 79 38 3e
       0.075959064 0.1953081 0.0019814146 0.18014936
0001d0 bc 51 24 be 8b 50 42 3e 04 35 46 3d d7 2d fb 3d
       -0.16046804 0.18976037 0.048390403 0.12264603
0001e0 e5 21 a4 3d 3f e5 e4 3d f4 7f 7a 3d 6f 7b a0 3c
       0.08014277 0.11176538 0.06115718 0.019590108
0001f0 28 7e ab 3d 32 3d 7f 3d fe 7d 06 3e e2 b4 01 be
       0.08373672 0.06231422 0.13134 -0.12666658
000200 ea 26 12 3e 06 a9 a6 be 2b 45 61 3e 0b 5a 8d be
       0.14272657 -0.3255083 0.21999042 -0.2760776
000210 e8 1b f7 3b 81 41 e6 3d 19 64 e0 3c 22 5f 48 be
       0.0075411685 0.11242963 0.02739148 -0.1956754
000220 41 11 62 bd ce b5 35 3e 4d e8 f6 bd 69 b3 a7 bc
       -0.055192236 0.17745134 -0.120560266 -0.020471292
000230 94 ab 0a 3e 0f 12 2b 3d 56 d9 45 3e 98 a0 cc 3d
       0.13542014 0.04176527 0.19321188 0.09991568
000240 61 76 2a bd 9c 57 69 be 4a 33 7d 3e 91 2d 4c 3d
       -0.0416168 -0.22787327 0.24726596 0.049848143
000250 0a 5b fe 3d 8d 82 25 3e b1 39 81 bd 56 68 84 be
       0.12419708 0.16163082 -0.06309832 -0.25860852
000260 0f 2c 4f bd 98 87 99 bd 45 7a f2 3d 37 8b bb bd
       -0.050579127 -0.074965656 0.11839727 -0.091574125
000270 05 ff 10 3d 4c 7f 01 3e 8b 6c 55 3d b2 0c 33 bc
       0.035399456 0.12646216 0.052105468 -0.01092832
000280 68 fb 9b 3d 93 49 1d 3c c6 76 09 3e 8c 89 2e bd
       0.07616311 0.009600061 0.13424215 -0.042611644
000290 74 25 86 be 10 e3 39 3e 65 97 8c bd d9 a3 5b 3d
       -0.2620045 0.18153024 -0.06864814 0.053623054
0002a0 6a 0a f9 bd e4 6f 50 3d 09 0b 40 bd 20 09 52 3e
       -0.121601894 0.050887957 -0.046885524 0.20511293
0002b0 fd 8c ea bd d7 fa 47 3e 4c 9c 21 3e 07 4e c5 bc
       -0.11452673 0.19529282 0.15782279 -0.024085058
0002c0 fc 98 cb 3d 62 63 88 bd d4 f5 7d 3d 69 c7 1e be
       0.09941289 -0.06659581 0.062002018 -0.15505756
0002d0 f8 af a5 3d 8d af 27 3e 92 6e 3b be c7 c7 19 bd
       0.08090204 0.16375561 -0.18303898 -0.03754404
0002e0 b6 14 3e bd 1f 7d e9 bd 8b 51 8f bd 17 74 95 be
       -0.04640647 -0.11400818 -0.06997975 -0.29190132
0002f0 2c 0a 07 be e5 f0 dc 3c 5a 72 90 3e 47 fa 6f bd
       -0.13187474 0.026970336 0.28212243 -0.058588292
000300 09 4d c4 bd 6c 50 0a be 64 1b 06 3e 28 f8 b7 3d
       -0.09585006 -0.13507241 0.13096386 0.08982879
000310 fb 28 e8 3c a1 89 52 3e 82 b9 dc bd a5 78 0b be
       0.028339854 0.20560314 -0.1077757 -0.13620241
000320 bf 8a 1d 3e 4e 23 7b 3c e4 da 57 bd 16 33 3f be
       0.15384959 0.0153282415 -0.052698985 -0.18671831
000330 bb ff 68 3d ee 7b 0e be f0 c7 4a 3c ad a6 a7 3d
       0.05688451 -0.13914463 0.01237677 0.08186088
000340 3c 3e 86 be 7b 43 f3 3d 29 dd 19 3e 30 4a b0 bd
       -0.26219356 0.11878105 0.15025772 -0.086079
000350 c9 77 cf bb e5 21 10 be d4 9b 01 be ad 80 21 be
       -0.006331418 -0.1407543 -0.126571 -0.15771742
000360 f7 3c b0 3d ed 65 d6 bd e9 09 34 be a7 2c 64 bd
       0.08605378 -0.104686595 -0.17581905 -0.055706646
000370 63 dc de 3d 1c 21 a6 be 35 80 95 bd 1c 2d ef 3d
       0.10881879 -0.32447135 -0.07299844 0.11678526
000380 be 2f b9 bd 35 27 e0 bd 8a cd e7 3d be a9 cc 3c
       -0.09042309 -0.10944978 0.113185 0.024983283
000390 1d 42 06 be 23 4f 5f 3e 43 47 a2 3d 5a 81 1e 3e
       -0.13111158 0.21807532 0.07923748 0.15479031
0003a0 fa 6e 40 3e a4 6a 53 be 55 28 8f be 4c 20 58 bd
       0.18792334 -0.20646149 -0.27960458 -0.052765176
0003b0 48 8c 0e bb ab 1d 96 3d 8d a8 9b be b3 bc 02 3e
       -0.0021751095 0.073298775 -0.30402032 0.12767296
0003c0 87 9b 66 bd 4b 63 51 3e 2c 8c 1a 3e 80 86 ef 3d
       -0.056300666 0.20448034 0.15092534 0.11695576
0003d0 90 7f 45 be c8 68 ef 3d a0 a5 c0 3d 18 54 89 bc
       -0.19286942 0.11689907 0.094065905 -0.016763732
0003e0 48 0e 9f be 96 58 c5 3d d9 47 01 3e b6 57 27 3e
       -0.31065583 0.09636037 0.12625064 0.16342053
0003f0 bb 9b 30 3e 29 6b 18 3e 70 48 6b bd 5a 02 17 3d
       0.17246906 0.14884628 -0.05744213 0.036867477

mlp.0.bias f4 [100]
000000 d8 4f 80 3e 47 e0 89 be 4f ad 54 bf e0 06 33 bd
       0.25060916 -0.26928923 -0.8307695 -0.04370773
000010 92 ec 0f bd 43 60 77 bd 2b 8a 52 be 2a c7 b2 be
       -0.03513772 -0.060394537 -0.2056052 -0.34917575
000020 70 09 19 3e 78 bd 22 be 8d fe e6 bd 9b cb 05 be
       0.14945006 -0.15892589 -0.112790205 -0.1306595
000030 0c 91 2e 3e 8d 34 03 bd 93 8a da bd 6d e1 09 bc
       0.17047518 -0.03203254 -0.10670962 -0.008415562
000040 60 07 d2 bd 73 d0 80 bd 92 f4 13 bc 39 54 81 3d
       -0.10255313 -0.062897585 -0.009030478 0.06314892
000050 44 8a 72 be 41 74 a5 3b 68 6a 25 3e 1e 17 65 be
       -0.23685557 0.005049259 0.16153872 -0.223721
000060 76 34 de bd 6e a7 1d be 08 44 87 bd 70 d1 15 bd
       -0.1084985 -0.153959 -0.06604773 -0.03657669
000070 04 c8 5d be 15 19 92 be 73 90 ef 3b 0b 75 bd 3b
       -0.21658331 -0.2853476 0.007310921 0.005781775
000080 0d 12 35 bd 6c b6 2e be 31 36 1d bd 1e 3c a4 bd
       -0.044206668 -0.17061776 -0.03838176 -0.08019279
000090 e3 52 6b 3d 77 54 98 3d e2 b2 8d be 40 92 f9 3d
       0.057452094 0.074379854 -0.2767554 0.12186098
0000a0 c5 cb 8e bb d9 c1 b2 be da 6a 10 ba cd a2 a1 be
       -0.0043577873 -0.3491352 -0.0005509086 -0.3156952
0000b0 6c 44 e9 3d ee f3 97 bb fd 48 82 3c 50 43 55 be
       0.113900036 -0.004637233 0.015903944 -0.20826459
0000c0 ff 32 7f bd cd e9 4c be 32 b7 80 be 10 ac d0 3d
       -0.062304493 -0.20011063 -0.25139767 0.10189068
0000d0 4b 51 10 3e 46 b7 6b bd 63 c4 b4 bc 4e eb 44 3d
       0.14093511 -0.05754783 -0.0220663 0.048075967
0000e0 37 81 89 3e 01 7e 90 be bc dc df 3d 4d 6c 0f be
       0.26856396 -0.28221133 0.109307736 -0.14006157
0000f0 bc 6b f1 be 90 36 12 be 18 83 55 3e cb 02 3c be
       -0.47152507 -0.14278626 0.2085079 -0.1836044
000100 de dc 8c bd 1d f0 cb bd 09 12 a1 be 73 0c 55 3e
       -0.068780646 -0.09957907 -0.31459072 0.2080553
000110 10 0c 74 be dc 76 93 3e 80 d6 7f be d9 5d 9e be
       -0.23832726 0.2880162 -0.24984169 -0.30930975
000120 c3 52 8b 3e 60 62 c1 3b 70 d8 87 3e 2c fa 06 ba
       0.2721158 0.00590162 0.26532316 -0.0005148973
000130 66 c8 a4 3d f6 38 b4 be 17 25 18 be 56 43 85 bd
       0.080460355 -0.35199708 -0.14857899 -0.06506984
000140 fb f9 86 3d a9 3d ec bd 0a 77 e1 3c be 0b 16 be
       0.06590649 -0.11535198 0.027522583 -0.14652917
000150 97 2e fb 3d 0c a0 4a bf cb 65 24 3e 1c d1 e1 3c
       0.12264746 -0.7915046 0.16054456 0.027565531
000160 e1 fd fd bd 61 fc cb 3d c7 f1 c0 bd 0c c3 0f 3e
       -0.12401939 0.09960247 -0.09421115 0.14039248
000170 ed 2b 6c 3e b0 24 56 3e f5 30 f0 be 58 82 c2 3d
       0.23063631 0.20912433 -0.4691235 0.09497517
000180 2f c1 43 3d 48 30 0c 3e 58 a5 7f bd b1 81 4d bd
       0.047791656 0.13690293 -0.062413543 -0.05017251

mlp.2.weight f4 [100, 100]
000000 7a c0 d4 bd 2f ff b3 bc 4c d6 40 be 2e 08 00 3e
       -0.103882745 -0.021972267 -0.18831748 0.1250312
000010 7b ca b3 3d 23 ce c1 bd 93 d5 78 3d cf bb 0b 3d
       0.087788545 -0.094631456 0.060750555 0.034114655
000020 d4 ce dc bc 9e 8b 07 3e e0 c6 0a 3c 9f fb d2 3d
       -0.026954092 0.13236853 0.008470267 0.10301899
000030 cd b5 a3 3d a0 0d 68 bd 2c 1f 87 bd 82 75 4f 3e
       0.0799366 -0.05665362 -0.065977424 0.2025967
000040 1f 5b 26 3e ba e2 34 3b fe 77 8f bd 78 73 c6 bd
       0.16245697 0.002760096 -0.070053086 -0.09689993
000050 44 e7 66 3b 1a 18 e9 3b ab a3 79 bd 1b b9 ae bd
       0.003523306 0.007113469 -0.0609471 -0.085314
000060 8f 0c 6c 3c 71 55 5b bd 5d 16 5b 3d 94 cf de 3c
       0.014407291 -0.05354828 0.053488124 0.02719859
000070 10 15 6d bd 4b ee 0c be 61 21 60 3d eb 0e 88 be
       -0.057881415 -0.13762777 0.054719333 -0.26573882
000080 46 d4 a4 bd 04 04 8d 3d 11 6a 34 bd 14 bf 3d bd
       -0.080483004 0.068855315 -0.044046465 -0.046324804
000090 ff 60 9c 3d 00 dd 9b 38 6b e2 7c 3d a4 66 0f 3e
       0.07635688 7.4321404e-05 0.061739367 0.14003998
0000a0 55 31 26 bc 7a 42 02 be 6d 5d 2c 3e 47 c3 3d 3e
       -0.010143598 -0.12720671 0.16832514 0.18531524
0000b0 34 68 1d be a8 14 cf bc 23 ab 20 3d 46 ec 39 3e
       -0.15371782 -0.025278404 0.03922571 0.18156537
0000c0 e4 04 98 bd cf d4 d0 bc a7 90 46 be 20 7e 96 3c
       -0.07422808 -0.0254921 -0.19391118 0.018370688
0000d0 b5 dc 43 be b8 12 6e bd f0 94 00 be a2 ee 80 bd
       -0.19127162 -0.05812332 -0.12556815 -0.062955156
0000e0 78 f8 3c 3d 36 ee 06 be cb 6a 13 bd fe 5a 16 bd
       0.046135396 -0.13176808 -0.035990518 -0.03670787
0000f0 bc 92 08 3e f4 4a 12 3e 76 42 98 bc 12 a5 19 3d
       0.13337225 0.14286405 -0.018586379 0.03751094
000100 3b e2 9f 3d 28 70 21 bc 2c 51 18 3c 19 a5 53 3c
       0.07806822 -0.0098534 0.009296697 0.01291778
000110 38 70 5b bd 2b 8f 98 bd e7 3c 56 3e 57 e7 83 bd
       -0.053573817 -0.07449182 0.2092167 -0.06440609
000120 b9 27 dc 3d 61 bd 89 3d 49 05 26 bd 7c 0e cc 3d
       0.10749764 0.06725574 -0.040532384 0.099637
000130 ec f7 ab bd 3b 2e 64 bd c5 1e 8f bd 89 64 5b 3d
       -0.08396897 -0.05570815 -0.06988291 0.053562675
000140 c1 8f 39 3d 59 f5 c9 3d dd ff 04 bd 23 df d3 bc
       0.04530311 0.098612495 -0.032470573 -0.025863236
000150 04 c3 c8 3d 86 fa 0d bf d0 da 2b 3c 2c 89 da bd
       0.09802821 -0.55460393 0.010489181 -0.10670695
000160 99 32 7c 3c ab 21 b3 bd bd 86 6c 3d b0 e2 a0 bd
       0.015392923 -0.08746656 0.057745684 -0.07855737
000170 c7 36 7a bc 2b 5e fd bd 91 6f 2c bd 45 84 27 bd
       -0.015271849 -0.12371477 -0.042098586 -0.040897626
000180 b4 b2 42 be ab 80 9c 3d 69 56 4d bd e1 d4 d5 bd
       -0.19013482 0.07641729 -0.050131235 -0.10440994
000190 6c 2c 10 bd 54 e5 f9 bc 90 eb 92 bd 8f d2 c0 bc
       -0.035198614 -0.03050486 -0.07173836 -0.023537902
0001a0 b0 17 b6 3d 35 20 c3 bc 81 a1 6c bc 13 a7 22 3d
       0.08891237 -0.023819068 -0.014442802 0.039710116
0001b0 41 8a c6 3d 65 3a b2 3c 46 0a 7a bd e2 13 ac 3d
       0.096943386 0.02175636 -0.061044954 0.0840223
0001c0 63 a6 3e 3d eb 8c b9 bc c1 29 99 3a 48 1b 1a be
       0.046545397 -0.022650203 0.0011685417 -0.1504947
0001d0 32 f2 26 3d 05 ba ca bd 50 5f 0d be c0 7b 33 bd
       0.04075832 -0.09898762 -0.1380589 -0.04381919
0001e0 6b 14 28 3d f2 41 f5 3c 17 b5 52 3d a3 73 bc 3d
       0.041035097 0.029938672 0.051442232 0.092017435
0001f0 e0 20 c0 3d bd 80 83 bd 76 ce b6 3d 2e 58 b0 3d
       0.093812704 -0.06421039 0.08926098 0.08610569
000200 13 1e 95 be 56 dd 01 3e ce 32 e5 bd a8 c4 83 3d
       -0.29124507 0.12682089 -0.11191331 0.064339936
000210 8b 29 29 be 35 c1 7e bd c8 29 15 3e 22 9b f8 bd
       -0.16519754 -0.062195975 0.1456672 -0.12138964
000220 9a ce 4e 3d 65 68 1a bc f0 5f 77 3d 5d dc 51 bc
       0.05049 -0.009424304 0.060394228 -0.012808886
000230 4e f8 00 3e 5d e5 4b be d2 25 ac bc 08 d7 c1 3d
       0.1259472 -0.19911714 -0.021014128 0.09464842
000240 d7 2d 4f 3d 3f c6 22 3d 00 23 09 3d a4 e9 4e bd
       0.050580826 0.039739843 0.033480644 -0.050515786
000250 c9 c4 db 3d 08 f8 91 3d f1 67 ad 3d d2 60 61 3d
       0.10730893 0.07127386 0.08467091 0.055023976
000260 07 fd 72 bc ac f9 cd bd f8 e6 22 3c 30 37 65 3d
       -0.014830834 -0.10057387 0.009942763 0.055960834
000270 54 f1 08 3e 23 f9 56 bd 5a 81 54 3d 6e 92 ce bd
       0.1337331 -0.05248369 0.05188117 -0.10086523
000280 3b 72 a1 3d aa f7 cc bd d1 d0 b2 bd 79 34 d3 3b
       0.07883116 -0.10008176 -0.08731235 0.006445464
000290 78 3f 19 bd 05 6e 39 bd b9 54 bf 3b 08 6d 15 be
       -0.037414044 -0.04527094 0.005838957 -0.14592373
0002a0 82 70 bf bd 92 bd 73 bd a6 d1 71 3c 88 ce 43 3d
       -0.09347631 -0.05950696 0.014759457 0.047804385
0002b0 1e 86 10 be 44 1e fb bd 50 db 07 3d 1d 71 a0 3d
       -0.14113662 -0.12261632 0.033168137 0.07834075
0002c0 9d a1 e6 3d 88 4e ac bd cd ee b3 bd b8 2e b0 bc
       0.11261294 -0.08413416 -0.08785782 -0.021506652
0002d0 4e a7 1e bd 99 be 6b bd e5 87 99 bc 51 94 78 3d
       -0.038733773 -0.057554815 -0.018741557 0.06068832
0002e0 ac 37 b9 3d 1f 73 cb bd da 7b af 3d 4e 0d 3a be
       0.09043822 -0.09934067 0.08568545 -0.18169138
0002f0 7a 1c 12 3e 9f 6a 33 bd e1 7e 8b bc ff c1 c0 3d
       0.14268675 -0.043802854 -0.017028274 0.09412002
000300 ac ae 7c bc 1e 59 f7 3c f2 72 42 3e 79 1d 01 3b
       -0.015422504 0.030193862 0.1898916 0.0019701405
000310 84 23 6d be ab ee e8 bc ea b6 41 3e 7d 2a 34 3d
       -0.2315808 -0.028434118 0.18917432 0.043985832
000320 90 f8 84 3d b3 98 88 bc 11 e0 22 bd 94 d5 42 3d
       0.06492722 -0.016674375 -0.039764468 0.047566965
000330 6e 9d bf bb 2d a4 c8 bd 25 13 bd bc 2e 18 e3 3d
       -0.0058476245 -0.09796939 -0.023080418 0.11088596
000340 47 57 0d 3e 2f a1 9c 3d 11 c2 96 3c 40 30 4f 3c
       0.13802825 0.07647931 0.018403085 0.012645781
000350 fd 69 b8 bc 06 db a2 bd e9 d7 d4 3d a4 e8 6f 3d
       -0.022511477 -0.07951932 0.10392744 0.058571473
000360 5a 60 b0 3d 99 99 2e be da 24 24 be 78 79 a6 bd
       0.086121276 -0.1705078 -0.16029683 -0.08128637
000370 02 26 51 bb 80 48 e1 bd 9b f3 09 be 90 fa a6 bc
       -0.0031913524 -0.110001564 -0.13471834 -0.02038315
000380 00 a5 92 bd f0 01 85 bd 55 7f fb 3a 34 7c 07 3e
       -0.071603775 -0.0649451 0.0019187728 0.13230973
000390 af e0 8a 3c 67 20 41 bc 32 da 4b 3e 86 9d 80 3d
       0.01695284 -0.0117875105 0.19907454 0.06280045
0003a0 a4 58 4a bd 76 67 df 3d c9 71 51 3d a8 2a 8d 3c
       -0.04940094 0.109084055 0.051133905 0.017232254
0003b0 3b 60 68 bd 23 f3 62 bd f0 cf 9d 3d 79 1e 98 3c
       -0.056732398 -0.055407654 0.077056766 0.018569218
0003c0 3c 34 28 3e dd 7e 3d be e6 5e 86 3d 5e 38 18 3e
       0.16426176 -0.18505426 0.06561069 0.14865252
0003d0 26 4b aa 3d b4 de c3 bd 1c e6 30 be 96 59 13 3e
       0.08315115 -0.095639616 -0.1727528 0.14389643
0003e0 4d 33 7d 3d 27 da 9f bd d2 d9 03 bd 1f ef a6 bd
       0.061816502 -0.07805281 -0.03219015 -0.081510775
0003f0 88 69 f2 3d 78 37 e8 bd 2d 6c 9c 3c a7 0b 16 bd
       0.11836535 -0.11338705 0.019094551 -0.036632206

mlp.2.bias f4 [100]
000000 bd df 16 3e 80 bf cb 3c c6 72 5b 3e fe 95 06 3c
       0.14733787 0.024871588 0.21430501 0.008214472
000010 12 5b d3 bd ee a0 e7 3b 6c 4f 30 bd a2 f3 6b 3d
       -0.10320105 0.007068745 -0.043044493 0.057605393
000020 00 96 55 bd 63 d9 b1 bd 53 07 2c 3d 6d 60 86 3c
       -0.052145004 -0.08684041 0.041999172 0.016403401
000030 10 83 ef bd 4e 56 01 be b4 45 05 3d 22 4e 25 3e
       -0.1169492 -0.12630579 0.032537177 0.16143087
000040 22 c2 a6 bd 39 fc bb bc df 42 ae bd c2 f3 fc bd
       -0.08142497 -0.022947418 -0.085088484 -0.123511806
000050 2d 47 2a be 0a 76 99 bc 00 e2 e8 bc fc 04 66 3e
       -0.16628714 -0.018733043 -0.028428078 0.22462839
000060 73 82 cb be e5 37 b4 be 69 93 14 bd 68 e8 e1 bb
       -0.39747962 -0.35198894 -0.036273394 -0.00689416
000070 09 55 12 bd c5 47 b3 ba 2e 84 21 bd 21 8c d0 bd
       -0.035725627 -0.0013678005 -0.039432697 -0.101829775
000080 d5 c4 4f be 5c ba 44 bd 2e e1 b7 3d 93 e1 c9 3c
       -0.20289929 -0.04802929 0.089784965 0.024643695
000090 b0 65 56 be f1 41 08 be 77 d3 b9 bd de 75 0b be
       -0.20937228 -0.13306405 -0.09073537 -0.13619182
0000a0 8e dc 08 be 27 b3 e9 3c a8 06 dc bc fa 3e 8e be
       -0.13365385 0.02852781 -0.026858643 -0.27782422
0000b0 0d 23 68 be 21 d2 20 bd da ca 86 bd 19 82 73 be
       -0.22669621 -0.039262895 -0.065816596 -0.23780097
0000c0 d6 26 1e be 5b 10 21 bf e5 f3 da bd 9d 29 9a 3d
       -0.15444502 -0.6291558 -0.106910504 0.07527468
0000d0 64 09 24 bd 6d fd 1d be 66 1f 83 3d c5 ff 0f 3a
       -0.040048018 -0.15428706 0.06402473 0.000549313
0000e0 f6 ba 31 be ea 05 2c 3e 51 fd 2d bd 5d e1 a3 3d
       -0.17356476 0.16799131 -0.04247791 0.08001969
0000f0 43 00 84 3d 67 66 5b 3d 33 85 66 bd cf b8 2d bc
       0.064453624 0.053564455 -0.056279372 -0.010603144
000100 7c 7f 04 be 3b 70 05 bd 14 c1 61 3c 84 92 83 3d
       -0.12939256 -0.032577734 0.013778944 0.0642443
000110 00 9a 79 3c dd 92 e2 3d 77 e7 36 3e 2d e2 80 3d
       0.01523447 0.11063168 0.17861734 0.062931396
000120 28 41 a9 3d 5f a4 96 3a 5e 5a 5f be e1 24 f2 be
       0.08264381 0.0011493078 -0.21811816 -0.4729376
000130 77 2c 81 be 5c 4d 81 be 25 53 69 be 44 f9 72 be
       -0.25229236 -0.25254333 -0.22785623 -0.237279
000140 c0 cc c7 bd 81 79 44 be 21 c3 44 bd c2 ae 4a 3c
       -0.0975585 -0.19186975 -0.048037652 0.012370767
000150 52 75 29 be ac 1c 08 3d f0 d0 2b be 7b c1 c2 3c
       -0.1654866 0.03323047 -0.16778922 0.0237739
000160 75 d5 24 bf 48 84 8d bc 19 d5 8d be 49 2d 10 3d
       -0.6438821 -0.01727499 -0.27701643 0.035199437
000170 5c 64 b2 3d 30 4c 7b be 98 9b 78 be 66 0a eb bd
       0.08710548 -0.24540782 -0.24278104 -0.11476593
000180 1f 4a 4e be 08 10 67 be 25 f9 27 3c 27 33 1e bd
       -0.20145462 -0.22564709 0.010252272 -0.038623

mlp.5.weight f4 [100, 100]
000000 79 1a a0 3d 61 a2 8d 3c 12 03 8f 3d fe 87 2f 3e
       0.07817549 0.017289342 0.069830075 0.1714172
000010 c9 ba d5 3d 65 4e bd bc e6 ff 00 3e 88 6d bb bd
       0.10436017 -0.02310867 0.12597618 -0.09151751
000020 65 0f 9f bc ef a6 92 3c 8e bc 43 bd 73 d8 ca ba
       -0.01941652 0.017901866 -0.04778724 -0.0015475884
000030 eb 18 b1 bd 2b 4d e2 bc ef 8f fa 3d 5a b0 73 bc
       -0.08647331 -0.027624687 0.122344844 -0.014873588
000040 b6 98 3c 3e 78 e3 ea bd cb 16 2c be f4 71 4f 3d
       0.1841763 -0.114691675 -0.1680557 0.050645784
000050 92 c3 32 3e 82 cf b5 bc af 9f 41 bd c2 7a e3 bd
       0.17457417 -0.022193674 -0.047271427 -0.111073986
000060 2d 71 56 3e d6 ee df 3c f3 b5 f8 bd dc 1c a8 3c
       0.2094161 0.027335566 -0.12144079 0.020521574
000070 69 5c 5e 3d 3f fc 34 3d ba d6 d6 bd c8 5f 09 be
       0.054287348 0.044185873 -0.104901746 -0.13415444
000080 ef e0 02 3d e3 34 b3 bd 20 ae 5f 3d 61 29 54 bb
       0.031952795 -0.08750322 0.054609418 -0.0032373297
000090 5d 76 b6 3d 3e 6e 21 3c a4 ac 21 3e 89 a9 36 3d
       0.08909295 0.009852944 0.15788513 0.044595275
0000a0 ca 96 75 bd 9c 18 86 3d 90 ba d2 3d 9e 36 70 bc
       -0.059958257 0.065476626 0.1028949 -0.014661459
0000b0 e6 22 59 3b 7c 73 e9 bd 73 61 94 3c 50 7f 16 3e
       0.0033132373 -0.1139898 0.018112874 0.14697003
0000c0 12 0c 53 bd 1e bc 4b 3d ae 67 c6 bd 23 e5 a3 3d
       -0.051525183 0.04973995 -0.09687744 0.08002689
0000d0 88 66 76 3d a9 f6 e8 bd aa 64 a4 bd ae b5 8c 3d
       0.060156375 -0.11375172 -0.08027013 0.0687059
0000e0 6b 74 05 be a2 ea 00 be 6e 27 27 3d 78 0b 36 3d
       -0.13032691 -0.12589505 0.040809087 0.04444453
0000f0 d5 69 06 3e 1a 82 12 be f2 aa 79 bd 67 82 47 3d
       0.13126309 -0.14307442 -0.06095404 0.048708346
000100 ab 99 1f bd 9b 58 26 3d 33 ee a8 b9 41 32 da 3c
       -0.03896491 0.040611845 -0.0003222093 0.026635291
000110 13 43 ac bb db 21 40 3c 40 fb 8f 3c 70 8b af 3d
       -0.0052570193 0.011726822 0.01757586 0.085715175
000120 fb bd 15 3e 3c 57 a9 3b 98 5a 0b be 66 6c bc bd
       0.14623253 0.00516787 -0.13608778 -0.09200363
000130 0a 0a 0c 3e 53 65 3c 3e 4a 79 6e bd af fb d0 bc
       0.13675705 0.18398027 -0.05822114 -0.025510637
000140 fd 28 96 bd 94 32 3b 3d 7c e3 2c 3c bd f1 b3 bc
       -0.07332037 0.045702532 0.010552283 -0.021965856
000150 b9 8e 2a be 5e 63 06 be f8 c9 1b be 5e 10 22 bc
       -0.16656007 -0.13123843 -0.15213764 -0.009891598
000160 ea 6d 1f 3d 51 d7 13 be a9 1c 17 3d bc 56 6a bd
       0.03892318 -0.14437605 0.036892567 -0.057211623
000170 d8 36 55 3c 45 3b ad 3d 62 12 0f be 35 96 97 bd
       0.013013564 0.084585704 -0.13971856 -0.074016966
000180 5b 95 34 3d 68 de 03 be 22 ed 00 bd 5d 94 16 3d
       0.04408775 -0.1287781 -0.031476147 0.036762584
000190 55 2d 94 bd c5 98 af bc d2 00 bf 3d 1c 67 b5 3d
       -0.07235209 -0.02143515 0.09326328 0.08857557
0001a0 4b f2 4a bd 81 7e 9e bd 63 7a 6d bd e6 17 05 bb
       -0.049547475 -0.077389725 -0.057978045 -0.0020308434
0001b0 d0 2d b1 3a d4 2e 93 3d 0c 62 8b bd 58 35 3d 3c
       0.0013517682 0.07186666 -0.0680581 0.011548363
0001c0 2c 4c ac bd 46 f0 ac bd 86 86 10 bd 29 cc c2 3d
       -0.08412966 -0.08444266 -0.03528454 0.09511597
0001d0 63 10 a4 bd 6a d5 71 3d d0 ca c2 bd 63 63 31 3d
       -0.08010938 0.059041418 -0.0951134 0.043307673
0001e0 2a 00 b7 3d 0a 75 23 bd b9 94 c0 bd 0f ab c9 3b
       0.08935578 -0.03990654 -0.094033666 0.006154425
0001f0 ad 78 e2 bc 0e 29 07 bd f8 fd 11 bd 25 e1 90 ba
       -0.027645433 -0.032998137 -0.035642594 -0.0011053426
000200 84 22 85 bd f0 ec 7f 3b 33 c6 c0 3c 5e 8d b3 bd
       -0.06500724 0.0039051138 0.023532009 -0.08767198
000210 64 f7 86 bc 57 96 64 3d 51 fc b3 bd eb 65 74 3d
       -0.016475387 0.055807438 -0.0878836 0.05966751
000220 4c 85 81 bc 79 4c 71 bd 65 ef a6 bd cf 4c 03 3c
       -0.015810631 -0.05891082 -0.0815113 0.008013918
000230 51 9f 76 bd 80 73 79 3d 4c 37 8c bc bf d9 94 3d
       -0.06021053 0.060901165 -0.017116211 0.07268094
000240 5c 00 b8 3c 2a 7b 86 3d 94 7f 75 3d 6a 34 44 3b
       0.022461109 0.065664604 0.05993612 0.0029938468
000250 da 12 60 bc 53 f0 6d 3d 8a a1 cf bc 03 b8 9d bd
       -0.01367637 0.05809052 -0.025345583 -0.07701113
000260 fb b4 8d bd 6d 97 3b bc 0c 62 92 3d d5 72 55 bd
       -0.06919285 -0.011449677 0.07147607 -0.052111465
000270 6e ee a7 bd 40 e6 31 3d 3b f5 05 3c 6b 6e a3 3d
       -0.08199774 0.043432474 0.008176143 0.07980045
000280 16 fa bc bd 3f 96 6f 3c 2d 12 b6 bd 8e cd 23 3d
       -0.092273876 0.014623224 -0.088901855 0.039990954
000290 95 5f a7 bd 41 ed 1f 3d ca 37 c1 bc 16 2b b3 3d
       -0.08172528 0.039044622 -0.023586173 0.08748452
0002a0 0e 67 27 3c 6f 0b 47 bc 1e 5a 77 3d 4c bc 98 bb
       0.010217441 -0.012148722 0.060388677 -0.0046611186
0002b0 06 81 47 3c 52 86 1b bd fd 98 64 3d 2e 1c 6a bd
       0.012176758 -0.037969895 0.055809963 -0.05715578
0002c0 49 92 93 3c 9f 23 5b bd 84 ea ed 3c a2 dd b7 3d
       0.01801409 -0.053500768 0.02904249 0.0897782
0002d0 65 47 22 3d 7d cc 4e 3d a1 d9 c5 bd eb 5e 66 3d
       0.03961887 0.050487984 -0.0966065 0.056242865
0002e0 de f0 53 3c 1b 10 4c 3d b6 b4 91 bd a1 91 0b 3c
       0.012935845 0.049820047 -0.07114546 0.008518607
0002f0 eb 77 3d bd 2f 18 88 3c 75 db af 3b 52 b4 ff bc
       -0.04625694 0.016613094 0.0053667375 -0.031213913
000300 1d fb 72 3d 95 ad 85 bc 93 5e b2 3d b9 c5 f0 bc
       0.05932151 -0.016318122 0.08709445 -0.029391157
000310 d3 e5 b3 3d 82 31 f0 bc f7 ed 4b 3d c0 01 61 bd
       0.0878407 -0.029320482 0.049787488 -0.05493331
000320 ce a5 26 bd 89 18 08 3c 09 36 ac 3d 18 2d 60 3d
       -0.040685467 0.008306631 0.08408744 0.054730505
000330 13 14 09 bd 1b fe b0 3d 7f 8e 10 3a 75 01 53 bd
       -0.03346641 0.08642217 0.00055143976 -0.05151506
000340 89 58 f9 bc 04 f7 2c 3c 09 f5 a4 3d 3a 1c b2 3d
       -0.030437725 0.01055694 0.08054549 0.0869679
000350 2a c0 31 bd 8f 80 72 3d 97 4e 68 3d 7d dc 23 bd
       -0.043396153 0.059204634 0.056715574 -0.040005196
000360 ef 07 20 bd 61 93 f7 3b 9c 68 99 3b 8b 63 af 3d
       -0.039070066 0.0075554107 0.00468166 0.08563908
000370 37 bb 8b 3c e1 e8 10 bd 28 7d cd 3d 07 9d 89 bd
       0.017057044 -0.03537834 0.10033637 -0.06719404
000380 b8 5a ba bc c4 a2 16 bd 59 60 59 bd 66 1e 5e bc
       -0.022748336 -0.03677632 -0.0530704 -0.013557052
000390 63 95 17 bd dc 64 58 3d ff c7 a3 bd 0e 5e b3 bd
       -0.0370077 0.052830562 -0.079971306 -0.08758174
0003a0 a8 14 29 3d 88 37 a2 bd 98 c2 17 bd f2 55 d9 3b
       0.041279465 -0.07920748 -0.037050813 0.00663256
0003b0 58 79 8d bd 1a 90 51 bd 70 c9 c3 bc 50 89 a2 39
       -0.0690791 -0.051162817 -0.023899764 0.00031001354
0003c0 f7 3a 33 bd 18 9e a5 bd 98 6d b5 3c 09 fc 01 bd
       -0.043757405 -0.080867946 0.022146985 -0.0317345
0003d0 19 d1 be 3b f2 2f b5 3d 65 9d 06 bd 39 d7 75 3c
       0.005823266 0.088470355 -0.032864947 0.015004926
0003e0 fa 6c 9c bd 71 a3 cb bd dc 15 5e 3c 7f 03 01 3d
       -0.07637973 -0.09943283 0.013555016 0.031497475
0003f0 5e 19 72 3c ea 19 88 bd 73 21 0e bd 43 56 aa 3d
       0.014776556 -0.06645568 -0.03469987 0.08317234

mlp.5.bias f4 [100]
000000 bc b5 3e 3d f3 59 96 bd 7d 25 9b bd b4 2c 8a 3d
       0.046560034 -0.07341375 -0.0757551 0.06746808
000010 f2 09 b4 bc ba 7f 1e 3d 2d c3 4b 3d 7c ce 40 3c
       -0.021977399 0.03869603 0.04974668 0.01176798
000020 64 42 93 3c 51 eb 98 bc 8e 06 a5 3c a4 2d ca ba
       0.017975993 -0.018666895 0.020144727 -0.0015424979
000030 aa 74 7f 3d e4 d0 80 3b e9 3f b4 3d 1c ad 24 3c
       0.06236712 0.0039311517 0.088012524 0.010051038
000040 40 48 83 bd a8 f3 92 3d ff d2 14 3d 72 f6 c9 bd
       -0.06410265 0.0717538 0.036334034 -0.09861459
000050 32 cb a3 3d 55 bc a4 bd f9 c0 b5 bd a3 40 b9 bd
       0.07997741 -0.08043734 -0.08874697 -0.090455316
000060 92 a3 8e 3d 51 10 cb bc 2f 72 f9 bc cf af db 3c
       0.06964792 -0.024788054 -0.030449955 0.02681723
000070 a4 33 f4 3b f0 ba 00 ba 97 d9 0d 3d f1 99 b6 3c
       0.007452445 -0.00049106684 0.034631338 0.022290202
000080 ad ee f0 3a 46 64 f5 3c 33 15 bc bd 36 23 bf 3d
       0.0018381678 0.02995504 -0.09183731 0.09332888
000090 54 ba 33 bd 19 99 b6 3b af df a5 3d c3 c2 60 3d
       -0.04387887 0.00557245 0.08099305 0.05487324
0000a0 1c 5a 17 3d b3 49 07 3c 57 27 c7 bd 25 c4 1c 3d
       0.03695117 0.008257317 -0.097243 0.038272996
0000b0 d7 29 df bc b2 f3 c7 3d 00 86 6b 3b 42 ba 65 3c
       -0.02724163 0.09763278 0.0035938025 0.014021458
0000c0 75 40 2c bd f2 bf f9 3c 8d 75 10 3d 94 cb 31 3d
       -0.04205366 0.030487034 0.035268355 0.043407038
0000d0 ba 83 72 3b ed 6d 8e 3d bd 3f aa 3d 3f 57 10 3b
       0.0037004785 0.069545604 0.08312938 0.002202466
0000e0 37 c9 43 3d 31 cf a5 bb 38 72 6b 3d 60 3d b2 3b
       0.047799315 -0.0050600995 0.057481974 0.0054394454
0000f0 b0 c5 ec 3c b8 ad 10 bd d0 80 11 3c ac e6 bb 3d
       0.028902858 -0.03532192 0.008880809 0.091748565
000100 43 84 40 3c c4 7f 86 bd 7d 7e d5 3c 64 c6 47 3d
       0.011750284 -0.06567338 0.02606129 0.048773184
000110 6e e3 a7 3d aa f7 92 bd 94 1c 00 bd 33 bd b9 bc
       0.08197676 -0.071761444 -0.031277254 -0.022673225
000120 65 c5 a4 bd 36 80 09 3d d5 ac b9 bc ac 90 9a bc
       -0.080454625 0.033569537 -0.02266542 -0.018867813
000130 9e dc f5 3c 98 85 c9 3c 95 95 31 3d c2 e2 9f 3b
       0.030012425 0.024599835 0.043355543 0.0048793266
000140 82 fe 1f bd b2 53 cc 3a f9 f0 07 3a 4b 4e b5 3c
       -0.039061077 0.0015588908 0.0005185749 0.02213206
000150 f5 67 4f bd 03 27 1c 3d 28 c6 54 bd 1c 70 00 3d
       -0.05063625 0.038123142 -0.05194679 0.031356916
000160 9c 65 ad 3d b0 bd b7 3c 1b a9 19 bd d5 d2 59 bb
       0.08466646 0.022429317 -0.037514787 -0.0033237238
000170 51 49 08 3c 49 22 7a 3d 6b b6 c6 bc 79 44 7c 3d
       0.008318261 0.061067853 -0.024256906 0.061588738
000180 46 ca 3b bd 75 42 d9 bc 78 f6 21 bd 27 ae 2d bc
       -0.0458472 -0.026520947 -0.03954169 -0.010600603

mlp.8.weight f4 [1, 100]
000000 d0 ef 24 3f c3 6f a3 bd e2 5f 97 bd 97 c5 7c be
       0.64428425 -0.07980301 -0.07391335 -0.2468475
000010 0a 25 6a bf 1d 21 24 3f ee a9 11 3d f7 21 29 be
       -0.9146277 0.64113027 0.03556245 -0.16516863
000020 cb 35 52 bf 0d ac f0 3e bc 11 61 bf 0b 61 65 bd
       -0.8211333 0.47006264 -0.87917686 -0.05600075
000030 43 cd 12 3f 58 8f f6 bc df a2 43 3e f5 b8 c6 3e
       0.57344455 -0.030097649 0.19105099 0.38812986
000040 7c 25 26 3d 82 40 dc 3d 11 d4 f2 be 12 42 6d 3d
       0.04056309 0.107544914 -0.4742742 0.057924338
000050 6e f0 1d 3f 87 d3 f9 bb 0e 21 15 3e ba a7 b7 3c
       0.6169499 -0.007624093 0.1456339 0.022418845
000060 4b 68 0a 3f 2b ac 0e bd 71 8a 73 3d 3c f5 33 bf
       0.5406539 -0.03483216 0.0594582 -0.7029607
000070 c5 61 ad be 7a c8 54 bf a4 96 09 bf 93 88 36 bf
       -0.33863655 -0.831184 -0.53745484 -0.71302146
000080 c8 96 1b be 0b 7e 04 3f 75 63 8d bc f6 b0 23 3f
       -0.15194237 0.51754826 -0.017259339 0.63941896
000090 7b a5 4a 3e 2c 77 3f bf 3c 3e df 3e 56 07 26 3d
       0.19789688 -0.74791217 0.4360217 0.04053434
0000a0 28 a2 65 bb a4 ae 39 bf 54 b4 13 3c 50 a1 54 bf
       -0.003503928 -0.72532105 0.009015162 -0.83058643
0000b0 7f b5 71 bd 1b 5f 55 bd 15 47 a1 3d da 5c 40 3f
       -0.05901098 -0.052092653 0.07874886 0.7514168
0000c0 a0 fc a6 bd 13 1d cb 3e 35 ed 0f 3f 82 e8 12 3f
       -0.08153653 0.3967062 0.56221324 0.5738603
0000d0 97 7d 84 be 5c 82 b5 3e 72 5c 53 3e 9d 56 df be
       -0.25877067 0.3545102 0.20640734 -0.43620768
0000e0 d6 a7 1f 3f 4d 0a 70 3f 0b 29 0f be 29 20 39 3e
       0.6236547 0.9376572 -0.139805 0.18078674
0000f0 1b 48 21 3f 12 42 75 3f 56 b8 81 bf b1 d6 b0 3d
       0.6300065 0.9580394 -1.013438 0.08634699
000100 2d 6c 4a bf c4 d6 42 bd a7 04 c7 be c8 35 26 bf
       -0.79071313 -0.047568098 -0.38870737 -0.64925814
000110 5e 9a 2c 3f 23 9b 93 bd ce 96 29 3e 2e 33 56 bd
       0.67423046 -0.07207324 0.16561434 -0.052294903
000120 f4 b2 25 bd ce a6 64 bf dc f1 1b 3f d9 8f e9 3b
       -0.040453866 -0.89317024 0.60915923 0.0071277437
000130 d3 62 84 bf 18 95 3f 3f 54 29 bb 3d d3 da 0e bf
       -1.0342659 0.74836874 0.09138742 -0.5580265
000140 f9 c3 ee bc a1 22 15 bf 4d f6 1c 3f 03 19 96 3e
       -0.029146181 -0.58255965 0.61313325 0.29315957
000150 24 1b 29 3d 25 74 90 3e 2b 4d f4 3d a6 8c c0 be
       0.04128565 0.2821361 0.11928781 -0.37607306
000160 5b c4 5e 3d 25 8e 19 3f 5c fd 71 bd bd 6d 6c bf
       0.054386478 0.5998252 -0.059079513 -0.9235495
000170 77 99 0b bf 67 bf 96 3e f9 2d 8c 3d 7f 65 0b 3f
       -0.54531044 0.29442903 0.06844706 0.54451746
000180 83 b8 39 bc 6a ca 4f 3f 87 6c 8c 3d 67 8e 08 3e
       -0.011335495 0.81168234 0.068566374 0.13335572
