models/weights_bak/layers_50_50_drop_lr_1e-05.pt (torch, 19247 bytes, 5 tensors)

mlp.0.weight f4 [50, 31]
00000000: ee26 913e 9336 973d cb08 773e b628 0d3c
00000010: 8d36 21be 879b 8cbe 5db3 b03e 649e fdbd
00000020: c1ce 12bc 4f33 81be 9c1d 13be b37c 583e
00000030: 18e7 c1bd 0ddb 3d3e cb51 8d3c 9c67 7fbe
00000040: 18b8 43be b0ac 873d 8838 73be 4b03 333d
00000050: c95a 8b3d ef80 dc3d b994 b43d b32c 94bd
00000060: f36f 8abe 1339 f3bd 390f fb3d b16b afbd
00000070: a60c ce3b d66b 013e d288 b93d 6954 ccbd
00000080: 0252 c23d bb1f 06bd ba36 2fbd 73d8 4bbf
00000090: 6c28 bb3e fac4 82be daed 7739 484c 1b3e
000000a0: 4838 83bd 8104 20be bfec b63e 0241 b7bc
000000b0: 3cb4 8e3d 22d7 94bd 5402 353e 8867 d0bd
000000c0: 03fd b53c 9b8c d4bd 8983 243d b9ce c83d
000000d0: 0c1a ba3d 3a70 d03d 4e73 94bb 9c0b d73c
000000e0: fdd9 2dbe f668 80be 94d2 b63d db59 d7ba
000000f0: 928c 01be 1da1 66bc 7968 7ebe e96e 0dbe
00000100: 42a9 7ebd 13d0 92bd 7f60 08bf 999d 8b3e
00000110: 2f1f 35bc 60a1 233d 0edf e0bd 1ceb bebd
00000120: 2fbe eabd d3f0 bf3d cdcf c63d ece0 a43d
00000130: 58de 103e 32cf c73d e877 94bc 0b87 2b3d
00000140: b821 5fbd 20ac c93d e68f 53bd bfcc 6ebe
00000150: 279d 96bc 59ab e23d f321 38ba 4f74 233e
00000160: eab1 dc3d 2282 693e e2d3 c9bd bbcc 8f3c
00000170: 9d63 50be 4d40 68be 79b7 3e3e bab2 95be
00000180: 1a17 aabd b6c7 413e b969 8a3e a6d9 1abd
00000190: eb2b 973a 55f6 2dbe 9205 3dbe ed99 3b3d
000001a0: ea3f b8bd c503 bc3d 2ef0 013e da2d 943d
000001b0: f7af 7b3e b3fa 7ebd 39cd 46bd e3b3 0cbd
000001c0: 2d48 ea3d ae6d 223d 80d5 89bc 7347 f0bd
000001d0: d524 473e cf39 c83d 6422 0d3d d427 4e3e
000001e0: 5b4e c13d 6eb5 2a3d 8cb6 93be d493 03be
000001f0: 344f c73e bb1c 8fbc b88f bcbd d49e 5b3c
00000200: ce5a 443e c4eb c5bd c79a 2b3c 26a0 babd
00000210: 2a77 cf3d f91b 8bbe ff18 2b3c db04 e1bc
00000220: ee70 a13d 8d9b 853d b1f0 07be a737 233e
00000230: 04d2 383d 5afd 1ebe 1450 e6bd f871 893d
00000240: b86b f0bd f221 973d c80a 5ebd 404e b93d
00000250: 46e7 1ebe 665f 2fbc bb8c 003e f0df 1a3e
00000260: 8569 07be 9c85 013e fc65 033d 2c34 b33e
00000270: 3dd0 80be 92ab 8f3e bbce cfbd 7b42 a73d
00000280: b5d7 f3bd 6f62 953d 37ee b7bd 0aa8 203d
00000290: 0cab f9b6 025c 4c3c fb3e eebc 2706 78bd
000002a0: 4b09 3d3e 4a3d 913d 72cc 49be a656 613c
000002b0: 7dcb 00be 17aa 59be 1fdf 18be 2ec2 4ebd
000002c0: c2ee 133e d689 cdbe d430 02bc 1935 6bbe
000002d0: f623 2d3e 716e a1be 9898 2f3e 4d41 083c
000002e0: b6c8 6dbe ff77 1d3e ed19 893e 1267 ac3c
000002f0: c179 36bd 5f35 23bd 49dc 59bd 25e4 eabd
00000300: 44ef 3abd 53e7 153e f03e 4b3e a548 b1bd
00000310: 7bc2 3e3e 02d8 a83d 42e6 2cbc 6a28 313d
00000320: 19fd 543d 92df be3d 6326 35bd 7f32 a3bd
00000330: 464b 10bd 9489 c23c 8803 203d 7931 98bd
00000340: 346e e8be b618 cd3d 597a 43bc d53f 293e
00000350: b11c 983e 2cf9 14bb ef8c 083e b5ec 91be
00000360: 059d 9ebe 7d0d aa3e 870b 36be cc62 2b3e
00000370: da72 30be 3c6f e33d c651 dabc 9f2e 7a3c
00000380: 3a1a 9abb 7883 a43d bde0 193d 26d9 ebbd
00000390: c997 2cbd cf09 23be 7fd3 e23c b7de 64bb
000003a0: 7898 1dbc 8344 97bd 7343 dc3d 38eb 593e
000003b0: 44c4 94bd be9d 9abc 1329 ecbd 07a1 343d
000003c0: 042b f9bc 52aa 8dbd 0b69 0abd 33ac c93d
000003d0: 7e11 2bbe 7158 003e a8fe 4c3e 6e2e 293e
000003e0: af36 11bd d34c ebbc 8304 75bc 25f3 743c
000003f0: 12a1 893f 5774 5e3f 2543 04bd 5a5b 443d
0.28350013 0.07383456 0.24124448 0.008615663 -0.15743466 -0.27462408 0.34511843 -0.12383726
-0.008960427 -0.25234458 -0.14366764 0.21141319 -0.09467906 0.18540592 0.017250916 -0.24941868
-0.19113195 0.066247344 -0.23752034 0.043704312 0.06804425 0.1076678 0.08817429 -0.07235088
-0.27038535 -0.118761204 0.12258763 -0.085654624 0.006288129 0.12638792 0.090592995 -0.099770375
0.09488298 -0.032745104 -0.0427768 -0.7962715 0.36554277 -0.25540906 0.00023644362 0.15165818
-0.06407219 -0.15626718 0.35727498 -0.022369865 0.06967971 -0.07267596 0.1767667 -0.10175997
0.022215372 -0.10378381 0.040164504 0.09805054 0.09086999 0.101776555 -0.004530347 0.026250653
-0.16977687 -0.2508008 0.08926883 -0.0016429977 -0.1265128 -0.014076498 -0.2484454 -0.1381184
-0.062173136 -0.07168593 -0.5327224 0.27268675 -0.011054798 0.03994882 -0.10980044 -0.09322187
-0.11462056 0.093721054 0.097076036 0.08050713 0.14147317 0.09756316 -0.018123582 0.041876834
-0.054475516 0.09847283 -0.051650904 -0.23320292 -0.018385483 0.11067838 -0.0007024102 0.15962337
0.10776122 0.22803548 -0.098548666 0.017553678 -0.203505 -0.22680779 0.18624677 -0.2923792
-0.083051875 0.1892384 0.27033785 -0.037805222 0.0011533474 -0.169885 -0.18459156 0.045801092
-0.08996566 0.091804065 0.12689278 0.07235308 0.24578844 -0.062250804 -0.04853556 -0.03435124
0.11439548 0.03965538 -0.016825438 -0.11732378 0.19447644 0.09776651 0.034456626 0.2013238
0.09438773 0.04167693 -0.2885021 -0.1284936 0.38927615 -0.017469754 -0.092071 0.013404567
0.19175264 -0.09664109 0.0104739135 -0.09112577 0.101301506 -0.2716978 0.010442971 -0.027468136
0.07882868 0.065238096 -0.1327541 0.15939198 0.04512216 -0.15526333 -0.112457424 0.06711191
-0.11739296 0.073795214 -0.0542095 0.09048128 -0.15517911 -0.010703897 0.12553684 0.15124488
-0.13223846 0.12648624 0.03207968 0.3500074 -0.25158873 0.28060585 -0.101468526 0.08166977
-0.11906377 0.07294165 -0.08980983 0.039222755 -7.4406908e-06 0.012473108 -0.029082766 -0.060552742
0.18460576 0.07091768 -0.19706896 0.013753569 -0.12577625 -0.2125629 -0.14928864 -0.050478153
0.14446548 -0.40144223 -0.007946212 -0.22969474 0.1690825 -0.31529573 0.17148054 0.00831635
-0.23221096 0.15377806 0.26777592 0.021045242 -0.044549707 -0.03984582 -0.053188596 -0.11469296
-0.045638338 0.14639024 0.19848228 -0.08656434 0.18628876 0.08244325 -0.010552945 0.043251432
0.051999185 0.093199864 -0.04422606 -0.07968616 -0.035228036 0.023747243 0.039065868 -0.07431311
-0.45396578 0.10014479 -0.011931025 0.16528256 0.2970939 -0.0022731526 0.13335012 -0.28500906
-0.3097917 0.33213416 -0.17777835 0.16736907 -0.17231312 0.11105201 -0.02665032 0.015269904
-0.0047028335 0.08032888 0.037567843 -0.11516027 -0.04213694 -0.1592171 0.02768874 -0.0034922787
-0.009618871 -0.073861144 0.107550524 0.21281135 -0.07263997 -0.018874045 -0.11531272 0.04409888
-0.03041602 -0.06917252 -0.033791583 0.098472975 -0.16705891 0.12533738 0.20019019 0.16521618
-0.03545254 -0.028723156 -0.014954689 0.014950548 1.075228 0.8689627 -0.032290597 0.047938682

mlp.0.bias f4 [50]
00000000: 13b8 a6bd c772 e73d a216 7b3e 47e1 16bd
00000010: 4119 8d3e 7ef8 85be 98f8 643d 4cc4 d43d
00000020: 79e0 293e ca04 15be a457 96bb 9369 943d
00000030: d0b3 5cbe 2582 8abe ef5c 55be b2d1 843e
00000040: c329 0dbe c92e 9dbd 2543 24bd 0b4b aebc
00000050: 685a 643d b065 f8bd e90b 643e 0ed3 62bf
00000060: 9713 c13d 131e 393c 38b7 0e3e b5ac 933e
00000070: 0755 32be e984 d0be 3a82 3bbd 202b dbbe
00000080: 336e debd 0345 64be ec9c 46be fa80 ba3d
00000090: 5125 9f3e e9ae 043e 775d 1cbe b9b8 083d
000000a0: a6dd b6bd a4f7 a33d 9e88 4cbf 9c4a d1be
000000b0: 11b7 c83e 80b2 e53c 7a59 523d 64c3 663e
000000c0: 4d3a 4abb 397d 5ebf
-0.08140578 0.11301189 0.24520352 -0.036835935 0.2755833 -0.26166147 0.05590114 0.10389003
0.16589536 -0.14552608 -0.0045880843 0.07246699 -0.21552968 -0.27052417 -0.20836233 0.25941235
-0.13785462 -0.07674939 -0.040103097 -0.021276018 0.05575028 -0.1212877 0.22270168 -0.88603294
0.094275646 0.011298674 0.1393708 0.28842703 -0.17415248 -0.40726402 -0.04577849 -0.4280634
-0.108608626 -0.22291951 -0.19395798 0.091066316 0.31083158 0.12957348 -0.15270029 0.03337929
-0.08928995 0.08006218 -0.7989596 -0.40877235 0.3920217 0.028039217 0.051354863 0.22535473
-0.0030857504 -0.86909825

mlp.2.weight f4 [50, 50]
00000000: 2fb1 5fbd ee62 27bd c687 40be 63bb d8bd
00000010: 198a 04bc f821 863d 443d 26be a890 bd3d
00000020: dd04 8f3d 3af7 933c 40e0 743c ac46 0bbe
00000030: 6454 8dbd 3018 c8bd 9ebc 6ebd 7ed9 0bbe
00000040: dcb9 b93d 5013 3abe d724 133e 5ea0 09be
00000050: 5ba4 d5bd 7551 1e3c ea1d 95bd a892 09bc
00000060: 6d06 003e 60b5 87bc 8f99 16ba 59d3 a83d
00000070: 784d 78bd c01c c7bd f20a 443e dd64 c0bd
00000080: 35db ce3d 585e efbd 4fbc 8abc c21a 093e
00000090: f7f2 91bd f17d 213d ea0f 653e 8ac2 4d3d
000000a0: 667d 00bd f93f 97bd 4f32 d5bd 2965 26be
000000b0: d491 e8bd fa96 51bc 79ef 48be 9b18 013d
000000c0: 5b9c 09be 6d00 d23d 0e9d 903d 32bb 1d3d
000000d0: e78d fe3d 8526 acbd 2e65 2dbe 0296 aa3c
000000e0: 0a4b b2bd 3fc5 97bd b421 82be 02f6 c7bc
000000f0: fd3c dd3c fb4a 65bd 2f64 42be c73a 00bc
00000100: e393 d03c 5f72 0ebc df47 e2bd 022a 10bc
00000110: f7f5 7c3d 9458 d73f bdd7 6ebd f032 5dbd
00000120: 92d3 18be 05b1 2a3e d42b b33e 194e 0b3d
00000130: 9873 b33b 8aca c83d 1eff 163d f43f 393e
00000140: 4d22 01bd 3abd dd3d d364 babd 9362 5fbc
00000150: 4a1c e1bc 36e8 bfbc d535 a43b 18f3 14be
00000160: f25f 683e 4814 de3d 98b9 c33c 0dbc b8bd
00000170: 91a7 1dbd 0bd3 ed3d 06c6 35be 7295 8f3d
00000180: a9ef 383d e301 9dbd 9cb5 c9bc 5786 58be
00000190: 70ea 3ebd 192c 393d 7a95 c4bd 92f4 14be
000001a0: 5e44 f33b d23e 623d 21ab 17bd fbb0 c6bd
000001b0: 24b5 023c 9c23 c83d a742 fa3d af13 af3d
000001c0: 2cbb 913d 1623 bb3d 5609 663d 24ed ddbd
000001d0: dc4b 833d 34b0 333d 9359 67bd 4725 e13d
000001e0: 00bc 003e 248a 27bc 927e 20bc 0df3 703d
000001f0: 56ba bbbc 172c 4dbc d3e5 fc3d b3f7 893d
00000200: 06c4 f73d 86cb adbd fa50 d6bd e7b7 6f3b
00000210: 7a4c 08be 17dc cb3b 5196 c5bd 01e6 07be
00000220: b4ec 993d a9be b6bc c806 08be 7340 34bc
00000230: 5171 d4bd c5c9 3a3b 8184 383d 1586 8eb8
00000240: 25c0 86bd d417 073c 1279 953d 0ca3 52bd
00000250: b799 763d aa50 f53c d397 d3bc 6063 093e
00000260: 12ca f9bc 0cfb 653b 9736 73be e2a2 efba
00000270: 1eda 08be da4a b8bd 7b74 6abe 55b0 d5bd
00000280: 4792 2cbc b764 96bd c876 d8bd f95e 65bd
00000290: cef7 bd3c 787b b93d 29b6 f2bc a40d 93bd
000002a0: 4ffe c8bd 3011 833e 4370 76bc a426 c93d
000002b0: 489d a13c cad2 b6be ebca 933e a3ec f9b8
000002c0: 0fb9 d0bd 6261 743e 260f 1c3d dd58 f93d
000002d0: 41f8 6e3d 734e 7abd 65c6 8f3d f72a 02be
000002e0: 8ab8 89bd 13d2 f7bb aebb 3bbd 93c9 88be
000002f0: e206 a33e 6941 24be 172b 023e 5de7 843e
00000300: 33ea 303e 1f99 41be ae2a ae3c 127c 27be
00000310: f34f 033e 2b89 983c 4e8e d4bc 36b1 4cbe
00000320: 37fa 203c 6a79 b93d bc75 223e 6bb7 0c3c
00000330: fb14 193d 588a 1dbe 3a05 aa3d 907f a53c
00000340: 383e 0bbd e14d 2ebd de09 dcbb 16b5 863d
00000350: f69e 093d 0b81 fcbc ee28 0cbe 4698 653d
00000360: ddaa 00bd 2ed7 e83d 05eb 1b3c 3fa4 b2be
00000370: 0e6a 24bc 3206 e13d 3fda bdbd dd29 60be
00000380: 6ac8 c8bc 44ea 2dbe 34b5 44be 4aca 19be
00000390: 504a 24be fb09 583d 70f0 213e f91d 2a3e
000003a0: 04fa 90bc 6f6d 34be 0bff 8a3c 4b68 23bd
000003b0: 4869 a13d 24f4 223d 8ba1 2bbc c196 af3d
000003c0: 785c ed3c ed5d ff3d 6008 ac3e c3d5 0cbe
000003d0: b32e af3b 1530 8dbd 1880 f33b f61a c83b
000003e0: 68d2 d23d 08ec fabc 2f27 8ebd 72ed debc
000003f0: 2d64 093e 4e97 29be b03f c93d 0196 023b
-0.054612335 -0.04086583 -0.18801793 -0.10582616 -0.008089566 0.06549448 -0.16234308 0.092561066
0.069833495 0.018062223 0.0149460435 -0.13601178 -0.06900862 -0.097702384 -0.058285348 -0.13657185
0.09068653 -0.1817143 0.14369522 -0.13440081 -0.10431739 0.009662976 -0.07281096 -0.008396782
0.12502451 -0.016565979 -0.0005744928 0.08243436 -0.060620755 -0.097222805 0.191448 -0.09394238
0.10100404 -0.116879165 -0.016935496 0.13389114 -0.0712642 0.039426748 0.22369352 0.050234355
-0.03136959 -0.07385249 -0.10409986 -0.16249527 -0.113559395 -0.012792343 -0.19622602 0.031517606
-0.13438551 0.102539875 0.07061206 0.0385086 0.124294095 -0.084057845 -0.16933128 0.020823482
-0.08705719 -0.074106686 -0.25416338 -0.024409298 0.02700662 -0.05597971 -0.1898353 -0.007826514
0.025461143 -0.00869426 -0.110488646 -0.008799078 0.061758008 1.6823907 -0.058311213 -0.054003656
-0.14924458 0.1666909 0.34994376 0.034010027 0.0054764263 0.09804256 0.036864392 0.18090802
-0.031526852 0.10827108 -0.09101262 -0.013634342 -0.02747931 -0.023426156 0.0050113 -0.14545858
0.2269285 0.10843712 0.023892209 -0.09020243 -0.038489882 0.11612519 -0.17751321 0.07010926
0.045150433 -0.076663755 -0.02462273 -0.21144997 -0.046610296 0.04520807 -0.09598823 -0.14546421
0.0074239215 0.05523569 -0.037028436 -0.09701725 0.007977758 0.09772417 0.12219744 0.08548676
0.07115778 0.091375515 0.056161247 -0.108362466 0.064109534 0.043869212 -0.05648191 0.10993438
0.12571716 -0.010225806 -0.009795802 0.05882554 -0.022916 -0.012522719 0.12348523 0.06736698
0.120979354 -0.08486085 -0.10464664 0.003657812 -0.13310423 0.006221305 -0.09647811 -0.13271333
0.07515851 -0.02230771 -0.13283837 -0.011001694 -0.10373176 0.0028501612 0.04504824 -6.7960624e-05
-0.065796174 0.008245427 0.07298483 -0.051425025 0.060205188 0.02994569 -0.025829231 0.13416815
-0.030491862 0.0035092263 -0.23751293 -0.0018282796 -0.13364455 -0.08998652 -0.22895996 -0.10434023
-0.010532922 -0.073434286 -0.10569531 -0.055998776 0.023189452 0.09056753 -0.029627876 -0.07180336
-0.098141305 0.2559905 -0.015041414 0.09821823 0.019728318 -0.35707694 0.28865752 -0.00011917322
-0.10191547 0.23865274 0.038100384 0.121751525 0.058342222 -0.06110997 0.07020263 -0.12711702
-0.06724651 -0.0075628846 -0.045833282 -0.2671629 0.3184119 -0.16040577 0.1271175 0.25957766
0.1727684 -0.18906067 0.021260586 -0.16355923 0.12823467 0.018620094 -0.025946762 -0.19989476
0.009825281 0.09056361 0.15865225 0.008588652 0.037373524 -0.15384805 0.08301778 0.020202428
-0.033994883 -0.04255474 -0.0067150434 0.06577508 0.033598863 -0.030823251 -0.13687488 0.056053422
-0.031412948 0.11369167 0.009516482 -0.34890935 -0.010035051 0.1098751 -0.09270143 -0.2189097
-0.024509627 -0.16983896 -0.19209749 -0.15018573 -0.16043973 0.052743893 0.15814376 0.16612996
-0.017697342 -0.1761987 0.016967317 -0.039894383 0.07881409 0.039783612 -0.010475527 0.08573676
0.028974757 0.12469087 0.3360014 -0.13753419 0.005346143 -0.068939365 0.0074310414 0.0061067296
0.10294038 -0.030630127 -0.069410674 -0.027212832 0.1341712 -0.16561624 0.098266006 0.0019925835

mlp.2.bias f4 [50]
00000000: beb4 343e 799f 3cbf b3de 15be 1047 e93d
00000010: daf0 c63d 46bb a4bd cafc 01be b189 e2bd
00000020: 9038 4cbd 8ad6 7bbd de65 14bf ca58 2d3e
00000030: 662b 38bd 4239 63be d590 9fbf 362c f03d
00000040: cbb8 9abd 991a 83be 44a7 36be 0fc0 bbbe
00000050: 68d8 833e 6e41 93bd a473 de3d 87b6 67bd
00000060: a14e 87bd 70c5 3cbc bc2f ffbe b025 18be
00000070: aa1b a83c 9b25 203e a85e a2bc 704e 193e
00000080: 7f5b f8bd 2bc6 8cbd b9b5 3cbc 7096 b5bc
00000090: 37da 573e 9400 0a3d 3543 ddbd be7a 083e
000000a0: 1306 323d 67ee 69bd 9223 a1be ec1f afbd
000000b0: e730 e3be 760d 45bd f640 a8bd 0920 f03d
000000c0: 3892 f33d 3a5b d63d
0.17647073 -0.73680836 -0.14635734 0.11390507 0.097139075 -0.08043532 -0.12694088 -0.11061419
-0.04985863 -0.061483897 -0.57967937 0.16928402 -0.044963263 -0.22189811 -1.2466074 0.117271826
-0.07554778 -0.2560623 -0.17837244 -0.36669967 0.25751042 -0.07190214 0.108619004 -0.056570556
-0.06606794 -0.011521682 -0.49841106 -0.14858127 0.020521004 0.15639345 -0.019820526 0.14971328
-0.121268265 -0.06873735 -0.011517935 -0.02216646 0.21079336 0.033691958 -0.10803834 0.13328072
0.043462824 -0.057112124 -0.3147245 -0.085510105 -0.44373247 -0.04810854 -0.08215515 0.1172486
0.118931234 0.10466619

mlp.5.weight f4 [1, 50]
00000000: e0a7 edbe 4da5 ed3f 22ef 293b 8f47 463f
00000010: 597d 0f3f 5d8e 6a3e 133b 5dbf 3727 ff3e
00000020: 5609 81be 5e0a d8bd 4e1b c73f 2fd1 aabe
00000030: 4fed 4bbe 2d06 0f3f aac3 3040 bf4b 643f
00000040: 1d37 d0be 282f 83bf 0150 7abf 701c 68bf
00000050: 590e 683f 0043 4bbe e03f 333f 88a1 0fbe
00000060: 0599 31bf 72a4 0abe 7a42 583f 5561 633e
00000070: 08c4 353f 138e e5be 58a4 52bf 4e8f bdbe
00000080: a081 103e e4cc e53e b86b 323f 8867 03bf
00000090: 142d 22bf cede 6dbf 567d 75be 04be 603f
000000a0: 865f 03bf 9ef4 d73e 9d35 473f 7f13 4cbe
000000b0: 59f6 873f 8c23 d3be c33a ffbe dfbc 0cbf
000000c0: 2eed 70be 5f32 fcbe
-0.4641714 1.8566071 0.0025929888 0.7745294 0.5605064 0.2290587 -0.86418265 0.49834606
-0.25202435 -0.105488524 1.5555208 -0.3336272 -0.19914745 0.558688 2.7619424 0.8917808
-0.40667048 -1.0248766 -0.97778326 -0.9066839 0.9064689 -0.19849777 0.7001934 -0.14026463
-0.69374114 -0.13539293 0.84476435 0.22205098 0.71002245 -0.44834957 -0.8228202 -0.37023395
0.14111948 0.44882882 0.69695616 -0.5132985 -0.63350034 -0.929181 -0.23973593 0.8778994
-0.5131763 0.42178816 0.7781618 -0.19929312 1.0622054 -0.41238058 -0.4984952 -0.54975694
-0.23527977 -0.4925718
