models/weights_bak/layers_50_lr_1e-05.pt (torch, 8353 bytes, 3 tensors)

mlp.0.weight f4 [50, 31]
0	0x3d7f936c	0.06239645
1	0x3cd23e26	0.0256644
2	0xbda848b2	-0.082169905
3	0x3c582bd9	0.013194048
4	0xbf543d4b	-0.82906026
5	0xbf67f71f	-0.9061145
6	0xbb3c6590	-0.002874706
7	0xbe05d960	-0.13071203
8	0x3da0d4f8	0.078531206
9	0xbbcd6163	-0.006267713
10	0x3ea97f9e	0.33105177
11	0xbdce8858	-0.10084599
12	0x3e036497	0.1283134
13	0xbdd72b40	-0.10506296
14	0xbdd7d83c	-0.1053929
15	0xbd3e3b19	-0.04644308
16	0x3db3c9fc	0.0877876
17	0xbe4b231b	-0.1983761
18	0xbdaebb72	-0.08531846
19	0xbbc51e43	-0.0060155704
20	0x3ccc4f6a	0.024940211
21	0xbcfc9b85	-0.030835876
22	0x3dbd085b	0.09230109
23	0x3e0f5edf	0.14001034
24	0xbe0f63b7	-0.14002882
25	0x3de6cac4	0.11269143
26	0xbe31fd48	-0.17381775
27	0xbd1e8feb	-0.03871147
28	0x3e3737ba	0.17892352
29	0xbde0506d	-0.1095284
30	0xbdde184d	-0.10844479
31	0xbe341f34	-0.17590028
32	0xbda74a4f	-0.0816847
33	0x3e288c90	0.1645987
34	0xbd5855d6	-0.052816235
35	0xbf0d5e94	-0.5522244
36	0xbeb334fc	-0.3500136
37	0x3d77f35a	0.060534813
38	0xbe3bbdd0	-0.18334126
39	0x3d4c0407	0.04980853
40	0xbf1c5ad3	-0.61076087
41	0xbe1b3ae5	-0.15159185
42	0x3e549ee9	0.20763744
43	0xbd0f7970	-0.03502792
44	0x3daef567	0.085429005
45	0xbe1d57ab	-0.15365474
46	0x3e1b779e	0.15182349
47	0xbe08ac4b	-0.13346975
48	0x3e30ab22	0.17252782
49	0xbd616005	-0.055023212
50	0xbc62500c	-0.01381303
51	0x3def5101	0.11685372
52	0xbdc026a1	-0.09382368
53	0xbdbfeb60	-0.09371066
54	0xbea329ec	-0.3186792
55	0x3e852b80	0.2600975
56	0x3c0894e0	0.008336276
57	0x3c4beff8	0.01244735
58	0x3e4d04ee	0.20021412
59	0x3c8bcd64	0.017065711
60	0x3e3015da	0.17195836
61	0xbdbeb873	-0.09312525
62	0xbd510698	-0.05103168
63	0x3e4b7c6b	0.1987168
64	0x3df770dc	0.12082073
65	0xbe05f077	-0.13080011
66	0xbe94faff	-0.29097745
67	0xbe841565	-0.25797573
68	0xbe81a03e	-0.25317568
69	0x3d947fea	0.0725096
70	0xbb4c6d1a	-0.003119296
71	0x3d652923	0.055947434
72	0x3d569af4	0.05239387
73	0x3e9d706b	0.3074983
74	0x3e711f51	0.23547103
75	0x3c8cc955	0.017185846
76	0xbde64408	-0.11243445
77	0xbd6450aa	-0.05574099
78	0xbd741204	-0.059587494
79	0x3da743c6	0.08167224
80	0xbd8e8d76	-0.06960575
81	0x3d02d7a4	0.031943932
82	0x3dbde8ad	0.09272895
83	0xbd8a6602	-0.06757738
84	0x3d52bb9f	0.05144846
85	0xbdd52f08	-0.10409361
86	0xbd133224	-0.03593649
87	0xbe1a94be	-0.15095803
88	0xbcdf3824	-0.02724845
89	0xbe24d47a	-0.16096678
90	0x3def9636	0.11698572
91	0xbe7f1baa	-0.24912897
92	0xbb53b6a1	-0.00323049
93	0x3c9d1e5f	0.019179521
94	0x3d8483d0	0.06470454
95	0x3e3f19a6	0.18662128
96	0x3e363092	0.17791966
97	0x3e3fbe0d	0.18724842
98	0x3e7afeb2	0.24511221
99	0xbc11fa65	-0.008909796
100	0x3eb98ed9	0.36241797
101	0xbe602b5a	-0.21891537
102	0xbe0152d7	-0.12629257
103	0x3d2ee4da	0.04269872
104	0xbeb741ff	-0.3579254
105	0xbd1b59c9	-0.037927423
106	0x3dbcd5ed	0.092204906
107	0x3d6127e7	0.054969694
108	0xbeae65d5	-0.34062067
109	0x3dbb18dc	0.09135601
110	0x3e74a56f	0.23891233
111	0xbe4adad2	-0.19810036
112	0x3d199aab	0.03750102
113	0xbdd489c5	-0.1037784
114	0xbdbc06d6	-0.09180991
115	0xbe39d1c1	-0.18146421
116	0xbd3911c9	-0.045182977
117	0x3c01fd7c	0.007933971
118	0x36ea1e65	6.977282e-06
119	0x3cd782d5	0.026307503
120	0xbcf8156b	-0.03028365
121	0x3d013410	0.03154379
122	0x3df8db9b	0.121512614
123	0x3dd75ece	0.105161294
124	0xbddad9a9	-0.10686047
125	0x3de0af9f	0.10970997
126	0xbe1d7463	-0.1537643
127	0x3dfa2b4f	0.12215292
128	0xbe6cd096	-0.23126444
129	0xbe77f86b	-0.24215858
130	0x3d451328	0.048113972
131	0xbdf55c85	-0.11980537
132	0xbdce3d13	-0.10070243
133	0xbdb38801	-0.08766175
134	0xbe6e89b0	-0.23294711
135	0xbe8b4bc6	-0.27206248
136	0xbe10dc07	-0.14146434
137	0x3ca15e73	0.019698357
138	0xbe2f97f7	-0.17147814
139	0x3dd50a0e	0.104023084
140	0x3e717cea	0.23582807
141	0xbea46af6	-0.32112855
142	0x3e2cdaa4	0.1688028
143	0xbdef04cb	-0.11670836
144	0xbeedf2a0	-0.4647417
145	0x3e288d61	0.16460182
146	0xbd6ef49b	-0.058338743
147	0x3c6f1cd5	0.014594276
148	0x3e084e79	0.13311185
149	0x3c969eb0	0.018386215
150	0xbd8de189	-0.06927783
151	0xbdad2e87	-0.0845614
152	0x3d714fe0	0.058914065
153	0xbd39e10c	-0.045380637
154	0xbb83249d	-0.0040021674
155	0x3d73ad85	0.059491653
156	0xbc728f93	-0.014804739
157	0x3c118c8a	0.008883605
158	0x3c3521f9	0.011055463
159	0xbfb1be4e	-1.3886201
160	0x40139c36	2.3064094
161	0xbd0836c8	-0.03325537
162	0x3d1edf55	0.038787205
163	0x3c15f3ad	0.009152335
164	0xb928e8ae	-0.00016108408
165	0xbd67b79f	-0.0565716
166	0x3dba1b63	0.09087255
167	0xbbc31c23	-0.005954282
168	0xbc1d1a51	-0.009588794
169	0xbca85f47	-0.020553244
170	0x3d6e847b	0.058231812
171	0xbca44822	-0.020053927
172	0x3a9768cb	0.0011551616
173	0xbc3832ac	-0.01124255
174	0xbd1bee93	-0.03806932
175	0xbc9a642d	-0.018846596
176	0xbc9454a1	-0.01810676
177	0xbcbacefc	-0.022803776
178	0x3e34aaee	0.1764333
179	0x3d26d94b	0.04073457
180	0xbdc51143	-0.09622433
181	0x3d94b301	0.07260705
182	0x3e9fff1a	0.31249315
183	0x3e1cdba6	0.15318164
184	0x3d47e769	0.048804674
185	0x3e1645a3	0.14675002
186	0xbe8a90c1	-0.27063563
187	0xbe21d4d2	-0.15803841
188	0x3e0cf07e	0.13763615
189	0x3e541a0c	0.20713061
190	0x3db6f1ca	0.08932836
191	0xbdd0ee97	-0.102017574
192	0xbe4a8947	-0.1977893
193	0x3cb5d54a	0.02219643
194	0xbeabd1d4	-0.33558524
195	0xbed1514d	-0.4088234
196	0xbd843271	-0.064549334
197	0x3e1df7b2	0.1542652
198	0xbdf38296	-0.11890142
199	0xbda25ebb	-0.07928225
200	0x3d987f08	0.07446104
201	0x3ce98e5e	0.028510269
202	0xbcf0e6ba	-0.029406894
203	0x3d1ad553	0.037801098
204	0xbdf01322	-0.11722399
205	0x3ce7a8d4	0.028278746
206	0xbd39391b	-0.045220476
207	0xbe20320c	-0.15644091
208	0xbdfa7def	-0.12231051
209	0x3d07af91	0.033126418
210	0xbe8a284d	-0.26983872
211	0x3d974a17	0.073871784
212	0x3e1d243c	0.15345854
213	0xbc9dda8b	-0.019269248
214	0xbdcb60ed	-0.099305965
215	0x3dce91c0	0.10086393
216	0x3d9c9ae8	0.076467335
217	0xbe5d1e90	-0.2159369
218	0xbc1f6b2a	-0.00973014
219	0xbd06a980	-0.03287649
220	0xbc323ca9	-0.01087872
221	0x3e2149e5	0.15750845
222	0x3e4b6f7e	0.1986675
223	0xbdbb401d	-0.09143088
224	0xbe771d72	-0.24132326
225	0x3dee1d21	0.1162665
226	0x3ec9f812	0.39447075
227	0xbc5e00b7	-0.013549975
228	0xbcdf6375	-0.027269104
229	0x3dcd22af	0.10016381
230	0x3cb3a538	0.021929368
231	0xbbd35c48	-0.0064502098
232	0x3d7dc666	0.061956786
233	0x3dffbb63	0.12486913
234	0xbdb1d94f	-0.086840264
235	0xbc975d03	-0.018476969
236	0x3c2236a4	0.009900723
237	0x3e31ee7f	0.17376135
238	0xbd802a40	-0.062580585
239	0x3d312ec0	0.043257475
240	0x3db3cebe	0.08779667
241	0xbdce3490	-0.10068619
242	0x3e3021a6	0.17200336
243	0xbc074352	-0.0082557965
244	0xbd69b3cf	-0.057056244
245	0x3e073d7f	0.13207053
246	0xbe181e0b	-0.1485521
247	0x3e449147	0.19196044
248	0xbe870f8e	-0.26379055
249	0xbea90180	-0.33008957
250	0x3e0b128b	0.13581292
251	0x3bcf78fd	0.0063315616
252	0x3d2d888c	0.04236655
253	0xbd858823	-0.06520107
254	0x3c9e82a5	0.019349406
255	0xbdd8ea53	-0.10591569

mlp.0.bias f4 [50]
0	0xbe1d4b17	-0.15360676
1	0xbdb56291	-0.08856691
2	0x3c098ace	0.00839491
3	0xbdcab153	-0.09897103
4	0x3e65a443	0.22425942
5	0x3f6e78cb	0.93153065
6	0xbe706289	-0.23475088
7	0xbda3fc61	-0.08007122
8	0x3dfd7b57	0.12377041
9	0xbd1873ef	-0.037219938
10	0xbe94d55e	-0.29069036
11	0xbe4c8c94	-0.19975501
12	0xbecedac4	-0.4040128
13	0xbdf34fd8	-0.11880463
14	0xbe6914ba	-0.22761813
15	0xbfa7ffa6	-1.3124893
16	0x3d5dd683	0.054159652
17	0xbd089e2e	-0.033353977
18	0xbeefa1a0	-0.46802998
19	0x3f4647ff	0.7745361
20	0x3de162d9	0.11005182
21	0x3c5b0038	0.013366751
22	0xbf2d592c	-0.6771419
23	0x3f380608	0.718842
24	0xbdb8c4a2	-0.0902188
25	0x3e44f7a9	0.192351
26	0xbfad2d44	-1.3529439
27	0x3ca3872b	0.019961914
28	0xbf7fe976	-0.9996561
29	0xbec34328	-0.38137174
30	0xbe60e49e	-0.2196221
31	0xbe193e94	-0.14965278
32	0x3e33ba47	0.17551528
33	0xbe794b8f	-0.2434523
34	0xbe971c31	-0.29513696
35	0xbc8d51ef	-0.017250983
36	0x3ea2fbb2	0.31832653
37	0x3d901ec2	0.070371166
38	0xbe2da288	-0.16956532
39	0xbddf11ac	-0.108920425
40	0xbe0fed03	-0.14055257
41	0x3bfd242c	0.0077252593
42	0x3f560b3b	0.83610886
43	0xbe49bf01	-0.19701768
44	0x3e308b6b	0.17240684
45	0xbf5f7c49	-0.8729902
46	0x3d44d7b8	0.048057288
47	0xbedf8268	-0.4365418
48	0xbe991b35	-0.2990357
49	0xbe5dc574	-0.21657354

mlp.2.weight f4 [1, 50]
0	0xbf7c77ba	-0.9862019
1	0x3f617ef5	0.88084346
2	0x3f072c92	0.52802384
3	0x3f1aceed	0.60471994
4	0x3f348a81	0.7052384
5	0x3ff7faca	1.937341
6	0xbf1f24e4	-0.62165666
7	0x3ecce1c3	0.40015993
8	0xbf28df51	-0.65965754
9	0x3f318b16	0.69352853
10	0xbf3ce638	-0.73788786
11	0xbf0f8912	-0.5606853
12	0x40865cda	4.1988344
13	0xbf4c7c71	-0.7987738
14	0x4031a22f	2.775524
15	0x3fdbe207	1.7178353
16	0x3f1bc357	0.6084494
17	0xbf161ef2	-0.5864097
18	0x3f7804b2	0.96882164
19	0x3f83acb6	1.0287082
20	0xbef7c9a1	-0.48396018
21	0xbf004565	-0.5010589
22	0x3fb92de7	1.4467133
23	0xbf3e34d4	-0.7429936
24	0xbece039f	-0.40237138
25	0x3f1ef90f	0.62098783
26	0xc008fce0	-2.1404343
27	0xbf1d40cd	-0.61427003
28	0x3fd75abe	1.6824567
29	0x3f75b04e	0.95972145
30	0xbf4b1a17	-0.79336685
31	0x3f13a452	0.5767261
32	0xbf3bd843	-0.73376864
33	0xbf2b80ae	-0.66993225
34	0x3f60a247	0.87747616
35	0xbf007c5c	-0.5018976
36	0xbf1365f9	-0.5757747
37	0x3f4bcec6	0.79612386
38	0x3ea0224f	0.31276175
39	0xbf00115f	-0.50026506
40	0x3f01ae7c	0.5065687
41	0xbf06f56f	-0.5271825
42	0xbf9bd861	-1.2175409
43	0x3f1f7188	0.6228261
44	0xbee9ac23	-0.45639142
45	0x3fab80c9	1.3398677
46	0x3f1ef24e	0.6208848
47	0xbfb0bfc7	-1.3808526
48	0xbf1914ec	-0.5979755
49	0x3f4f19f8	0.80899
