models/weights_bak/layers_100_lr_0.0001.pt (torch, 14893 bytes, 3 tensors)

mlp.0.weight f4 [100, 31]
0	0x3e882135	0.26587835
1	0x3e882534	0.26590884
2	0xbda74746	-0.08167891
3	0x3ea7deac	0.32787073
4	0xbd7714f7	-0.060322728
5	0xbd570ee1	-0.052504424
6	0xbd096444	-0.033542886
7	0xbd2e9b73	-0.042628717
8	0x3de35e49	0.11101968
9	0xbe508548	-0.20363343
10	0xbe78d45b	-0.24299757
11	0xbdf06841	-0.11738635
12	0xbd681938	-0.056664675
13	0xbd98fd86	-0.07470231
14	0xbe3831b9	-0.17987718
15	0xbd6c1a3b	-0.057642203
16	0xbdef0542	-0.11670925
17	0xbcdc8e22	-0.026923243
18	0x3ce8616d	0.028366769
19	0x3df49b90	0.11943734
20	0x3b528a01	0.0032125714
21	0xbe058963	-0.1304069
22	0x3c39c715	0.011338969
23	0xbb98e099	-0.004665446
24	0x3d84b985	0.064806975
25	0xbe111ba9	-0.14170708
26	0xbe823a77	-0.2543523
27	0x3e0b94ae	0.13630936
28	0xbd79ce84	-0.060987964
29	0xbe1bc82e	-0.15213081
30	0xbde81ed4	-0.11334005
31	0xbeaced98	-0.3377502
32	0x3c05e826	0.008173024
33	0x3da02a7d	0.07820604
34	0x3db0de3f	0.0863614
35	0x3f293683	0.66098803
36	0xbecfcd27	-0.40586206
37	0xbccb5382	-0.024820093
38	0xbcbe53fc	-0.023233406
39	0x3d024281	0.031801704
40	0xbcbb416c	-0.022858344
41	0x3cbbefa8	0.022941425
42	0x3e64bd8b	0.2233793
43	0xbdf9192d	-0.12163005
44	0xbdee8fbe	-0.116485104
45	0xbd17ab78	-0.03702876
46	0x3e247741	0.16061117
47	0x3e11f018	0.14251745
48	0x3dfc6796	0.12324445
49	0xbdad8f2f	-0.08474576
50	0x3d978631	0.07398642
51	0x3c72444d	0.014786792
52	0xbd002ef2	-0.03129477
53	0x3dced7da	0.10099764
54	0x3e105190	0.14093614
55	0x3dcca54d	0.09992466
56	0xbd2da51f	-0.0423938
57	0x3c664eda	0.014056886
58	0x3caafcd9	0.02087252
59	0xbf025b36	-0.50920427
60	0x3dc8adbf	0.097987644
61	0x3e6e331b	0.23261683
62	0x3ef829fd	0.48469535
63	0xbaec7439	-0.0018040008
64	0x3d0e64a9	0.034763966
65	0x3d28007c	0.041016087
66	0xbfa34b41	-1.2757341
67	0x3f0d74e3	0.5525648
68	0x3d207a26	0.03917899
69	0x3cb8d512	0.022562537
70	0x3bfaa0c4	0.0076485593
71	0xbd42e069	-0.047577295
72	0x3e0a79e1	0.13523056
73	0xbe65480c	-0.22390765
74	0x3cb9d10c	0.02268269
75	0x3d48e1a2	0.049043305
76	0xbd1a62f9	-0.037692044
77	0x3db56331	0.0885681
78	0xbdf4e478	-0.119576395
79	0x3d6e8f92	0.058242388
80	0x3ccd11a6	0.02503283
81	0xbc2a6603	-0.010400298
82	0x3d745417	0.059650507
83	0xbd38fa57	-0.045160618
84	0x3dcc9bd6	0.09990661
85	0x3d85a5fc	0.065258
86	0xbe06a95f	-0.13150547
87	0xbc81b663	-0.01583404
88	0x3dab54d7	0.08365791
89	0xbe53624f	-0.2064297
90	0x3d6d26fa	0.0578985
91	0xbd9af9a5	-0.07567147
92	0xbeb6e658	-0.35722613
93	0xbec3d3ca	-0.3824752
94	0x3e7297d5	0.23690732
95	0x3e3891a0	0.18024302
96	0xbd4a41cc	-0.049379155
97	0x3e0de6cc	0.13857573
98	0xbd4d9e56	-0.05019983
99	0x3e85b07c	0.2611121
100	0xbcd20280	-0.025635958
101	0xbe2bdd88	-0.16783726
102	0xbc8bb594	-0.017054357
103	0xbd892337	-0.0669617
104	0xbc96e8db	-0.018421581
105	0xbdd3bc06	-0.10338597
106	0xbd0e0baf	-0.03467911
107	0x3dc79a67	0.09746247
108	0x3cfd71e1	0.03093809
109	0xbe13885e	-0.14407489
110	0xbd63fa5d	-0.055658687
111	0x3e5507d1	0.20803763
112	0xbd9c08b7	-0.0761885
113	0xbd38bd14	-0.045102194
114	0x3e1289e1	0.14310409
115	0x3d3bc0a3	0.04583801
116	0x3e508064	0.20361477
117	0x3de67a7a	0.11253829
118	0xbd1fdc2b	-0.039028328
119	0x3e49397e	0.19650838
120	0x3e19e006	0.15026864
121	0x3d7d5378	0.06184718
122	0x3d81ee65	0.06344298
123	0xbd0ad7a6	-0.033897065
124	0x3d817435	0.06320993
125	0x3d39ce16	0.045362554
126	0xbd4c3c90	-0.049862444
127	0xbd4172ee	-0.047228746
128	0xbfaa2b5a	-1.329448
129	0x3f8e545c	1.1119494
130	0xbdacec07	-0.08443456
131	0xbce290c9	-0.02765693
132	0x3ccecc1a	0.025243808
133	0x3dbfd355	0.0936648
134	0xbdf071dd	-0.11740468
135	0x3e5bc9d0	0.21463704
136	0xbcf1f698	-0.02953653
137	0xbcb005f3	-0.021487212
138	0xbe27186b	-0.16317908
139	0xbc23de44	-0.010001723
140	0xbd5a233c	-0.05325626
141	0x3dfc050e	0.123056516
142	0xbd7e9c55	-0.06216081
143	0x3b639d2f	0.003473114
144	0x3d99a73a	0.07502599
145	0xbd158737	-0.036505904
146	0xbdd23d8a	-0.10265644
147	0x3c0bde0c	0.008536827
148	0xbd1607a3	-0.036628377
149	0x3da956bd	0.08268497
150	0xbd6be2d4	-0.057589367
151	0xbd95af1b	-0.07308789
152	0x3ce6e0b4	0.028183319
153	0xbdb25fda	-0.087096885
154	0x3e640a9e	0.22269675
155	0x3e10b558	0.14131677
156	0x3e0fcbb8	0.14042556
157	0x3d145f35	0.03622361
158	0xbdb8442b	-0.08997377
159	0xbde70be4	-0.11281565
160	0xbdd653b9	-0.104651876
161	0xbd4e59e4	-0.050378695
162	0xbdea9b9e	-0.11455463
163	0xbdef4fdf	-0.11685156
164	0x3db0136e	0.08597456
165	0xbdf4abf6	-0.119468614
166	0x3e09e242	0.13465217
167	0x3d6a79ca	0.057245053
168	0x3dc8313d	0.097750165
169	0xbd739651	-0.059469525
170	0x3e39deaf	0.18151353
171	0x3bf6581c	0.0075178277
172	0x3d8c7143	0.068575405
173	0x3d9e6f18	0.07736033
174	0x3d0c9bad	0.03432815
175	0xbda4e44a	-0.08051355
176	0x3d139aff	0.036036488
177	0xbe502a0b	-0.20328538
178	0x3dfc8ebc	0.12331912
179	0x3dc937bc	0.098250836
180	0xbdf9108c	-0.12161359
181	0xb93e4a78	-0.00018147554
182	0x3d84017f	0.06445598
183	0x3d4c900e	0.04994207
184	0x3e002d11	0.12517191
185	0xbb038cee	-0.0020073014
186	0xbd44a90c	-0.04801278
187	0xbdb58a50	-0.08864272
188	0xbca90402	-0.020631794
189	0x3d165e69	0.03671113
190	0xbea2c06b	-0.31787428
191	0x3f4fabff	0.8112182
192	0xbc2c81e4	-0.010529015
193	0x3e5858cf	0.21127628
194	0xbd755938	-0.05989954
195	0x3e468a2b	0.19388644
196	0x3ded51c4	0.11587861
197	0x3dfbf867	0.12303238
198	0xbda9d653	-0.08292832
199	0xbbb66242	-0.0055659125
200	0x3c91ef03	0.017814165
201	0xbe2ef16f	-0.17084287
202	0x3d95ceee	0.07314859
203	0x3d51c43d	0.051212538
204	0xbd602f25	-0.05473246
205	0x3d8e7319	0.06955547
206	0x3e10fc4e	0.14158747
207	0x3dc644ff	0.09681129
208	0xbd81670d	-0.063184835
209	0xbdb6a8d4	-0.0891892
210	0xbd8baa88	-0.06819636
211	0xbde0158f	-0.10941612
212	0x3e34a8fd	0.17642589
213	0xbe3ef4e5	-0.18648107
214	0xbd60ba88	-0.05486539
215	0xbd224867	-0.03961983
216	0xbe1dd45d	-0.15413041
217	0xbeaf224e	-0.3420586
218	0xbe99ec56	-0.30063123
219	0xbe92c6b4	-0.28667223
220	0x3e180973	0.14847355
221	0x3dc5fbe6	0.096671864
222	0xbe7309b4	-0.2373417
223	0x3d86b547	0.06577545
224	0x3e17d956	0.14829001
225	0xbe3af37d	-0.18256946
226	0xbe176176	-0.14783272
227	0xbda73b83	-0.08165648
228	0xbd366922	-0.044533856
229	0x3e0eefea	0.13958707
230	0x3ccf70fa	0.025322426
231	0x3e289c83	0.16465954
232	0xbc1c6fae	-0.009548111
233	0x3e129c98	0.14317548
234	0x3e729675	0.23690207
235	0x3dffacbb	0.124841176
236	0xbe31bfbe	-0.173583
237	0x3e1b9064	0.151918
238	0x3dcbf2b1	0.09958399
239	0xbd0b2057	-0.03396639
240	0xbdca40c1	-0.09875632
241	0xbe823ab8	-0.25435424
242	0xbe0e7399	-0.13911285
243	0x3e059966	0.13046798
244	0xbc3dac72	-0.011576759
245	0x3d341392	0.043963976
246	0xbcd1d1b6	-0.025612693
247	0xbd5ede0f	-0.05441099
248	0xbbe5f549	-0.0070177657
249	0xbd1cfcee	-0.03832715
250	0xbc02f92a	-0.007993976
251	0x3db94fbc	0.09048411
252	0xbebf53a7	-0.3736851
253	0xbd23b57c	-0.039968
254	0x3e470849	0.19436754
255	0x3e2ce2ad	0.16883345

mlp.0.bias f4 [100]
0	0xbe547e81	-0.20751382
1	0xbe0cd9d4	-0.1375497
2	0xbe41e136	-0.18933567
3	0x3eb24ea1	0.34825614
4	0xbda6bbee	-0.081413135
5	0x3d939722	0.07206561
6	0xbda87056	-0.082245514
7	0xbe957643	-0.2919179
8	0xbdcd8d27	-0.10036688
9	0xbe77e6bd	-0.24209113
10	0xbddda300	-0.108221054
11	0xbe151f69	-0.14562763
12	0xbda63257	-0.0811507
13	0xbe036104	-0.12829977
14	0x3e31f7c5	0.17379673
15	0x3c16917d	0.009189961
16	0xbe47bf5e	-0.19506595
17	0x3e084d8e	0.13310835
18	0x3e62ee8b	0.2216131
19	0x3dfca398	0.123358905
20	0x3d80609d	0.062684275
21	0x3d8baf23	0.06820514
22	0xbd5cbe41	-0.053892378
23	0xbdd655ed	-0.10465608
24	0x3e982b39	0.29720476
25	0x3eb0975b	0.34490475
26	0x3f0d3684	0.5516131
27	0xbd2da2ea	-0.042391695
28	0xbe3191fa	-0.17340842
29	0x3e4c86e8	0.19973338
30	0xbe2410a9	-0.1602198
31	0xbe1b5915	-0.15170701
32	0xbdfa5d9b	-0.12224885
33	0x3efe142c	0.49624765
34	0xbc95be92	-0.018279348
35	0xbeb52cba	-0.35385686
36	0xbf23258e	-0.6372918
37	0xbde0f72f	-0.109846465
38	0x3e51b8d7	0.20480667
39	0x3e837056	0.25671643
40	0xbf1fb3c2	-0.62383664
41	0x3e1e7549	0.15474428
42	0x3e700f93	0.23443441
43	0xbdf443a3	-0.11926963
44	0x3c3b5283	0.011433247
45	0xbd2184b0	-0.03943318
46	0x3e9ffe3d	0.31248656
47	0x3e3c2830	0.18374705
48	0xbe1105be	-0.14162347
49	0x3dacf4d2	0.08445133
50	0xbd843106	-0.06454663
51	0xbf1cfd9d	-0.61324483
52	0xbee8732d	-0.45400372
53	0xbe8a20da	-0.2697819
54	0xbe2b3284	-0.16718489
55	0xbe53210e	-0.20618078
56	0xbdc52db3	-0.09627857
57	0xbdcb6436	-0.09931223
58	0x3d1feebc	0.039046034
59	0xbe758938	-0.23978126
60	0x3d877a0d	0.06615076
61	0xbd0f41cc	-0.03497486
62	0x3e12c354	0.14332324
63	0xbf1a7128	-0.6032891
64	0x3ddc014f	0.10742437
65	0xbec79e39	-0.38987902
66	0x3d38e2ce	0.045138173
67	0x3e999d1b	0.30002674
68	0xbd94c114	-0.07263389
69	0x3e207a32	0.15671614
70	0x3eb093f4	0.3448788
71	0xbd1146da	-0.03546796
72	0x3cae7387	0.021295322
73	0xbcc74eb0	-0.024329513
74	0x3dd2f931	0.10301436
75	0xbe336238	-0.17517936
76	0x3d9cc9a6	0.07655649
77	0xbd48d124	-0.049027577
78	0xbda65e58	-0.081234634
79	0xbd8d2159	-0.06891126
80	0xbedb8e5b	-0.42882046
81	0xbea2ed71	-0.31821778
82	0x3dad8798	0.08473128
83	0x3da9f73d	0.0829911
84	0xbe1eda78	-0.15513027
85	0xbe9c35b3	-0.3050972
86	0x3ebbc67f	0.36674878
87	0xbe023617	-0.12715946
88	0x3e6ff39f	0.23432778
89	0xbe7f029b	-0.24903338
90	0xbe238d8b	-0.15971963
91	0x3dea4a8e	0.114400014
92	0x3dc3e5d0	0.09565318
93	0xbe582d7d	-0.21111102
94	0xbca54270	-0.020173281
95	0x3e0091f3	0.12555675
96	0xbdafc802	-0.0858307
97	0xbe549fd7	-0.20764099
98	0xbf9a0254	-1.203196
99	0x3d450ad8	0.048106045

mlp.2.weight f4 [1, 100]
0	0xbf1925fa	-0.5982357
1	0x3f61f4e9	0.8826433
2	0x3fa4acff	1.2865294
3	0xbf034dae	-0.51290405
4	0x3fb6f4be	1.4293439
5	0x3d154675	0.036444146
6	0x3f383888	0.7196126
7	0xbf2f9360	-0.6858425
8	0x3f00cebb	0.50315446
9	0x3f0030e7	0.5007462
10	0xbe58b166	-0.21161422
11	0x3f5d4883	0.8643877
12	0x3e4c2d39	0.19939126
13	0xbf293bb5	-0.6610673
14	0xbf1bf845	-0.60925704
15	0xbea1ae0d	-0.31578103
16	0xbf01f13e	-0.5075873
17	0x3ec363b2	0.38162
18	0xbeb9f3db	-0.3631886
19	0x3ea9d92c	0.33173501
20	0x3f796556	0.9742025
21	0x3e897f41	0.268549
22	0x3f194918	0.5987716
23	0x3f26fd22	0.6523
24	0x3f0c38cb	0.5477416
25	0xbf1aacbb	-0.60419816
26	0x4001799b	2.0230472
27	0x3e980fae	0.29699463
28	0x3f4f897e	0.8106917
29	0xbeed86e2	-0.4639197
30	0x3f28ef61	0.65990263
31	0x3f46d947	0.7767529
32	0x3f0d64f7	0.55232185
33	0x3fbde7b7	1.4836339
34	0x3ee65ecb	0.44994196
35	0xbf0bb23c	-0.5456884
36	0x3f8bfa29	1.0935718
37	0xbe8db570	-0.27677488
38	0x3edcfebd	0.431631
39	0xbef177fa	-0.47161847
40	0xbf82a24d	-1.020578
41	0xbeb9f350	-0.36318445
42	0xbea86667	-0.32890627
43	0xbee540ab	-0.447759
44	0x3ef19d2e	0.4719023
45	0x3f6a6a9c	0.91568923
46	0xbed6b812	-0.4193731
47	0xbf2e0f51	-0.6799212
48	0xbeb097b0	-0.34490728
49	0xbd6fbc78	-0.058529347
50	0x3f5f6bb5	0.8727372
51	0xbf854a60	-1.0413322
52	0xbf43cb8d	-0.7648247
53	0x3f1f701e	0.6228045
54	0x3f0bf039	0.54663426
55	0x3f971229	1.1802417
56	0x3c92cceb	0.017919978
57	0x3e4e5afd	0.20151897
58	0x3e65c3b3	0.22437935
59	0xbf2ff1f9	-0.68728596
60	0x3f2d65c8	0.6773343
61	0xbe49ef43	-0.19720177
62	0xbde83625	-0.11338452
63	0xbf83c6df	-1.0295066
64	0x3e5502c1	0.20801832
65	0xbf97de62	-1.1864741
66	0x3f02a61e	0.51034725
67	0xbee1059c	-0.43949592
68	0xbf05cce2	-0.5226575
69	0x3e533e64	0.20629269
70	0xbf47ae22	-0.7800008
71	0xbf0148ea	-0.50501883
72	0xbea1ee43	-0.31627092
73	0x3f472197	0.7778563
74	0xbe085ad3	-0.13315897
75	0x3ec6ae14	0.38804686
76	0xbbcf7001	-0.0063304906
77	0xbece4d9f	-0.40293595
78	0xbe60305c	-0.21893448
79	0x3f2db5a4	0.67855287
80	0x3f7493bd	0.9553793
81	0xbf1c2bad	-0.61004144
82	0xbef16367	-0.4714615
83	0xbd065a91	-0.032801215
84	0xbec37890	-0.3817792
85	0xbe8d08a4	-0.27545655
86	0xbfcab703	-1.5837101
87	0x3efae16b	0.49000105
88	0xbf25f528	-0.64827204
89	0x3e9c78a1	0.30560783
90	0xbf37cb57	-0.71794647
91	0x3d9551ca	0.07290991
92	0x3f079d7a	0.52974665
93	0x3ecd3757	0.40081283
94	0xbe585990	-0.21127915
95	0xbf03d314	-0.51493955
96	0xbf2e578f	-0.68102354
97	0x3edfc673	0.43706092
98	0x3fdb1474	1.7115617
99	0xbef067d2	-0.4695421
