models/weights_bak/layers_200_drop_lr_0.001.pt (torch, 28165 bytes, 3 tensors)

mlp.0.weight f4 [200, 31]
0.0068838466 0.055545874 0.007834352 -0.1396721 -0.11372761 0.20000234 0.011666327 -0.15737754
0.00015445155 -0.090750895 -0.019163188 -0.20607331 -0.022721533 0.10654999 -0.010415467 0.07351089
-0.0846674 -0.019995235 0.03745325 0.008520966 -0.14124925 -0.06726948 -0.12530367 0.11098152
-0.0077625164 0.06177934 -0.08977433 0.07759328 -0.12655057 0.08145457 0.16638726 -0.13219506
0.14298132 0.19123155 0.07269605 0.13934162 -0.1811818 0.040210385 -0.21448402 -0.03657076
-0.104469724 0.08374685 0.1030666 -0.09936627 0.17411022 0.04966524 0.016936926 -0.035209667
0.046482615 0.032759573 -0.10770008 0.12471467 -0.14513583 0.03356353 -0.06504566 -0.14502802
-0.063549615 0.035694737 0.14900184 0.21070419 0.10528025 0.0249919 0.25506234 -0.025808478
0.046102732 -0.006122071 -0.06167148 0.6606712 -0.09105987 -0.19150586 0.19466056 0.17042553
0.058665358 0.15483092 -0.08457091 -0.05634907 0.023619816 -0.3117577 0.048542213 -0.051348593
-0.016895447 -0.011888861 -0.092658855 0.27864945 -0.059336245 0.2821151 -0.028758036 -0.0978338
-0.045961253 -0.13814215 -0.21134377 -0.053887293 -0.1607109 0.16281627 -0.11323547 0.12612064
0.06729562 -0.025282785 0.009880032 0.0024377154 0.13055164 0.26191548 0.027138948 -0.18656701
0.06624171 0.05736114 -0.031834606 -0.023746302 -0.02214217 -0.103164054 -0.07322707 0.06931058
-0.08469303 0.18050633 -0.12933303 -0.18258744 0.1783891 0.1423437 0.13421375 -0.19263254
0.02653391 0.030847834 0.18556416 0.11332317 0.12667605 0.06583238 -0.06853139 -0.061344165
0.06556012 -0.14511622 -0.17520133 -0.09451755 0.026948556 -0.0044272905 0.161496 -0.038293652
0.13461727 0.07551471 -0.10451474 -0.13137245 -0.10773249 -0.032915797 -0.13448079 0.12864761
0.053504206 0.07398283 0.0065939818 0.12593067 0.04126234 -0.121121414 0.000686463 0.08049542
-0.042304996 -0.0814039 0.016366405 -0.2449411 -0.38386732 -0.008191896 -0.072949484 0.07005362
-0.06651113 -0.054456607 0.03168274 0.022529218 0.069409356 -0.032108996 0.21606043 0.11612449
-0.19966367 -0.073278606 -0.30887178 -0.10701713 -0.2506834 -0.22280139 0.17075482 0.08418332
-0.1535819 -0.054934956 0.019096978 -0.19615343 0.114884265 -0.15345563 0.15836138 0.13188004
-0.01923333 -0.14456977 -0.065740265 -0.101413526 -0.052078255 0.096426025 0.04737849 -0.05907374
-0.15706603 0.14781645 -0.087597884 -0.16804886 0.013596169 0.066430524 -0.12118719 -0.118386485
-0.13889326 0.1291131 -0.1105645 -0.13816726 0.13123174 -0.20925076 0.1701549 -0.0005399573
-0.18320324 0.19201504 0.052623585 -0.039177902 0.03342464 -0.051114146 0.14260355 0.123599425
0.06488961 -0.028283952 -0.108808234 0.15307872 0.055863887 0.23594184 0.18019113 -0.0058364035
0.046535186 0.10764001 -0.009016415 -0.21165009 -0.0772157 -0.074192815 0.039644346 -0.00949412
0.088826634 -0.011714537 0.031700827 -0.07427008 0.18725407 -0.10003801 0.23151176 0.069727294
0.054899737 -0.16075112 -0.019099286 -0.13064638 -0.1508654 -0.11888512 0.13885468 -0.1655937
0.027621524 -0.17259482 0.013152264 -0.066525444 0.15453745 -0.065317884 -0.006673392 -0.098951906
00000000: e491 e13b 1284 633d a75b 003c 3406 0fbe
00000010: 05ea e8bd 6acd 4c3e 1f24 3f3c 9427 21be
00000020: 46f4 2139 9bdb b9bd 1efc 9cbc e204 53be
00000030: 8222 babc e236 da3d a3a5 2abc e18c 963d
00000040: 1a66 adbd 0ccd a3bc 9468 193d 869b 0b3c
00000050: a5a3 10be 95c4 89bd 9b4f 00be 474a e33d
00000060: b55c febb 550c 7d3d 9bdb b7bd 3ae9 9e3d
00000070: 7996 01be a7d1 a63d 6c61 2a3e 245e 07be
00000080: b269 123e 34d2 433e abe1 943d 92af 0e3e
00000090: b987 39be a5b3 243d b3a1 5bbe 39cb 15bd
000000a0: 39f4 d5bd 7883 ab3d 9514 d33d 8b80 cbbd
000000b0: f349 323e c76d 4b3d 4fbf 8a3c 0338 10bd
000000c0: 8e64 3e3d e72e 063d dc91 dcbd 686a ff3d
000000d0: 7d9e 14be e979 093d a936 85bd 3a82 14be
000000e0: 4d26 82bd a534 123d f093 183e d7c2 573e
000000f0: 2c9d d73d d0bb cc3c 8897 823e 4d6c d3bc
00000100: 38d6 3c3d a79b c8bb 3c9b 7cbd bf21 293f
00000110: 997d babd 1d1a 44be 1955 473e 0884 2e3e
00000120: 164b 703d ff8b 1e3e 8333 adbd 48ce 66bd
00000130: 587e c13c b59e 9fbe 33d4 463d e752 52bd
00000140: 5268 8abc 7fc9 42bc edc3 bdbd 24ab 8e3e
00000150: 900a 73bd 6471 903e f995 ebbc 165d c8bd
00000160: de41 3cbd 2375 0dbe 806a 58be ecb8 5cbd
00000170: 6691 24be 4fb9 263e 00e8 e7bd c525 013e
00000180: 49d2 893d d81d cfbc dcdf 213c 14c2 1f3b
00000190: 54af 053e c919 863e 8052 de3c 6c0b 3fbe
000001a0: bca9 873d 84f3 6a3d 0165 02bd 9b87 c2bc
000001b0: 7f63 b5bc ad47 d3bd 13f8 95bd b5f2 8d3d
000001c0: 8a73 adbd a7d6 383e e16f 04be 34f8 3abe
000001d0: a2ab 363e 8cc2 113e 546f 093e 7741 45be
000001e0: a45d d93c 99b4 fc3c 8804 3e3e fa15 e83d
000001f0: 5eb7 013e 20d3 863d 2f5a 8cbd 0544 7bbd
00000200: 6244 863d 5999 14be fa67 33be 6b92 c1bd
00000210: 38c3 dc3c ce12 91bb 355f 253e ced9 1cbd
00000220: 1cd9 093e 75a7 9a3d d30b d6bd 8086 06be
00000230: daa2 dcbd b7d2 06bd 55b5 09be 33bc 033e
00000240: 3a27 5b3d 4f84 973d 5412 d83b f8f3 003e
00000250: b302 293d 810e f8bd c1f3 333a c8da a43d
00000260: 0148 2dbd 17b7 a6bd d712 863c d7d1 7abe
00000270: 428a c4be 4d37 06bc 8a66 95bd 4678 8f3d
00000280: fd36 88bd e40d 5fbd c3c5 013d 328f b83c
00000290: 7e26 8e3d b984 03bd f23e 5d3e add2 ed3d
000002a0: a274 4cbe 1813 96bd 7124 9ebe cc2b dbbd
000002b0: 9359 80be 0c26 64be 5ada 2e3e 4e68 ac3d
000002c0: 9344 1dbe 7a03 61bd 4471 9c3c 72dc 48be
000002d0: 7148 eb3d 7923 1dbe 7c29 223e 900b 073e
000002e0: 378f 9dbc 190a 14be d5a2 86bd e5b1 cfbd
000002f0: 0250 55bd 027b c53d f30f 423d 4ef7 71bd
00000300: ebd5 20be 325d 173e 8566 b3bd 0015 2cbe
00000310: 77c2 5e3c ba0c 883d fd30 f8bd 9d74 f2bd
00000320: 093a 0ebe 3936 043e a46f e2bd b87b 0dbe
00000330: 9d61 063e d545 56be 163d 2e3e ec8b 0dba
00000340: a199 3bbe 979f 443e d48b 573d 0279 20bd
00000350: 46e8 083d 115d 51bd aa06 123e b221 fd3d
00000360: d8e4 843d bfb3 e7bc dad6 debd abc0 1c3e
00000370: 88d1 643d bd9a 713e 0684 383e 4d3f bfbb
00000380: ae9b 3e3d 5e72 dc3d 96b9 13bc cdba 58be
00000390: 4423 9ebd 67f2 97bd 1c62 223d 3a8d 1bbc
000003a0: bdea b53d 54ee 3fbc bad8 013d e91a 98bd
000003b0: 88bf 3f3e bae0 ccbd 6b11 6d3e 2fcd 8e3d
000003c0: 8cde 603d f19b 24be 1b76 9cbc 2ac8 05be
000003d0: 767c 1abe 0b7a f3bd ec2f 0e3e 6591 29be
000003e0: 8946 e23c b2bc 30be 987c 573c 7e3e 88bd
000003f0: 113f 1e3e 62c5 85bd 78ac dabb 4ca7 cabd

mlp.0.bias f4 [200]
-0.15042856 -0.10965053 -0.4304353 0.010926941 0.14021397 0.057481598 0.03472933 0.0458198
0.21663594 0.014863027 0.10951724 -0.03849308 -0.06788343 -0.041685145 -0.2815033 0.10384687
0.22752297 0.20389885 -0.17432493 0.056351103 0.046428587 -0.21301389 0.079164386 0.09521183
-0.092466265 -0.17606522 0.15826565 0.10950036 -0.10840171 -0.18837705 0.11546381 -0.42932922
-0.016214801 0.13757467 -0.2462971 -0.16688468 0.071239315 0.004913435 -0.0481443 -0.0037748932
0.23394217 0.13178729 0.037433755 -0.1968594 -0.15361004 0.12536548 -0.17612207 0.111317776
-0.2654153 -0.12745436 0.17040168 0.028772058 0.09027605 -0.021605914 -0.004368603 0.041871157
-0.45823693 -0.17003518 0.01977632 0.02285186 0.0037414967 -0.28577083 -0.06886532 0.00021428849
0.0066343783 0.39736283 -0.08026823 -0.0108423745 -0.12090416 -0.037590012 -0.15936908 -0.06431254
-0.062682666 -0.009679031 0.15085705 0.1830488 0.013156434 -0.5356422 -0.042310327 0.024729779
-0.012069246 0.2797149 0.122024074 -0.09426166 0.10395339 -0.12044862 -0.23820996 -0.12713528
-0.045765102 -0.26367196 -0.028849738 -0.24458757 0.08464858 0.08544138 -0.1434962 0.21025646
0.32221204 0.065787755 -0.13779473 -0.08129219 -0.0915032 0.09708713 -0.13805267 -0.38732678
0.15620166 -0.028813187 0.2057398 0.3284959 0.10658717 -0.11265915 -0.11848928 0.15094732
-0.16355386 0.161868 0.12565456 0.14927003 -0.122094326 0.03011751 -0.13374414 -0.15395613
0.048042208 0.119508766 0.18867518 0.053234346 0.09348602 -0.0974852 0.072329424 0.067370065
-0.10395537 0.16047014 -0.22689492 -0.07932062 -0.10828648 0.025005005 0.3301171 0.00634328
-0.18773751 0.13342993 -0.019922 -0.13089955 -0.0020084418 0.13981858 -0.08620033 0.10518984
-0.16112702 0.1281733 -0.089278705 0.04477459 -0.16831821 -0.8837514 0.08109247 -0.1252427
-0.070393056 0.22310585 -0.2906068 0.18155132 0.06171044 0.02530646 -0.17007406 0.11860032
0.07461426 -0.15329899 0.14561644 0.010404937 -0.05205444 -0.15352012 -0.09755027 -0.07332815
0.04259238 -0.11106247 0.050838068 0.08255138 -0.050689325 -0.08532371 0.06489678 -0.030600462
0.19418679 -0.07356189 0.20604247 -0.040975958 0.10094262 0.24135405 -0.09383403 -0.061541084
0.08772497 0.031357396 -0.13633642 -0.11995199 0.11487394 0.07623127 -0.22614092 -1.241615
0.11923 -0.046820898 -0.14823042 -0.14196527 0.054195397 -0.005541751 -0.08279217 -0.16673113
00000000: f209 1abe 7590 e0bd 0462 dcbe ea06 333c
00000010: 4094 0f3e d371 6b3d 5840 0e3d 8bad 3b3d
00000020: d0d5 5d3e 0e84 733c 934a e03d ebaa 1dbd
00000030: 7806 8bbd 0bbe 2abd 3321 90be abad d43d
00000040: c8fb 683e dcca 503e 3c82 32be 6ad0 663d
00000050: e72b 3e3d 5020 5abe f020 a23d 6cfe c23d
00000060: f45e bdbd 714a 34be 6410 223e ba41 e03d
00000070: b701 debd eae5 40be 4a78 ec3d 0ad1 dbbe
00000080: e7d4 84bc 60e0 0c3e 4f35 7cbe d1e3 2abe
00000090: ebe5 913d e100 a13b f532 45bd 3364 77bb
000000a0: 898e 6f3e 3ff3 063e 2354 193d 8395 49be
000000b0: f34b 1dbe cf5f 003e 5859 34be 93fa e33d
000000c0: 84e4 87be 6583 02be c77d 2e3e 61b3 eb3c
000000d0: a6e2 b83d e3fe b0bc 8026 8fbb 1781 2b3d
000000e0: 089e eabe b41d 2ebe f301 a23c d333 bb3c
000000f0: e633 753b 8e50 92be 4309 8dbd a1b2 6039
00000100: 3365 d93b 2473 cb3e ab63 a4bd 37a4 31bc
00000110: 9a9c f7bd fcf7 19bd a631 23be 4bb6 83bd
00000120: c55f 80bd cc94 1ebc 457a 1a3e 2571 3b3e
00000130: 158e 573c d91f 09bf 984d 2dbd 1b96 ca3c
00000140: 16be 45bc cb36 8f3e c2e7 f93d 420c c1bd
00000150: 84e5 d43d c4ad f6bd 50ed 73be c02f 02be
00000160: 3074 3bbd 0300 87be 4956 ecbc 2a75 7abe
00000170: 3c5c ad3d e4fb ae3d abf0 12be 784d 573e
00000180: faf8 a43e bbbb 863d 101a 0dbe 857c a6bd
00000190: 0866 bbbd 9ed5 c63d ae5d 0dbe b24f c6be
000001a0: 54f3 1f3e a209 ecbc 74ad 523e 9d30 a83e
000001b0: 604a da3d d7b9 e6bd 82aa f2bd ef91 1a3e
000001c0: aa7a 27be bac0 253e 97ab 003e 3eda 183e
000001d0: 970c fabd ffb8 f63c 39f4 08be ada6 1dbe
000001e0: e8c7 443d 03c1 f43d 1134 413e 420c 5a3d
000001f0: 9975 bf3d 52a6 c7bd 7321 943d 51f9 893d
00000200: 8ee6 d4bd 4952 243e 2457 68be d972 a2bd
00000210: 4dc5 ddbd 4cd7 cc3c 1c05 a93e 4adb cf3b
00000220: 433e 40be dba1 083e 7633 a3bc 880a 06be
00000230: 10a0 03bb 9a2c 0f3e cc89 b0bd c56d d73d
00000240: 7bfe 24be dd3f 033e c1d7 b6bd 8f65 373d
00000250: 9c5b 2cbe 883d 62bf cf13 a63d 9f3f 00be
00000260: 3c2a 90bd dc75 643e 6aca 94be 97e8 393e
00000270: 16c4 7c3d 7e4f cf3c e527 2ebe b9e4 f23d
00000280: 5ccf 983d 69fa 1cbe 7a1c 153e 7879 2a3c
00000290: 0937 55bd 6134 1dbe 70c8 c7bd 122d 96bd
000002a0: 5975 2e3d b874 e3bd 943b 503d b310 a93d
000002b0: 9c9f 4fbd 33be aebd 9ae8 843d d2ad fabc
000002c0: e7d8 463e 9ea7 96bd ccfc 523e 68d6 27bd
000002d0: 01bb ce3d 8425 773e 0e2c c0bd 8112 7cbd
000002e0: 26a9 b33d 9d70 003d c69b 0bbe 64a9 f5bd
000002f0: 0743 eb3d 241f 9c3d 7c91 67be 3eed 9ebf
00000300: dc2e f43d 45c7 3fbd b7c9 17be 585f 11be
00000310: fefb 5d3d 9497 b5bb f18e a9bd 91bb 2abe

mlp.2.weight f4 [1, 200]
0.26313916 -0.3202408 0.86064446 -0.1753957 0.004504727 -0.5893067 -0.15551902 0.33081806
-0.15988412 -0.2959285 0.3971079 -0.27669185 0.11219409 0.17440489 -0.6561831 -0.36549583
-0.46125004 0.7985794 0.05956207 -0.33250993 -0.45356274 0.34830123 -0.07877095 -0.12363135
-0.03693997 -0.18031366 -0.53901345 0.77007383 0.29296955 0.38526222 -0.75565785 -0.6779406
-0.32041082 0.045268014 -0.3482522 -0.39100698 -0.48695156 0.29736492 0.24207512 -0.42955613
-0.5135947 0.38578314 0.70823175 0.3627122 -0.25682965 0.20330144 -0.14372976 0.43177333
-0.4665251 -0.3645888 -0.3892488 -0.29349926 0.21422307 0.17912687 0.4768854 -0.35737717
-1.1688727 -0.22592767 0.3524046 -0.18603449 -0.0149308145 0.7960501 0.5438131 -0.2774764
-0.11169745 1.41214 0.042714566 0.25399995 -0.33496398 0.5231717 -0.22863044 -0.22623537
0.3085523 0.6060401 -0.33372325 0.18150355 -0.45143887 1.3127121 0.16619377 0.25927454
0.33057052 -0.5133522 0.7484183 -0.03554361 0.38957486 -0.1794564 -0.41123685 -0.51313823
-0.3404971 -0.34046853 -0.32875988 -0.2810628 -0.34628347 0.07707457 0.67680585 -0.4057974
-0.8405558 0.39615524 0.19261187 -0.4470647 -0.34698358 -0.144272 0.6104305 0.783918
0.04440602 0.71534026 1.0397141 1.0455282 0.31418565 -0.23852119 0.6158797 0.1772966
0.06723779 -0.33944327 0.069652185 0.091664046 0.21232203 0.08878652 -0.2210424 0.4946102
0.15232812 0.39176297 -0.15414684 -0.2904235 0.52876055 0.2508889 -0.24102534 0.49078718
1.729914 0.34531367 -0.18924412 0.013961693 -0.42779595 0.6972778 -1.3165681 -0.27498364
0.65510565 -0.5382997 -0.4935786 0.291544 -0.40428495 -0.099317625 0.10212064 0.5003364
0.092906356 0.08367067 0.26655948 0.35294238 -0.035409227 -1.4452238 -0.1251721 0.11641244
-0.097899094 -0.42425838 0.57468235 -0.49410328 1.2245821 -0.36762667 0.4815029 0.21899849
0.40934637 -0.20937043 0.3150924 -0.25956172 -0.6697736 0.025973886 -0.4837452 -0.35816404
-0.23032111 0.15881515 -0.24056764 -0.48995563 -0.0313929 0.47071254 -0.4553877 -0.3633471
-0.38043267 0.88226014 -0.3837311 0.29180726 -0.18782584 -0.5264937 0.24371156 0.28490713
0.4641423 0.35078043 -0.43011445 0.5100991 0.6754175 0.04617284 -0.47147283 1.8804938
-0.033898365 0.12316378 0.10799977 0.52518433 0.36374182 0.8099513 -0.17820777 0.16578576
00000000: 2dba 863e 9af6 a3be 3253 5c3f ee9a 33be
00000010: 649c 933b cedc 16bf 6140 1fbe fc60 a93e
00000020: aab8 23be f183 97be ba51 cb3e 8eaa 8dbe
00000030: 04c6 e53d 3297 323e 9efb 27bf 4522 bbbe
00000040: f728 ecbe b36f 4c3f 5bf7 733d be3e aabe
00000050: 6039 e8be 8a54 b23e aa52 a1bd 6f32 fdbd
00000060: 5e4e 17bd 25a4 38be c9fc 09bf 8f23 453f
00000070: 1b00 963e 1741 c53e cb72 41bf 848d 2dbf
00000080: e30c a4be f46a 393d 1d4e b2be 1132 c8be
00000090: b751 f9be 3740 983e 8ae2 773e c8ee dbbe
000000a0: f17a 03bf 5e85 c53e ad4e 353f 6ab5 b93e
000000b0: 2d7f 83be 412e 503e e52d 13be 6511 dd3e
000000c0: 61dc eebe 62ab babe 9e4b c7be 8945 96be
000000d0: 4b5d 5b3e 096d 373e 532a f43e 24fa b6be
000000e0: 9f9d 95bf 9559 67be 606e b43e d37f 3ebe
000000f0: 60a0 74bc f0c9 4b3f 5637 0b3f 6311 8ebe
00000100: a2c1 e4bd 01c1 b43f 78f5 2e3d 480c 823e
00000110: 6680 abbe 95ee 053f 191e 6abe 3faa 67be
00000120: 91fa 9d3e 7225 1b3f c6dd aabe 11dc 393e
00000130: ff22 e7be f306 a83f b32e 2a3e a2bf 843e
00000140: 8a40 a93e 0d6b 03bf 5798 3f3f 2d96 11bd
00000150: 5b76 c73e 6bc3 37be a38d d2be 075d 03bf
00000160: a355 aebe e451 aebe 3753 a8be 77e7 8fbe
00000170: 114c b1be 46d9 9d3d 2643 2d3f adc4 cfbe
00000180: aa2e 57bf dcd4 ca3e 0c3c 453e aae5 e4be
00000190: d5a7 b1be 0abc 13be 2c45 1c3f daae 483f
000001a0: 16e3 353d 8a20 373f 5a15 853f ded3 853f
000001b0: f1dc a03e e63e 74be 4baa 1d3f 3d8d 353e
000001c0: f7b3 893d 82cb adbe cea5 8e3d 5cba bb3d
000001d0: f26a 593e b5d5 b53d f058 62be 8c3d fd3e
000001e0: e7fb 1b3e 2895 c83e abd8 1dbe 64b2 94be
000001f0: da5c 073f 8374 803e 59cf 76be 7548 fb3e
00000200: d26d dd3f f4cc b03e 36c9 41be 96bf 643c
00000210: 1208 dbbe cc80 323f 4e85 a8bf a8ca 8cbe
00000220: 01b5 273f 02ce 09bf 56b6 fcbe 4145 953e
00000230: 70fe cebe 0a67 cbbd a024 d13d 0c16 003f
00000240: b045 be3d 875b ab3d 7c7a 883e ddb4 b43e
00000250: 4409 11bd 18fd b8bf 1d2d 00be a569 ee3d
00000260: 527f c8bd 6538 d9be 621e 133f 1bfb fcbe
00000270: 1bbf 9c3f 9039 bcbe 8c87 f63e 2441 603e
00000280: d995 d13e 3465 56be cb53 a13e 46e5 84be
00000290: 4876 2bbf 30c7 d43c 73ad f7be 4761 b7be
000002a0: 4cd9 6bbe 70a0 223e 5d57 76be 77db fabe
000002b0: d795 00bd 3c01 f13e 9428 e9be a208 babe
000002c0: 12c8 c2be cddb 613f 6778 c4be c367 953e
000002d0: 6b55 40be 4bc8 06bf 868f 793e 59df 913e
000002e0: 0fa4 ed3e 7e99 b33e f637 dcbe db95 023f
000002f0: 29e8 2c3f bb1f 3d3d e364 f1be 05b4 f03f
00000300: 03d9 0abd 4b3d fc3d fc2e dd3d 7b72 063f
00000310: 5e3c ba3e f858 4f3f 197c 36be bec3 293e
