models/weights_bak/layers_50_50_50_lr_0.0001.pt (torch, 29955 bytes, 7 tensors)

mlp.0.weight f4 [50, 31]
0	0xbc9dc321	-0.019258084
1	0xbe8a5a23	-0.27021894
2	0xbc2f62da	-0.01070472
3	0xbdfecd7a	-0.12441535
4	0x3c871dd2	0.016493712
5	0xbdaeb655	-0.08530871
6	0xbc2d1564	-0.010564182
7	0xbc0cf7ef	-0.008604034
8	0xbd0eb46a	-0.034840025
9	0xbbceb881	-0.0063086157
10	0x3d659621	0.056051377
11	0x3d5d9bee	0.054103784
12	0xbd6f9a8b	-0.058496993
13	0xbcf7e0ac	-0.0302585
14	0xbd44ad51	-0.04801685
15	0x398c745f	0.00026789584
16	0x3dd29d42	0.10283901
17	0xbe81040f	-0.2519841
18	0x3de04d97	0.10952299
19	0x3db4a17d	0.08819864
20	0xbdb01a9d	-0.08598826
21	0xbe13833c	-0.1440553
22	0xbeb4c9bf	-0.3531017
23	0x3d0115ae	0.031514816
24	0xbe387407	-0.18013011
25	0xbc0dbc0b	-0.00865079
26	0xbddf646a	-0.10907824
27	0xbda82c56	-0.082115814
28	0xbe049b1b	-0.12949793
29	0x3dcc5a89	0.09978206
30	0x3ecc046c	0.39847124
31	0x3e007474	0.12544423
32	0x3e119c56	0.14219794
33	0x3e10b216	0.14130434
34	0xbda70912	-0.08156027
35	0xbe52d83e	-0.20590302
36	0xbe2f0e27	-0.17095242
37	0xbdfeb539	-0.12436909
38	0x3d7e5aff	0.0620985
39	0xbd9814aa	-0.07425816
40	0xbd807eba	-0.06274171
41	0x3e8709fa	0.263748
42	0xbe4eefc2	-0.20208648
43	0x3e431ae5	0.19053228
44	0xbc23e3ce	-0.010003043
45	0xbd8e9de6	-0.069637105
46	0x3dbe25d6	0.092845604
47	0xbe6c3e37	-0.23070608
48	0xbbd56a5f	-0.0065129246
49	0x3e4a04d6	0.19728407
50	0x3d2f64ea	0.04282085
51	0xbc8bea60	-0.017079532
52	0x3dae1722	0.08500506
53	0xbc9ad849	-0.01890196
54	0x3dfbc0ed	0.12292657
55	0x3d0189f0	0.031625688
56	0xbd8d163c	-0.068890065
57	0xbe0853a8	-0.13313162
58	0xbe246049	-0.16052355
59	0xbe6a11f2	-0.22858408
60	0xbc7d3f2e	-0.015456958
61	0xbc48034d	-0.012207818
62	0xbd268b4d	-0.04066019
63	0x3e1e3cff	0.15452956
64	0xbe1df4c6	-0.15425405
65	0x3ce236cb	0.027614018
66	0x3d5f04c0	0.05444789
67	0xbe0aae3b	-0.13543026
68	0xbda507a6	-0.080580994
69	0x3dc88fac	0.09793028
70	0x3d0fd04f	0.035110768
71	0x3cce2915	0.025166074
72	0xbde0313b	-0.1094689
73	0xbdf44c38	-0.119286
74	0xbdd2b057	-0.102875404
75	0xbd9cf30c	-0.07663545
76	0xbe295846	-0.1653758
77	0x3d90cc0b	0.07070168
78	0x3dc7325c	0.09726402
79	0xbe0b1a45	-0.1358424
80	0x3e70fc6d	0.23533793
81	0x3d488fd6	0.048965298
82	0x3e1ad0c5	0.15118702
83	0xbe036084	-0.12829787
84	0x3e0c4b38	0.13700569
85	0xbdadabe5	-0.08480052
86	0xbdd30bf9	-0.10305018
87	0x3e0f8f84	0.1401959
88	0x3d4fb64c	0.05071096
89	0xbe239ce1	-0.15977813
90	0x3b1fb51b	0.0024369422
91	0x3de6dccb	0.11272582
92	0x3e092271	0.13392045
93	0xbe63c802	-0.22244266
94	0x3db7eeff	0.08981132
95	0x3cc5c30e	0.02414086
96	0x3dc0a8d4	0.094072014
97	0xbea5e4f6	-0.32401246
98	0x3ce6875b	0.028140714
99	0x3d95a963	0.073076986
100	0x3e45758d	0.19283123
101	0xbc9a4e40	-0.01883614
102	0xbd529e36	-0.051420413
103	0x3d3f4be1	0.046703223
104	0x3b9fbbf2	0.0048746997
105	0xbe1d6285	-0.15369613
106	0x3dcb95e7	0.09940701
107	0xbcbc7a2f	-0.02300748
108	0xbe2d9a89	-0.16953482
109	0xbda97995	-0.08275143
110	0x3e593dcc	0.2121498
111	0xbddf074e	-0.10890065
112	0x3d9abcff	0.075555794
113	0xbd4d13e8	-0.050067812
114	0x3db267cb	0.08711203
115	0x3e744e91	0.23858096
116	0xbdd9d733	-0.10636749
117	0xbd7ddbf7	-0.061977353
118	0xbc9eb232	-0.01937208
119	0xbd2da16e	-0.04239028
120	0x3d770b43	0.060313474
121	0x3e254154	0.16138202
122	0x3d5f2346	0.054477
123	0x3d81dd72	0.063410655
124	0x3e87cc7d	0.265232
125	0x3d86d16b	0.06582912
126	0x3e630d49	0.22173037
127	0xbe41a7cf	-0.1891167
128	0x3e1214ad	0.142657
129	0x3d5cf16c	0.053941175
130	0x3d832e0d	0.06405268
131	0xbd223087	-0.03959706
132	0xbca496f2	-0.020091508
133	0xbc540b4d	-0.012942147
134	0xbb1ac658	-0.0023616757
135	0x3d49a218	0.04922685
136	0x3d18494e	0.037179284
137	0xbd981f06	-0.07427792
138	0x3da8ce2f	0.082424514
139	0xbdc26cce	-0.09493409
140	0x3ba306b3	0.004975164
141	0xbe0ab3bf	-0.1354513
142	0xbdbf8a96	-0.09352605
143	0xbe28a8e1	-0.16470672
144	0xbe2bbd2e	-0.16771385
145	0xbd9c127f	-0.07620715
146	0xbd85ef21	-0.06539751
147	0x3dd693cf	0.10477411
148	0xba58610a	-0.0008254206
149	0x3d37afd0	0.044845402
150	0xbe7980ff	-0.24365614
151	0x3d8be916	0.06831567
152	0xbc7d8793	-0.015474218
153	0x3e546c75	0.20744498
154	0x3df56e19	0.1198389
155	0x3d7ec83b	0.062202673
156	0xbe386c4f	-0.18010066
157	0xbdc71b86	-0.097220466
158	0x3e3a6129	0.18201126
159	0x3d763374	0.060107663
160	0xbcedfa86	-0.029050123
161	0xbd472993	-0.048623633
162	0xbd05a143	-0.032624494
163	0x3c95a7f3	0.018268561
164	0xbc6544e5	-0.0139934765
165	0x3bf76a21	0.0075504933
166	0x3e5308b8	0.20608795
167	0xbdd71b8b	-0.105033
168	0x3c2004be	0.009766756
169	0x3e5d9ba6	0.21641406
170	0xbca1b725	-0.01974065
171	0xbd07e370	-0.033175886
172	0x3cb8a48f	0.022539405
173	0xbddcdd15	-0.107843556
174	0x3db894fb	0.09012791
175	0xbe84ca29	-0.25935486
176	0xbe2649ad	-0.16239043
177	0xbe4effd4	-0.20214778
178	0x3e106b11	0.14103343
179	0xbd4aa4e2	-0.04947365
180	0x3c898f51	0.016791971
181	0x3e39f528	0.18159926
182	0x3e49b237	0.1969689
183	0x3e4ae19e	0.19812629
184	0x3dbbd424	0.09171322
185	0xbda0a42f	-0.078438155
186	0x3d120732	0.035651393
187	0xbe385c5d	-0.18003984
188	0x3d20347f	0.039112564
189	0xbdb53ddf	-0.088496916
190	0x3e2e2903	0.17007832
191	0xbdf48293	-0.119389676
192	0xbdafe37e	-0.085883126
193	0x3de5c7b2	0.112197295
194	0x3e00d9a2	0.1258302
195	0x3e21d78d	0.15804882
196	0xbd1ee696	-0.038794123
197	0xbc22d693	-0.009938854
198	0x3c5d419e	0.013504414
199	0xbced0eb6	-0.028937679
200	0x3d44c25e	0.048036925
201	0x3d4cf032	0.050033756
202	0x3d87a6dc	0.06623623
203	0x3e34ead4	0.17667705
204	0xbce40233	-0.02783308
205	0xbe7a2d92	-0.24431446
206	0x3e186284	0.1488133
207	0x3e29a822	0.16568044
208	0x3d7cec13	0.061748575
209	0x3df38980	0.118914604
210	0xbe6fbcde	-0.23411891
211	0xbc14ecc7	-0.009089655
212	0x3de5d7bb	0.11222788
213	0x3dc1f7d4	0.094710976
214	0xba9f9614	-0.0012175464
215	0xbd9170f4	-0.07101622
216	0xbe4589f5	-0.19290908
217	0x3dcd0977	0.10011571
218	0xbc8a2944	-0.01686538
219	0xbd8f58b1	-0.069993384
220	0xbdc0b8c7	-0.094102435
221	0xbd0bdc39	-0.034145568
222	0xbd471df5	-0.048612554
223	0xbe1cde08	-0.15319073
224	0x3df13193	0.11777034
225	0xbda9bc04	-0.08287814
226	0xbecb14a4	-0.39664185
227	0x3df2de21	0.11858774
228	0xbdd1583f	-0.1022191
229	0x3e4d529e	0.20051047
230	0x3da9ff1b	0.08300611
231	0x3e0cc8fc	0.13748544
232	0x3d5df76d	0.05419104
233	0xbe7624e5	-0.24037512
234	0xbe19cf0e	-0.15020391
235	0xbc635e7a	-0.013877505
236	0xbd539e75	-0.05166479
237	0xbdc042ae	-0.09387718
238	0xbd9389a3	-0.072039865
239	0x3c01ae0d	0.007915032
240	0xbcee75a2	-0.029108826
241	0x3c4df547	0.012570686
242	0xbc661f3f	-0.014045536
243	0xbdb0588e	-0.086106405
244	0xbd1848c4	-0.03717877
245	0xbd4cd82b	-0.05001084
246	0x3e82a3b4	0.2551552
247	0xbe2dd2a6	-0.16974887
248	0xbea89c4e	-0.3293175
249	0x3e7aaa62	0.24479058
250	0x3e194daa	0.14971033
251	0xbe1f4c0c	-0.15556353
252	0x3d2f59b2	0.04281015
253	0x3dba03ca	0.09082754
254	0x3d4b48aa	0.049629845
255	0xbe1083e5	-0.14112814

mlp.0.bias f4 [50]
0	0x3dee42e6	0.116338536
1	0xbe46d59d	-0.19417424
2	0xbe4ee40a	-0.20204177
3	0x3d3961ef	0.045259412
4	0xbbbdeee6	-0.005796301
5	0xbe011830	-0.12606883
6	0x3e7d646b	0.24745338
7	0xbe8251ad	-0.2545294
8	0xbe10ffc2	-0.14160064
9	0xbe9ad724	-0.30242264
10	0x3dee6e0b	0.11642083
11	0xbdf66d3c	-0.120325536
12	0x3d7c7fef	0.061645444
13	0xbef526f3	-0.47881278
14	0xbeac0423	-0.33596906
15	0xbe139d52	-0.14415482
16	0xbd1bdddc	-0.03805338
17	0xbf38748c	-0.72052836
18	0xbf1b8f42	-0.6076547
19	0xbe3c0113	-0.18359785
20	0xbd4108e2	-0.047127612
21	0x3e106ec5	0.14104755
22	0xbe97b3cd	-0.29629365
23	0xbcfc2c4c	-0.030782841
24	0xbd9296c7	-0.07157665
25	0xbd16fa73	-0.03685994
26	0x3e8f9f63	0.2805129
27	0xbeac4f6a	-0.33654338
28	0x3e484464	0.19557339
29	0x3ce8bf4b	0.028411528
30	0x3ca1f99d	0.019772345
31	0x3d84d451	0.06485809
32	0xbe655590	-0.22395921
33	0xbc4042bb	-0.01173466
34	0xbe2ad4bb	-0.16682713
35	0xbe033403	-0.1281281
36	0xbe2a583a	-0.16635218
37	0xbe6f5892	-0.2337363
38	0x3df7f3c4	0.121070415
39	0x3db00347	0.08594375
40	0x3d279f49	0.04092339
41	0xbd816c14	-0.063194424
42	0x3e07de43	0.1326838
43	0xbe02b031	-0.12762524
44	0x3ddda434	0.10822335
45	0x3bd95142	0.006632001
46	0xbe4abd24	-0.19798714
47	0xbdc68314	-0.0969297
48	0xbd74e2eb	-0.05978672
49	0xbf5ef592	-0.8709346

mlp.2.weight f4 [50, 50]
0	0x3dcb4b5f	0.09926485
1	0xbe2d2c77	-0.16911493
2	0x3cef42a1	0.029206576
3	0x3d611cb5	0.054959018
4	0x3b8cc213	0.0042955964
5	0x3d6512ae	0.055926017
6	0x3d0e5642	0.03475023
7	0xbe684343	-0.22681908
8	0x3dde22c3	0.10846474
9	0x3d456a1a	0.04819689
10	0xbda5e334	-0.08099976
11	0x3e1e0c05	0.15434273
12	0x3e90a731	0.28252557
13	0xbf0297b4	-0.5101273
14	0xbe97403d	-0.29541197
15	0x3dee0eec	0.1162394
16	0x3e02d382	0.12775996
17	0xbef4aee5	-0.47789684
18	0x3d555131	0.052079383
19	0x3dcdfdb5	0.100581564
20	0x3da82ad9	0.082112975
21	0xbe0d1596	-0.13777766
22	0xbdcecf30	-0.10098112
23	0x3da82e3e	0.08211945
24	0x3a078205	0.0005169216
25	0xbdb3f877	-0.08787625
26	0x3dd9f560	0.10642505
27	0x3e4d994e	0.20078012
28	0xbde1b58c	-0.110209554
29	0x3e000410	0.1250155
30	0x3d2ca67a	0.042150952
31	0xbcdc6de8	-0.026907876
32	0xbe53e840	-0.20694065
33	0x3d5b68c3	0.053566705
34	0xbe16d1c6	-0.1472846
35	0x3e202450	0.15638852
36	0xbc816c7a	-0.015798796
37	0xbd532871	-0.05155224
38	0x3d81a421	0.06330133
39	0x3d1c9b36	0.03823396
40	0xbe2a2647	-0.16616164
41	0xbde3a101	-0.111146934
42	0x3d738fb7	0.05946323
43	0xbc66b6ac	-0.014081638
44	0x3d443dec	0.047910616
45	0x3dcbcf53	0.09951653
46	0x3dc43b2f	0.09581601
47	0x3de69d5c	0.11260483
48	0xbe28e899	-0.16494979
49	0xbe31545c	-0.17317337
50	0x3e077ede	0.1323199
51	0xbdd8f80a	-0.10594185
52	0x3c9a0b8e	0.018804338
53	0x3dd7c311	0.10535253
54	0xbd9e5465	-0.07730941
55	0x3e30a647	0.1725093
56	0xbda8e870	-0.08247459
57	0x3cd49f45	0.025954852
58	0x3d2e3397	0.04252967
59	0xbbf7dd5c	-0.00756423
60	0xbc92631e	-0.017869528
61	0xbd5864fa	-0.052830674
62	0x3df57db8	0.119868696
63	0x3d951b6a	0.072806194
64	0xbc566b60	-0.013087124
65	0xbc1e58cb	-0.009664725
66	0x3df899f3	0.121387385
67	0x3c22e22a	0.009941617
68	0xbdcdc1f1	-0.10046757
69	0x3db36628	0.08759719
70	0x3dd015c1	0.10160399
71	0x3dd591e8	0.1042822
72	0x3e0ee63a	0.13955012
73	0xbd901e43	-0.07037022
74	0x3dcbcc8e	0.09951125
75	0x3d63e39c	0.055636987
76	0x3cd4c8e4	0.025974698
77	0xbef26b63	-0.47347555
78	0xbd601cbf	-0.054714914
79	0x3d65599b	0.055993658
80	0x3d52814c	0.05139284
81	0x3dfcc017	0.12341326
82	0xbda37375	-0.07981006
83	0x3dd173e8	0.102271855
84	0xbd95cb40	-0.073141575
85	0xbe2f743a	-0.1713418
86	0xb9339c11	-0.0001712891
87	0xbe0e6897	-0.13907085
88	0x3dc37d2e	0.095453605
89	0x3e32e561	0.17470314
90	0xbd34f5bb	-0.04417966
91	0xbe00ddb3	-0.12584572
92	0x3dc023ac	0.09381804
93	0x3dec8dfd	0.115505196
94	0xbcefda85	-0.029279003
95	0x3e480264	0.19532162
96	0xbc669184	-0.01407278
97	0xbcb10074	-0.021606661
98	0x3d9a53a9	0.07535488
99	0x3e809ce0	0.25119686
100	0xbe17622c	-0.14783543
101	0xbdb02b7a	-0.086020425
102	0x3c085d42	0.008323016
103	0x3d84a98b	0.0647765
104	0xbd410862	-0.047127135
105	0x3c548f67	0.012973643
106	0xbdba6a37	-0.0910229
107	0x3d0b0d2f	0.03394812
108	0xbe435613	-0.19075803
109	0x3d18b6bb	0.03728364
110	0xbdd9125f	-0.10599207
111	0xbdb0d9c2	-0.08635284
112	0xbdc1ba14	-0.0945932
113	0x3e580042	0.21093848
114	0x3e6d6bcd	0.23185654
115	0xbdb16695	-0.08662144
116	0xbd180fa2	-0.037124284
117	0x3e8c3e04	0.27391064
118	0x3e0647f9	0.13113393
119	0x3c498981	0.01230085
120	0xbe01f82d	-0.12692328
121	0xbe679d33	-0.2261856
122	0xbdb668fe	-0.089067444
123	0xbd94195d	-0.072314
124	0x3d27545d	0.04085194
125	0xbde72b5b	-0.11287566
126	0xbe74fb0a	-0.23923889
127	0xbd29c958	-0.041451782
128	0xbe2ddbd3	-0.16978388
129	0xbd85ae22	-0.06527354
130	0x3d478a35	0.04871579
131	0xbe67c990	-0.22635484
132	0xbd114296	-0.035463892
133	0xbca33062	-0.019920532
134	0x3cd5832d	0.026063526
135	0xbd8452ee	-0.0646113
136	0xbdff322d	-0.12460742
137	0x3d82778e	0.063704595
138	0xbc7423f0	-0.014901146
139	0x3d651f08	0.055937797
140	0xbdad1f60	-0.0845325
141	0xbd3cbc3b	-0.046077948
142	0xbe4e853c	-0.20168012
143	0x3d57ad43	0.05265547
144	0xbda82599	-0.08210296
145	0xbd03eaaf	-0.032206234
146	0xbccaf28c	-0.024773858
147	0x3dd2695d	0.10274003
148	0x3c42f824	0.011899982
149	0xbc98884a	-0.018619675
150	0x3b0282e2	0.0019914438
151	0xbdd65df1	-0.10467137
152	0xbc7ef093	-0.015560287
153	0x3dac503a	0.084137395
154	0x3dfb45d6	0.122691795
155	0xbe0c487d	-0.13699527
156	0x3dea31d2	0.11435284
157	0x3dd4b034	0.103851706
158	0xbd1fe5d0	-0.039037526
159	0xbe689a3e	-0.22715089
160	0x3e41dc0a	0.18931594
161	0x3c93f591	0.018061431
162	0xbd01b4b3	-0.03166647
163	0xbe692a23	-0.2276998
164	0xbe4f7a0d	-0.20261402
165	0xbc188dd4	-0.009311158
166	0xbd9f131b	-0.07767316
167	0xbea9bde0	-0.33152676
168	0x3d891128	0.066927254
169	0x3de5a4cb	0.112130724
170	0xbd6396e1	-0.05556381
171	0x3e247636	0.16060719
172	0x3d248ff1	0.040176336
173	0x3d90ede6	0.070766255
174	0x3dc81050	0.09768736
175	0x3d5f2e6f	0.054487642
176	0x3e2eea77	0.17081629
177	0x3f862987	1.0481423
178	0x3e827809	0.25482205
179	0x3d234e4c	0.03986959
180	0x3dc7c5cc	0.09754524
181	0x3e34664f	0.17617153
182	0x3c1e62b3	0.009667086
183	0x3d76fc90	0.060299456
184	0x3d3bc852	0.045845337
185	0x3daf2cc2	0.08553459
186	0x3e16c151	0.14722182
187	0xbd8c55cd	-0.06852303
188	0x3d72787e	0.05919694
189	0x3e0d154e	0.13777658
190	0xbda78e37	-0.08181422
191	0x3e176b47	0.14787017
192	0xbda87ec5	-0.08227304
193	0x3d87044d	0.06592617
194	0x3d53f8c2	0.051750906
195	0x3e390283	0.18067364
196	0x3d8bb01a	0.06820698
197	0xbce34725	-0.027743885
198	0xbd50170e	-0.050803237
199	0xbebca6d7	-0.3684604
200	0xbd7da0c5	-0.0619209
201	0x3cfc2d2b	0.030783257
202	0x3c76d072	0.015064346
203	0x3e215557	0.15755211
204	0xbd90814f	-0.07055914
205	0x3d9b254e	0.07575475
206	0xbe17bf19	-0.14818992
207	0x3b18f58b	0.0023339714
208	0x3c808a85	0.015691051
209	0x3db24c2c	0.08705935
210	0xbd8bd7d1	-0.06828273
211	0x3e0b3999	0.1359619
212	0x3d93a549	0.0720926
213	0x3e2fe256	0.17176184
214	0x3dec0ba5	0.115256585
215	0xbb52db1c	-0.0032174056
216	0x3e1cf362	0.15327218
217	0x3e2ffb77	0.1718577
218	0xbc2fed4f	-0.010737731
219	0xbe0af352	-0.13569382
220	0xbda77ac9	-0.08177716
221	0xbe4dea5f	-0.20108937
222	0x3d5dcd9a	0.054151155
223	0x3dacec93	0.084435605
224	0xbdc41fbd	-0.09576366
225	0x3c32de6e	0.010917289
226	0xbd6a52af	-0.05720776
227	0xbe366607	-0.17812358
228	0x375cc09d	1.3157868e-05
229	0x3d652b2e	0.055949382
230	0xbe2e7117	-0.17035328
231	0xbda19a06	-0.07890706
232	0xb8dcdf83	-0.0001053205
233	0x3bbed644	0.0058238823
234	0x3b97f37f	0.0046371813
235	0x3d75a927	0.05997577
236	0x3e240934	0.16019136
237	0x3d62b7a7	0.055350926
238	0xbdd9f39e	-0.106421694
239	0xbe168417	-0.14698826
240	0x3d57cf64	0.052688017
241	0xbd646823	-0.055763375
242	0x3d13c70b	0.036078494
243	0xbd89913c	-0.067171544
244	0xbd577b41	-0.05260778
245	0xbd3db1a3	-0.046311986
246	0xbceac189	-0.028656738
247	0xbd16c7ea	-0.036811747
248	0x3b8a2ea6	0.0042169867
249	0xbd2fb373	-0.042895745
250	0xbd372d52	-0.044720955
251	0x3d2091e3	0.03920163
252	0xbdc63651	-0.09678329
253	0xbd7f0342	-0.062258966
254	0x3ddd6f48	0.10812241
255	0x3dbbbe34	0.09167138

mlp.2.bias f4 [50]
0	0x3e85f119	0.26160505
1	0x3e90c597	0.2827575
2	0xbe905644	-0.28190815
3	0x3f0e823a	0.5566746
4	0xbe10d587	-0.14143954
5	0x3dbe0ec5	0.09280161
6	0x3d745f43	0.05966116
7	0xbe17c088	-0.14819539
8	0xbe0d6000	-0.13806152
9	0x3d7ad799	0.061240766
10	0xbd5ec45b	-0.054386478
11	0x3db470b7	0.08810561
12	0xbe26cc13	-0.16288786
13	0x3dc69ea6	0.096982285
14	0x3df5d36b	0.120032154
15	0xbd533744	-0.051566377
16	0x3ca64c77	0.020300133
17	0x3e84ece7	0.25961992
18	0x3d93288a	0.071854666
19	0x3dfac442	0.122444645
20	0x3f0ea93f	0.55727
21	0xbcbd61ff	-0.023118017
22	0x3da5ebc3	0.081016086
23	0xbd52491c	-0.051339254
24	0x3ea72fb8	0.32653594
25	0xbdcbb0ec	-0.099458545
26	0xbdb11508	-0.086465895
27	0x3d99be0d	0.075069524
28	0xb920ceb0	-0.00015335786
29	0x3d6770f5	0.05650421
30	0x3d148a11	0.036264483
31	0xbe395e30	-0.18102336
32	0xbd98dec5	-0.07464365
33	0x3e5478f6	0.20749268
34	0x3e3b63e6	0.18299827
35	0x3eb1f067	0.34753725
36	0xbcb43976	-0.022000056
37	0x3dc412f7	0.0957393
38	0x3d0bacb7	0.03410026
39	0xbe3df4bf	-0.18550394
40	0xbe745f5c	-0.23864502
41	0xbd799508	-0.060933143
42	0x3e5e0e8e	0.2168524
43	0x3ceb136f	0.02869579
44	0xbd56a4b0	-0.052403152
45	0x3d692048	0.05691555
46	0xbe3f94d6	-0.1870912
47	0xbd66d000	-0.056350708
48	0x3e55b908	0.20871365
49	0xbd7b21f8	-0.061311692

mlp.4.weight f4 [50, 50]
0	0xbc5e64ec	-0.013573866
1	0xbd94d983	-0.072680496
2	0x3e4363a7	0.19080983
3	0x3e4fa775	0.20278724
4	0x3d826a16	0.063678905
5	0x3d105f31	0.03524703
6	0x3d30069c	0.042975053
7	0xbe31be80	-0.17357826
8	0x3e3731af	0.17890047
9	0x3e0495fd	0.12947841
10	0x3d94a7fb	0.07258602
11	0xbe4e2952	-0.2013295
12	0x3d87cb24	0.06630543
13	0xbc110afe	-0.008852718
14	0x3dde4dc2	0.10854675
15	0xbdb36a59	-0.087605186
16	0xbbf88bfa	-0.007585046
17	0x3ddeb65f	0.10874628
18	0xbd6a5fa5	-0.05722012
19	0x3de55465	0.111977376
20	0x3e6e417b	0.23267166
21	0xbda631c6	-0.08114962
22	0xbde88ea0	-0.113553286
23	0x3dd70d48	0.1050058
24	0x3b44ea36	0.0030046827
25	0x3d74e3d9	0.059787605
26	0x3cdb40c8	0.026764289
27	0x3d160bc4	0.036632314
28	0xbd955ef8	-0.072935045
29	0x3dac43b8	0.08411354
30	0x3b0c0de5	0.0021370586
31	0x3e391080	0.180727
32	0xbd19c974	-0.037545636
33	0xbc57bc18	-0.013167404
34	0xbd383465	-0.044971842
35	0x3c570e6e	0.013125999
36	0x3daf74b5	0.08567182
37	0x3e3c8e6b	0.18413703
38	0x3d1af66f	0.037832674
39	0xbd41f54f	-0.047353085
40	0x3da0b04c	0.07846126
41	0x3c98d66e	0.018656936
42	0x3dd3b86a	0.103379086
43	0xbd9c8c82	-0.07643987
44	0x3c543041	0.012950958
45	0xbd841afa	-0.06450458
46	0xbe4c96ae	-0.19979355
47	0x3d08f7ba	0.033439375
48	0x3d8e781d	0.069565035
49	0xba104a2e	-0.00055042177
50	0xbe06bcec	-0.13158005
51	0xbc61c3df	-0.013779609
52	0xbc0fc132	-0.008774089
53	0x3c5ad6d8	0.013356887
54	0xbe026f69	-0.12737812
55	0xbab53a9a	-0.0013826669
56	0xbe032b31	-0.12809445
57	0x3dc3d77f	0.09562587
58	0xbbfa1133	-0.007631445
59	0x3e0d2a6c	0.13785714
60	0xbbac583d	-0.0052595423
61	0xbd967c36	-0.0734791
62	0xbe0e66f6	-0.13906464
63	0x3d4453c1	0.047931436
64	0xbd8f8a1c	-0.07008764
65	0x3d094740	0.033515215
66	0xbdd4a059	-0.103821464
67	0x3dd76b48	0.10518509
68	0xbc2315bd	-0.009953913
69	0xbde1d370	-0.11026657
70	0x3d52b786	0.051444553
71	0xbe0a3d89	-0.13500036
72	0x3d6514ef	0.055928167
73	0x3d980d4e	0.07424413
74	0x3cfd724e	0.030938294
75	0xbcc26c79	-0.023733364
76	0xbd6659a6	-0.05623784
77	0x3dd66f34	0.10470429
78	0xbd01a1f0	-0.031648576
79	0xbd9ccfa2	-0.0765679
80	0xbdcf2a0b	-0.10115441
81	0xbd45215c	-0.048127517
82	0x3d91b31a	0.07114239
83	0x3dae8ad5	0.08522574
84	0xbcc09180	-0.02350688
85	0xbdababf2	-0.08382405
86	0xbd19c255	-0.037538845
87	0x3dfe950d	0.12430773
88	0xbdca3c7d	-0.098748185
89	0xbd0f5a11	-0.034998003
90	0xbcf3dff4	-0.029769875
91	0x3aac2a9f	0.0013135261
92	0xbd008df7	-0.03138539
93	0xbdeefdbd	-0.116694905
94	0x3d600d83	0.054700386
95	0xbdd6089c	-0.10450861
96	0x3d7f2522	0.062291272
97	0x3ceb32c2	0.028710727
98	0xbc2335af	-0.00996153
99	0x3dcd3292	0.10019411
100	0x3dfd2f52	0.12362541
101	0x3c04c88d	0.008104456
102	0x3d8a7c66	0.06762008
103	0x3dc0dbfc	0.09416959
104	0xbcfc6ea5	-0.030814478
105	0xbdcc6153	-0.099795006
106	0xbbfe3e73	-0.0077589094
107	0x3d8839cf	0.06651651
108	0x3dcea631	0.10090292
109	0x3cef6811	0.029224427
110	0x3db7faa4	0.08983353
111	0xbd605e9e	-0.054777734
112	0xbdc4eff4	-0.0961608
113	0x3c69a31b	0.014260079
114	0x3c3e306f	0.011608227
115	0x3c0a5691	0.008443491
116	0x3d86408b	0.06555279
117	0xbcc4efa0	-0.024040043
118	0x3d228c28	0.039684445
119	0x3dc09136	0.09402697
120	0xbe036989	-0.12833227
121	0x3da2004f	0.07910215
122	0xbdd7f7dc	-0.10545322
123	0x3cf01a4d	0.029309416
124	0xbdc61c7f	-0.09673404
125	0x3c9d439e	0.019197281
126	0xbe04de99	-0.1297554
127	0x3d52c752	0.051459618
128	0xbcd002ae	-0.025391903
129	0xbd9da92e	-0.07698284
130	0xbe0063a4	-0.1253801
131	0xbdc0bed7	-0.094114
132	0x3da3ac38	0.079918325
133	0x3db9f076	0.090790674
134	0x3d748c48	0.059704095
135	0xbdfd1fc0	-0.123595715
136	0x3dbaa145	0.09112791
137	0xbd325646	-0.043539308
138	0x3d9cca59	0.07655782
139	0xbdea9b7b	-0.11455437
140	0xbe13eb10	-0.14445138
141	0x3df981d4	0.12182966
142	0xbdd69e79	-0.10479445
143	0x3dbe3d06	0.09288983
144	0x3d80b9a4	0.06285408
145	0xbddcfc29	-0.10790283
146	0xbdfc3952	-0.123156205
147	0x3c3aa748	0.011392422
148	0xbddea73d	-0.10871742
149	0xbd36ead8	-0.04465756
150	0xbcd0735f	-0.025445638
151	0x3d524f14	0.051344946
152	0x3ba5abfc	0.0050559025
153	0x3dc414cc	0.09574279
154	0xbdb7ea39	-0.08980221
155	0xbda5d1ca	-0.08096655
156	0xbdd2d834	-0.10295144
157	0xbda62c57	-0.08113926
158	0x3daca1be	0.084292874
159	0xbde4eba7	-0.111777596
160	0xbdc2af5f	-0.09506106
161	0xbde61568	-0.11234552
162	0xbbfd6fe1	-0.0077342843
163	0xbe086ea3	-0.13323455
164	0xbdf8b6ee	-0.12144266
165	0xbd62c1d8	-0.055360645
166	0x3d946144	0.072451144
167	0xbdd0242b	-0.101631485
168	0x3d95712d	0.07296977
169	0xbdfb6001	-0.12274171
170	0x3d914836	0.07093851
171	0xbe103f33	-0.14086609
172	0xbc55c183	-0.013046625
173	0x3df6c9fd	0.12050245
174	0xbdf83227	-0.12118941
175	0x3cf382ff	0.02972555
176	0xbbc73c0a	-0.0060801553
177	0x3d25c8fe	0.040474884
178	0xbd959d28	-0.07305366
179	0x3d4977aa	0.049186386
180	0x3db6177d	0.08891199
181	0xbdf05aea	-0.117360905
182	0x3def75bc	0.11692378
183	0x3d6d2aea	0.057902254
184	0xbde397ea	-0.1111296
185	0xbb4b81a6	-0.0031052618
186	0xbcf7dc56	-0.030256432
187	0x3d827a40	0.063709736
188	0xbd1bc63e	-0.038030855
189	0x3dd3ff3a	0.10351415
190	0xbdede0a8	-0.116151154
191	0xbe036695	-0.128321
192	0xbe0ef1f1	-0.13959481
193	0xbc427080	-0.011867642
194	0x3c291afd	0.010321376
195	0xbd67224f	-0.056429204
196	0x3d7c76e3	0.061636817
197	0xbdef4eaa	-0.11684926
198	0x3d92b1e1	0.07162834
199	0xbd1d9cd7	-0.038479652
200	0x3d408606	0.047002815
201	0x3d2116dd	0.039328445
202	0x3e18852e	0.14894554
203	0xbdbebdb7	-0.09313529
204	0x3c98fb67	0.018674565
205	0x3da882fb	0.082281075
206	0x3d426a53	0.04746468
207	0x3d89acb0	0.06722391
208	0xbba3545c	-0.0049844217
209	0xbe0e244d	-0.13881035
210	0xbe08bfb4	-0.13354379
211	0xbd3a72e2	-0.045519717
212	0xbe093e91	-0.13402773
213	0xbd8e1d13	-0.06939139
214	0xbc4e8075	-0.012603869
215	0x3dfa2f3a	0.12216039
216	0x3d1b7c6c	0.037960455
217	0x3dc207f2	0.09474172
218	0x3c052bc2	0.008128108
219	0xbd8e19dd	-0.06938527
220	0xbe002e2d	-0.12517615
221	0x3da2c10e	0.079469785
222	0x3e010d29	0.12602676
223	0xbdb0006d	-0.08593831
224	0x3e00a832	0.12564161
225	0x3d818d1b	0.06325742
226	0xbdc0bce8	-0.09411031
227	0xbdc893a9	-0.09793789
228	0x3e0b8595	0.13625176
229	0xbe021d07	-0.12706386
230	0x3dfd23f4	0.12360373
231	0x3ca235be	0.019801017
232	0xbdd629fc	-0.10457227
233	0xbcec6992	-0.028858934
234	0xbc3f7518	-0.011685632
235	0xbe22a1c7	-0.15882026
236	0xbd2250f0	-0.03962797
237	0x3cd3aa43	0.025838023
238	0x3e01ff07	0.12694941
239	0x3de568da	0.112016395
240	0x3e178803	0.14797978
241	0xbd4aae34	-0.04948254
242	0xbd6f6e44	-0.058454767
243	0x3dd49054	0.10379091
244	0xbd52e376	-0.051486455
245	0xbcee6709	-0.029101865
246	0xbd67cd90	-0.056592524
247	0x3cfbc772	0.030734751
248	0x3e069236	0.13141713
249	0xbdb56f0a	-0.0885907
250	0x3c5c064b	0.013429235
251	0x3e0f88ed	0.14017077
252	0xbe55de90	-0.20885682
253	0xbd3eb38c	-0.046557948
254	0x3dcc43aa	0.099738434
255	0xbe104b70	-0.14091277

mlp.4.bias f4 [50]
0	0xbd7ba486	-0.0614362
1	0xbddef8a4	-0.10887268
2	0xbe00dad1	-0.12583472
3	0xbd95a988	-0.07307726
4	0xbe0d3bc6	-0.13792333
5	0x3e82c6a3	0.25542173
6	0xbe01720e	-0.12641165
7	0x3dbf333a	0.093359426
8	0xbe11efd1	-0.14251639
9	0xbc16d516	-0.009206077
10	0x3ea713fa	0.32632428
11	0xbd8f1c14	-0.06987777
12	0xbd8c5fe2	-0.06854226
13	0xbd4c13f2	-0.04982371
14	0x3d74e804	0.05979158
15	0x3dde6819	0.10859699
16	0x3c684c04	0.01417828
17	0xbe0d2b9c	-0.13786167
18	0x3e666ed0	0.22503209
19	0x3d107fb9	0.035278056
20	0x3c5ca9f3	0.013468253
21	0xbd3e59ff	-0.046472546
22	0x3cfe6869	0.031055646
23	0xbe0cfbba	-0.13767901
24	0x3c872021	0.016494812
25	0xbe851b07	-0.25997183
26	0x3cec030e	0.02881005
27	0x3dcb582b	0.09928926
28	0xbdceaaaa	-0.10091145
29	0x3e1cc245	0.15308483
30	0xbe0a9763	-0.13534312
31	0x3eafb849	0.34320286
32	0x3ef552b2	0.47914654
33	0x3e49fc3d	0.19725128
34	0x3e5b5d00	0.21422195
35	0xbd7b5ee2	-0.061369784
36	0x3b095783	0.0020956702
37	0xbd8d3ac2	-0.06895973
38	0x3d5225ee	0.051305704
39	0xbd002d4c	-0.0312932
40	0xbdf458b1	-0.11930979
41	0xbc3a9364	-0.01138768
42	0x3efc618b	0.4929317
43	0xbc2fccb1	-0.010729955
44	0xbdee7c11	-0.116447575
45	0xbd6027a5	-0.054725308
46	0x3d220560	0.039555907
47	0xbdd9be54	-0.10632005
48	0x3e1cfcd8	0.15330827
49	0x3e5b4433	0.21412735

mlp.6.weight f4 [1, 50]
0	0x3ed952ea	0.4244607
1	0x3d729bb8	0.059230536
2	0xbdb179fc	-0.08665845
3	0x3df53906	0.11973767
4	0x3e7e5530	0.24837184
5	0xbefe4c04	-0.4966737
6	0xbe4e4d91	-0.20146777
7	0x3eb02d80	0.34409714
8	0x3fa01586	1.2506568
9	0x3e12b037	0.14325033
10	0x3f4e1ab5	0.805095
11	0x3ee988bb	0.4561213
12	0xbe33fdc9	-0.1757728
13	0x3e9e8ec9	0.3096831
14	0x3e07a77c	0.13247484
15	0xbe5cf0c3	-0.21576218
16	0x3d7b092c	0.061288044
17	0xbd9d8e02	-0.076931015
18	0xbe8d13a3	-0.27554044
19	0x3d16d217	0.03682145
20	0x3f459a5f	0.77188677
21	0xbe2e115b	-0.16998808
22	0x3d6880ea	0.056763567
23	0xbccc0534	-0.024904825
24	0x3d325ac5	0.043543596
25	0x3e964744	0.29351246
26	0xbf042a86	-0.51627386
27	0xbd44f821	-0.048088197
28	0xbbe20c97	-0.0068984735
29	0xbe95b4fe	-0.2923965
30	0x3ec936a2	0.39299494
31	0xbf58eff1	-0.8474112
32	0xbf86ddd5	-1.0536448
33	0xbf4371d7	-0.7634558
34	0x3f4bb429	0.7957178
35	0xbddea860	-0.10871959
36	0x3e79d593	0.24397878
37	0xbd96a18f	-0.073550336
38	0xbe40b2bc	-0.18818182
39	0xbd85da76	-0.06535809
40	0x3e975c4f	0.29562613
41	0xbc453b31	-0.012038038
42	0xbf8f7527	-1.1207627
43	0x3ed29de4	0.41136086
44	0x3e154b4a	0.14579502
45	0xbda62ef5	-0.08114425
46	0xbee7ebda	-0.45297128
47	0xbcd56e75	-0.026053647
48	0x3eaccafe	0.3374862
49	0x3f206ceb	0.62666196
