models/weights_bak/layers_200_lr_0.001.pt (torch, 28071 bytes, 3 tensors)

mlp.0.weight f4 [200, 31]
-0.16360678 0.040072206 -0.15966119 -0.11895577 -0.014273277 0.0006633121 -0.035403147 -0.16402616
-0.7259279 0.006695473 0.20529935 0.17106062 0.005886464 -0.05041477 0.0031537442 -0.08092136
-0.18449816 -0.105908275 -0.033314925 0.23028344 -0.052631 0.12400265 0.047520842 -0.063163884
0.077316664 -0.10192513 -0.0129422005 -0.06698481 -0.0876463 -0.014308522 0.19595852 -0.014227839
0.20133299 -0.10667856 -0.18496051 -0.026155116 -0.1445358 -0.048530743 0.12906899 -0.0062058335
0.26217914 0.00086092646 0.11303975 -0.008232634 -0.36563972 -0.035378143 -0.13756093 0.11963246
0.17242704 -0.13320017 -0.04115947 -0.021194648 0.0017490854 -0.08813348 0.10903003 0.16070838
0.04652166 0.048130184 -0.1293596 -0.20563245 -0.087331265 -0.08851685 -0.45831937 -0.0019453547
-0.058978528 0.080479555 -0.115598835 -0.023902668 0.10485871 0.11123758 0.028853495 -0.59157884
0.14939052 -0.17512417 -0.01941578 0.015109259 -0.025657712 0.06868041 0.0032237056 0.13299349
-0.0446242 -0.04105587 0.07531158 0.058719106 0.096508905 -0.03200922 -0.033731945 -0.17559311
0.031093137 -0.2858375 -0.23933382 -0.0809326 0.051713377 -0.11817071 0.14155842 0.036837894
0.16747855 -0.020672949 0.061494086 -0.14146452 -0.12431109 -0.10237991 -0.074989215 0.14418605
0.054534186 0.087745674 0.07596564 0.066405945 -0.007398803 0.008518906 -0.13021009 -0.1293114
-0.014151071 -0.105989225 -0.13661987 0.10427722 0.084470116 0.15407166 0.06990326 -0.17425126
-0.117462434 0.03258124 -0.026619261 0.12974899 0.0533776 0.034133423 -0.04559006 0.048543975
0.030229826 -1.3901861 -0.015953522 -0.16138001 -0.14946471 0.046655282 0.29603413 -0.4202251
0.107767224 0.005595749 -0.021614676 -0.027740328 -0.20719317 0.045471974 0.1177677 0.0075960695
0.030039817 0.035756648 0.074705355 -0.2124745 0.21110748 -0.015442203 -0.46392858 -0.25743416
0.028117368 0.17110275 -0.40720174 -0.2537961 -0.0060511692 -0.1527394 -0.19355497 -0.14247994
-0.018938651 -0.195445 -0.11263925 -0.062294215 0.024908908 -0.07630486 -0.119285695 0.10135869
-0.024664732 -0.042463187 0.101164564 -0.051232338 0.072282456 -0.13740765 -0.065487444 0.13798648
-0.13938607 -0.009209144 -0.0396928 0.15705998 -0.03613333 0.016251158 -0.03564694 -0.1781544
-0.046155848 0.042965498 0.16196908 -0.029493384 0.008076155 0.13142763 0.00348449 -0.0435713
0.09579987 -0.06499542 -0.04803748 -0.11701342 0.13599102 -0.12985735 0.13260682 0.14155255
-0.08119051 0.09203832 0.024087593 -0.013750469 0.17801638 0.038994174 0.056186922 -0.113648
-0.1872493 -0.023976196 0.06531004 -0.05207352 -0.037330512 -0.10764665 0.046233956 0.15259533
0.15006384 0.00802956 -0.10185233 -0.055382848 0.17642894 -0.049033023 -0.0006565039 0.105749115
-0.044778276 0.19341627 -0.09439173 0.09329479 -0.0103571275 0.21856695 -0.18709347 0.07449366
0.1606523 0.048494995 0.11038542 0.06880984 0.08009966 0.1298649 -0.16302775 0.09559749
-0.12258099 0.12674303 -0.08048939 -0.14382368 0.012552376 0.18672399 -0.10070803 -0.011693977
0.13524382 -0.27377477 -0.08619549 0.27561465 0.12895381 -0.046145078 0.052427948 0.19560382
00000000: 8988 27be c122 243d 397e 23be 159f f3bd
00000010: 76da 69bc 1fe2 2d3a e402 11bd 79f6 27be
00000020: 69d6 39bf b365 db3b fe39 523e 842a 2f3e
00000030: 3de3 c03b b87f 4ebd 0caf 4e3b 19ba a5bd
00000040: 16ed 3cbe 70e6 d8bd 3b75 08bd 6ccf 6b3e
00000050: 9a93 57bd 1af5 fd3d 37a5 423d 115c 81bd
00000060: 3358 9e3d 1fbe d0bd 860b 54bc 552f 89bd
00000070: e77f b3bd 4b6e 6abc 5aa9 483e e21b 69bc
00000080: 3c2a 4e3e 4a7a dabd 4a66 3dbe 4143 d6bc
00000090: 3101 14be 2cc8 46bd a92a 043e 4e5a cbbb
000000a0: 583c 863e ccaf 613a 6281 e73d 2be2 06bc
000000b0: 2135 bbbe ace8 10bd c6dc 0cbe dd01 f53d
000000c0: b790 303e a065 08be d596 28bd 66a0 adbc
000000d0: 9141 e53a 537f b4bd 234b df3d bd90 243e
000000e0: 7f8d 3e3d 2824 453d d876 04be 5091 52be
000000f0: bcda b2bd 5248 b5bd d6a8 eabe 46fb feba
00000100: 7893 71bd 77d2 a43d 15bf ecbd 87cf c3bc
00000110: 2ac0 d63d 87d0 e33d 2a5e ec3c b671 17bf
00000120: d4f9 183e c053 33be d80d 9fbc d38c 773c
00000130: 1f30 d2bc 51a8 8c3d ce44 533b 722f 083e
00000140: ddc7 36bd 332a 28bd f53c 9a3d 7283 703d
00000150: 76a6 c53d 1a1c 03bd 822a 0abd aece 33be
00000160: 09b7 fe3c 4b59 92be ed13 75be febf a5bd
00000170: 68d1 533d 7c03 f2bd b1f4 103e 55e3 163d
00000180: 7f7f 2b3e 515a a9bc 39e1 7b3d 13dc 10be
00000190: d096 febd 8fac d1bd f293 99bd 82a5 133e
000001a0: 3d5f 5f3d 01b4 b33d e093 9b3d d7ff 873d
000001b0: a871 f2bb e292 0b3c cb55 05be 356a 04be
000001c0: e5d9 67bc e110 d9bd 14e6 0bbe 4c8f d53d
000001d0: abfe ac3d f6c4 1d3e 7129 8f3d ec6e 32be
000001e0: 2590 f0bd e873 053d a310 dabc ebdc 043e
000001f0: 78a2 5a3d 7dcf 0b3d a5bc 3abd 0cd6 463d
00000200: 8aa4 f73c 9ef1 b1bf f6b0 82bc cd40 25be
00000210: 470d 19be 9c19 3f3d c991 973e bf27 d7be
00000220: 10b5 dc3d 8b5c b73b 4311 b1bc af3f e3bc
00000230: 722a 54be d240 3a3d 3130 f13d 73e8 f83b
00000240: 1016 f63c 9075 123d 1fff 983d ea92 59be
00000250: 8f2c 583e 4b01 7dbc 0c88 edbe 69ce 83be
00000260: 6556 e63c 8f35 2f3e bf7c d0be 90f1 81be
00000270: e348 c6bb b867 1cbe 4633 46be 43e6 11be
00000280: 3b25 9bbc bc22 48be 68af e6bd 3828 7fbd
00000290: c40d cc3c b945 9cbd 0f4c f4bd 2595 cf3d
000002a0: b10d cabc e1ed 2dbd 5e2f cf3d 00d9 51bd
000002b0: d308 943d 97b4 0cbe 481e 86bd 544c 0d3e
000002c0: 39bb 0ebe f3e1 16bc eb94 22bd 55d4 203e
000002d0: 8b00 14bd 2621 853c 8702 12bd 1b6e 36be
000002e0: ea0d 3dbd 97fc 2f3d 39db 253e 1c9c f1bc
000002f0: d951 043c f794 063e 0b5c 643b d277 32bd
00000300: b932 c43d 521c 85bd f3c2 44bd bba4 efbd
00000310: 3b41 0b3e 53f9 04be 15ca 073e 27f3 103e
00000320: 3647 a6bd 967e bc3d 5853 c53c a649 61bc
00000330: ed49 363e 5bb8 1f3d 4224 663d 48c0 e8bd
00000340: 48be 3fbe ba69 c4bc 45c1 853d 0b4b 55bd
00000350: e1e7 18bd d975 dcbd d15f 3d3d f341 1c3e
00000360: 56aa 193e 6a8e 033c f497 d0bd 20d9 62bd
00000370: caa9 343e dad6 48bd 3b19 2cba fe92 d83d
00000380: 6d69 37bd ea0e 463e 7450 c1bd 5711 bf3d
00000390: f1b0 29bc 04d0 5f3e 6e95 3fbe 2290 983d
000003a0: 0982 243e b0a2 463d c011 e23d 2cec 8c3d
000003b0: 4a0b a43d 4efb 043e bff0 26be 9ec8 c33d
000003c0: be0b fbbd edc8 013e 9fd7 a4bd 8446 13be
000003d0: 7ba8 4d3c 9334 3f3e 0340 cebd 1898 3fbc
000003e0: 5b7d 0a3e 352c 8cbe 4387 b0bd 5d1d 8d3e
000003f0: 780c 043e 9f02 3dbd b0be 563d 5e4c 483e

mlp.0.bias f4 [200]
-0.14800905 0.06774057 -0.3680863 -0.08702939 -1.1983545 -0.15861614 0.0049264873 0.01908593
-0.004624195 -0.04690177 0.14489889 -0.092062876 0.109225765 -0.1930978 -0.2509473 -0.0014943265
-0.182938 -0.17498729 0.05369143 -0.4423836 0.058639955 -0.0016928103 -0.12524457 -0.31836057
0.12950148 0.040944844 -0.15325522 -0.011861383 0.018585475 -0.08357057 -0.38892713 0.24378656
-0.081346974 0.19741455 0.16129443 0.057262577 0.04954685 0.12699927 -0.0029120431 -0.10852008
0.11593575 0.12339924 -0.058853395 0.13890219 -0.3573976 -0.28735766 0.13055578 0.01824174
0.25927886 -0.007998799 0.10165801 0.16209105 0.27085552 -0.189683 0.057122193 0.1482092
-0.094424814 -0.1710736 0.16540729 0.061732393 0.14732294 -0.15603213 -0.15519826 -0.020752471
-0.3243572 -0.061753105 0.13261977 -0.058111068 0.005401171 -0.06275595 0.04804854 0.09049251
-0.7907015 -0.016302845 0.14581303 -0.005859699 0.00044286175 0.1663494 0.11022572 -0.015217418
-0.07810532 -0.15593566 -0.1163438 0.06631978 -0.17895217 -0.25419456 -0.04074255 -0.18755358
-0.10004108 -0.19730584 -0.17972541 -0.026861662 -0.052357607 0.18429428 0.03530287 -0.2806383
0.17559709 -0.049266923 -0.186708 0.024685789 0.029468289 0.080535404 -0.061810587 0.098281056
-0.096141994 -0.56025374 -0.18025829 -0.105244026 -0.30118445 -0.048413806 0.004541317 -0.04093144
-0.20924333 -0.0209148 0.032333314 0.034776356 -0.11431534 0.0126570035 0.028746475 0.20260666
0.049183775 -0.2057225 -0.0756791 0.26471812 0.03780288 -0.14151016 0.09981528 0.02482568
0.17843042 -0.049037274 -0.13273671 0.1486181 0.17525707 -0.09821848 0.13127951 0.06280845
0.27167395 0.16923098 -0.047820378 0.123782344 -0.113562495 0.10273626 0.09213443 0.18295115
-0.07643103 -0.23599601 -0.34859675 -0.21646313 -0.14330555 0.1595923 0.06275091 -0.0050625084
0.102480724 -0.2201822 0.057880517 0.21542239 -0.16471916 0.0046943044 -0.1273236 0.13844487
0.08850182 0.058535855 -0.10035112 -0.1623817 0.0937939 -0.07575794 0.2131266 0.017871931
0.060827676 0.21896471 0.049209625 0.1858251 0.03630632 -0.093288474 -0.028607726 -0.050638232
-0.15398777 0.11123639 0.26565167 -0.17174564 0.13919245 -0.064381614 -0.16711108 0.052225836
0.03798489 -0.37300673 0.10335216 -0.0149738835 -0.027367996 -0.05854921 -0.096564755 -0.19455248
-0.027352145 -0.11209129 0.27650297 -0.56881994 0.14709406 -0.122786544 0.09426238 0.19539343
00000000: af8f 17be 91bb 8a3d cf75 bcbe 773c b2bd
00000010: ae63 99bf 456c 22be 5f6e a13b 195a 9c3c
00000020: 8f86 97bb 121c 40bd 6060 143e 768b bcbd
00000030: c2b1 df3d 6ebb 45be 2a7c 80be 47dd c3ba
00000040: 1954 3bbe de2f 33be 8beb 5b3d 1a80 e2be
00000050: 7330 703d 4ae1 ddba 1d40 00be 2800 a3be
00000060: 099c 043e c8b5 273d f0ee 1cbe 3f56 42bc
00000070: 9140 983c 0c27 abbd 7521 c7be 2fa3 793e
00000080: 3e99 a6bd 0a27 4a3e 5e2a 253e 2a8c 6a3d
00000090: a3f1 4a3d 190c 023e fad7 3ebb c73f debd
000000a0: b96f ed3d beb8 fc3d 4210 71bd 603c 0e3e
000000b0: d1fc b6be 8b20 93be 6ab0 053e b46f 953c
000000c0: 33c0 843e 650d 03bc 1332 d03d 32fb 253e
000000d0: 93ad 8a3e 433c 42be f6f8 693d 27c4 173e
000000e0: cc61 c1bd eb2d 2fbe 8760 293e 1bdb 7c3d
000000f0: d3db 163e e3c6 1fbe 4bec 1ebe 1601 aabc
00000100: 2612 a6be d3f0 7cbd 7acd 073e df05 6ebd
00000110: 4efc b03b 3186 80bd 8cce 443d 2354 b93d
00000120: 6a6b 4abf 8b8d 85bc 0350 153e b802 c0bb
00000130: e62f e839 7f57 2a3e 06be e13d 7a52 79bc
00000140: aff5 9fbd 99ad 1fbe a945 eebd aad2 873d
00000150: 3d3f 37be ca25 82be a9e1 26bd 0c0e 40be
00000160: 56e2 ccbd 8b0a 4abe f009 38be fd0c dcbc
00000170: ee74 56bd a4b7 3c3e be99 103d d3af 8fbe
00000180: b9cf 333e 1dcc 49bd 6230 3fbe da39 ca3c
00000190: 7b67 f13c bfef a43d 192d 7dbd 9447 c93d
000001a0: 18e6 c4bd ca6c 0fbf a195 38be 2e8a d7bd
000001b0: d934 9abe 8e4d 46bd 54cf 943b baa7 27bd
000001c0: e243 56be 8455 abbc f06f 043d a771 0e3d
000001d0: 291e eabd 525f 4f3c ba7d eb3c 1f78 4f3e
000001e0: ed74 493d eba8 52be a5fd 9abd 2289 873e
000001f0: 31d7 1a3d 0ae8 10be f46b cc3d 395f cb3c
00000200: 77b6 363e 4fdb 48bd 22ec 07be 582f 183e
00000210: 9776 333e c526 c9bd 236e 063e b7a1 803d
00000220: d918 8b3e e34a 2d3e 4ddf 43bd 9981 fd3d
00000230: 7493 e8bd 6367 d23d fab0 bc3d 8c57 3b3e
00000240: df87 9cbd f0a8 71be 467b b2be 83a8 5dbe
00000250: b1be 12be 2a6c 233e 8d83 803d 66e3 a5bb
00000260: 6ae1 d13d 7177 61be 1f14 6d3d b097 5c3e
00000270: 24ac 28be aed2 993b 1e61 02be 7ec4 0d3e
00000280: 7140 b53d 4bc3 6f3d e384 cdbd 6347 26be
00000290: 0417 c03d fb26 9bbd dc3d 5a3e 2868 923c
000002a0: 7126 793d 4938 603e 0890 493d ef48 3e3e
000002b0: f0b5 143d 070e bfbd c05a eabc 096a 4fbd
000002c0: f8ae 1dbe e8cf e33d 7f03 883e 17de 2fbe
000002d0: 7788 0e3e 82da 83bd 2b1f 2bbe c2ea 553d
000002e0: 0b96 1b3d bdfa bebe 4caa d33d 0555 75bc
000002f0: d932 e0bc 4cd1 6fbd bec3 c5bd c438 47be
00000300: 9b11 e0bc 1e90 e5bd cc91 8d3e 2f9e 11bf
00000310: d39f 163e 8377 fbbd a20c c13d 3715 483e

mlp.2.weight f4 [1, 200]
-0.64118034 -0.4412769 -0.79161584 0.102867715 1.891926 -0.36145088 -0.014773191 0.31977597
-0.49584028 -0.5520004 0.20396303 -0.21406628 0.2884109 -0.3582488 0.36429965 -0.09786042
0.26246792 -0.44901568 0.06131915 -0.82380056 0.48944727 0.18136604 -0.033736 -0.5382206
-0.11313459 -0.42106465 0.40693465 -0.20730036 0.9436837 0.56632066 0.55684733 -0.51286364
0.13630176 -0.30362678 0.12702402 0.5475361 0.08197473 0.8952611 -0.36026067 -0.25191966
-0.19215003 0.26202485 0.5822912 -0.27684268 -0.40742522 -0.71649843 -0.08533165 0.7750969
-0.41376168 -0.01948628 -0.47508192 0.7454821 0.31456026 -0.38590795 0.27306917 -0.5061501
-0.40819782 0.11998619 -0.2147697 -0.31864676 0.5694015 2.212988 1.9601561 0.34736443
0.74770296 -0.40905887 0.24443951 -0.5017438 -0.09515156 -0.10670549 0.5100444 -0.29242575
-1.296095 0.39035064 -0.2556825 0.6225249 -0.5581863 -0.20637324 0.17661668 0.50469834
0.6449412 0.4364682 1.392159 0.39840075 0.50458425 -0.40758178 -0.3248393 0.48462588
-0.33468056 0.3261072 0.40130118 -0.5798302 -0.0785835 0.45080903 0.31457496 0.72954696
0.0358912 -0.3659606 0.46121818 -0.48750576 -0.3156211 0.21789591 -0.37620175 -0.42795363
-0.27462718 1.1115985 -0.36804616 0.4046911 -0.630541 0.56674165 -0.36362076 0.16400197
0.3462569 -0.35846385 -0.21908054 -0.4138689 0.17114834 0.54432225 0.46421966 0.21711797
0.6243797 -0.26013803 -0.44637403 -0.5866828 -0.37717387 0.16607738 -0.112992994 0.13949095
-0.5708141 -0.18143372 0.3913634 -0.4982107 0.3277425 -0.34789816 -0.06779129 0.6918181
-0.43518212 0.3711823 0.1988589 0.1506989 -0.09064 -0.16491868 -0.28796032 0.2666116
-0.3544829 0.47613117 0.830211 -0.42390266 -0.4742414 -0.2656504 -0.19914705 -0.44651055
-0.32679185 -0.24093987 -0.49972734 1.4570479 0.68592566 -0.26812893 -0.0523781 0.08824797
-0.330548 -0.30478737 0.6764029 0.30314198 0.34881112 0.4109752 0.78230834 -0.38043752
0.31305692 0.5129215 0.24557516 -0.2140685 -0.123342566 0.15095918 -0.5634509 0.61936647
0.41055846 0.41845757 -0.71978694 -0.32619807 -0.20292032 -0.1446738 0.63218075 0.3277806
0.40714127 -0.7236288 0.7378612 -0.28591007 0.052844 -0.056033928 -0.36260676 -0.43244055
0.51371723 -0.20603609 -0.5059721 -1.8379691 -0.3792924 0.5604217 0.14258823 -0.46403268
00000000: 6524 24bf 0cef e1be 56a7 4abf 4fac d23d
00000010: a22a f23f 1710 b9be 410b 72bc adb9 a33e
00000020: c7de fdbe e64f 0dbf afdb 503e 3134 5bbe
00000030: 98aa 933e 636c b7be 7c85 ba3e 0b6b c8bd
00000040: 3262 863e 62e5 e5be ca29 7b3d 98e4 52bf
00000050: d598 fa3e 05b8 393e c32e 0abd d3c8 09bf
00000060: 1cb3 e7bd c995 d7be bd59 d03e 8c46 54be
00000070: 4195 713f 64fa 103f 8c8d 0e3f 084b 03bf
00000080: b092 0b3e f874 9bbe 9612 023e 532b 0c3f
00000090: 5ee2 a73d d52f 653f 1674 b8be 9dfb 80be
000000a0: fac2 44be 1f28 863e 0911 153f 53be 8dbe
000000b0: 0a9a d0be 716c 37bf 5cc2 aebd c06c 463f
000000c0: 92d8 d3be b1a1 9fbc f03d f3be ead7 3e3f
000000d0: 0b0e a13e ba95 c5be b9cf 8b3e 0e93 01bf
000000e0: 4eff d0be 52bb f53d 97ec 5bbe ab25 a3be
000000f0: 4cc4 113f 98a1 0d40 65e6 fa3f c0d9 b13e
00000100: 7669 3f3f 2a70 d1be 5a4e 7a3e 4872 00bf
00000110: d2de c2bd 6888 dabd 4592 023f d4b8 95be
00000120: 71e6 a5bf 0adc c73e d1e8 82be cb5d 1f3f
00000130: 4ce5 0ebf 8253 53be 01db 343e e933 013f
00000140: de1a 253f c378 df3e 4432 b23f 2ffb cb3e
00000150: 6f2c 013f 8fae d0be 5651 a6be e220 f83e
00000160: 405b abbe 86f7 a63e 5977 cd3e c16f 14bf
00000170: 63f0 a0bd 71d0 e63e f80f a13e 97c3 3a3f
00000180: a702 133d 305f bbbe ca24 ec3e 5b9a f9be
00000190: 1799 a1be 1b20 5f3e 849d c0be bd1c dbbe
000001a0: ef9b 8cbe dc48 8e3f 8c70 bcbe ac33 cf3e
000001b0: 236b 21bf fb15 113f 802c babe 22f0 273e
000001c0: 9648 b13e 9388 b7be a656 60be a0e6 d3be
000001d0: 8341 2f3e b458 0b3f 33ae ed3e 2c54 5e3e
000001e0: 59d7 1f3f d030 85be 238b e4be d830 16bf
000001f0: ef1c c1be 3010 2a3e df68 e7bd b7d6 0e3e
00000200: df20 12bf c3c9 39be c960 c83e 7915 ffbe
00000210: ddcd a73e b51f b2be 29d6 8abd fe1a 313f
00000220: 31d0 debe 9b0b be3e aba1 4b3e d050 1a3e
00000230: 77a1 b9bd 71e0 28be 896f 93be 5181 883e
00000240: c87e b5be 77c7 f33e b588 543f c509 d9be
00000250: c5cf f2be 5403 88be 34ed 4bbe 089d e4be
00000260: 4351 a7be f1b8 76be 43dc ffbe 8c80 ba3f
00000270: d398 2f3f 3248 89be 6b8a 56bd 5abb b43d
00000280: 963d a9be 170d 9cbe be28 2d3f 6d35 9b3e
00000290: 5f97 b23e 576b d23e 5c45 483f b5c8 c2be
000002a0: ff48 a03e d34e 033f 0e78 7b3e c634 5bbe
000002b0: 079b fcbd 0b95 1a3e 513e 10bf cd8e 1e3f
000002c0: b834 d23e 1240 d63e f543 38bf 6f03 a7be
000002d0: 58ca 4fbe 5e25 14be 99d6 213f dcd2 a73e
000002e0: d274 d03e bd3f 39bf 79e4 3c3f ce62 92be
000002f0: f372 583d d583 65bd 98a7 b9be d968 ddbe
00000300: f982 033f 20fb 52be 6387 01bf 9242 ebbf
00000310: 9d32 c2be cc77 0f3f a602 123e b195 edbe
