models/weights/layers_20_20_20_lr_0.001.pt (torch, 8953 bytes, 7 tensors)

mlp.0.weight f4 [20, 31]
000000 d7 c4 34 be 3b d0 7a 3e 71 ba 48 3e 04 f8 c2 bd
       -0.17653213 0.24493496 0.19602372 -0.095199615
000010 d7 c4 93 bd 28 f4 8c be 7f eb 65 3d 4c 2b 78 bd
       -0.072152786 -0.27530026 0.05613279 -0.060588166
000020 7b 45 3c 3e 6a e0 82 bd 5a 76 50 bd ba 34 6e 3d
       0.1838588 -0.0639046 -0.05089412 0.058155753
000030 e5 61 37 be 96 56 45 bd 9b c6 b0 bd 88 87 1a 3d
       -0.17908438 -0.048178278 -0.08631631 0.03772691
000040 e2 86 62 3d da 88 d9 3d 12 38 12 bc 4d ea 5d bd
       0.055304416 0.106218055 -0.008924501 -0.054178525
000050 8d 88 3c 3e 29 28 b6 3c 68 62 b3 bc 34 85 0e 3e
       0.18411465 0.022235947 -0.02189751 0.13918
000060 b9 80 9f 3c a0 39 0c be 03 5d c4 bc 6a d9 cf bd
       0.01947056 -0.13693857 -0.023970133 -0.1014889
000070 03 3c b5 3c 64 4b 41 3e 51 df e2 bd 73 97 9c 3d
       0.022123342 0.18876415 -0.110777505 0.07646074
000080 63 db 8c 3b b6 a9 55 3d 48 47 df bd 36 94 a0 3e
       0.004298614 0.052163802 -0.10902268 0.31363076
000090 46 f4 05 be 55 98 9b 3c 91 30 10 3d df fb 71 3e
       -0.13081464 0.018993536 0.035202567 0.23631237
0000a0 ef 27 43 3c 62 64 f3 3c 92 59 42 3e b4 32 00 3c
       0.011911376 0.029710952 0.18979481 0.007824589
0000b0 d0 dd df 3d c0 4a 82 3d 60 99 3c 3e a7 dd 32 be
       0.10930979 0.06361914 0.18417883 -0.17467366
0000c0 e8 95 b2 bd c8 2f 14 be 65 08 7f 3d 9d b3 52 bd
       -0.087199986 -0.14471352 0.062263865 -0.051440824
0000d0 7f be 42 bd 10 0f d3 3d a0 63 3f 3e 6a a9 77 3e
       -0.047544952 0.10305607 0.18690348 0.2418572
0000e0 f3 d2 10 3e 04 a4 a6 3d ea ef 7d 3d 0b d4 74 3d
       0.1414297 0.08136752 0.061996378 0.059772532
0000f0 52 a3 18 3e b2 c8 14 3d da 0b 48 be 04 6c 67 3d
       0.14906052 0.03632421 -0.19535771 0.056499496
000100 ec ae ca 3d 04 f5 a8 bd bf c8 44 3e f2 a8 1f be
       0.09896645 -0.08249858 0.19217204 -0.15591791
000110 31 76 30 be 0d ae d8 3d 56 f5 0c be 36 ba 99 bd
       -0.17232586 0.105800726 -0.13765463 -0.0750622
000120 ad c4 3f bc a1 8a 07 bd 6f 45 11 3c 10 ee 87 3d
       -0.011704606 -0.03309119 0.008866652 0.06637204
000130 a8 da 21 3d a3 85 b8 3d ae fe 4a 3d c6 02 bc 3d
       0.039515167 0.09009864 0.049559288 0.091802165
000140 64 bc e0 bd 65 03 48 3d bd 88 1f bd c0 5d 87 3d
       -0.10973433 0.048831362 -0.038948763 0.06609678
000150 d6 56 08 3e e7 2c 38 3e af 59 84 bc fa dc 8b bd
       0.13314375 0.17985879 -0.016156046 -0.06829257
000160 ab 1d 02 be 3c 02 07 be 94 5e 2d 3d a4 23 d5 3d
       -0.1270663 -0.13184446 0.042326525 0.104071885
000170 21 b2 3f 3d 02 ae 10 3f ff e9 3a 3d f7 36 5e 3c
       0.046800736 0.56515515 0.045633312 0.013562909
000180 12 8b b4 3b 53 40 b1 3e 5d e6 7d be 90 24 68 bd
       0.0055097425 0.34619388 -0.24794908 -0.056675494
000190 04 9a 99 bc 71 ef 8d bd 6c b0 3c 3d 2f 7d 7b 3d
       -0.018750198 -0.069304354 0.046066687 0.06139868
0001a0 df d1 18 bd db b1 31 bc 79 90 91 bc 9e b8 28 ba
       -0.037309524 -0.010845627 -0.017769085 -0.00064362015
0001b0 86 1e c2 bd 20 8f d4 3d e0 03 1e be 17 35 89 3d
       -0.09478478 0.103788614 -0.15431166 0.06699579
0001c0 33 96 b6 bd ca 00 45 bd f5 4d a2 bc 6d f1 37 3d
       -0.08915367 -0.048096456 -0.019812563 0.044907976
0001d0 e8 21 59 3e f1 13 58 be 75 c0 28 be 48 b3 dc 3c
       0.2120434 -0.21101357 -0.16479667 0.026940957
0001e0 26 78 92 3e 1c ce be 3e c6 07 86 be b5 58 bb bd
       0.2860729 0.37266624 -0.26177806 -0.09147779
0001f0 82 1d f5 bc 05 6f ac 3b 1e 83 f9 3d 5f fa 49 3e
       -0.029921297 0.005262258 0.12183212 0.19724415
000200 a7 b8 17 3e f3 97 d9 bd d3 7c 77 bb 7b fb 46 3d
       0.14816533 -0.10624685 -0.003776361 0.048579674
000210 c9 4c 29 3e 88 37 08 be 04 2f 86 3c cb 6e b1 bd
       0.16533197 -0.13302433 0.01637984 -0.0866371
000220 6e bf 2e be 26 c2 8b bd a0 6f 6e bd cb 8c 72 bd
       -0.17065212 -0.0682414 -0.058211923 -0.059216302
000230 e4 ea 77 bd a8 88 2c 3d 6d 58 0d 3e 84 66 34 3e
       -0.060526744 0.042122513 0.13803263 0.17617232
000240 46 56 02 3d 49 a5 19 be 3a 13 33 be 37 93 07 3d
       0.031820558 -0.15004458 -0.17487803 0.03309938
000250 ae 28 08 be 46 2a 01 be d2 ef f0 3d 89 df ae 3c
       -0.13296768 -0.12613782 0.11764492 0.021346824
000260 26 65 15 be f9 4f 55 3d b7 f5 fa 3d 99 17 b3 bc
       -0.14589366 0.05207822 0.12253898 -0.021861838
000270 4c 6e 6c bd 81 ab 65 3d 16 4a a0 3d 40 36 c3 be
       -0.057722375 0.056071762 0.07826631 -0.38127327
000280 f0 4d 0c bf 04 d1 ae bd 8c 4e 35 3d e8 cb 14 bd
       -0.54806423 -0.0853596 0.04426436 -0.036327273
000290 a9 19 8c bd 9f 20 91 3c ea 87 39 3d 57 9f ae bd
       -0.06840832 0.01771575 0.045295633 -0.085264854
0002a0 f9 75 37 3e b6 f1 3c 3d 5b 6c fd bc 81 de bf 3d
       0.17916097 0.04612895 -0.030935457 0.09368611
0002b0 82 c2 33 be f7 c4 2a be 8d d0 0e 3e 46 e9 13 be
       -0.17554668 -0.16676699 0.13946743 -0.14444456
0002c0 1c f1 26 bd fc 3d d4 3d 6d a3 22 3d 98 41 a1 bd
       -0.040757284 0.10363385 0.039706636 -0.07873839
0002d0 7f 8a 6a bc 6e ff 17 be 19 44 b6 bd 3e 62 86 3d
       -0.014315247 -0.14843532 -0.08899707 0.06561707
0002e0 b5 05 f8 3c 12 1a 80 bd 00 e4 ae 3c d1 36 17 be
       0.030276159 -0.062549725 0.021348953 -0.14767005
0002f0 82 b2 e4 bd 8c 00 f0 3b af f4 58 be 45 8b 7f be
       -0.1116686 0.007324284 -0.2118709 -0.24955471
000300 87 49 40 3a 2d 63 15 3e f2 89 18 3e 5f 34 6d 3d
       0.0007335175 0.14588614 0.14896372 0.057911273
000310 34 9b 64 3e fb c9 05 be 01 90 84 3d 13 cd 5e be
       0.2232483 -0.1306533 0.06472779 -0.21757917
000320 15 58 d4 3d 64 0d 9c bc da 95 f4 3d 3e 25 3c be
       0.10368363 -0.019049354 0.119426444 -0.18373582
000330 9d 3d c8 bb 6a e0 9b bd 3b cd 50 3d 25 af 12 3d
       -0.0061108605 -0.07611163 0.050976973 0.035811562
000340 4b 11 bc be d0 a0 3a 3e cc 09 39 be 17 a1 d8 bd
       -0.36731943 0.18225408 -0.18070143 -0.105776004
000350 3a fb 4f 3d 14 7e 13 3c a6 65 7f bc 05 75 42 be
       0.050776698 0.009002227 -0.0155882 -0.18989952
000360 54 4a a3 3e 26 3c 71 3d 79 c8 cc 3d 78 3d 13 bd
       0.31892645 0.058895253 0.099991746 -0.035947293
000370 89 f0 c7 b8 a6 7c 3b bd 1c b7 b0 3e ef f0 7a be
       -9.5338626e-05 -0.04577317 0.345147 -0.24505971
000380 c2 23 c0 be 93 b8 2b 3e 3e d8 00 bd c5 a9 ff bd
       -0.3752728 0.16769628 -0.031456225 -0.12483553
000390 2b 80 28 3e ae 8f 1f be 84 8b af 3d 78 7d 13 3c
       0.16455142 -0.15582153 0.08571532 0.009002082
0003a0 be ae 13 bd b1 0d fb bd 1f c2 27 3d a8 70 a1 bd
       -0.03605532 -0.12258471 0.040956613 -0.078828156
0003b0 f1 13 05 bd 19 71 b2 bc 6d 21 35 bd 33 c7 56 3e
       -0.03248972 -0.021782445 -0.04422133 0.20974426
0003c0 2a 71 ab 3d 91 85 08 3d bd fe 13 be 88 66 37 3e
       0.08371194 0.033330504 -0.14452644 0.17910206
0003d0 8c e9 2c 3d 1a ca 12 3d 8f 6d b5 bd 15 a0 9d bd
       0.042214915 0.03583727 -0.08858787 -0.07696549
0003e0 0c 0f 0f 3d e3 3f b7 bc 44 40 11 3a 89 20 f1 bb
       0.03492646 -0.02236933 0.00055408874 -0.007358615
0003f0 23 8a d7 bf 17 db 0f 40 25 95 62 3c 1e 4e 0f 3d
       -1.6839031 2.2477472 0.013829504 0.034986608

mlp.0.bias f4 [20]
000000 fe 50 e0 bc 3a 61 c0 3e 3d 8d 94 3d 91 22 64 3e
       -0.02738237 0.37574178 0.072535016 0.22278811
000010 37 a3 f3 3d df fc 61 be 65 09 11 bd f6 85 0a 3e
       0.11896365 -0.22069119 -0.03540935 0.13527665
000020 08 8a fa 3e 65 dc f6 bd f9 a8 8f 3e a2 5c 3f 3e
       0.48933434 -0.12053756 0.28058603 0.1868768
000030 ba 81 9e bd bb 91 93 be 94 d7 33 bf 89 52 bd 3d
       -0.07739587 -0.2882212 -0.7025082 0.09244258
000040 aa 87 5d bf 04 07 98 bd 2e 3c 1d 3e b2 9f 93 3d
       -0.8653513 -0.07423213 0.15354988 0.07208194

mlp.2.weight f4 [20, 20]
000000 21 53 7f 3d 0e de 3f 3d b1 7f ed 3d a1 04 a1 3e
       0.062335137 0.046842627 0.11596621 0.31448844
000010 2e 4d 19 3e 22 95 7e be 9a 5f 87 3d ba 28 1e bd
       0.14970848 -0.24861577 0.066100314 -0.03861306
000020 ab 95 06 be d7 ff 22 3e 5b ad 99 bd ec 57 3c 3e
       -0.13143031 0.15917908 -0.07503768 0.18392915
000030 9d fc b4 bc 76 bf e1 bd fc b8 9e be a4 61 53 3e
       -0.022093112 -0.110228464 -0.31000507 0.20642716
000040 cc 07 98 3e 3c 1a 33 bb be 98 19 3e 0c 34 87 be
       0.2969345 -0.002732887 0.14999673 -0.26406896
000050 93 d1 11 bd e9 3f 59 be 5f 88 59 3c ea 30 27 be
       -0.035600256 -0.21215786 0.013277142 -0.16327253
000060 5c c2 72 be 4a 55 09 3e 2c 26 a7 3d 28 6c 5e be
       -0.23706955 0.13411441 0.081615776 -0.21720946
000070 23 51 b2 3e 0f 2b 76 be ca ed 51 bd c1 3c 42 be
       0.34827527 -0.24039863 -0.051252164 -0.18968488
000080 a9 ec 15 bd ea 79 dc 3d 4f a6 09 be f6 89 22 3d
       -0.03660265 0.10765441 -0.13442348 0.03968235
000090 fb bd 7c bd 3c eb 37 3e 84 ba ce 3d 29 e3 a8 ba
       -0.061704617 0.17960829 0.10094169 -0.0012885082
0000a0 0d b3 ea 3c a4 81 32 bd c7 0a bb 3c 75 b2 84 3d
       0.028649831 -0.043580666 0.022832287 0.064793505
0000b0 61 3b 3d 3e e3 96 86 bd 00 9f aa 3d 37 5c e2 3d
       0.18479683 -0.06571748 0.08331108 0.11052745
0000c0 3c 6e a8 bd 69 97 22 3e fc e7 3a be 98 83 49 be
       -0.082241505 0.15878071 -0.18252558 -0.19679105
0000d0 5d 9a 9c 3d a1 a0 ad bb c7 de 1c 3e 23 8c 17 be
       0.0764663 -0.0052986895 0.15319358 -0.14799552
0000e0 84 15 5c 3d 10 e3 10 bd b9 62 c8 3d 88 3d 08 3e
       0.053731456 -0.035372794 0.09784455 0.13304722
0000f0 68 51 e2 be 34 ec 43 ba 7e 81 2f 3e 94 36 13 bc
       -0.44202733 -0.00074738567 0.17139241 -0.00898518
000100 5c 44 8b 3e c3 78 44 3d ae bd 88 3e 02 72 59 3d
       0.27200592 0.04796673 0.26707214 0.053087242
000110 b9 54 fc bd 0c d2 34 3e b7 f9 8f 3d d1 be cf 3e
       -0.12320847 0.17658252 0.07030051 0.4057527
000120 3a 86 ce bd d2 ba fc 3c de 3d 5f be 36 0a ae 3e
       -0.100841954 0.030850802 -0.21800944 0.33992165
000130 b3 6e 1d 3f 7b 9f 0e be 8b e2 fc bc 91 40 4f be
       0.6149704 -0.13928024 -0.030869743 -0.20239474
000140 e5 79 11 3e f9 f0 f5 3d db a1 58 be f6 76 43 be
       0.14206655 0.120088525 -0.21155493 -0.19088349
000150 a6 3d 0f bd b3 f5 a8 bd 30 7c 19 3e eb fe 9c 3d
       -0.034970902 -0.082499884 0.1498878 0.07665809
000160 54 9c 87 3d b0 89 a5 3d e2 56 ba 3c 13 5f f3 bd
       0.06621614 0.080829024 0.022746507 -0.11883368
000170 33 c8 f0 3d ec 88 50 be d2 b7 d5 bd ad bd 4a 3d
       0.11756935 -0.20364732 -0.104354516 0.049497295
000180 33 37 82 3c c0 a0 46 be 28 14 31 be 9a 1f 4b be
       0.015895462 -0.19397259 -0.17292845 -0.19836274
000190 7d 0d 33 3e 2b ef 37 bd aa e4 1a 3e 36 a6 6a 3d
       0.17485614 -0.044905823 0.15126291 0.057287417
0001a0 d2 34 ba bc 5f 4a 53 be a9 a9 55 be 75 62 3a be
       -0.022730265 -0.20633839 -0.20865501 -0.18201621
0001b0 ac e1 35 bd 82 15 c6 bd f4 fc 4a be 4a cc e1 bc
       -0.04440467 -0.09672071 -0.19823056 -0.027563233
0001c0 74 ce 1f be 52 09 6d bc 4c 16 11 3d d4 8e d1 3d
       -0.156061 -0.014467554 0.035421655 0.102323204
0001d0 91 2d bd bb 63 68 ac 3d b8 d6 e2 bd 70 4b 4b be
       -0.005773254 0.08418348 -0.110761106 -0.19852996
0001e0 ba 7b 59 3e 0c f5 33 3d 7b 33 04 bd 51 6e a7 be
       0.21238604 0.043934867 -0.032275658 -0.32701352
0001f0 62 81 1f 3d c4 6b 69 3e c0 32 12 3e 2a 8e 32 be
       0.03894175 0.22795016 0.14277172 -0.17437044
000200 d7 a9 b9 3e aa 5f d8 bd 0c 65 e7 be 44 1a 93 3c
       0.3626239 -0.105651215 -0.4519428 0.01795686
000210 9f 8e e9 bc 84 95 a0 3e 34 aa 62 3e ad a9 d8 bd
       -0.02851039 0.3136407 0.2213524 -0.10579238
000220 5d 5d 1d be 8a 20 12 be 49 ad 58 bd 0c 84 01 3e
       -0.15367647 -0.14270225 -0.052899633 0.12648028
000230 ff 2e 5a be d6 89 c6 3e bc 83 7f 3e 2c 53 1d 3e
       -0.2130699 0.38777035 0.24952596 0.15363759
000240 00 a9 7e 3e 4c 61 15 bf f8 af 66 be 12 da 07 3e
       0.24869156 -0.5835159 -0.22528064 0.13266781
000250 94 a7 21 3f eb e0 95 3d c0 55 a2 be 26 dc 16 3e
       0.6314633 0.0731829 -0.31706047 0.14732417
000260 82 8d bf 3d b2 5e 57 be 55 4c 08 3f 33 29 21 3e
       0.09353162 -0.21032217 0.53241473 0.15738373
000270 69 89 1d be 7c bc f7 3e 3e 3f 5a 3e 4e af e7 3d
       -0.15384449 0.4838599 0.21313187 0.113127336
000280 6c b5 f0 bd e6 49 8a 3e 45 a3 0c 3e aa 35 33 3e
       -0.117533535 0.27009505 0.13734157 0.1750094
000290 1e 24 76 3d 69 3d 80 be 56 6a 33 be c6 a6 84 bd
       0.060093038 -0.25046852 -0.17521033 -0.06477122
0002a0 4b 35 2e be 57 12 30 be a1 ae f6 bd 39 a7 5d 3e
       -0.17012517 -0.17194496 -0.120450266 0.21645822
0002b0 da 3e 23 3e e1 6a 4a 3e a2 db 59 3e b4 f6 14 be
       0.15941945 0.19767334 0.2127519 -0.14547235
0002c0 95 0c 33 be a9 e0 0a be 04 b2 3b 3e 06 52 6e bd
       -0.17485268 -0.13562264 0.18329626 -0.058183692
0002d0 5b e7 17 be cd fb 8f 3d d0 ad 39 3d 9c 76 d5 bc
       -0.14834349 0.07030449 0.045331776 -0.026057534
0002e0 49 25 45 3d cf 7e a7 bd 6f 4a 3e bd 75 2d 30 be
       0.04813126 -0.08178484 -0.046457704 -0.1720484
0002f0 ca 1f 91 3d 13 a1 de bc 4e 93 5f 3d d5 8d 53 bd
       0.070861414 -0.027176416 0.05458384 -0.051648933
000300 33 a3 16 3d 95 8b 2b 3e 72 91 4e be 2a b7 94 bc
       0.036776733 0.16752465 -0.2017267 -0.018153746
000310 ce 1d 10 3e 26 b3 c1 bd e0 a3 b8 bd 4e 51 e6 3d
       0.1407387 -0.09457998 -0.09015632 0.112459764
000320 12 91 13 3c 3b d5 a0 bc 71 c1 75 bd 4e 20 d2 bd
       0.009006755 -0.019632926 -0.059998933 -0.10260068
000330 56 db 27 be 72 f7 1f 3e 66 fe 1b 3d 2a 09 aa 3d
       -0.16392264 0.15621737 0.03808441 0.08302529
000340 e9 20 5e 3e 10 1a 3f 3e 84 b0 02 3e 0d d2 90 bc
       0.21692242 0.18662286 0.12762648 -0.017678285
000350 c2 51 e8 3d 8c 79 e5 3d 4b a2 61 3e 37 c8 41 3c
       0.11343719 0.11204824 0.22034566 0.01182752
000360 42 7f 61 be 6a 52 d8 3d 54 b9 95 bd 56 8a f8 bd
       -0.22021201 0.10562594 -0.07310739 -0.121357605
000370 ea fc 10 be 28 ca ce 3c e5 02 1b be 55 bc 3d be
       -0.14158979 0.02524288 -0.15137823 -0.18528874
000380 7d d6 e1 3d 5f d2 98 3d e2 93 49 bc 8d f5 88 bd
       0.110272385 0.07462 -0.012303324 -0.0668746
000390 16 d3 9e bd ec 4a 0d be b6 83 ef bd c6 a6 14 3c
       -0.07755105 -0.13798112 -0.11695044 0.009072965
0003a0 79 27 38 bc fd dc 07 3e 26 26 2c 3e c5 bf 85 3d
       -0.01123988 0.13267894 0.16811427 0.06530718
0003b0 9b c4 4c 3b d4 14 3a 3e b4 0f 2b be 29 03 0c be
       0.0031245116 0.18172008 -0.16705209 -0.1367308
0003c0 0d 52 07 bc 20 7e 47 3c 63 17 83 3d 18 e3 69 3c
       -0.0082593085 0.012176067 0.06400945 0.014275335
0003d0 01 07 72 3d 8d d3 cc bc 2f e5 ff 3d 5a ac af 3d
       0.05908871 -0.025003219 0.12494885 0.08577795
0003e0 0b 38 cc 3d 48 34 63 be 8a c3 3d 3e 13 37 41 3e
       0.09971627 -0.22187912 0.18531623 0.18868665
0003f0 6b 59 3c be 31 cd b5 3d a2 8c 38 be 29 3c 4e 3e
       -0.18393485 0.08877028 -0.18022397 0.20140137

mlp.2.bias f4 [20]
000000 6d 3f 07 3f c2 dc 52 3d 41 ca 57 be d0 79 be bd
       0.52831155 0.051480062 -0.21073247 -0.09300578
000010 6b d6 cf bd 7e 03 d2 bd a5 95 f8 3d 59 e5 26 3f
       -0.10148319 -0.10254572 0.121379174 0.65193707
000020 d5 3c 2f bd 05 5c ec bd 3d be e5 bd 61 b3 6c be
       -0.042782623 -0.11540989 -0.11217926 -0.23115303
000030 17 7b 9f 3e ef c8 cd 3d 53 ba 43 3f eb e2 73 bd
       0.31148598 0.10048091 0.76456183 -0.059542578
000040 91 45 f4 bc d0 27 5f be b9 ed f0 3d 94 d7 3e be
       -0.029818328 -0.21792531 0.11764092 -0.18636924

mlp.4.weight f4 [20, 20]
000000 6a e5 5d be b7 b4 8b 3b 0e 04 2c be c2 10 88 3d
       -0.21669546 0.0042634862 -0.16798422 0.06643821
000010 2a 2b 54 be eb e3 61 be 67 ec 20 be 45 30 e9 3d
       -0.20719591 -0.220596 -0.1571518 0.1138616
000020 5a 3c 22 3e 36 dd 2e be 79 10 3b 3e 8e 51 24 be
       0.15843335 -0.17076573 0.18268003 -0.16046736
000030 f7 c2 10 3d c6 c0 c8 bd 92 53 37 bd 07 ef 97 bd
       0.035342183 -0.098023936 -0.044757433 -0.07418638
000040 db 4f a1 bd 6f 80 c9 3d 08 6f 8f bc 24 51 01 be
       -0.07876559 0.0983895 -0.017508999 -0.12628609
000050 a7 2c 0b be 22 3d 58 3d bc 6a aa bd f4 d9 24 3e
       -0.13591252 0.052792676 -0.08321139 0.16098768
000060 d0 3e b3 3d 4f a3 c2 bd 68 ea 5f be e5 8d 17 be
       0.08752215 -0.09503805 -0.21866763 -0.14800222
000070 4b 8f e7 3d 27 c1 9f 3d eb 93 03 be a1 d6 07 be
       0.11306628 0.07800513 -0.12849395 -0.13265468
000080 cd f6 5a be b9 33 d6 3d 3d f7 82 3d b6 9d 20 bb
       -0.2138321 0.10459084 0.06394813 -0.0024508066
000090 00 73 2d be 2f 24 df bd 04 81 29 be 1b 8c 19 be
       -0.169384 -0.10895573 -0.16553122 -0.14994852
0000a0 1e 50 85 bd b2 5b 0b 3e 43 7e 1a be 48 63 1d 3e
       -0.06509422 0.13609198 -0.15087228 0.15369904
0000b0 80 f1 18 3d 5e 48 f7 3d b2 98 25 3c 64 f4 e1 3b
       0.037339687 0.1207435 0.010107206 0.0068955887
0000c0 1b 99 58 3c b3 2c 59 3e 8a cd 91 3d 12 20 dd 3d
       0.013220097 0.21208458 0.071192816 0.107971326
0000d0 9b db 75 3d a0 c1 b2 bd 93 90 1c 3d a8 e7 27 be
       0.060023885 -0.08728337 0.038223814 -0.16396964
0000e0 6e 52 51 be 21 87 86 3d 01 1f 21 be 3d 1a b0 bd
       -0.204416 0.065687425 -0.15734483 -0.085987546
0000f0 1b 32 cf 3d c9 0f ad 3d 4f 50 d8 3d e6 fa 1d be
       0.10116979 0.084502764 0.10562193 -0.15427741
000100 73 15 5c be 00 7a 21 bc 06 2b 0d 3e 7a 58 58 3e
       -0.21492557 -0.009855747 0.13785943 0.21127501
000110 cc 34 38 be eb d5 b0 bd f3 c5 07 3d e9 4c 95 3d
       -0.1798889 -0.086345516 0.033147763 0.0729006
000120 a6 c3 14 3e 0f 6a 54 3e 29 5e 93 be b3 ee 16 3d
       0.14527759 0.20743583 -0.28782776 0.036848735
000130 d8 25 9a 3e 7a fb 3c bd b5 e5 ec 3d b6 6e 1e 3e
       0.30106997 -0.046138264 0.11567251 0.1547192
000140 b4 ce ca 3c b9 f3 b9 3b 7b 35 12 be a8 55 8b bd
       0.024756767 0.005674806 -0.14278214 -0.06803447
000150 da c6 01 be 5a 75 95 bd 3f 79 85 3e b8 be 99 3e
       -0.12673512 -0.07297774 0.26069066 0.3002832
000160 46 85 16 3e f6 c4 2e 3e 39 2f 75 3e ff 63 e6 bd
       0.14699277 0.17067322 0.23943795 -0.112495415
000170 5e 96 11 be 28 8a 66 3e fc b7 b7 bd cb 6a 2a 3e
       -0.14217517 0.2251364 -0.08970639 0.16642301
000180 23 39 2a 3d 14 47 aa 3d 9f 5b 12 3e e7 c8 fd bd
       0.041558396 0.08314338 0.14292763 -0.12391835
000190 a6 d5 fe bc 91 b5 80 bd d2 d7 bc bd 20 41 0a be
       -0.031107735 -0.06284631 -0.09220852 -0.13501406
0001a0 4a ee 89 bd 30 f8 02 3e 44 b3 c7 3e a9 0e 20 3f
       -0.06734903 0.12789989 0.39003956 0.6252237
0001b0 ec ab d8 3d 52 58 3c be 6c 03 56 3e 95 6e 17 be
       0.105796665 -0.18393067 0.20899743 -0.14788277
0001c0 3d 8f ca bc db 81 14 3c 67 93 7f be 77 6a 14 be
       -0.024726504 0.009064163 -0.24958573 -0.14493738
0001d0 52 48 36 3e a5 71 4e be 95 83 93 3e 5e 84 bf bd
       0.17801026 -0.2016054 0.28811327 -0.09351419
0001e0 4d 59 c0 3d 84 f7 c9 3d bb c9 12 3e a9 6f 3e be
       0.09392033 0.09861663 0.14334767 -0.18597282
0001f0 b3 e0 e9 3d 49 d3 ca 3d b5 1f ee 3c e5 b0 c5 3e
       0.11419811 0.09903581 0.029067853 0.38611522
000200 5c 22 3f 3e aa 54 27 3e 19 d3 83 3c 8d 48 25 be
       0.18665451 0.1634089 0.01609187 -0.16140957
000210 ed 6d 0c 3e ba a2 0f be f0 79 a8 be 0d 3d 6d be
       0.13713808 -0.14026919 -0.3290553 -0.2316782
000220 eb 80 9e 3e c1 f9 1b 3e 1c ee 8a 3e 59 2b e9 3d
       0.30957732 0.15231992 0.27134788 0.11385221
000230 a2 0b 35 bc 4a 78 f8 bd 72 e0 20 3e 13 10 53 be
       -0.011050137 -0.12132318 0.15710619 -0.206116
000240 bf a8 82 bd 4d 64 da 3c 5d 8f 31 be 91 8c 90 3d
       -0.06379842 0.026659155 -0.17339845 0.07058061
000250 16 63 31 3c db b2 f7 3d 00 86 16 3e e4 42 26 be
       0.010826847 0.12094661 0.14699554 -0.16236454
000260 4e 13 f7 3d af 81 31 3e 5e c0 5c 3d aa 5e 23 be
       0.12064229 0.17334627 0.053894393 -0.1595408
000270 12 90 b9 bd 9c 40 29 3e 99 a6 b6 3d 2f 65 7f bd
       -0.09060682 0.16528553 0.08918495 -0.062352356
000280 a5 8b f7 3c a0 50 e3 3d a6 fb 8d bc da 78 d1 bd
       0.030217955 0.110993624 -0.01733191 -0.10228129
000290 b8 4b 93 3d 91 e6 2a be ba 40 9b be af 53 81 be
       0.071921766 -0.16689517 -0.3032282 -0.25259158
0002a0 3e 50 a2 3d 9f 8d b5 bd 1b 0d 1f 3e 86 cc 2b be
       0.07925461 -0.08864903 0.15532343 -0.16777238
0002b0 10 88 98 3d 0f 61 c4 bd ea ea 70 3e 1b cd 3f 3e
       0.07447827 -0.09588825 0.23527113 0.18730585
0002c0 3d d5 88 3d 54 b4 f5 bd 66 96 a7 3d 10 a2 30 3d
       0.06681297 -0.119972855 0.08182983 0.043123305
0002d0 97 f7 e6 3e 07 e5 a0 be 2d 3b 9b bc 8c 82 f4 3e
       0.4511077 -0.31424734 -0.018949116 0.4775585
0002e0 fe f8 9f bc 15 7b 79 bc 6b 00 9e be 8f e1 96 be
       -0.019527908 -0.015227099 -0.30859694 -0.29468963
0002f0 d5 c0 d5 bd 92 33 d9 bc 53 31 84 3d 22 1c 53 bb
       -0.104371704 -0.026513848 0.0645472 -0.0032212813
000300 eb 92 9c 3e 59 3b 12 3d 84 2d 1d 3f 31 94 ab bd
       0.3058084 0.03570113 0.61397576 -0.08377875
000310 3c 1a 3c be 2d 42 18 3e a3 e8 4b be cb 03 1a 3d
       -0.18369383 0.14868994 -0.19912963 0.037601274
000320 c1 0f 89 be 07 6d ea 3d 74 89 14 3e c1 54 49 be
       -0.26769832 0.114465766 0.14505559 -0.19661237
000330 c6 5c fa 3d ca 6c 65 3e c8 2b f4 3d 57 2a 1a 3f
       0.122247264 0.22404781 0.11922413 0.60220855
000340 05 25 0b 3d a1 90 0a bd c9 ed c2 3e dd fb ee bd
       0.03397085 -0.033829335 0.3807204 -0.11669133
000350 9d be 62 3d 36 29 13 bc 41 95 b5 bd 44 20 63 be
       0.055357564 -0.008981993 -0.088663585 -0.22180277
000360 8f 49 f4 3e 6e e3 46 be b6 29 b1 3e e3 db 2b 3e
       0.4771237 -0.19422695 0.34602135 0.16783099
000370 8f b1 e6 3e 96 12 87 be f7 61 30 3d 32 69 e3 3e
       0.4505734 -0.26381367 0.043062177 0.44416195
000380 62 3d eb bc 12 d3 06 be c2 87 ef bd ec 6a ee be
       -0.028715793 -0.13166454 -0.116958156 -0.4656595
000390 d3 44 0e bc 68 76 1c be 0f 07 8a bc cb c4 6a 3e
       -0.008683401 -0.15279543 -0.016849069 0.22926633
0003a0 49 11 af 3e 92 17 28 be c7 76 0d 3f ad 31 4b 3e
       0.34192875 -0.16415241 0.55259365 0.19843169
0003b0 76 d4 ea bd 86 b7 d7 3c a9 b5 66 3d 92 7b 55 3e
       -0.11466305 0.026332628 0.05632559 0.2084792
0003c0 cb fa c9 bd e8 31 db bd b6 32 8c bd f2 3d d0 3d
       -0.09862288 -0.10702878 -0.0684561 0.10168065
0003d0 dc 90 cf 3c 1f 7b d0 3d db 8b 11 3e 55 c3 95 3d
       0.025337629 0.101797335 0.14213507 0.07312647
0003e0 a4 33 cc bd 2e 4e d5 bc 81 69 6c be 73 bf 59 be
       -0.09970787 -0.026038256 -0.23087122 -0.21264438
0003f0 80 3e 67 bd 06 16 4b 3d f8 e2 53 3e 15 e1 46 be
       -0.05645609 0.04958155 0.2069205 -0.194218

mlp.4.bias f4 [20]
000000 07 0e 6b be 42 43 c4 bd d1 77 31 bc 85 63 bc 3d
       -0.2295457 -0.09583141 -0.010831789 0.09198669
000010 64 1d 9d 3c 74 fd b1 3d d4 ec e2 3d c8 b7 8a be
       0.019179054 0.086909205 0.11080328 -0.2709334
000020 88 bb 61 3e 71 60 f3 3e 1a b2 42 3c 1c 1e 63 3e
       0.22044194 0.47534516 0.011883283 0.22179455
000030 08 5d 62 be 62 6c 9c 3e 3b 01 59 3e 86 17 ee bd
       -0.22105801 0.3055144 0.21191876 -0.116255805
000040 e1 e2 ae bd c0 12 71 bc 04 21 a9 3d 97 e7 84 3d
       -0.085393675 -0.014713943 0.0825825 0.06489485

mlp.6.weight f4 [1, 20]
000000 1b 0f 2a be 6c 5d 12 be 71 7e 84 bd e8 b9 dd 3e
       -0.16607325 -0.1429345 -0.06469429 0.43305898
000010 3e 67 ec 3e 76 72 49 3f c1 92 11 3f 58 dd da bd
       0.46172518 0.7869028 0.56864554 -0.10686749
000020 dd 00 a1 be 5d 16 8b bf 05 c5 64 3f 62 9a 7b bf
       -0.3144597 -1.08662 0.8936313 -0.98282444
000030 2c f3 1e be 41 24 18 bf 69 08 97 be 0e da e8 3e
       -0.1552245 -0.5943032 -0.29498604 0.45478863
000040 7e f8 06 3e 8e 26 ab be 2a 5b 19 bf 7a d6 97 be
       0.1318073 -0.33427852 -0.5990473 -0.2965582
