models/weights/layers_30_lr_1e-05.pt (torch, 5729 bytes, 3 tensors)

mlp.0.weight f4 [30, 31]
000000 53 b0 58 bd c5 3c 1d 3a 68 f1 cb bd 6b 7e c9 bb
       -0.05290253 0.000599813 -0.09958154 -0.0061491034
000010 b6 f1 a4 3f 64 b7 99 3f 89 5a bd 3c d8 ec aa 3c
       1.2886264 1.2009091 0.02311446 0.020864889
000020 ae 37 a2 be c2 97 f7 3b 21 dc 1b bd 7d 74 54 3c
       -0.31683105 0.0075559327 -0.03805173 0.012967226
000030 34 df c0 bc 0c 00 4d bb b6 47 af 3d f3 4a 00 bd
       -0.023543932 -0.0031280546 0.085586 -0.031321477
000040 56 00 78 3d 88 53 61 bc 8c a4 af bc 26 ea 3b bc
       0.060547195 -0.013752826 -0.021440767 -0.0114694
000050 6e 63 1b bc 44 0a a7 3d 22 6d 3c bc 65 87 c9 bd
       -0.009484155 0.08156255 -0.011500629 -0.098402776
000060 02 b7 2c ba 80 29 81 bd 8c 5c 9b 3e 5d 55 30 3e
       -0.00065885496 -0.063067436 0.30344045 0.17220064
000070 04 91 15 be a2 23 dd 3d 4b bc 02 3e 27 83 33 3e
       -0.146061 0.10797812 0.1276714 0.175305
000080 c7 eb af bc 5a 0a 91 ba 94 d6 59 bd 2a 54 06 3e
       -0.021474732 -0.0011065707 -0.053183153 0.13118044
000090 c9 88 03 3e 95 5b 84 be fa 96 48 be d1 57 3e bd
       0.12845148 -0.25851122 -0.19588843 -0.046470467
0000a0 e5 0f b4 3d 96 66 6e bd 7b 82 6f 3e 93 0f b4 3d
       0.08792094 -0.058203302 0.23389618 0.08792033
0000b0 69 ac b8 bd 55 9b 8f bd 20 83 9a 3d a1 85 aa 3d
       -0.0901726 -0.07012049 0.07544541 0.08326269
0000c0 b7 14 00 bd c0 1a 4f be dc b2 74 bd 10 b2 0f 3d
       -0.031269755 -0.20225048 -0.059740886 0.035081923
0000d0 d3 49 f5 3c 56 bd 0d 3e ba 30 06 be 38 ed 23 3d
       0.029942429 0.13841757 -0.13104525 0.04002115
0000e0 10 d3 09 3e c3 0e 3d 3d d4 48 4f be a9 02 20 3d
       0.1345942 0.046156656 -0.20242625 0.039065037
0000f0 22 cb f2 bc 47 c6 22 3e 6f 94 c8 bd c5 cb ce 3d
       -0.029637877 0.1589595 -0.097939365 0.1009746
000100 43 01 cd bd f6 36 8d 3d bb d7 ac bc 46 8d 90 3e
       -0.10010006 0.068952486 -0.021098962 0.28232783
000110 6d 40 07 be 27 f0 88 3d 9c b3 44 be c3 27 37 bd
       -0.1320817 0.066864304 -0.1920914 -0.044715654
000120 7b ea 7d be f3 c3 52 be 90 8d 09 be 5c 83 c3 3d
       -0.24796478 -0.20582561 -0.13432908 0.09546539
000130 90 7b a0 bd d6 79 14 3e 82 44 80 3e 42 f3 59 be
       -0.07836068 0.14499602 0.25052267 -0.21284202
000140 c1 e6 2d 3e 73 f9 1f 3d f1 e1 4a 3c e2 6d 07 bd
       0.16982557 0.039056253 0.01238297 -0.033063777
000150 c0 fa ab 3e fd 58 18 3e e1 90 4b bd d5 3b 2a bd
       0.33589745 0.14877696 -0.049698714 -0.041560967
000160 a5 a7 fb bd 89 ae 18 be 0b 60 c4 bd e6 7e e0 bd
       -0.12287835 -0.1491033 -0.09588631 -0.10961704
000170 fa 91 09 bd 43 b4 c5 3c b6 63 32 bd 07 31 b8 bd
       -0.03358648 0.024133807 -0.043552123 -0.08993726
000180 92 7e 3a 3e 53 64 ea be ed 8e f0 be cd a5 69 3d
       0.18212345 -0.45779666 -0.46984044 0.057042886
000190 d9 05 5f bd f1 c0 37 3e d8 80 a1 3d 24 60 4c 3d
       -0.054448936 0.17944695 0.07885903 0.049896374
0001a0 95 bf 0a be 37 a0 99 bd 6e 0d e1 bd 78 e2 08 3d
       -0.13549645 -0.07501262 -0.1098889 0.033419102
0001b0 4e 90 2a bd a7 4c a0 3d 34 62 02 be c5 c5 a1 bd
       -0.041641526 0.0782712 -0.12732774 -0.0789905
0001c0 98 02 37 be b1 53 63 3c 2e 24 15 3a 96 ee a5 3c
       -0.17872083 0.013874934 0.000568929 0.020255368
0001d0 b6 c3 3c be ab e4 6f be 59 8a ca 3d b0 d3 29 3d
       -0.18434033 -0.23427074 0.09889669 0.041461647
0001e0 20 4e 01 3e a8 94 90 3d 50 1f e5 bd e9 4f 11 3c
       0.12627459 0.07059604 -0.11187613 0.00886915
0001f0 a4 48 a0 3c 1c df 83 bd 88 c1 82 3d ba 85 9c 3c
       0.019565888 -0.06439039 0.063845694 0.019106735
000200 2a 5a 17 3c c1 d1 a0 be e0 9f 09 3e bc 03 7e 3d
       0.009237805 -0.3141003 0.13439894 0.06201528
000210 70 56 6c 3e c2 29 16 3b 1a 5a 41 3d f2 11 10 be
       0.23079848 0.0022913073 0.04720507 -0.14069346
000220 86 71 1b 3c 9e b0 80 bb 52 a3 bd bd 49 a8 e0 3d
       0.009487515 -0.0039273044 -0.092596665 0.10969598
000230 39 20 0b be 11 3a 66 3d a4 51 b6 3c a8 ce 49 3e
       -0.1358651 0.05620772 0.022255726 0.1970774
000240 05 d3 d2 3d 66 5f 15 be e7 1b 8b bc 47 88 06 be
       0.10294155 -0.14587173 -0.016981078 -0.13137923
000250 52 e3 c0 3d dd 95 f0 3d 81 6c 8e 3d c5 d4 cf bd
       0.09418358 0.11747334 0.06954289 -0.101480044
000260 fe 96 80 3c a2 7b 27 3d c5 6c 02 3d cf b3 59 3f
       0.015696999 0.04088939 0.031842012 0.8503999
000270 46 c2 86 3d 6b 74 f5 3c eb 75 59 3d 06 2e c2 3e
       0.065800235 0.029962739 0.05309097 0.37925738
000280 de 13 52 be 57 3b 83 bc 44 96 cf bd c9 58 8f 3d
       -0.20515391 -0.016019506 -0.10136083 0.06999356
000290 30 cc 99 3d 51 ba 7f 3d a4 c3 b3 bc 26 c9 a4 bd
       0.07509649 0.062433545 -0.021943875 -0.080461785
0002a0 76 b8 b1 bc 17 59 56 bd cc ee 28 bd cd bc a8 3b
       -0.021694403 -0.052331056 -0.04124336 0.00514946
0002b0 40 23 18 bd 3e a1 51 b9 cb 05 ff bc 64 64 d9 bd
       -0.037142992 -0.0001999186 -0.031130692 -0.10614851
0002c0 52 47 c8 bd 75 3d 98 bd d0 53 15 3e 82 30 14 3e
       -0.09779228 -0.07433597 0.14582753 0.1447163
0002d0 8d d7 57 3d fc 1c bd bc 87 11 e2 3e b7 4d ec 3e
       0.0526958 -0.02308511 0.44153997 0.46153042
0002e0 b4 08 67 be 2a d1 79 be 41 ed c0 bd c6 cf b8 3d
       -0.22561914 -0.24396196 -0.094202526 0.09024005
0002f0 1f 57 e1 3d cf 8f c7 bc 65 55 21 3e 1a 51 02 be
       0.11002945 -0.024360565 0.15755232 -0.1272625
000300 80 63 b2 bd 4f c2 1b be f6 4f 6a bc 74 e7 3c 3d
       -0.08710384 -0.15210842 -0.014301291 0.04611917
000310 fe f1 d0 3d db cc 15 3d 27 01 22 3e e0 79 2d be
       0.10202406 0.03657232 0.15820752 -0.16941023
000320 5d f8 52 bd 53 21 93 3c 89 41 da 3c c4 96 91 3d
       -0.05150639 0.017960226 0.026642578 0.071088344
000330 00 ed e7 bd 0d a5 cf 3d 17 57 b0 3d cc 24 d1 bc
       -0.11324501 0.10138903 0.08610361 -0.025530241
000340 04 d8 35 be 9d 71 3e be 64 0a 0b be 24 98 3a bd
       -0.17758185 -0.18598028 -0.13578182 -0.04555525
000350 80 f5 a0 3d 0d 6a a8 3d 79 06 1e 3e da e9 b9 3d
       0.078593254 0.082233526 0.15432157 0.09077807
000360 4c c8 e8 3d 8d c2 20 3e 9d e6 06 bd b6 1c 1c be
       0.113663286 0.15699215 -0.032934774 -0.15245327
000370 bb 60 84 3d b8 7b 97 3d c7 8e 1d 3f f0 d9 a8 bd
       0.064637624 0.07396644 0.61545986 -0.08244693
000380 5f 92 95 be 9f c6 11 bb 57 9c a2 3e 1c a5 42 3e
       -0.29213235 -0.0022243632 0.31759903 0.19008297
000390 e3 4a 5a be c2 7e 0d be fb 53 3f bd 38 f5 f3 3d
       -0.2131763 -0.13817886 -0.04671095 0.11912006
0003a0 ae 08 3b be ef 19 d5 bd 46 33 4d 3c db fc ee 3c
       -0.1826503 -0.10405337 0.012524432 0.029173305
0003b0 29 bb d8 bc 0d ed 80 bd 0e 6f 3d 3e ba a4 2e be
       -0.026456432 -0.06295214 0.18499395 -0.17055026
0003c0 f3 8c a1 bd f9 d0 95 bc ff aa 07 be 1b cd a7 bb
       -0.07888212 -0.018288122 -0.13248824 -0.005120886
0003d0 ec 4e e4 3d 7d 07 23 3d 14 af 8c bd 5d 25 3d be
       0.11147866 0.039802063 -0.06869331 -0.18471284
0003e0 bd a4 c0 be 12 6d 39 bd 20 99 7a 3e b5 6f b7 bc
       -0.37625685 -0.045270033 0.24472475 -0.022392133
0003f0 81 e4 c3 3c 1c 7a 08 bd ca 82 f4 bc ff dd 6d bd
       0.02391267 -0.033319578 -0.029847521 -0.05807304

mlp.0.bias f4 [30]
000000 a9 b9 a1 3e 5d 9a ab bb 42 ea 76 be 14 e8 b5 3d
       0.3158696 -0.0052369074 -0.241128 0.08882156
000010 e6 3a f4 bd 21 06 fd 3e 58 40 0c 3e cf af a4 be
       -0.119252965 0.49418738 0.1369642 -0.3216538
000020 07 b0 80 3c cb a1 a2 bc a7 d2 01 3d 30 49 e4 bd
       0.015708936 -0.01985254 0.031695034 -0.11146772
000030 93 1c 00 3d 21 4d 98 3e ee c5 39 bf c1 ac 51 be
       0.03127725 0.29746345 -0.7256764 -0.20476057
000040 6b fc c0 bd ce f2 f5 bd 89 8a 3b bf 29 a8 e1 be
       -0.09423145 -0.12009202 -0.7325826 -0.4407361
000050 ee 33 c8 3e 0b d7 9e be dd 43 b9 bd 5c e6 62 be
       0.3910212 -0.3102344 -0.09046147 -0.22158188
000060 ef 14 35 3f ad f1 c0 bd a9 cb 40 be d2 c5 5a bf
       0.7073507 -0.09421096 -0.1882769 -0.854581
000070 bd 8c 1d bd ee fc 88 3d
       -0.038464297 0.066888675

mlp.2.weight f4 [1, 30]
000000 41 d4 c8 bf 0c b8 c0 3e 32 f9 16 3f 53 3c 0f bf
       -1.5689775 0.37640417 0.5897399 -0.5595142
000010 fa d5 a1 3e 0b 26 86 bf 85 ce 47 be 4f 95 46 3f
       0.31608564 -1.048036 -0.19512375 0.77571577
000020 7c f5 12 bf d7 41 1a 3f e6 c7 97 3e a2 e6 86 be
       -0.5740583 0.60256714 0.29644698 -0.26347834
000030 b6 ba a4 3d 97 71 e1 be 2a a9 9c bf 84 fc 2c 3f
       0.08043425 -0.44031975 -1.2239125 0.6757281
000040 a0 26 c5 3e 27 17 c4 be 90 e9 b0 bf 57 c9 81 3f
       0.3850603 -0.38298914 -1.3821278 1.0139569
000050 f4 a4 41 bf 7a 9a 8f 3f fe 39 01 bf 40 e5 86 3f
       -0.75642323 1.1219018 -0.50479114 1.0538712
000060 5b 23 5a 40 ae 11 d0 3e 3f 30 1f bf 55 6d b2 3f
       3.408408 0.4063849 -0.6218299 1.3939615
000070 2a e4 38 3f cd 85 0e bf
       0.7222315 -0.55672914
