models/weights/layers_50_50_50_drop_lr_0.0001.pt (torch, 30069 bytes, 7 tensors)

mlp.0.weight f4 [50, 31]
0	0xbc9e9c48	-0.01936163
1	0xbc1fd784	-0.009755973
2	0x3bc5d45f	0.0060372795
3	0xbb0db267	-0.0021621229
4	0xc001d10d	-2.0283844
5	0x4007ad54	2.119954
6	0xbb90b217	-0.004415761
7	0x3a489f43	0.00076531264
8	0xbba8e542	-0.005154283
9	0xb9948341	-0.00028326552
10	0xbc866579	-0.016405808
11	0x3c10e969	0.008844712
12	0xbc21a53d	-0.009866056
13	0xbb2b9beb	-0.0026185464
14	0xbc6cd1c7	-0.014454312
15	0xbbbfebe8	-0.0058569796
16	0x3c6f99e4	0.014624093
17	0xbcd6636d	-0.026170457
18	0xbbab3364	-0.005224632
19	0x3befa0a1	0.0073128496
20	0xbb368664	-0.00278511
21	0xbc062b46	-0.008189028
22	0xb8cfdb79	-9.911409e-05
23	0xbd668623	-0.056280266
24	0xbd707971	-0.058709566
25	0xbc2b01de	-0.010437457
26	0xbda286d6	-0.07935874
27	0xbda12610	-0.07868588
28	0xbd5f9de9	-0.054593954
29	0xbc724a5b	-0.014788236
30	0x3e1fdc8d	0.15611477
31	0xbd399f43	-0.0453179
32	0x3b2d17dd	0.0026411929
33	0x3e237231	0.1596153
34	0x3e70eed0	0.235286
35	0xbce53300	-0.02797842
36	0xbeb457dc	-0.3522328
37	0x3e6db773	0.23214512
38	0xbe8eb938	-0.27875686
39	0xbe000835	-0.1250313
40	0x3df81ed6	0.121152565
41	0x3d487cac	0.04894702
42	0xbc5d5308	-0.013508566
43	0xbdf2251b	-0.118234836
44	0x3e300dc0	0.17192745
45	0x3c42f59c	0.011899378
46	0x3dcb4e22	0.09927012
47	0xbb4d4034	-0.0031318786
48	0x3a14cbbc	0.0005676111
49	0x3d9c925e	0.07645105
50	0x3db618ee	0.08891474
51	0x3c0ed9bd	0.008718905
52	0xbda64352	-0.08118309
53	0x3dd38a2c	0.103290886
54	0xbe11971e	-0.14217803
55	0xbd1e03d9	-0.03857789
56	0x3e0f9810	0.14022851
57	0xbbf7c607	-0.0075614485
58	0x3dee2ae0	0.116292715
59	0xbdfbb9c3	-0.122912906
60	0x3dc2a5e7	0.095042996
61	0x3d877ca5	0.06615571
62	0xbe6d985d	-0.23202653
63	0x3cf765b6	0.030199867
64	0xbd4af7a4	-0.049552575
65	0xbd59db0a	-0.053187408
66	0x3e9822a4	0.2971393
67	0xbf122711	-0.5709086
68	0x3de8e4ea	0.11371787
69	0x3d8f94fd	0.07010839
70	0x3dc87e10	0.097896695
71	0xbdefe9f0	-0.11714542
72	0xbdc784b7	-0.0974211
73	0x3e0e765c	0.13912338
74	0x3c65f8f8	0.01403641
75	0xbe29683e	-0.16543671
76	0xbdb57d20	-0.08861756
77	0x3e0235a6	0.12715778
78	0xbe4653a0	-0.19367838
79	0x3d79b385	0.06096222
80	0x3e17d807	0.14828502
81	0x3d5eeaad	0.054423023
82	0x3d522cd6	0.05131229
83	0xbe54b90b	-0.20773713
84	0x3e5f5e5d	0.2181334
85	0x3d2143b0	0.039371192
86	0x3d020fe5	0.03175344
87	0xbdacd0c6	-0.08438258
88	0x3d7d2d0e	0.061810546
89	0x3d0f7340	0.03502202
90	0xbe0d0d0c	-0.13774508
91	0x3ccf61ed	0.02531525
92	0xbe57cf7f	-0.21075247
93	0xbdf995f7	-0.12186807
94	0xbe055207	-0.13019572
95	0xbda9b9e2	-0.082874075
96	0x3d7b1e18	0.061307997
97	0x3dcec422	0.10096003
98	0x3d1628de	0.036660068
99	0xbb85468a	-0.004067247
100	0x3cce56fa	0.025187958
101	0xbf040ef1	-0.515853
102	0xbbbf9583	-0.0058466806
103	0x3e2929e0	0.1651988
104	0xbd7c4be9	-0.06159583
105	0xbd0ad280	-0.033892155
106	0x3d8be8a9	0.06831486
107	0x3df3fede	0.119138464
108	0xbcc0a96c	-0.023518287
109	0x3d20ee06	0.039289497
110	0xbd92162e	-0.07133137
111	0x3d17b6da	0.037039615
112	0x3df022f8	0.1172542
113	0x3db0566e	0.08610235
114	0x3d357996	0.044305407
115	0x3ea49bea	0.32150203
116	0xbe0bbc89	-0.13646139
117	0xbe919b6e	-0.28438896
118	0x3e17dfea	0.1483151
119	0x3ecfa0d1	0.4055238
120	0x3e10e9bc	0.14151663
121	0x3b6a27d0	0.0035729297
122	0xbcf3db16	-0.029767554
123	0x3e11dfc6	0.14245519
124	0x3e90ae05	0.28257766
125	0xbde5760f	-0.112041585
126	0xbccbea79	-0.024892079
127	0xbe0d34e3	-0.13789706
128	0x3e58fffc	0.211914
129	0xbdd7e747	-0.105421595
130	0xbe56c917	-0.20975147
131	0xbcbf57be	-0.023357268
132	0xbdd15fb4	-0.10223332
133	0xbc271296	-0.010197302
134	0xbc340fe1	-0.010990114
135	0x3e325099	0.17413558
136	0xbdff86d4	-0.12476888
137	0xbd080536	-0.033208095
138	0xbd61bd22	-0.05511201
139	0xbe1117fa	-0.14169303
140	0x3cddbac2	0.027066592
141	0xbdc52a61	-0.09627224
142	0xbdc64bf0	-0.09682453
143	0xbe8c05eb	-0.27348265
144	0xbdf2757f	-0.11838817
145	0xbd716728	-0.058936268
146	0xbe31bbec	-0.17356843
147	0x3cf73fd7	0.030181808
148	0xbe51216a	-0.20422903
149	0x3dbd3e69	0.092404194
150	0xbeacfe36	-0.33787698
151	0xbdfb9c55	-0.12285677
152	0x3c25fbe9	0.010130861
153	0xbe0caa24	-0.13736778
154	0x3df8e070	0.12152183
155	0x3d8bcbed	0.06826005
156	0xbcc131fe	-0.023583408
157	0x3d6d9662	0.058004744
158	0x3c6bb011	0.014385239
159	0xbf28d17e	-0.6594466
160	0x3ebe58e3	0.3717719
161	0x3c5c6e62	0.013454052
162	0xbe60e350	-0.21961713
163	0x3e8e91a6	0.27845496
164	0x3deae55c	0.11469528
165	0xbd3c4490	-0.045963824
166	0x3d816b71	0.06319321
167	0x3e174c87	0.14775287
168	0xbd70dfe4	-0.05880727
169	0x3da96cff	0.082727425
170	0x3d2fc1ad	0.042909313
171	0xbe89622a	-0.26832706
172	0xbd8d286e	-0.06892477
173	0x3d51ed03	0.051251423
174	0x3d7ef6d5	0.062247116
175	0x3d107294	0.03526552
176	0xbd600258	-0.054689735
177	0x3e409af1	0.18809105
178	0xbdfc64da	-0.123239234
179	0xbdee4097	-0.11633413
180	0xbe0be12c	-0.13660115
181	0xbe86bb04	-0.26314557
182	0x3e2a018f	0.16602157
183	0x3de0aab9	0.10970063
184	0xbdd3e852	-0.10347046
185	0xbe6e2915	-0.23257859
186	0x3e3e46e2	0.18581727
187	0xbe873b80	-0.26412582
188	0x3da441f5	0.08020393
189	0xbca49a56	-0.020093124
190	0x3e49685a	0.19668713
191	0xbda4334e	-0.08017598
192	0xbd34223e	-0.04397797
193	0xbd86dae2	-0.06584717
194	0xbdddd28a	-0.10831173
195	0x3cdd9b7a	0.027051676
196	0x3d96fc35	0.073723234
197	0xbcc0feca	-0.023558993
198	0x3d69a498	0.057041734
199	0xbdcf899c	-0.10133669
200	0xbdc05782	-0.09391691
201	0xbcf995c5	-0.030466923
202	0xbc959541	-0.018259646
203	0xbe047dad	-0.12938567
204	0xbe83460f	-0.25639388
205	0x3cc61518	0.02417998
206	0x3dde8709	0.108656
207	0x3dac4cbb	0.08413073
208	0x3d465e4e	0.04842978
209	0xbe87a758	-0.2649486
210	0xbe227176	-0.15863594
211	0xbd9cb656	-0.07651965
212	0xbe1e1870	-0.1543901
213	0x3e52e86a	0.20596471
214	0x3d68aad0	0.056803524
215	0xbe0e51a7	-0.13898335
216	0xbc39ba5d	-0.011335936
217	0xbecca3eb	-0.3996881
218	0xbdd4d9f0	-0.10393131
219	0x3bb024a9	0.005375464
220	0xbddad2ef	-0.10684764
221	0x3d4ec41a	0.050479986
222	0x3e86580f	0.26239058
223	0x3c05cdc5	0.008166735
224	0x3d209af1	0.039210264
225	0x3e137657	0.14400612
226	0x3e7527e2	0.23940995
227	0xbe757683	-0.2397099
228	0x3e26b38c	0.16279429
229	0x3de37026	0.11105375
230	0xbd798e52	-0.060926743
231	0x3d03f36b	0.032214563
232	0xbdcbb6a6	-0.09946947
233	0x3de675ca	0.11252935
234	0xbdff01b2	-0.12451495
235	0xbc0b277a	-0.008493299
236	0xbc787ea6	-0.015166914
237	0xbcab7c43	-0.020933276
238	0xbdd5fe68	-0.10448915
239	0x3c0f8c18	0.008761428
240	0x3be8a9da	0.007100326
241	0x3e3e7f90	0.18603349
242	0x3d2363a2	0.03988994
243	0xbda5c1b8	-0.080935895
244	0x3be11554	0.0068689976
245	0xbe60a0b6	-0.21936306
246	0xbe00dfad	-0.12585326
247	0x3d8e263b	0.06940886
248	0x3cb50823	0.022098606
249	0xbdc432ee	-0.095800266
250	0x3d94cc67	0.07265549
251	0xbd0a00b5	-0.03369208
252	0x3c452ce9	0.012034633
253	0xbb5a848f	-0.0033343171
254	0x3b5d05e3	0.0033725433
255	0x3da5c794	0.08094707

mlp.0.bias f4 [50]
0	0xbe6b6771	-0.22988679
1	0xbe495b9a	-0.1966385
2	0xbd002642	-0.031286485
3	0xbdc87dde	-0.09789632
4	0xbd879759	-0.06620664
5	0x3d0e88c2	0.03479839
6	0x3d3ff463	0.046863925
7	0xbe75d275	-0.24006064
8	0xbed45ce1	-0.4147711
9	0xbdb4f282	-0.08835317
10	0xbdc3e00f	-0.0956422
11	0x3c287436	0.010281613
12	0xbc5b7747	-0.013395137
13	0xbe727f49	-0.23681368
14	0xbec4b595	-0.38419786
15	0x3d85801f	0.06518578
16	0xbcc065c5	-0.023486027
17	0x3db32442	0.0874715
18	0xbed488ed	-0.41510716
19	0x3e8246e3	0.25444707
20	0xbee18d1b	-0.44052967
21	0xbe35a4f9	-0.17738713
22	0xbe8e1baa	-0.2775548
23	0x3ea27718	0.31731486
24	0xbefbe92e	-0.4920134
25	0xbe0c6c38	-0.13713157
26	0xbe36b906	-0.17844018
27	0xbe2f82f0	-0.17139792
28	0xbdcd1c3d	-0.10015152
29	0xbdada80a	-0.084793165
30	0xbd57431c	-0.052554235
31	0xbdbb2cac	-0.0913938
32	0x3e6e2022	0.23254445
33	0x3cfaa6c3	0.030597096
34	0xbde5e2d2	-0.11224903
35	0x3e08e0be	0.13366982
36	0x3dbd591c	0.09245512
37	0xbede969c	-0.4347428
38	0x3debdc16	0.115165874
39	0xbc92138a	-0.017831583
40	0xbe8a740e	-0.27041668
41	0x3e1d98e0	0.15390348
42	0xbd886724	-0.066602975
43	0x3e454d99	0.19267882
44	0xbdb521fd	-0.088443734
45	0xbeabdcd1	-0.33566907
46	0xbd80b147	-0.06283813
47	0xbe30f078	-0.17279232
48	0xbf5f4b6f	-0.8722448
49	0xbe1407d9	-0.14456119

mlp.2.weight f4 [50, 50]
0	0x3da82ca0	0.082116365
1	0xbdb2b4cd	-0.08725891
2	0x3b5c2619	0.0033592044
3	0x3ba509aa	0.0050365524
4	0x3d495807	0.049156215
5	0x3da8da6f	0.08244788
6	0x3da8a817	0.082351856
7	0xbbb8bc5e	-0.0056376895
8	0x3deecafe	0.116598114
9	0x3dd74df8	0.10512918
10	0x3c354177	0.011062971
11	0x3d47be20	0.0487653
12	0x3c9ab6f4	0.018886067
13	0xbe0b52e2	-0.13605836
14	0x3e1f0138	0.15527809
15	0x3d93e40a	0.072212294
16	0x3c119c5a	0.008887375
17	0x3d00dbc8	0.0314596
18	0x3da76929	0.081743546
19	0xbdb3d8d1	-0.08781589
20	0xbc843057	-0.016136331
21	0xbe1e1104	-0.15436178
22	0x3c67cd3e	0.014148055
23	0xbe18c39b	-0.14918368
24	0x3d8799b2	0.06621112
25	0xbc8f5c32	-0.017500017
26	0xbdcfa429	-0.10138733
27	0x3c528147	0.012848205
28	0x3cacf947	0.021114958
29	0x3d7619f6	0.060083352
30	0x3d4fa7b5	0.050697047
31	0x3df7161f	0.12064766
32	0xbdb2ddac	-0.08733687
33	0x3d84acfb	0.06478306
34	0x3da2b3ef	0.07944476
35	0xbe0795ac	-0.13240689
36	0xbda3132f	-0.07962643
37	0x3e306943	0.17227654
38	0x3a8e21e1	0.0010843837
39	0xbb0b5f4f	-0.0021266525
40	0xbdd4a3ab	-0.1038278
41	0x3d4c9572	0.04994721
42	0x3dcf989a	0.10136528
43	0x3d293d9b	0.041318517
44	0x3e0684e0	0.13136625
45	0xbe020bc6	-0.12699804
46	0xbce4a43b	-0.027910342
47	0xbdbd6b6b	-0.09249004
48	0x3e4fd367	0.20295487
49	0x3dc15114	0.094392926
50	0xbe366556	-0.17812094
51	0x3e1648e7	0.14676248
52	0xbe8a5836	-0.27020425
53	0x3d9f657e	0.0778303
54	0x3e2e9f88	0.17053044
55	0xbdc93345	-0.09824232
56	0x3d8347c9	0.06410176
57	0x3ddb017f	0.10693645
58	0x3e91428a	0.28371078
59	0xbe7d7a68	-0.24753726
60	0x3dadb746	0.08482222
61	0x3d423edc	0.04742323
62	0xbe467b9e	-0.19383094
63	0xbe4fe71a	-0.20303002
64	0x3e0ea877	0.13931452
65	0x3d32e8a6	0.043678902
66	0xbd1d7ae5	-0.03844728
67	0x3d8e1a8b	0.069386564
68	0x3e1b683d	0.15176482
69	0x3d67a145	0.056550283
70	0x3db49857	0.08818119
71	0x3d9026ff	0.07038688
72	0xbc8a802f	-0.016906826
73	0xbdceabcc	-0.100913614
74	0x3d8de977	0.069292955
75	0x3d333fe4	0.043762103
76	0xbd53a36d	-0.051669527
77	0x3c451ae1	0.012030334
78	0xbd9ef588	-0.07761675
79	0xbe3e8d64	-0.18608624
80	0xbe51612e	-0.20447227
81	0x3e026e6e	0.12737438
82	0xbc81802d	-0.01580819
83	0x3cd962e0	0.026536405
84	0x3d4e07e4	0.050300494
85	0xbc631e65	-0.013862227
86	0xbe71224e	-0.23548242
87	0xbe81fd8b	-0.2538875
88	0x3bd6d083	0.0065556183
89	0xbd035564	-0.032063857
90	0x3d1d957d	0.03847264
91	0xbdfe47f0	-0.12416065
92	0x3d3c6f95	0.04600485
93	0xbc97dfef	-0.018539397
94	0x3d637367	0.055529978
95	0x3e321797	0.17391811
96	0xbe2b3c98	-0.16722333
97	0xbce23b37	-0.027616126
98	0xbc55167a	-0.013005847
99	0x3da6f15a	0.08151503
100	0x3dfc8206	0.123294875
101	0xbd8431ea	-0.06454833
102	0x3d8a0a5e	0.06740259
103	0xbd11ba65	-0.03557815
104	0x3cbeaeb9	0.023276674
105	0x3da8bbab	0.0823892
106	0x3d327d86	0.04357674
107	0xbe2b1a6f	-0.16709302
108	0x3e1d5f37	0.15368353
109	0x3d714998	0.058908075
110	0xbe097c6b	-0.13426368
111	0x3dc25b63	0.09490087
112	0x3da7551b	0.081705295
113	0x3d3def37	0.04637071
114	0xbdbfe64a	-0.09370096
115	0xbd8306b6	-0.063977644
116	0xbe18d376	-0.14924416
117	0xbdd16388	-0.10224062
118	0x3b39102a	0.0028238394
119	0x3de114dd	0.109903075
120	0x3c83666f	0.016040055
121	0xbbd25f91	-0.006420084
122	0xbe13e434	-0.14442521
123	0x3dd03991	0.1016723
124	0xbdf18009	-0.11791999
125	0xbb497400	-0.0030739307
126	0x3d024026	0.031799458
127	0x3e068b8b	0.13139169
128	0xbd7a4f06	-0.06111052
129	0xbd210471	-0.039310876
130	0x3d41a935	0.04728051
131	0xbe06003b	-0.13086025
132	0xbd18c318	-0.03729543
133	0x3d128868	0.03577462
134	0xbe3da5d2	-0.18520287
135	0x3bb4e3a0	0.005520299
136	0xbc1a1ee8	-0.009406783
137	0x3ee32922	0.4436732
138	0x3d895789	0.06706149
139	0x3d4a2682	0.04935313
140	0xbc8013ba	-0.015634406
141	0x3d61a14d	0.05508547
142	0x3c3ad061	0.01140222
143	0x3d985b46	0.07439284
144	0xbde27626	-0.11057691
145	0xbd5f09b1	-0.0544526
146	0xbcf252bd	-0.029580468
147	0xbd88674a	-0.06660326
148	0x3d5ab7e6	0.053398035
149	0x3dfb7598	0.122782886
150	0x3e20103f	0.15631197
151	0x3e102c65	0.14079435
152	0xbdcbccc8	-0.09951168
153	0xbe2710f9	-0.16315068
154	0x3d6e84d2	0.058232136
155	0xbd077828	-0.033073574
156	0xbe89bfe9	-0.26904228
157	0xbb028843	-0.0019917644
158	0xbc53b5bb	-0.012921746
159	0xbd7fa52d	-0.062413383
160	0xbe0fc5b9	-0.14040269
161	0xbd59eb00	-0.05320263
162	0xbd174470	-0.0369305
163	0x3ea5c6aa	0.3237813
164	0xbb51599a	-0.0031944276
165	0x3ddbd806	0.107345626
166	0xbeb97e3c	-0.36229122
167	0xbe0beaef	-0.13663839
168	0x3df4e7e4	0.11958292
169	0xbdabd62a	-0.08390458
170	0x3edeb50d	0.43497506
171	0x3e259aa8	0.16172278
172	0xbd2dfc7b	-0.042477112
173	0x3eeface5	0.46811596
174	0x3e85bb9f	0.26119706
175	0x3c84f213	0.016228711
176	0x3e0346fe	0.1282005
177	0xbdf8b5a4	-0.1214402
178	0xbe1e2393	-0.15443258
179	0x3e12ff75	0.14355262
180	0xbdc9f034	-0.09860268
181	0x3d1834bb	0.037159663
182	0x3edafbbe	0.4277019
183	0x3e53a369	0.20667805
184	0xbe669a5a	-0.22519818
185	0xbe1c18e6	-0.15243873
186	0x3df95841	0.12175036
187	0x3f163149	0.58668953
188	0xbe24170d	-0.16024418
189	0xbe7470d2	-0.23871163
190	0x3d51b92e	0.05120199
191	0xbe412f9f	-0.18865822
192	0xbd24053e	-0.04004406
193	0xbe6fdb7b	-0.23423569
194	0xbd06c2d1	-0.032900635
195	0x3de9dd31	0.11419142
196	0xbd89e5f5	-0.06733314
197	0x3ca1db90	0.019758016
198	0xbc8f5503	-0.017496591
199	0xbe43eeb2	-0.19134024
200	0xbe48f563	-0.19624858
201	0xbc2e01b3	-0.010620522
202	0x3d2ddfbd	0.0424497
203	0xbe183b77	-0.14866434
204	0x3e1de2f6	0.1541861
205	0xbd50114b	-0.05079774
206	0x3e347487	0.17622577
207	0xbddb261e	-0.1070063
208	0xbe16f531	-0.1474197
209	0x3ce6b9dc	0.028164797
210	0x3d7a6202	0.061128624
211	0x3d72c704	0.059271827
212	0xbd8c3b24	-0.06847218
213	0x3d0e6a7d	0.034769524
214	0x3d4051b0	0.046952903
215	0x3e646b8c	0.22306651
216	0x3d7aeee4	0.06126298
217	0xbdc19056	-0.09451358
218	0xbdf8a152	-0.121401444
219	0x3d935645	0.07194189
220	0xbd0ad073	-0.0338902
221	0x3e26786a	0.16256872
222	0xbd5a4fff	-0.053298946
223	0x3e086c06	0.13322458
224	0x3d353181	0.044236664
225	0xbda7efd8	-0.082000434
226	0xbdf3d88b	-0.11906537
227	0x3d8d76c7	0.069074206
228	0xbd6d9798	-0.0580059
229	0xbb96bf97	-0.004600476
230	0x3b0a0388	0.0021059234
231	0xbd973904	-0.07383922
232	0x3d1d7e38	0.03845045
233	0x3d2989f4	0.041391328
234	0x3dcac523	0.09900882
235	0xbdbc90f7	-0.09207337
236	0xbdec6aab	-0.11543783
237	0xbe33de0a	-0.1756517
238	0xbe36fc1d	-0.17869611
239	0xbe45abba	-0.1930379
240	0x3e21ed56	0.15813193
241	0x3d9161de	0.07098745
242	0xbc986bb9	-0.018606054
243	0x3d1c8849	0.03821591
244	0xbd3765b2	-0.04477472
245	0x3caca9fa	0.021077145
246	0xbdb9a94b	-0.09065493
247	0x3d72ecd7	0.0593079
248	0xbe5e9764	-0.21737438
249	0x3b039812	0.0020079655
250	0xbdf1bc9c	-0.118035525
251	0x3b8ad5b8	0.004236903
252	0x3c860b75	0.016362885
253	0xbd0ea3a5	-0.034824032
254	0x3bb73259	0.0055907187
255	0xbd84b8c5	-0.064805545

mlp.2.bias f4 [50]
0	0x3d91fa30	0.071277976
1	0x3d8da1d4	0.06915632
2	0xbd39020f	-0.04516798
3	0xbf41f111	-0.75758463
4	0xbd846054	-0.06463686
5	0xbd9ec193	-0.07751765
6	0x3decab80	0.115561485
7	0x3da269af	0.07930314
8	0xbe6e957b	-0.2329921
9	0xbe0d46e1	-0.1379657
10	0xbf331c26	-0.69964826
11	0x3e1ff221	0.15619709
12	0xbdc62a89	-0.09676082
13	0x3e113705	0.14181145
14	0xbccb8391	-0.02484301
15	0x3ca7b6ec	0.020472966
16	0x3dadffd1	0.08496059
17	0xbe2c1a63	-0.1680694
18	0xbe9dd43b	-0.30825981
19	0xbe950903	-0.29108438
20	0xbc4cf586	-0.012509709
21	0x3dac436f	0.084112994
22	0xbd4d6df9	-0.050153706
23	0xbdc7debd	-0.09759281
24	0xbe486433	-0.19569473
25	0x3d1710bf	0.036881205
26	0xbd52531b	-0.051348787
27	0xbe356329	-0.17713608
28	0x3e514e90	0.20440125
29	0xbdc35012	-0.095367566
30	0xbd9fc8a1	-0.07801939
31	0x3d663eda	0.056212284
32	0xbe0f212c	-0.13977498
33	0x3e0049c3	0.12528138
34	0xbdb22cc3	-0.08699944
35	0xbb648117	-0.0034866983
36	0xbe749844	-0.2388621
37	0x3d2a402f	0.041565116
38	0x3e21897b	0.15775101
39	0xbe129301	-0.1431389
40	0x3e2652b9	0.16242494
41	0x3ddafba4	0.10692528
42	0xbd3617b2	-0.04445619
43	0x3df5ad58	0.11995953
44	0xbdae51d8	-0.08511704
45	0xbcf2b358	-0.029626533
46	0xbc8e9478	-0.01740478
47	0xbc4934dd	-0.01228067
48	0x3d3bec19	0.045879457
49	0xbcd371f2	-0.02581117

mlp.5.weight f4 [50, 50]
0	0x3de5a205	0.112125434
1	0x3e275127	0.16339551
2	0xbd857b5d	-0.0651767
3	0xbeb8a473	-0.36062965
4	0x3df67069	0.12033159
5	0x3da49017	0.080352955
6	0x3e157da2	0.14598706
7	0x3d169110	0.036759436
8	0xbc13b075	-0.009014239
9	0xbe1ced29	-0.15324844
10	0xbe5f1672	-0.21785906
11	0x3df273f1	0.1183852
12	0x3dedead6	0.11617057
13	0xbe108d68	-0.14116442
14	0x3e3461be	0.1761541
15	0xbe33a0a3	-0.17541747
16	0xbc10f953	-0.008848506
17	0x3df96dec	0.12179169
18	0xb9555101	-0.00020343439
19	0x3d0ab82f	0.033867057
20	0x3e022f68	0.12713397
21	0x3db5604e	0.08856259
22	0xbd3db6e4	-0.046316996
23	0x3db2f6c6	0.087384745
24	0xbe0bdbcf	-0.13658069
25	0xbe13fe38	-0.14452446
26	0xbdfeac11	-0.12435163
27	0x3ccce6b3	0.02501235
28	0xbd0f3ca0	-0.034969926
29	0xbe2668bc	-0.1625089
30	0x3cdbc36b	0.026826581
31	0xbde3101a	-0.110870555
32	0xbcfd3616	-0.03090958
33	0x3e356dd4	0.17717677
34	0x3e60bb18	0.2194637
35	0xbe58e6bf	-0.21181773
36	0x3d47c883	0.048775207
37	0x3d5c2412	0.053745337
38	0x3e153fac	0.1457507
39	0x3d95c5d3	0.073131226
40	0xbcfa9f0b	-0.030593416
41	0xbe2546ec	-0.16140336
42	0xbe115d84	-0.1419583
43	0x3d0f3c69	0.03496972
44	0xbcc07c11	-0.02349666
45	0xbdeb2499	-0.1148159
46	0xbe212d5b	-0.15739958
47	0xbdba8453	-0.0910727
48	0x3daf30ae	0.08554207
49	0x3d929a27	0.071583085
50	0x3d7edeab	0.06222407
51	0x3e5254bd	0.20540138
52	0x3ca00834	0.019535162
53	0xbe367cc6	-0.17821035
54	0x3da55ac0	0.0807395
55	0x3cf34406	0.029695522
56	0xbcc45793	-0.02396754
57	0x3bd5c3d4	0.0065235887
58	0xbe28f910	-0.1650126
59	0xbe72c11d	-0.2370648
60	0xbda1dcf7	-0.07903474
61	0xbd13fc1f	-0.036129113
62	0x3de2badb	0.11070796
63	0xbe50651c	-0.2035107
64	0x3e47eed1	0.19524695
65	0xbdb8ed24	-0.09029606
66	0xbd6baa55	-0.05753549
67	0x3c7004a0	0.01464954
68	0x3e61d1a6	0.22052631
69	0xbe1d780b	-0.15377824
70	0x3ca1d07d	0.019752735
71	0x3d5fc014	0.05462654
72	0x3dcf657c	0.101267785
73	0x3dc2dc67	0.09514695
74	0xbd461720	-0.048361897
75	0xbd97e462	-0.074166074
76	0xbcb72f7e	-0.022361513
77	0x3dc923f4	0.09821311
78	0xbdaae88b	-0.08345135
79	0xbba4b2f2	-0.0050262148
80	0x3d6a4b1b	0.057200532
81	0x3c982c1e	0.018575724
82	0x3dabb08b	0.08383282
83	0x3d5babdf	0.053630706
84	0x3e53902c	0.20660466
85	0xbe17982d	-0.14804144
86	0x3e5e2bb1	0.21696354
87	0x3e245726	0.1604887
88	0x3dfbc3ea	0.12293227
89	0xbd28b5c8	-0.041188985
90	0x3e5cd76a	0.21566549
91	0xbe3700a4	-0.17871338
92	0xbe194d03	-0.14970784
93	0x3d81d129	0.06338722
94	0x3d8b42fd	0.067998864
95	0xbe05deb8	-0.13073242
96	0xbcad7df1	-0.021178218
97	0xbe295e4c	-0.16539878
98	0x3e0b4d5c	0.13603729
99	0x3c2e93ce	0.010655357
100	0x3e34d93f	0.17660998
101	0x3e1b5c54	0.15171939
102	0x3daf6dd3	0.08565869
103	0xbe4a3dd4	-0.19750148
104	0x3de2d779	0.110762544
105	0xbdb2c4b5	-0.08728925
106	0x3d9814a6	0.074258134
107	0x3db67aa5	0.08910111
108	0x3db7aee3	0.08968904
109	0xbdc0d75d	-0.09416077
110	0xbd3df9f0	-0.046380937
111	0xbddb175e	-0.10697816
112	0x3dbf2ef1	0.09335125
113	0xbd0ce059	-0.034393642
114	0xbd499161	-0.04921091
115	0xbcc97dab	-0.024596056
116	0x3de408ea	0.11134513
117	0x3dc888dc	0.09791729
118	0x3dcf907e	0.101349816
119	0x3dc7cac2	0.0975547
120	0xbcfdb4fb	-0.030970087
121	0x3c02a0aa	0.007972876
122	0x3d16b1c8	0.03679064
123	0xbd9bdca9	-0.07610447
124	0xbe161db4	-0.14659768
125	0x3b1f23a2	0.0024282713
126	0xbd343f19	-0.044005487
127	0xbc91156f	-0.017710416
128	0xbe06ba2d	-0.13156958
129	0x3d8f68eb	0.070024334
130	0x3dcd4204	0.10022357
131	0xbde68d27	-0.112573914
132	0x3db994d9	0.090615936
133	0x3d11c676	0.035589658
134	0x3e26761e	0.16255996
135	0xbca240bb	-0.019806257
136	0x3e0a529b	0.13508074
137	0x3dc08560	0.09400439
138	0x3d1a9288	0.0377374
139	0x3d3280e8	0.043579966
140	0x3e2f3d22	0.17113164
141	0xbe148372	-0.14503267
142	0x3cdaa383	0.026689297
143	0x3d71b156	0.05900701
144	0x3d413459	0.047169063
145	0xbe1560d6	-0.14587721
146	0x3cd6d15b	0.026222875
147	0xbb7952b4	-0.003804368
148	0xbd96bba3	-0.073600076
149	0xbe00cc2c	-0.12577885
150	0x3e21906b	0.15777747
151	0x3dccf4b3	0.1000761
152	0xbcbf76b9	-0.023372041
153	0xbd8256d4	-0.063642174
154	0xbe2ca8a4	-0.16861206
155	0x3deabf97	0.11462324
156	0xbda655e5	-0.08121852
157	0x3dad3893	0.08458056
158	0x3d8ae8c9	0.067826815
159	0x3eaf1d2f	0.34201953
160	0x3cfae545	0.030626902
161	0xbd9fc5a9	-0.078013726
162	0xbba634a1	-0.005072192
163	0x3e44eeb8	0.19231689
164	0xbda76128	-0.08172828
165	0x3dc4f787	0.096175246
166	0xbe026bda	-0.12736455
167	0xbe2f0f5a	-0.170957
168	0x3c3fd772	0.011709081
169	0x3dda5d12	0.10662283
170	0xbe08ebaf	-0.13371156
171	0x3e08fd2e	0.1337783
172	0xbd9e23b1	-0.07721651
173	0x3d9803f8	0.07422632
174	0x3c6dd8a8	0.014516987
175	0x3e248b0d	0.16068669
176	0x3e5758cc	0.21029967
177	0xbe149ddf	-0.14513348
178	0x3e0db29e	0.13837668
179	0x3d95f187	0.07321458
180	0xbac1d3cc	-0.0014787852
181	0x3dc82b9a	0.09773941
182	0xbd0a82bc	-0.033816084
183	0xbe1bd1e4	-0.15216786
184	0xbc379d89	-0.011206993
185	0x3e05296b	0.13004081
186	0xbd2a6712	-0.0416022
187	0x3cc10591	0.023562225
188	0x3d105470	0.035236776
189	0xbe2e1eee	-0.17003986
190	0xbd81e5c5	-0.06342653
191	0x3dffb949	0.12486512
192	0xbd573d05	-0.052548427
193	0xbd935e82	-0.0719576
194	0xbdd3ff90	-0.10351479
195	0xbd26b31c	-0.040698156
196	0x3d5a18f3	0.05324645
197	0x3def3bf4	0.11681357
198	0xbd4d9713	-0.050192904
199	0xbe28412f	-0.16431116
200	0x3be9a7ac	0.0071305837
201	0xbde46097	-0.111512356
202	0x3e042962	0.12906411
203	0x3dc4b11e	0.09604095
204	0x3d956508	0.07294661
205	0xbc0a27c8	-0.008432336
206	0x3e055cfe	0.13023755
207	0xbd57b583	-0.052663337
208	0x3de94bff	0.11391448
209	0xbdc2a259	-0.095036216
210	0xbda65d6c	-0.081232876
211	0xbcb53d3c	-0.022123925
212	0xbc2d3329	-0.01057128
213	0xbdd3fbbe	-0.103507504
214	0xbd0b590d	-0.034020472
215	0xbe0359dd	-0.12827249
216	0xbd61834b	-0.05505685
217	0xbe0a53c7	-0.13508521
218	0xbd2b3728	-0.041800648
219	0xbdae4ed4	-0.08511129
220	0x3d12c624	0.035833493
221	0xbd849825	-0.06474332
222	0x3d3fbfad	0.046813656
223	0x3d2d6bdc	0.04233919
224	0x3d64dddb	0.05587564
225	0x3d839d4e	0.06426488
226	0xbc74d380	-0.014943004
227	0xba448415	-0.00074964884
228	0x3e06e1ea	0.13172117
229	0xbdf1856b	-0.117930256
230	0x3d2e9bb6	0.042628966
231	0x3d1d42a9	0.03839365
232	0x3cff0fee	0.031135526
233	0xbe029ede	-0.12755916
234	0x3d431dc2	0.0476358
235	0x3dcabadb	0.09898921
236	0xbda72604	-0.08161548
237	0xbd424887	-0.04743245
238	0xbd42495e	-0.04743325
239	0x3d8d3743	0.06895306
240	0x3d4e8882	0.050423153
241	0x3d8b34a7	0.06797152
242	0x3c2354ff	0.009968995
243	0x3dfb6945	0.12275938
244	0x3d9679ac	0.07347426
245	0x3c01e642	0.007928433
246	0x3ceec85d	0.029148275
247	0x3e0f575e	0.13998172
248	0x3d6e5292	0.058184214
249	0x3c734c53	0.01484974
250	0x3d24e68f	0.04025894
251	0x3dd52c16	0.10408799
252	0x3db8cfde	0.090240225
253	0xbd6df291	-0.058092657
254	0xbdc16959	-0.094439216
255	0x3d615402	0.055011757

mlp.5.bias f4 [50]
0	0x3dbe751b	0.0929968
1	0x3d897d2c	0.06713328
2	0x3d14ffc5	0.036376733
3	0x3d702128	0.05862537
4	0xbdf802ec	-0.12109932
5	0xbdb0cd4e	-0.08632909
6	0x3d695cc9	0.056973252
7	0x3d27f2cb	0.04100303
8	0x3dc1c661	0.09461666
9	0x3cf21541	0.02955115
10	0xbdd90c28	-0.10598022
11	0x3d2b2dcb	0.04179172
12	0xbd2cff17	-0.04223546
13	0xbe09c3ab	-0.13453548
14	0x3d2b8555	0.041875202
15	0x3d95dad0	0.07317126
16	0x3d16e972	0.036843725
17	0x3ca124e5	0.019670913
18	0x3d4057f0	0.046958864
19	0x3d16b7e0	0.03679645
20	0x3d56d2ff	0.052447315
21	0xbd8e7ff1	-0.06957997
22	0xbbe79e52	-0.007068434
23	0xbdd96441	-0.10614825
24	0x3d227aea	0.039668
25	0xbe150957	-0.14554344
26	0x3d105281	0.03523493
27	0x3daeb333	0.08530273
28	0x3b0b6e2f	0.0021275391
29	0xbdacf1d4	-0.084445626
30	0xbe286667	-0.16445313
31	0x3d1528a8	0.036415726
32	0x3bf4f465	0.007475423
33	0x3cfb2e64	0.03066177
34	0x3c9311b7	0.017952783
35	0x3d123fa3	0.03570522
36	0x3b9d668a	0.0048034834
37	0x3daedfd8	0.085387886
38	0xbd521e17	-0.051298227
39	0x3ca10c15	0.019659081
40	0xbe09caa3	-0.13456206
41	0x3d4ea1ce	0.050447278
42	0xbdf1a688	-0.117993414
43	0x3db269d5	0.08711592
44	0x3d270734	0.040778354
45	0xbd4a3eb0	-0.04937619
46	0x3d7fbdba	0.062436797
47	0xbd653fca	-0.055969037
48	0xbdf2bae6	-0.11852054
49	0x3b9df41b	0.0048203594

mlp.8.weight f4 [1, 50]
0	0xbf219ba2	-0.631281
1	0xbf12daa0	-0.57364845
2	0xbea1bcbd	-0.31589308
3	0x3f13da96	0.5775541
4	0x3cb9da72	0.02268717
5	0x3cbd5deb	0.023116073
6	0xbf1a7894	-0.6034024
7	0x3e30a289	0.17249502
8	0xbc8fb781	-0.017543556
9	0xbe991005	-0.29895034
10	0xbd68b437	-0.05681249
11	0x3f1d06e3	0.61338633
12	0xbdb291b9	-0.08719201
13	0xbc82d204	-0.015969284
14	0x3ef07213	0.46962032
15	0xbf4eae22	-0.80734456
16	0x3f2d0af8	0.6759486
17	0x3db35d4b	0.087580286
18	0xbe72fd27	-0.23729382
19	0x3f0aad5a	0.54170763
20	0xbf4c02ee	-0.7969197
21	0x3db36de2	0.08761193
22	0x3e9ab0aa	0.3021291
23	0x3f3356c6	0.7005428
24	0xbf4a1262	-0.789343
25	0x3e4ce358	0.200086
26	0xbf095abc	-0.53654075
27	0xbf040a06	-0.51577795
28	0x3ef5e0fe	0.48023218
29	0x3d358739	0.04431841
30	0x3ecf024a	0.40431434
31	0x3f155d39	0.5834537
32	0x3f40b47b	0.7527539
33	0xbf610617	-0.8789992
34	0xbf538992	-0.8263179
35	0x3f471e7c	0.7778089
36	0x3f1ac095	0.60450107
37	0xbf1406cd	-0.5782288
38	0x3f8cdfc7	1.1005791
39	0x3f29738e	0.6619195
40	0xbcd91a4d	-0.026501799
41	0x3f34cc6a	0.7062441
42	0x3dff4001	0.1246338
43	0xbf6772f8	-0.90409803
44	0x3f1bf0cc	0.609143
45	0x3d3809a7	0.04493108
46	0xbf5a53c1	-0.8528405
47	0xbe008769	-0.12551655
48	0xbc8f8fa3	-0.017524546
49	0x3f403f2f	0.7509641
