models/weights/layers_20_20_20_drop_lr_0.0001.pt (torch, 9077 bytes, 7 tensors)

mlp.0.weight f4 [20, 31]
00000000: 2da4 96be c227 ac3c 2dd0 2f3c 1e67 21bb
00000010: 4907 613b 2286 423d a572 51bd 30bd 0ebe
00000020: 9ec7 5c3e 0117 8e3d b2ae 0bbe 507f 493d
00000030: ad01 02bd 9a69 b9bd 78fd 4cbd a24e 91bc
00000040: 60af 253e 39f9 813d 53cb 70bd aa53 d0bd
00000050: 30a2 f23d 8cd4 363e 54d1 07bf b9ec 86be
00000060: 2738 6b3e ba66 d5bc 19bc 183e a2e2 5bbd
00000070: 406e 80be 6b72 f43d dad5 1e3d f21b a3bc
00000080: 740a 07ba 3ca7 833c 9665 533b 5261 3f3f
00000090: 6980 f13e 56ab 18bd 985d cf3d 323d 94bd
000000a0: e0ae 39bc f7c2 01be 3f67 bc3d 9849 d13c
000000b0: be87 2b3d b41f 603c 87ed e2bc 4837 89bb
000000c0: c7f2 ecbc 1426 523c ed9f f93c c75d 96bc
000000d0: 6538 55bc b656 de3c 55eb f53c e5a7 1dbe
000000e0: ba25 bd3d 6497 6e3e ed43 4a3e 2999 99be
000000f0: bc2b 07bd 9662 0bbd 3d3e 26be 7750 663d
00000100: 7704 20bd 08f8 d7bc f5f9 193e fcbe f13d
00000110: 05c9 c03c b846 44be 9541 3dbe fcad f4bd
00000120: 68c2 0c3e f764 5fbd 67e8 7dbc a05f 173e
00000130: b53e b4bd 7ef7 cdbd 9dc8 73bd dc1e 32bd
00000140: 523e 223e 933f 953e 0e95 4fbe 8f58 54bd
00000150: e68b 5bbe 41cb c73c 24ca 10be f1d8 e13d
00000160: 433b 2fbe ef6e 44be c39a 033d 23c0 7a3b
00000170: f7f9 ec3d 7035 53be 63d6 123d 570a fa3b
00000180: b789 003d 7263 0b3f a52f 01bf 5182 b4bb
00000190: dbb7 86bd 3844 db3e 177e e13c c604 993d
000001a0: 8221 083e 1a0c 11be ad5a 37bd e65d 2abc
000001b0: c24e 883d 0c2c 55bd ee22 b73c 64a5 353d
000001c0: 9d33 273c cea3 643d 025d 80bd 64c1 393e
000001d0: b7ba 833d ad4e b0bd b71e 1bbe fb71 083e
000001e0: 7f0f ce3d 6f3f 6fbe f4fa ce3c 3009 3a3e
000001f0: d564 bdbb a69f 7dbb 4552 0d3c dd77 11bb
00000200: 2bea 65c0 a963 7240 36db 52bc 862b 123c
00000210: 2531 c7b5 9d1c 613a cdb0 b13c 6526 473c
00000220: 9695 efba fa4f 8abb 0237 65bc eed2 2a3b
00000230: 0cc7 fa3c e397 dfbc 5e73 cfbb 2c4e a3bc
00000240: 82e8 3fbc 6dba f83b 4fdf aabc 4dfa dbbd
00000250: 97ec f5bd 8c40 49bd a025 ddbd a6d6 06be
00000260: 16f4 17be 6189 adbd f8cd 5cbd 6897 673d
00000270: 3af6 c0bd 7039 693d 2a78 72bc 475d a0bb
00000280: 638f 6f3c f89d b93c 5756 713d 6f1e 97bc
00000290: 5cf4 f5bc eba7 403e 7e1c a3bd 6d05 bcbd
000002a0: 2928 f0bc c050 0bbd e407 c0bd 945b 0a3e
000002b0: e1fa d6bd 75c7 b3bd 3033 afbc 4756 933c
000002c0: c125 0d3c 9e67 8abf a0da 23be 0b17 a43d
000002d0: a91a 283e 3671 afbe b7ca 8e3d 63c2 7bbe
000002e0: 2633 c0be be46 10be 9441 19bd 5f1a 1ebc
000002f0: d692 a33c 77bb d63c 5f07 89bf 2e5c 733f
00000300: d044 c53d 18a8 81bc 91e4 973d 2c9f 3b3d
00000310: dfbe babd d997 2b3e 1bb9 9f3b af90 19bb
00000320: b4c8 7c3d 136f 2dbc e3f0 723c bde3 13bd
00000330: a5c7 943d 9143 f43c 3084 1bbd 1fd5 8e3d
00000340: 45b8 823d 078e c0bd 23c9 2c3d d124 c03d
00000350: a2cb 91be 03b8 cd3e f06f e63d 7726 fd3b
00000360: d77e 8b3c 05b0 fa3e 36b9 993d 7b33 c1bc
00000370: ce71 a0bb d774 cf3e b582 4cbe 350f 91bd
00000380: 8c32 d73c b9c9 67be b08a 5b3d 4040 023e
00000390: 3c10 f7bd 8327 a93c f76a a53c f6a8 80bc
000003a0: 135c 49bc 5815 133e 37f7 e2bc 31b8 bc3c
000003b0: dd2f 693d 2849 5cbd c840 803c e64d 4cbe
000003c0: ce79 87bd d1cd aebd e31a 003e f1b0 c4bb
000003d0: bb1e 9d3e d963 233e 75ba 03be 34f1 6fbd
000003e0: 875a 383d 56b6 f2bb eb6b 8ebc 1798 3b3b
000003f0: 9a60 80bf c596 adbc e930 8abc a58f 9c3c
-0.2942213 0.021015052 0.010730785 -0.0024628113 0.0034336618 0.0474912 -0.051134724 -0.13939357
0.21560523 0.069379814 -0.1364086 0.04919368 -0.03173988 -0.09053345 -0.050046414 -0.01773769
0.16180182 0.063463636 -0.058787655 -0.10172208 0.11847341 0.17854518 -0.53053784 -0.2635248
0.22970639 -0.02604996 0.14915504 -0.05368293 -0.25084114 0.11935886 0.038778163 -0.019910786
-0.0005151399 0.016070955 0.0032256595 0.74757874 0.47168282 -0.037272774 0.101252735 -0.072382346
-0.011333197 -0.1267203 0.0919938 0.025547788 0.0418775 0.013679434 -0.027701152 -0.0041874982
-0.028924359 0.012826461 0.030471766 -0.018355263 -0.013013934 0.027140956 0.030019442 -0.15396078
0.092357114 0.23299938 0.19752474 -0.29999664 -0.033000693 -0.034029566 -0.1623468 0.05622908
-0.039066758 -0.026363388 0.15036757 0.118040055 0.023533354 -0.19167602 -0.18482049 -0.119472474
0.13746035 -0.054539647 -0.015497304 0.14782572 -0.08801023 -0.10056971 -0.05951749 -0.04348646
0.15844086 0.29150066 -0.20271704 -0.05184227 -0.21440086 0.024388911 -0.1413961 0.110277064
-0.1711245 -0.19182943 0.032130014 0.0038261495 0.115711145 -0.20625854 0.035848986 0.007630627
0.031381335 0.54448617 -0.50463325 -0.005508699 -0.065780364 0.42825484 0.027525945 0.074716136
0.13294032 -0.14164773 -0.04476421 -0.010398364 0.06655647 -0.05204396 0.022355523 0.044347182
0.010205177 0.05582028 -0.0626774 0.18140179 0.064320974 -0.08608756 -0.15148436 0.1332473
0.100615494 -0.23364042 0.025266148 0.18167567 -0.0057798424 -0.0038699894 0.008625572 -0.0022196688
-3.5924175 3.7873328 -0.012869647 0.00892151 -1.4840958e-06 0.00085873326 0.02169075 0.01215515
-0.0018278833 -0.0042209597 -0.013990166 0.0026065665 0.030612491 -0.027294105 -0.0063308915 -0.019934736
-0.011713149 0.007590583 -0.020858435 -0.107411005 -0.120080166 -0.049133822 -0.10798192 -0.1316782
-0.14839205 -0.084734686 -0.053907365 0.056540877 -0.09421964 0.056939542 -0.014799157 -0.004893932
0.014621588 0.022658333 0.05892023 -0.018447129 -0.030023746 0.18814056 -0.07964419 -0.091807224
-0.029316025 -0.034012556 -0.09376505 0.13511497 -0.1049707 -0.08778278 -0.021386713 0.017985476
0.008614958 -1.0812871 -0.16001368 0.080122076 0.1641642 -0.3426606 0.069722585 -0.24585871
-0.37539023 -0.14089486 -0.037416056 -0.009649842 0.019967478 0.026212437 -1.0705374 0.9506253
0.096322656 -0.015827224 0.074166425 0.045806095 -0.09118437 0.16757144 0.004874361 -0.0023432185
0.061714843 -0.010585564 0.01482794 -0.03610586 0.07264642 0.029817374 -0.03796786 0.069742434
0.06382803 -0.094020896 0.042184006 0.09382022 -0.28475672 0.40179452 0.11251819 0.0077255326
0.017028255 0.48962417 0.07506029 -0.023584118 -0.004896379 0.4051883 -0.19971736 -0.07082979
0.02626922 -0.22635545 0.05359906 0.12719822 -0.12063643 0.020648723 0.020192606 -0.015705567
-0.012290019 0.1436361 -0.027705772 0.023037048 0.05693041 -0.053780705 0.01565589 -0.19951591
-0.06615029 -0.0853535 0.12510256 -0.0060025384 0.30687508 0.15956058 -0.12864096 -0.05857964
0.04500821 -0.00740699 -0.017385444 0.0028624588 -1.002948 -0.021190057 -0.016869025 0.019111464

mlp.0.bias f4 [20]
00000000: b5f6 00bf 50d1 8bbb 2e13 77be cd3f ebbc
00000010: 9fd0 cebe d4c1 7ebf 4ba9 3e3e 898c 213e
00000020: bf2d 4dbf 50d0 14bf 5c35 d63c 99c7 683d
00000030: f423 dd3a 7ae9 4ebf 91ba 1dbe e717 343e
00000040: be84 bdbd 6a2c cdbd 8d8f 883d bc99 1abe
-0.50376445 -0.0042668954 -0.2412841 -0.028716946 -0.4039354 -0.9951451 0.18619268 0.15776266
-0.8014793 -0.5813036 0.02614849 0.056830976 0.0016871677 -0.80825007 -0.154032 0.17587243
-0.09253834 -0.10018237 0.06668005 -0.15097708

mlp.2.weight f4 [20, 20]
00000000: c0ed fd3d f85e 233e 587a f43d a7b9 d0bd
00000010: 5aaf 04bf 3871 0c3f 045f 95bd e4d0 0b3e
00000020: de38 a2be f89e 6bbe 7459 e2bd ef05 dabd
00000030: 5287 f33b e760 213e dd90 ee3d bb3c 233e
00000040: fe5c e73d 0098 9fbc e57c b5bc a2fd 7cbe
00000050: e6c3 523d 63c4 2a3d 3eab e4b6 7955 8abd
00000060: 3368 f23f 8162 9fbd ffa9 803e beaf b4bd
00000070: a35d 10bd ef39 abbd 5ee9 06be b2e6 c83d
00000080: 0216 d43d 387b 553d 3d95 78bd a773 1fbd
00000090: 7ebb 1ebe 66e8 5c3f b27e 4cbd 9a25 29bd
000000a0: 41b4 f53d b095 49be b617 0cbe 5fbc 5d3d
000000b0: 9722 033e 8419 1fbe 0ac3 d6bd 3c80 de3d
000000c0: 9399 703c a99a fa3d 13f2 49be 23be d8bd
000000d0: 4232 3ebe 041b 1dbe 9071 07be cc3e 273e
000000e0: e12b 5ebe 0e27 1cbe 303f a9bd 69e3 11be
000000f0: 7a1f 523c e27f a0be bbaa 34be cb0e 2a3e
00000100: 6fdf 4d3f dbcd f0bd 0f0a 5d3e e739 b8bc
00000110: c1d5 9c3d 345d ac3e a846 223e 936e 373d
00000120: 71b3 363e 6cf2 28bf b8d6 033f 08e4 31be
00000130: 87e3 5cbe cea9 fb3e bcb2 1b3e bc02 9c3d
00000140: 4b37 543c 36a0 d73d cfc4 373d 05de 073d
00000150: e32d 39bf 380e 013f 48fa 97be 9f63 423e
00000160: 8416 36be 8713 8abe 0034 5cbd 265b 11be
00000170: 383f 6dbd dcb2 6e3e fa0b d138 b6c5 7f3d
00000180: 2884 e7bd 7e1e 953d b008 b5bd 463a 33be
00000190: b837 143b d1a1 4cbd 2a85 483d d796 40be
000001a0: 1921 c5be aeff 35bd a1c8 bf3d 609e 59bd
000001b0: 1842 d8bd 1b4c e9bd fae1 6fbe 9243 bdbd
000001c0: 1014 eb3d 4ac1 c63d 0520 323d 5e8d 093e
000001d0: 6c3f 5c3d 246f 13be 67cd 493e 5da0 74bd
000001e0: 97ab fdbc a5c9 0b3d 05b4 fabc 2fda 07be
000001f0: 6dc8 10bd 5d32 b63d df48 61bd f1b3 e3bd
00000200: 3555 e43e 27fc 14be f499 e93c 61a3 483e
00000210: bd83 03be 59d8 d43e 2dac 923d 0899 22be
00000220: 7403 31be 5377 27be 22ff 65be 4087 a9bd
00000230: 46d9 b23e 1770 903d 88a8 563e 13ec c1bd
00000240: 25c9 37be b854 3f3f 28f3 5ebc 937d 88bd
00000250: bb57 60be b7b2 5abc 5511 60bd e14e e6bd
00000260: 1e95 bbbe 0377 683d 77bd d13d 9bb9 6ebd
00000270: 3298 0cbe 874b acbd dc82 ae3e 2210 553e
00000280: fdda 5f3e f7ce ba3d 4ca5 683e b596 74bd
00000290: ff76 68be 2b2f c53e ced5 13be 1ac7 043e
000002a0: e47b 423d 3c37 e6bd 44a6 a9be a93b 34be
000002b0: e3d5 363e 0f6d fd3d d6f4 213e 0d05 d1bd
000002c0: 91dd 50bd 6e36 71be 49a4 ec3c d8be 2cbe
000002d0: 2954 95bd a120 a4be 6234 0bbd 11be 103e
000002e0: 4ea7 733f 71bc 67be 3083 103d 314d 55be
000002f0: 09cb c63e fca2 2cbd b419 b03d 8b73 01bd
00000300: 78fd 8abd fcb1 87be 847d d63d 7e8c bbbd
00000310: fe44 0cbe 34dc 383e 4117 4bbc 352e ff3d
00000320: b337 80bb eaff 0b3f cc61 ac3a 39ed 793e
00000330: df2d d5bc 7c4d 893d 6a43 8abd 3397 143d
00000340: f0cb ff3e 3aca a73e e403 1fbd 42c5 8f3d
00000350: 0e5c 863c 4421 813e 7448 743d eb3e d8bd
00000360: 3e30 01bd 3c85 1a3e 18ff acbd af3d 13bc
00000370: 2ca3 51be 9d20 5c3e 1727 d13d 069b 123e
00000380: 9d2c 33be e94a 21be c307 853d ca7b c3bd
00000390: a2e7 a93d 4bf9 0dbe 6317 3fbe 9230 de3d
000003a0: f6d1 b1bd 9f33 9dbd 208d e23d f38d 25be
000003b0: 5eec 69b9 d1be b4bd c9ec 153e 76bf b0bd
000003c0: 3615 573d 8b19 3abe 03c3 99bd 8423 36be
000003d0: 451e 6ebd 9cb1 41be 3803 08be 48f1 1dbd
000003e0: f87e bc3e 431d 2b3c ba7e 4b3d 5bcf 063e
000003f0: 5d51 083d 86df d43e 3728 e93d 57af 24be
0.12398863 0.15954196 0.11937398 -0.101916604 -0.51830065 0.5486026 -0.072935134 0.13653904
-0.3168401 -0.2300986 -0.11052218 -0.10645663 0.007431903 0.15759622 0.11648724 0.15941136
0.11297034 -0.019481659 -0.02215428 -0.24706128 0.051456355 0.041691195 -6.8148647e-06 -0.06754584
1.8938049 -0.0778246 0.25129697 -0.08822583 -0.03524555 -0.08360659 -0.1317496 0.09809627
0.1035576 0.052119464 -0.0606892 -0.038928654 -0.1550121 0.8629211 -0.049925514 -0.041295625
0.11997271 -0.19686007 -0.1368092 0.054134723 0.12806164 -0.15537077 -0.104864195 0.108643025
0.014685052 0.1223653 -0.1972125 -0.10583141 -0.1857386 -0.15342337 -0.13226914 0.16332549
-0.21696426 -0.15249273 -0.08264005 -0.14246906 0.012824887 -0.31347567 -0.17643254 0.16607206
0.8041906 -0.11758014 0.21585868 -0.022488547 0.07657958 0.33664858 0.15847266 0.044783186
0.17841889 -0.65994906 0.5149951 -0.17372143 -0.2157117 0.49152988 0.152049 0.07617709
0.012952636 0.10528605 0.044865426 0.03317072 -0.7233564 0.5041232 -0.29683137 0.18983315
-0.17782027 -0.26968023 -0.05376053 -0.14194927 -0.05792162 0.23310417 9.9681274e-05 0.06244441
-0.11304504 0.072812065 -0.08839548 -0.17502698 0.0022616219 -0.049959008 0.04895512 -0.18807541
-0.38501814 -0.04443329 0.09364439 -0.053129554 -0.105594814 -0.11391469 -0.23426047 -0.09241404
0.11478436 0.09704836 0.043487567 0.13432834 0.05377142 -0.14397866 0.19707261 -0.059723247
-0.03096561 0.03412785 -0.030603418 -0.13266824 -0.03534739 0.08896325 -0.055001136 -0.111183055
0.44596258 -0.14549313 0.028515793 0.19593574 -0.12843223 0.4157131 0.07161746 -0.1587869
-0.17286474 -0.16354112 -0.22460607 -0.0827775 0.3493139 0.070526294 0.20962727 -0.09468856
-0.17947824 0.74738646 -0.013607778 -0.066645764 -0.21908467 -0.013348273 -0.05470403 -0.11245514
-0.36637205 0.056754123 0.10241216 -0.058282476 -0.13729933 -0.08412843 0.34084213 0.20806935
0.21860881 0.09121507 0.22719306 -0.059714038 -0.22701643 0.3851255 -0.14437029 0.12966576
0.047481433 -0.11241004 -0.33134663 -0.17600884 0.17855029 0.12374317 0.15816054 -0.102060415
-0.050992552 -0.2355592 0.028886931 -0.16869676 -0.07291443 -0.32056144 -0.033985503 0.14135005
0.9517716 -0.22630478 0.03528136 -0.20830227 0.3882678 -0.04214762 0.085986525 -0.03160433
-0.067866266 -0.2650298 0.10473159 -0.09157656 -0.13698193 0.18052751 -0.012395681 0.12459985
-0.00391289 0.5468737 0.0013151704 0.244069 -0.02602285 0.06704232 -0.067511395 0.036277007
0.4996028 0.32771474 -0.03882207 0.07020046 0.016401317 0.25220692 0.05963941 -0.10558876
-0.031540148 0.15089887 -0.08447093 -0.0089868745 -0.20472401 0.21496816 0.10212534 0.14316949
-0.17497487 -0.15751232 0.06495621 -0.09545095 0.082961336 -0.13864629 -0.18661265 0.10849108
-0.08682625 -0.076758616 0.11062074 -0.1616743 -0.00022308665 -0.08825458 0.14641108 -0.08630268
0.052510463 -0.18173806 -0.07507899 -0.17786986 -0.058134336 -0.18915409 -0.13282478 -0.03856018
0.3681562 0.010443988 0.049681403 0.13165037 0.03328072 0.41576785 0.113846235 -0.16082512

mlp.2.bias f4 [20]
00000000: 0b88 7bbc 7bcb adbe 9772 98bc 78c6 27be
00000010: 8da3 823d 1347 21bd 0dd1 9abf f6f8 8fbe
00000020: 6d05 79bc aa9c 033e f13c 86bf 2dc3 92be
00000030: f59f 8dbf 4080 acbe 5b14 c03d 06a4 91be
00000040: a658 e73c 225c d73d cb24 e4bd 1123 8abc
-0.015352259 -0.33944306 -0.018609328 -0.16384304 0.06378851 -0.039374422 -1.2095047 -0.2811963
-0.0151990475 0.12852731 -1.0487348 -0.28664532 -1.106444 -0.33691597 0.093788825 -0.28445452
0.028240513 0.1051562 -0.1113983 -0.016862424

mlp.5.weight f4 [20, 20]
00000000: f363 bebd 2dd1 423f df03 153e f626 7e3e
00000010: ffc8 983c e78e 09bc 97e7 823e 1457 09be
00000020: 3868 b6bd 88db 673d 18df 0d3f f3ab 90bd
00000030: 2aae b43e 6224 99bc 56ed 3cbe 8e19 7c3e
00000040: 7a73 c5bd a53b 103c f9ab 1a3d 8b05 00be
00000050: 81ff 7c3e 2dbf 6ebe 2a65 4f3d e9a1 20be
00000060: 8180 153e e520 5f3c 9531 2abe c4f1 963e
00000070: f1fe b2bd a18a a5bd 463c 5abe cd6b 8abd
00000080: 75e0 b7bd 729e ae3b 36c4 393e 2940 39be
00000090: 84ae 103e 7cef c93a a587 f2bc 8570 a63e
000000a0: c2ef 733e cfb7 aebe 2e66 813d 94d7 9dbe
000000b0: 1788 143e 1122 363e d9e7 f4be 597b 7f3e
000000c0: d7b3 083e 072f 8abe bd4f 81be 4cd4 f3bd
000000d0: 4f75 2ebe 3984 b73d be87 3e3c 8dd7 20bd
000000e0: bf45 903d ddc7 363e 6b45 60bd 236a 953e
000000f0: 1221 9c3e 29c3 afbe f239 ef3d 3505 f4bd
00000100: d5ba d6bc 55a6 a03e e327 8ebe ece9 083d
00000110: 2703 d83b 5b5d 56be 6cab efbd 123a 043e
00000120: d875 babe 17d3 39be 2d1a 943e 34e0 31be
00000130: 06ab 913e 9629 94bd d86a 813c 5a2b 1f3e
00000140: b6c7 dfbe 99c6 6d3f 05fd 0e3e 75d8 4e3f
00000150: 3c4f dbbe 7d59 37bc 0b8f 5dbe 5046 58bd
00000160: 395c 8b3d f348 af3e 943b 903e d3f1 633e
00000170: 870c f5bd ed61 093e 1c92 d6be 9496 b63e
00000180: 4f31 29be b598 eebe 55b0 8b3c c022 95bd
00000190: 3475 823c 1124 973f 4c57 0dba f4fb 463f
000001a0: d3a0 afbd 402f b4bc 6ea4 c43e 836d 6abe
000001b0: c145 743e 1416 e23e e2c8 2b3f 9160 623e
000001c0: d446 fe3e 08b3 02be 0daa 3fbd 1456 ef3e
000001d0: b5ae de3d 60ee ac3c 0111 cebd fdfb 353e
000001e0: 7215 803e 0b8f cdbe 5acb 1d3e 39c5 50be
000001f0: a79d 933e db24 9f3d 3c97 87be ac14 ce3d
00000200: 4e9f 603e a5ca a6be 593b 67be d3fc 843c
00000210: ad78 02bf 54ea a03d 6c60 87bd 8c0e fcbd
00000220: c54e 853e ec64 393d ae11 f4bc f273 133e
00000230: 911c 49be 511e bf3c fca4 0a3e 31ae 743b
00000240: 2969 a83d 872e 7cbd feb4 b4bd d303 3abe
00000250: 9021 a0bc 4c23 3bbd 9295 ddbd 17b6 e1bd
00000260: 6916 f6bc 38ae 553e 4e83 293e bebf 3fbe
00000270: 1c0d 0c3e 861b 4bbe d7b2 1f3d f93e 57be
00000280: 40c5 f8bb dd0c 62be 3938 11be e607 15be
00000290: cd25 d13d 1776 0d3d 2abe dcbc 9726 a9bd
000002a0: 2133 0339 4180 103d 3903 353e e4ec e8bd
000002b0: a4d1 243b 9656 71bd 22a3 efbd 3ab3 343e
000002c0: 4716 46be 6e25 893d bb44 093e 7c5d b93d
000002d0: 6e0e 693e 4f53 cbbe fff7 ad3d b4d7 4bbe
000002e0: b28f 3a3e 627f 003e c176 e8be 8b72 ae3e
000002f0: 4e4f e53c 3c95 52be 8ce1 29be 7e98 77bd
00000300: 00b0 0ebe b9e2 d1bd 2923 ff39 0bd0 67be
00000310: ef9e cc3d a5a9 dd3d a9ac 243e 9242 203e
00000320: 4f2c 07be 695e 52be b6d7 0f3e b396 3cbc
00000330: 9dc6 8b3d 5ff6 f5bd 34dc e93d 8945 d2bd
00000340: f0b6 12bd 1040 18be 80a8 d7bd 5276 2b3e
00000350: 0fa4 3bbe 26f2 d0bd 4c36 2bbe 8609 54be
00000360: 3f8d 5ebc 9d1b 19be 3dac 4d3d 1f4c 20be
00000370: cb21 2ebd 5dae b5be 4116 623e fc92 24be
00000380: 728c 573e 943b 8e3d 992f f0be 4e57 873e
00000390: 90c9 3b3e 05ea 9ebe 62f9 6abe 3ad1 0b3e
000003a0: 52a4 0abf 0a22 70bc 2abf ee3d 8a0d 3fbd
000003b0: d3b1 103e ce34 633e e5a0 473e 3958 903e
000003c0: c865 7e3c fbab 85be 8e4d d13d ac4d 92be
000003d0: a822 65bc 823c 833e ac45 e3be 1756 693e
000003e0: 281d 9f3e a9c0 57be 4543 a3be f361 e6bd
000003f0: 1ae7 ebbe a023 1bbe 5d0a 863d 07b9 64be
-0.092964076 0.76100427 0.14552258 0.2481955 0.01865053 -0.008395887 0.25567314 -0.13412124
-0.08906597 0.056605846 0.5541854 -0.07064047 0.35289127 -0.018694106 -0.18449911 0.24619123
-0.09641166 0.008803283 0.037761662 -0.12502114 0.24706842 -0.23315115 0.050633587 -0.15686764
0.14599802 0.0136186825 -0.16620477 0.29481328 -0.087400325 -0.08083082 -0.21312055 -0.067588426
-0.08978359 0.0053289467 0.18141255 -0.18090881 0.14129072 0.0015406455 -0.029605696 0.3250772
0.23821929 -0.3412461 0.06318317 -0.30828536 0.14505039 0.17786433 -0.47833136 0.24949397
0.13349853 -0.26989004 -0.25256148 -0.11905727 -0.17036937 0.08960766 0.011629043 -0.039268065
0.07044553 0.1784968 -0.054753702 0.29182538 0.3049398 -0.34328583 0.11680974 -0.11915056
-0.026212135 0.313769 -0.27764806 0.03342621 0.0065921727 -0.2093405 -0.11702618 0.12912777
-0.36418033 -0.1814693 0.2892622 -0.17370683 0.28450793 -0.072344944 0.015798017 0.15543881
-0.43707055 0.9288116 0.13963707 0.8079904 -0.4283389 -0.011190769 -0.21636598 -0.05280143
0.068046995 0.34235343 0.28170455 0.22260217 -0.1196528 0.13416262 -0.41908348 0.35661757
-0.16522716 -0.4660088 0.017051855 -0.07282019 0.015925027 1.1807882 -0.00053917314 0.777282
-0.08575597 -0.021995187 0.384067 -0.22893338 0.23854734 0.4415747 0.671034 0.2210715
0.49663413 -0.12763608 -0.046793032 0.4674536 0.108731665 0.02110976 -0.10061837 0.17771907
0.2501636 -0.40148196 0.15409604 -0.20387734 0.28831217 0.077707015 -0.2648257 0.100625366
0.2193577 -0.3257648 -0.22581233 0.016233837 -0.50965387 0.078571945 -0.06610188 -0.12307462
0.2603666 0.045262262 -0.029793587 0.14399698 -0.19639803 0.023329886 0.13539499 0.0037335271
0.08223183 -0.06156781 -0.08823584 -0.18165521 -0.019547254 -0.04568796 -0.10819544 -0.11021059
-0.030039983 0.2086724 0.16553995 -0.18725488 0.13676876 -0.19834718 0.038988914 -0.21020116
-0.0075918734 -0.2207522 -0.14181603 -0.14553794 0.10212288 0.034536447 -0.026946146 -0.082593136
0.0001251218 0.035278562 0.1767701 -0.11373308 0.002514937 -0.058920465 -0.11701037 0.17646495
-0.19344436 0.06696592 0.13405125 0.09051034 0.2275941 -0.39711997 0.08494567 -0.19906503
0.18218878 0.12548593 -0.45403102 0.34071764 0.027991917 -0.20564741 -0.16589946 -0.060448162
-0.13934326 -0.10248322 0.00048663586 -0.22637956 0.09991252 0.10823373 0.1608149 0.15650395
-0.13200496 -0.20543827 0.14047131 -0.011510539 0.06824992 -0.12009882 0.114189535 -0.10267169
-0.035818994 -0.14868188 -0.10530186 0.16744354 -0.18324302 -0.10202436 -0.16719931 -0.20706758
-0.01358348 -0.1495194 0.050213087 -0.15654038 -0.042512696 -0.3548459 0.22078802 -0.16071695
0.2104967 0.069449574 -0.46911314 0.26433796 0.18338609 -0.31037918 -0.22946694 0.13654032
-0.5415698 -0.014656553 0.116575554 -0.04664377 0.14130335 0.22188112 0.1949497 0.2819231
0.015527196 -0.26107773 0.102198705 -0.28574884 -0.0139853135 0.256321 -0.44389093 0.22786747
0.31076932 -0.21069588 -0.3188726 -0.11249151 -0.46074754 -0.15150309 0.065449454 -0.22336207

mlp.5.bias f4 [20]
00000000: 386c 683d 3a01 b03d 5c8a 863d 02f0 703d
00000010: 1757 be3d 9be4 4fbd abba 783d 33b4 413c
00000020: 392b 6ebe 9d1f aa3d b52e 10bc 929d 5e3d
00000030: 7bac 813d 09f7 25be 9f57 043d f6f8 093d
00000040: 0b00 88bd c766 6b3d f5c7 8d3d 1538 3cbd
0.05674383 0.08593984 0.06569359 0.05882264 0.09293955 -0.050755125 0.060724895 0.011822748
-0.23258676 0.08306811 -0.008800198 0.05434949 0.06331726 -0.16207518 0.032310124 0.033684693
-0.06640633 0.057471063 0.069229044 -0.04595192

mlp.8.weight f4 [1, 20]
00000000: f4ba 843f 026a 03bf 3a5e 4abf b1c7 2fbf
00000010: 0d8a c63f 0d95 df3f f48f 51bf 2a42 46be
00000020: 2d43 c6bd b1f4 46bf 4119 20be 2058 71bf
00000030: 0ff0 67bf f737 03be 48b1 6bbf f254 6fbf
00000040: 87ae 31be a2ba 73bf 7c30 5dbf 2f49 883d
1.0369554 -0.5133363 -0.7905003 -0.6866408 1.551088 1.7467362 -0.8186028 -0.19361177
-0.096807815 -0.7771712 -0.15634634 -0.94275093 -0.90600675 -0.12814318 -0.92067385 -0.9348899
-0.17351733 -0.95206654 -0.86402106 0.06654584
