models/weights/layers_30_lr_0.0001.pt (torch, 5735 bytes, 3 tensors)

mlp.0.weight f4 [30, 31]
0.27097815 0.24645762 -0.049789906 0.22021471 -0.20885631 0.69483984 -0.16147506 0.0060094194
0.02239609 0.08645604 0.02981939 -0.21654233 -0.24399 -0.07470463 -0.117439665 -0.05930661
0.12825169 -0.22233258 0.19049856 -0.044681426 0.15960412 0.14294045 -0.16022155 -0.08530087
0.015060252 -0.08318429 -0.031221533 -0.2206085 -0.18364984 -0.079772 -0.08560331 -0.010270975
-0.0549278 -0.10392983 0.04564911 -0.83195484 -1.007858 -0.069908746 -0.13757601 0.20848651
-0.060644977 0.22009046 -0.091265306 0.22157858 -0.084812425 -0.05861491 0.011261832 -0.031031696
-0.06367804 -0.04825202 -0.038224425 0.047054913 -0.015831588 -0.019805092 0.08567176 -0.028280417
0.01962511 -0.104322866 0.04406417 0.08893321 -0.15287492 -0.026123237 -0.35921404 -0.030897308
-0.000836758 -0.013065177 -0.4678861 -0.2884174 -0.023582248 -0.25244752 0.11488151 -0.4747745
-0.00537973 0.2763033 0.019869026 0.0045834994 -0.0959401 0.35462472 0.009075344 0.19883716
-0.10894213 0.076891094 0.010293594 -0.104910724 0.21436656 -0.108497456 0.34059817 0.020770095
-0.30769014 0.23193127 -0.12552814 0.10791352 0.0499863 -0.6518231 -0.047473326 -0.004912397
-0.007326365 -0.031501476 0.0044820406 -0.024435885 0.023478283 -0.21711929 -0.48501632 -0.036490005
0.15818606 0.028519023 -0.032026224 0.075978465 0.051714685 -0.034136973 0.22834003 -0.11821969
-0.015341497 -0.026442727 -0.022664376 -0.060053166 -0.011915875 -0.030629035 0.00023461001 0.13134947
-0.32694024 -0.15362589 0.35538787 0.022739982 0.09925223 0.14242093 -0.035032354 -0.0016748308
-0.4764402 -0.17369032 -0.06746064 -0.27423078 0.49325737 0.34014523 0.081949815 0.0771426
-0.14586845 0.010198623 -0.0014994113 0.07207087 -0.028393103 -0.2049877 0.014799166 0.1725835
0.06498148 -0.06649492 0.31012738 0.013097344 -0.057719078 -0.12875696 0.25587502 -0.07146118
-0.3727049 0.06823626 0.016611358 -0.28057382 0.2784831 -0.046817552 -0.004780633 0.054140028
0.08961414 -0.0502949 -0.11931754 0.1303946 0.13762473 -0.03065863 -0.09223028 -0.07523748
-0.07466149 -0.06366354 0.005166152 0.047099028 -0.021029228 0.13500366 -0.1769841 0.13478886
0.14069451 -0.74624044 -0.17553489 0.15869144 0.113683715 -0.20492968 -0.27067986 -0.2948229
0.008418248 0.107595906 0.0075804014 -0.034943007 0.046222784 0.05719346 -0.9611281 0.7194761
0.13539526 0.13781135 0.052784413 -0.12410535 -0.054372374 0.22340432 -0.047598906 0.12932536
-0.03190182 -0.24540687 -0.14560474 -0.02269389 0.078991935 0.1109052 -0.031199777 0.17385618
0.038478572 -0.18273352 -0.20094645 0.14220268 -0.036065966 0.13814329 -0.07716019 0.089850254
0.056759786 0.10398467 0.17869051 -0.10412294 0.03889826 -0.0006885553 -0.18735811 -0.21015488
0.014654252 -0.016929274 -0.015538741 0.23683521 -0.07747883 0.06708272 -0.24747953 0.13157482
0.22327529 -0.05979886 -0.027749678 0.14436013 0.25959742 0.09304754 0.15812133 -0.010333869
-0.0056367703 0.0006389785 -0.024848381 0.26234302 -0.0033063404 -0.28042826 -0.06134449 0.028604116
-0.008228224 -0.041258093 0.04823388 -0.055321 0.26673397 0.087963544 0.0004229882 -0.29037672
00000000: a6bd 8a3e 635f 7c3e 80f0 4bbd f77f 613e
00000010: 6ede 55be 06e1 313f b859 25be aaea c43b
00000020: 0178 b73c dd0f b13d cb47 f43c 46bd 5dbe
00000030: 84d8 79be befe 98bd 3584 f0bd 7deb 72bd
00000040: 6954 033e 27ab 63be 0e12 433e df03 37bd
00000050: 436f 233e fb5e 123e 1e11 24be 39b2 aebd
00000060: 46bf 763c 865c aabd 4dc4 ffbc 32e7 61be
00000070: b40e 3cbe 815f a3bd ca50 afbd 9747 28bc
00000080: f9fb 60bd 2ad9 d4bd 90fa 3a3d fefa 54bf
00000090: 7e01 81bf 512c 8fbd bae0 0cbe 7d7d 553e
000000a0: de66 78bd 655f 613e 4ee9 babd 7fe5 623e
000000b0: 23b2 adbd 3016 70bd 8c83 383c 2f36 febc
000000c0: a269 82bd e9a3 45bd 3791 1cbd a7bc 403d
000000d0: 3fb1 81bc 4a3e a2bc ad74 af3d 55ac e7bc
000000e0: d7c4 a03c 3aa7 d5bd a27c 343d 9d22 b63d
000000f0: 3e8b 1cbe 6600 d6bc e7ea b7be 5a1c fdbc
00000100: e159 5bba 530f 56bc c48e efbe 72ab 93be
00000110: 8f2f c1bc cd40 81be ff46 eb3d a515 f3be
00000120: 7248 b0bb a077 8d3e 5ec4 a23c 2e31 963b
00000130: 3e7c c4bd 5f91 b53e c0b0 143c f89b 4b3e
00000140: 0d1d dfbd 1479 9d3d 76a6 283c 6fdb d6bd
00000150: e882 5b3e ea33 debd e262 ae3e 0c26 aa3c
00000160: 9089 9dbe 647f 6d3e 738a 00be c301 dd3d
00000170: 6fbe 4c3d e1dd 26bf 6473 42bd 2cf8 a0bb
00000180: 0112 f0bb b107 01bd 15de 923b c42d c8bc
00000190: 8755 c03c 8554 5ebe 0f54 f8be 8b76 15bd
000001a0: 87fb 213e baa0 e93c ee2d 03bd 999a 9b3d
000001b0: c7d2 533d 36d3 0bbd f8d1 693e 2a1d f2bd
000001c0: e75a 7bbc 6b9e d8bc a4aa b9bc 4ffa 75bd
000001d0: cd3a 43bc bee9 fabc a501 7639 7a80 063e
000001e0: b664 a7be 1b50 1dbe 66f5 b53e 3349 ba3c
000001f0: c144 cb3d cbd6 113e 167e 0fbd ff85 dbba
00000200: f8ef f3be e0db 31be ce28 8abd fa67 8cbe
00000210: 3b8c fc3e 8427 ae3e 4ed5 a73d f1fc 9d3d
00000220: 8a5e 15be 2018 273c e587 c4ba e499 933d
00000230: a798 e8bc 4ce8 51be 3378 723c bbb9 303e
00000240: 0315 853d 7d2e 88bd 04c9 9e3e 3e96 563c
00000250: d76a 6cbd ddd8 03be 0d02 833e 3d5a 92bd
00000260: 2dd3 bebe 74bf 8b3d 8b14 883c 5fa7 8fbe
00000270: 5695 8e3e c3c3 3fbd dba6 9cbb efc1 5d3d
00000280: 9e87 b73d 0602 4ebd c15c f4bd 2986 053e
00000290: 7fed 0c3e cf27 fbbc 3be3 bcbd 1c16 9abd
000002a0: 20e8 98bd 0862 82bd d348 a93b e9ea 403d
000002b0: 7d45 acbc 663e 0a3e 523b 35be 1706 0a3e
000002c0: 3912 103e 9d09 3fbf 6bbf 33be 0280 223e
000002d0: 02d3 e83d 16d9 51be 8d96 8abe 07f3 96be
000002e0: b1ec 093c 3e5b dc3d 0465 f83b 6620 0fbd
000002f0: 1a54 3d3d b143 6a3d 7e0c 76bf 962f 383f
00000300: 0ea5 0a3e 6b1e 0d3e 7834 583d f22a febd
00000310: 91b5 5ebd 1ac4 643e 12f7 42bd de6d 043e
00000320: 7cab 02bd f04b 7bbe 6919 15be 89e8 b9bc
00000330: 86c6 a13d 4422 e33d ad96 ffbc 5b07 323e
00000340: b59b 1d3d 7f1e 3bbe e8c4 4dbe 949d 113e
00000350: e8b9 13bd 6f75 0d3e 2906 9ebd 6903 b83d
00000360: f37c 683d eaf5 d43d a5fa 363e 683e d5bd
00000370: c853 1f3d 2a80 34ba ceda 3fbe d732 57be
00000380: 6318 703c 43af 8abc 3496 7ebc ee84 723e
00000390: 39ad 9ebd aa62 893d 466b 7dbe 8dbb 063e
000003a0: 47a2 643e a6ef 74bd 4b53 e3bc 24d3 133e
000003b0: f4e9 843e b58f be3d 8fea 213e 634f 29bc
000003c0: a8b4 b8bb 1f81 273a d58e cbbc d351 863e
000003d0: 30af 58bb 4b94 8fbe 5c44 7bbd 2e53 ea3c
000003e0: accf 06bc 3ffe 28bd e490 453d 4698 62bd
000003f0: 5b91 883e 3b26 b43d 84c4 dd39 42ac 94be

mlp.0.bias f4 [30]
-0.048059493 -0.1880563 0.13195994 -0.097687535 -0.1799785 -0.50246453 0.12400798 -0.25291795
0.075737566 0.17306376 -0.07501663 -0.5720884 -0.1016304 -0.070653684 0.20626736 -1.084847
0.15147223 0.30458754 0.20810841 -1.7222089 -0.5007487 0.11800378 -0.03226482 0.041986074
-0.11164155 0.3329316 -0.020206857 -0.123662874 0.11836402 -1.1273104
00000000: 08da 44bd d591 40be 8220 073e 6710 c8bd
00000010: 494c 38be 84a1 00bf e5f7 fd3d 767e 81be
00000020: 4c1c 9b3d a037 313e 52a2 99bd 6374 12bf
00000030: 9923 d0bd e1b2 90bd c037 533e 44dc 8abf
00000040: 891b 1b3e e6f2 9b3e 5f1a 553e 5771 dcbf
00000050: 1131 00bf f7ab f13d 1e28 04bd 97f9 2b3d
00000060: 53a4 e4bd 0376 aa3e da88 a5bc f642 fdbd
00000070: d668 f23d b54b 90bf

mlp.2.weight f4 [1, 30]
0.79820997 -1.1225324 0.8514229 -0.7842907 0.80790335 -0.9522175 1.0578064 -0.5330594
0.6035135 0.49053836 1.1896855 1.0021585 1.5204983 -0.56568164 -0.41206136 1.5997989
-0.81376 0.6810695 2.9903302 2.3665035 -1.3648416 -0.6600315 0.63057417 0.111054964
-0.6637134 -0.75421023 -0.4820775 -0.6523461 0.20889787 -1.8210858
00000000: 7d57 4c3f 24af 8fbf daf6 593f 46c7 48bf
00000010: c1d2 4e3f 87c4 73bf 3366 873f 9576 08bf
00000020: dc7f 1a3f d827 fb3e 9d47 983f bb46 803f
00000030: b09f c23f 83d0 10bf b5f9 d2be 36c6 cc3f
00000040: 9352 50bf 925a 2e3f 9261 3f40 cb74 1740
00000050: 21b3 aebf d3f7 28bf 4f6d 213f c970 e33d
00000060: 1fe9 29bf ec13 41bf ddd2 f6be 2700 27bf
00000070: 53e9 553e 5719 e9bf
