models/weights/layers_100_100_lr_1e-05.pt (torch, 55959 bytes, 5 tensors)

mlp.0.weight f4 [100, 31]
00000000: b1c7 50bd 9dd0 51be fdb3 0a3e f5fd db3c
00000010: 8f4d 303d 9f67 e2bd 6b2b 943c 3022 21be
00000020: 28e9 74bd 4047 213d 630c 80be ffea 3dbe
00000030: 8c2f c7bd 9ea4 bb3d 514a 0abe 8faa 283e
00000040: 9ec8 683e f79c a7bd 2d69 2e3d 9ef5 afbd
00000050: b963 b3bd 6635 bfbd d9c9 9e3d d329 463d
00000060: d9d7 0e3d d5b5 b33d 981b 043e c759 333e
00000070: 4e88 a93e 09c3 f83d 07d5 e7bd f755 5f3c
00000080: d655 be3c 2145 363e d656 e9bd 02ac 8b3c
00000090: abe6 c3bd 8681 2a3e 33d7 223e 9ba3 1fbd
000000a0: 3fa2 bf3d d5b2 ae3d e4ff 4fbe 9fa5 17be
000000b0: bc48 003d 6289 64bd d6e4 cd3d b94a cfbc
000000c0: 7d28 173e 19f3 e33b ea24 3f3d b61d 1f3c
000000d0: 8db5 31be 1572 4d3e 1015 2fbd 9efd d83d
000000e0: 6f24 04bc 7d3f 5abc dc52 92bd 78bf 7bbd
000000f0: 4289 713e 5074 97bb c004 afbc 6534 0cbd
00000100: 1c78 0f3e dcab fcbc 9acc 0abe 8094 9dbe
00000110: f453 593d 154d 26be 9259 07be d848 db3d
00000120: 9994 583e f0c7 e0bb 4d11 cc3d 2359 c0bd
00000130: 160c 0dbe 953e 123e b733 1cbe d15d 1d3e
00000140: c00a 18be 132c 26bd 391b 88be aa78 393d
00000150: 1f93 b03b a66f 69bd 4524 70be 61cf a03d
00000160: c81f 0ebe d963 e8bd 0deb f93b 5e5f a13d
00000170: 53ca 363e 4e83 cd3d 266a 31be a190 3bbe
00000180: d83a b0be 0849 6a3e 7943 7ebe 5a72 54be
00000190: a637 883d b8d1 2fbd a912 033e 0404 213e
000001a0: fa8a 133e 55e3 f53c 9c06 98bc 196f 8fbd
000001b0: 8e0a 01be bd14 9ebd fa02 983d 78d5 483e
000001c0: 36d6 c43c 4ba3 d6bd 996a 923d 70c5 02be
000001d0: fea1 c3bd 2e8c f63d af32 ec3d bd04 a8bc
000001e0: 9e92 4bbd 2455 70bd 650b bdbd ae89 7c3d
000001f0: 3717 9d3e cf4b a8bd bf08 d23c d470 73bd
00000200: 4814 35bf 1431 503f 89b9 a43d 3b52 82bc
00000210: 7705 17be d639 2b3c fd79 7bbe 8d7d 923e
00000220: 4122 4ebd a229 dcbd e979 49be efcd c43d
00000230: ff37 acbd 3f58 cdbd b351 833d 351d c4bd
00000240: 75d0 b83d b9c3 073e 3e6b 9ebd 8092 94bd
00000250: ca55 39be 1555 ec3d 71c3 1a3e 530f 663d
00000260: 5297 453e 435c 5c3e 99f2 a8bd 5fc0 86be
00000270: 208e 61bc 0272 893d 1e4f 6d3e a626 623d
00000280: 1ab5 50bd 18e8 1e3e a414 9ebd 0658 60be
00000290: e831 43be c875 38be fa93 7bbc f845 123e
000002a0: 926d 1dbe d340 60bd 6227 34be 5812 1abe
000002b0: 52f4 05be 0e7d d8bd e1be 603e eaae b5bd
000002c0: 303d 70be 9c6e 04be 4a1a 51bd 6334 d9bd
000002d0: 412c 19bd 6159 013d 512b c7bd 4d67 3dbe
000002e0: 1840 413e e981 2b3e 26f0 893e b9a9 31bd
000002f0: 7ea3 813d 05d0 1c3e af85 8f3d b083 8b3b
00000300: 777b 5ebd 02cb 633e c1cb 81bc 7c15 3dbe
00000310: 4f67 513e e838 053c 8b2c a7bd 3fb8 97bd
00000320: 6bd3 753d 6e1a 0a3e de2b 433d 41ac 9ebd
00000330: b3d0 cb3d 9f68 fcbd 88d0 b4bd b404 63be
00000340: 38c0 393d 7290 9d3e e40b 1c3d 97bc 85bc
00000350: d4f4 53be 1b9f 1d3e 257c 1c3e b910 82be
00000360: 6559 553d 7a5a 393d 5476 9bbe 842a e83d
00000370: 6de5 4abe 96b5 823c eeae 5ebe 59ab 46be
00000380: 6737 123e 1403 3fbe dc4c 1c3e 4601 083c
00000390: 1f28 33be 0759 39be 5358 fcbd dacc 6bbd
000003a0: d735 47bd 8811 b53d 720b 0fbe 369e 2c3e
000003b0: b785 333e 1f36 e0bd 2262 993e 5586 8fbd
000003c0: 8acc 693e 7167 1dbd 57a3 fe3c dda1 58bd
000003d0: d7be 203e 3781 dabc 6076 133e 1f1a 5ebd
000003e0: 89e1 743e f247 ddbc 8261 f1bc 508d 12be
000003f0: e48e 3fbf a15a 2b3f 2321 26be 907d 143d
-0.05097169 -0.20489736 0.13545223 0.026854495 0.043042716 -0.110549204 0.01808711 -0.15735698
-0.059792668 0.03937459 -0.2500945 -0.18546675 -0.09725866 0.091622576 -0.13504912 0.16471313
0.2273278 -0.081842355 0.042580772 -0.0859177 -0.08759255 -0.09336357 0.07753343 0.04837973
0.034873817 0.08774916 0.12901151 0.17514716 0.33111805 0.12146575 -0.113199286 0.013631335
0.02323429 0.17799808 -0.11393516 0.017049793 -0.09565481 0.16650972 0.15902404 -0.038974386
0.09357118 0.08530203 -0.20312458 -0.14809273 0.031319365 -0.05579508 0.100534126 -0.025304185
0.14761539 0.0069564697 0.046666063 0.0097116735 -0.17354412 0.2006305 -0.042744696 0.10595249
-0.008065327 -0.013320801 -0.071447104 -0.061461896 0.23587516 -0.00462202 -0.02136457 -0.034229655
0.14010662 -0.030843668 -0.13554612 -0.3077736 0.05305858 -0.16240342 -0.13217762 0.10707253
0.21150436 -0.006859772 0.09964237 -0.093920015 -0.13774142 0.14281686 -0.15254103 0.1536782
-0.14847851 -0.040569376 -0.2658327 0.04528109 0.005388632 -0.056991242 -0.23451336 0.078520544
-0.13879311 -0.113471694 0.007626897 0.07879518 0.17850618 0.1003481 -0.17325649 -0.1831689
-0.34419894 0.22879422 -0.24830426 -0.20746747 0.06651239 -0.042924613 0.12800087 0.15724188
0.14408484 0.030015627 -0.01855784 -0.07003612 -0.12601683 -0.07718799 0.07422443 0.19612682
0.024027925 -0.104803644 0.07149238 -0.12770629 -0.09552382 0.12038456 0.11533105 -0.020510072
-0.049700372 -0.058674946 -0.09230689 0.06165474 0.30681774 -0.08217584 0.025638936 -0.059433773
-0.7073407 0.8132489 0.080432005 -0.015908351 -0.14748178 0.010450801 -0.24558254 0.28611413
-0.050325636 -0.10750128 -0.19675411 0.09609591 -0.08409118 -0.10026597 0.06412067 -0.09575883
0.09024135 0.13258256 -0.077352986 -0.07254505 -0.18099132 0.115396656 0.15113617 0.056166958
0.19296005 0.2151957 -0.08249397 -0.26318642 -0.013766795 0.067111984 0.23174712 0.05521264
-0.050953962 0.15518224 -0.07718781 -0.21908578 -0.19062006 -0.1801368 -0.015355105 0.14284503
-0.15373829 -0.05474932 -0.17593148 -0.1504606 -0.13081482 -0.10570727 0.21947815 -0.08871253
-0.23460841 -0.12932819 -0.05105046 -0.10605695 -0.03739572 0.03157938 -0.09725059 -0.18496437
0.18872106 0.16748776 0.2694103 -0.04337475 0.06330012 0.15313728 0.0700792 0.0042576417
-0.054316964 0.2224541 -0.015844228 -0.18465227 0.20449565 0.008131243 -0.08162793 -0.07408189
0.060016077 0.13486645 0.047649257 -0.077476986 0.099519156 -0.123246424 -0.08828837 -0.22169763
0.04534933 0.30774266 0.038097277 -0.016325278 -0.20698863 0.15392725 0.15281732 -0.25403383
0.052087206 0.0452523 -0.30363715 0.11336234 -0.19814081 0.015955728 -0.21746418 -0.19401301
0.14278947 -0.18653518 0.15263695 0.008301085 -0.17495774 -0.18100367 -0.12321534 -0.05756841
-0.04863533 0.088412344 -0.1396921 0.16857228 0.17531477 -0.10947823 0.29957682 -0.07008044
0.22831932 -0.038428728 0.031083746 -0.05288874 0.156978 -0.026672943 0.14400625 -0.05422413
0.2391416 -0.027011845 -0.02946544 -0.14311719 -0.7482741 0.66935164 -0.16223578 0.03625256

mlp.0.bias f4 [100]
00000000: 6b2c c33d 4fd8 7d3c 794b d6bd c6b8 e6bd
00000010: 583f 213e d8d3 3bbe add5 433d 889f 3c3d
00000020: 8540 813c 2dce eebd b108 f2bd 5eb1 d53c
00000030: e5db 2e3e 6446 293e 7772 223d 4d33 d7bd
00000040: c6eb 033e 3b2e 203d 0ae5 78be e76f e9be
00000050: 77e6 f8bd ecb9 1c3e c968 ec3d ed07 c4bd
00000060: ca8c 72be abbe f2bc 3a72 45bd 72c7 103e
00000070: a3f2 8cbe c3c7 bbbe b9da 83be 26b1 82be
00000080: 6600 4dbf 0202 92be 0b0b 94be 0413 4a3e
00000090: d5c3 153e 6c1e e2bd 263d 9abd 7ce9 05be
000000a0: 4c13 12bf 9216 4f3d 5a78 103d 90bc bc3c
000000b0: 84b8 0abe 3847 febe fa17 86bd 5db7 2dbe
000000c0: e2a0 ae3e 246e cc3d 8b66 b7bc d3e6 81bd
000000d0: 0500 6b3e 9d9c 37be 5ee1 d0bb 9755 81bf
000000e0: 7960 4c3b 6b82 123e 606f a23e 7253 bf3d
000000f0: 340e 273e a97a 8abd 1af9 07be 2de2 2f3e
00000100: 5b6d 10be d053 c63c acbc 96be 5632 b23d
00000110: b0fb 00be 95dd d03d 7307 69be d4cd ddbc
00000120: bfb1 90bd d3e5 28bc d3f8 26be fff4 0a3d
00000130: 6a15 593e 24a8 663e adb2 883e 4fd9 64bd
00000140: e79d 143e 2f42 053e 3546 80be 57bb 00bd
00000150: 3470 ff3d a300 243e ab40 82bd 1d7a 62be
00000160: aee9 20bd 3cb7 d7bd f8b6 bbbe 1aaf b8be
00000170: 59a8 e43d 933b 333d 73b7 e83d 718c 97bd
00000180: 19c3 e53d e1eb e3bd 7bdf cd3d bf15 1d3d
0.095299564 0.0154934665 -0.10463614 -0.112657115 0.1574682 -0.1834253 0.0478112 0.04605058
0.015777836 -0.11660419 -0.11818064 0.026085552 0.1707607 0.16530758 0.039659943 -0.10507832
0.12882909 0.03910659 -0.24306121 -0.45593187 -0.12153333 0.15305299 0.11543424 -0.09571824
-0.2368652 -0.029631933 -0.048204638 0.14138582 -0.27528867 -0.36675844 -0.2575281 -0.2552578
-0.8007873 -0.28517157 -0.28914675 0.19733816 0.14625485 -0.11040959 -0.075311944 -0.13077348
-0.57060695 0.050558634 0.035271026 0.023039132 -0.1354695 -0.4966371 -0.06547542 -0.16964479
0.3410712 0.09981945 -0.022387763 -0.06342854 0.22949226 -0.17930837 -0.006374522 -1.0104245
0.0031185432 0.14307563 0.31725597 0.09342088 0.16314012 -0.06761677 -0.13278618 0.17176123
-0.14104216 0.024209887 -0.2944082 0.08701007 -0.12596011 0.101985134 -0.22756748 -0.027075686
-0.070651524 -0.010308701 -0.16305856 0.033925053 0.21199575 0.22525078 0.2669882 -0.055871304
0.1451336 0.13013528 -0.25053564 -0.03142866 0.12472573 0.16015868 -0.06359991 -0.22116895
-0.039285354 -0.10532996 -0.36663032 -0.36071092 0.11164922 0.043757986 0.11363115 -0.07399834
0.112188525 -0.11128975 0.10052391 0.038350817

mlp.2.weight f4 [100, 100]
00000000: 97de c53d 3b4a 83bd 0e88 73bd 7577 dc3c
00000010: ae66 59bd 67d5 cfbc a418 723d f6cf acbd
00000020: d8e8 443d 97e3 a6bd 1e55 003d 0e4f 3c3d
00000030: efc2 97bc bc7b 493b 2f73 be3c d0d9 dabd
00000040: 4665 e93c 3832 d2bd 6498 823d 34a6 e2bd
00000050: b58a a8bb faa5 103d 7204 c6bd c384 babd
00000060: 153b fdbc 8343 863d 418e 93bc 1d68 403d
00000070: ecb1 a8bd c1d3 21bd 8185 4dba 3a3d 953d
00000080: db87 0fbc c7bc 903d f836 64bd f6b4 c7bd
00000090: 27e2 3abc 6ebb 8abc b933 c7bc 4754 e93c
000000a0: 411f 013d a912 6dbd 702a ebba f57e a4bd
000000b0: dda1 fc3c 3ce3 cdbd f702 14bd 16fa 62bd
000000c0: b183 713d 40d4 a83d 8660 3cbc 9579 313d
000000d0: 38f9 cb3c cafa bc3d 92b9 82bd 98e7 c8bd
000000e0: 9692 3abd 29d9 0ebd d276 a1bd 40cc 053d
000000f0: 7907 b2bd 132a 4dbd 4bf9 463c 4648 633d
00000100: 48ac a43b 0df7 72bd 641d 8abd eb87 40bd
00000110: 249f 633c fcbd 16bd f5e9 b43d 7b34 78bd
00000120: a2b4 6bbd 58ad a7bd 44b6 7dbc 6478 453d
00000130: 16cf 393d 4959 9b3d 089f 313d bfbd 53bd
00000140: 58fa 573c 5f5d 65bd 22bf e13c 4675 983d
00000150: 3690 8e3c 63df ad3b 6873 b63b d4dc debb
00000160: 1e67 9f3d 1de6 b7bb acee 10bd 4519 a6bd
00000170: b52a 323d 62de 833d 678c c13c a87e bdbd
00000180: ecf5 a23d 70fe ec3d fa81 633d 7c62 303d
00000190: e029 513d 091f f33c 07ce e5bd bddb d3bc
000001a0: f897 863d cb49 47bd 798a e23c c0c6 083d
000001b0: f64e c93c 7cf9 03bc 8807 973d d567 983c
000001c0: ebb9 323c 9d4f 743d 7230 5dba 052e 8fbb
000001d0: bc1c ccbd 90c4 e73c 83c0 fe3c c3c4 cabd
000001e0: 6986 ef3d 1a56 5abd 3851 b5bd f4bf edbd
000001f0: b924 193d 6d15 093d f511 dfbc b6da c0bc
00000200: 37ab 603d 8e35 b7bc d7e1 62bd 1b74 863d
00000210: aebe ccbc a376 6fbd f752 203d 0d78 36bc
00000220: c626 823d 2ace bdbd 06a7 c93a 9ed6 633d
00000230: 86c6 b2bd d061 b3bd 4d93 b1bd cdcb 0dbd
00000240: e52d e0bd 5824 9f3d 67f1 90bd a883 98bd
00000250: a80b 243b 6a28 e13d 654d 1bbe 2d4f bdba
00000260: 3bff ba3d b5ad 953d 1d1a b13d bd67 a0bd
00000270: 0e23 c7bb 6096 84bd a21f b4bc 2f14 5cbd
00000280: 9fa4 f0bc 9b72 9abd d3a4 aebd 752f 723d
00000290: 1c51 073c 0300 663d 00bc 98bc e21e 623c
000002a0: d658 7bbd a72c 4dbd e85d f93d 5a3b 143d
000002b0: f2f2 673d bdca debd ccba b1bc a0a6 bbbd
000002c0: 6358 363d 08eb b7bd d996 9e3d ecb5 53bd
000002d0: 4061 513c c959 fc3d 4444 06be e25f 673d
000002e0: f5c5 ac3d 76e5 c3bc 1f6a 63bc 459c ea3c
000002f0: fb4d c1bd 2af6 ba3c 355f df3d e27c 04be
00000300: fe05 a23b c8e7 743d d2bf c9bd 80ac 033e
00000310: f976 7abd 41e3 87bd ccbe fe3d 0a08 d9bb
00000320: 5377 f5bc 966e 71bd 4cfd babc 3dee 24bb
00000330: b4d9 e5bc e473 b43d ce96 71bd 443a b93b
00000340: a8d8 43bd c8cb c3bd b924 82bc d86c 65bc
00000350: aca9 aa3d ebb0 cabd f8fb 193d e421 4ebd
00000360: 2eb8 ad3c b03c a3bd 526d 8c3d cf58 62bd
00000370: 8503 a2bd 74cc b23d 288e 64bd c0aa 9c3d
00000380: 0650 033d de19 8cbd a295 7abd 3b96 95bd
00000390: a38c 803d 8074 d93c 74ce 81bd e8e5 3cbd
000003a0: 3137 f33c 8ec1 c03d 272f cd3d 0380 6f3d
000003b0: 7090 99bd 2245 03bb 5dbe a63d ca51 aabd
000003c0: 28c0 933d 86e4 37bb 210c 7bbd dab4 763d
000003d0: ec86 5ebc 4f5a bdbc 1586 b6bd 5cac b3bd
000003e0: cd7f 563d 6561 bfbd b2d5 bdbd 50fe d0bd
000003f0: 261a 8fbd bc20 42bd 7861 5f3d 3be1 dcbc
0.09661596 -0.06410643 -0.059455924 0.02691243 -0.05307644 -0.025370313 0.05910553 -0.08438103
0.04807362 -0.08148878 0.031331174 0.04597383 -0.018525569 0.0030743917 0.023248283 -0.10686076
0.028490674 -0.10263485 0.063767225 -0.11066857 -0.0051434883 0.035314538 -0.096688166 -0.091073535
-0.030911962 0.065558456 -0.018012168 0.04697429 -0.08237061 -0.039508585 -0.0007840023 0.07287069
-0.008760418 0.070672564 -0.055716485 -0.097513124 -0.011406458 -0.016935077 -0.024316655 0.02848257
0.031523947 -0.057879124 -0.0017941725 -0.08032028 0.030838901 -0.10053107 -0.03613564 -0.05541428
0.05896348 0.082436085 -0.011497622 0.04332884 0.02489911 0.09227522 -0.06383051 -0.09809798
-0.04554995 -0.03487507 -0.07883991 0.03266549 -0.086928315 -0.050088953 0.012144397 0.055488847
0.0050254203 -0.059317637 -0.06743887 -0.04700462 0.013892923 -0.036802277 0.08833686 -0.060596924
-0.05754531 -0.081873596 -0.01548535 0.048210517 0.04536351 0.07585389 0.043364555 -0.051694628
0.013182245 -0.05599725 0.02755696 0.07444243 0.01740275 0.005306171 0.0055679567 -0.006801227
0.0778334 -0.0056121484 -0.035383865 -0.081102885 0.04349776 0.064389005 0.02362652 -0.092526734
0.07957062 0.115719676 0.055543877 0.043062672 0.051065326 0.029677885 -0.11220937 -0.025861615
0.065719545 -0.04865436 0.02765392 0.033392668 0.024573784 -0.008055087 0.07374483 0.018604198
0.010908584 0.059646238 -0.00084377 -0.0043694996 -0.09966418 0.02829197 0.031097656 -0.099008106
0.116955586 -0.05330477 -0.08853382 -0.11608878 0.037388537 0.0334677 -0.027230242 -0.02354179
0.054850783 -0.022364404 -0.05539116 0.06565114 -0.024993267 -0.05846275 0.03914162 -0.011137021
0.06355052 -0.09267838 0.001538486 0.055624597 -0.087292716 -0.08758891 -0.086706735 -0.034618188
-0.10946254 0.07770604 -0.07077294 -0.074469864 0.0025031362 0.109940365 -0.15166242 -0.0014443152
0.091307126 0.073085226 0.08647559 -0.078322865 -0.006077177 -0.06473994 -0.02198774 -0.053730186
-0.029375372 -0.075413905 -0.085275315 0.05912729 0.008259084 0.056152355 -0.018644333 0.013801308
-0.061364017 -0.050091412 0.12176114 0.036189415 0.056628175 -0.10878513 -0.021695517 -0.091626406
0.044517886 -0.089803755 0.07743616 -0.051687166 0.012779534 0.12321813 -0.13111979 0.056487925
0.08436195 -0.023913126 -0.013880282 0.028638968 -0.09438702 0.022822458 0.10906831 -0.12938264
0.004944562 0.059791356 -0.0985104 0.12858772 -0.061148617 -0.06635142 0.12438735 -0.006623273
-0.029964125 -0.058943354 -0.02282586 -0.0025166415 -0.02805791 0.08811167 -0.05898171 0.0056526978
-0.04781404 -0.095603526 -0.015886651 -0.014003001 0.083331436 -0.09897026 0.03759381 -0.05032529
0.021205988 -0.079705596 0.06856789 -0.055260476 -0.079108275 0.087304026 -0.055799633 0.076497555
0.03205874 -0.06840871 -0.061177857 -0.07304045 0.06276824 0.02654481 -0.06338206 -0.046117693
0.029689403 0.094119176 0.10018759 0.05847169 -0.074982524 -0.002003022 0.08141778 -0.08316381
0.07214385 -0.0028059795 -0.061290864 0.060231067 -0.013581973 -0.023114352 -0.08912293 -0.08773109
0.052367974 -0.093447484 -0.09269275 -0.10204756 -0.06987409 -0.0473945 0.054536313 -0.026962867

mlp.2.bias f4 [100]
00000000: 3e71 bf3d 77b0 f7bc e974 57bd 9d92 5b3b
00000010: 5140 e3bc 96d5 4e3d ae2d 9dbd 3c58 ed3d
00000020: eb24 44bd 0f4b 963d 6fe5 913c 2351 90bc
00000030: 5938 96bd 12ac 11be 1e50 6b3c a6f6 34bd
00000040: df6a 32bd 5eb4 e53d dd9f 533e 33eb 21be
00000050: bfae 61bd 7217 973c d8cf 32bd 2b63 203e
00000060: 2362 80bd e390 103f 4dc6 c53d 1819 183d
00000070: e31c 2a3d b9c8 8f3b 2d27 a33d 983e 17bc
00000080: 7e6c 733d 41f9 133e 3b69 063e 2191 b43d
00000090: beee 003d 7a2d a83d 17aa 993e 2d72 0abd
000000a0: 5b93 3c3d 5c36 803d dcf6 c2bd ebdb 983d
000000b0: fb4f 563d 9592 6a3e ea4a e1bd 2020 e33c
000000c0: fe45 8a3d 5037 e43d 3a63 70be 8b92 283d
000000d0: 1116 4dbe 07bd 7c3e f8e7 d03d 6a45 b63d
000000e0: 1788 533c d5d5 063e 79ae a8bc fb43 9fbd
000000f0: ae16 d73c c04e 18be 1bc4 b9bc 49b3 4fbc
00000100: d504 2bbe e261 d23d 82b6 17be 94ed 893e
00000110: 3634 0dbe 3de3 8ebd ab56 d4bd 2f0a 343d
00000120: 32fd 743d 8e7f 0f3e 034a 603c 347b 66bd
00000130: 9a2d 9b3d 6e4f 71bd 205e b93d 6a38 de3c
00000140: 94f7 99bd 23d3 18be 91af 68be b50a 59be
00000150: 2763 69bd 0181 813d 8fbf 833d d4ee 193d
00000160: 4e43 0c3e 2a90 b63d 7101 be3e 5233 2fbe
00000170: 37b9 cd3e 6bd2 153c 4f76 31be 9817 d6bd
00000180: 9662 b6bd 8d93 893d ad01 59be 54d3 1d3e
0.09347771 -0.030235512 -0.05260173 0.0033504136 -0.02774063 0.05049666 -0.07674728 0.11589095
-0.04788677 0.07338535 0.017809598 -0.017616814 -0.07334966 -0.14225796 0.014362363 -0.044180535
-0.04355895 0.11216043 0.20666452 -0.15812378 -0.05509829 0.018443797 -0.043655246 0.1566283
-0.06268718 0.5647108 0.096569635 0.037133306 0.041531455 0.0043879417 0.079664566 -0.009231232
0.059429638 0.14450552 0.1312608 0.08816744 0.031477682 0.08211799 0.3001258 -0.033800293
0.046038967 0.06260368 -0.09519741 0.07463821 0.05232237 0.22907479 -0.11000617 0.02772528
0.06751631 0.111433625 -0.23475352 0.04115538 -0.20027949 0.24681483 0.102004945 0.088999584
0.012910864 0.13167508 -0.020591008 -0.07776638 0.026255932 -0.1487379 -0.022676518 -0.012677022
-0.16701062 0.10272576 -0.14815715 0.2693907 -0.13789448 -0.06976936 -0.10368093 0.043955024
0.05981178 0.14013502 0.013689521 -0.05626984 0.07577057 -0.05891364 0.09051156 0.02712651
-0.07517925 -0.14924292 -0.22723223 -0.2119549 -0.056979325 0.06323434 0.06433021 0.03758128
0.1369755 0.08914216 0.37110475 -0.17109421 0.4018037 0.009144406 -0.17330287 -0.10453719
-0.089055225 0.06717596 -0.21192046 0.15412647

mlp.4.weight f4 [1, 100]
00000000: 7ab7 a5bd 0b38 abbe dc6b b03d fcc4 b23e
00000010: a984 713e f6ff 29bf 7c9b fd3d 689d 05bf
00000020: b6ee 053e b32e 04bf e759 58bd 1cfe 993e
00000030: 9072 b53e 09ab fcbe f08d c33e 23a5 1e3f
00000040: b411 223f 8942 f7be b22e 52bf 4623 67bf
00000050: 731a cf3d 6a1c 2c3f 33f7 42bf 992d 0cbf
00000060: 299e 0f3f 25de b03f 048a a6be 825e b9be
00000070: 5da6 85bd 78c2 d4bd 2add de3d 964c 533d
00000080: 5297 b5be 24ba 3bbf 3b3d 98be 7a8e 6abf
00000090: 4982 3a3e 1b89 003f 1d25 4e3f d880 90be
000000a0: a544 a4be 0205 f1bc 9cfd a83e c0ae a1be
000000b0: 76f5 bbbe 055e 0fbf 9f1b ffbe 0f89 0cbf
000000c0: f4c2 e8be 99b0 e6be ff33 d13f e43b e5be
000000d0: 9125 773f 7904 8b3f 499c bdbd 9370 763f
000000e0: 35c6 8f3e 0b2d 35bf 2ce1 3c3f 51e6 3ebf
000000f0: c8df 2cbf 55c6 0b3f 3da8 3b3d 2fec a63e
00000100: c86b e93e 144e 97bd b993 323f 0161 293f
00000110: 1e52 073f b190 b33e 197e 353f 1f05 f3be
00000120: 92b6 94be 6cb9 05bf abaa 5abf 8d14 d2ba
00000130: 25f2 a6be dc08 8e3d b7f4 38bf 931d fd3e
00000140: b401 b13e 4e30 0b3f 307d 843f ad05 3f3f
00000150: 21a4 b9be aef9 b4be 2f21 b2be 1928 94be
00000160: 3f03 10bf 70cb 6b3e 6d46 53bf b66a c13e
00000170: febf 673f 20db 2d3f 766b 5cbf d041 9c3e
00000180: 755b 4b3f 8c7d b0be 80a6 db3e f272 09bf
-0.08091636 -0.33441195 0.086143225 0.34915912 0.23585762 -0.6640619 0.12383172 -0.5219331
0.13079342 -0.5163376 -0.052820113 0.30076683 0.35438967 -0.4934924 0.38194227 0.6197073
0.6330826 -0.4829295 -0.821025 -0.902882 0.10112467 0.67230856 -0.76158446 -0.54757077
0.5610071 1.3817793 -0.32527173 -0.36204916 -0.06525872 -0.103886545 0.108820274 0.05158671
-0.3546701 -0.73330903 -0.29734215 -0.9162365 0.18213762 0.50209206 0.8052538 -0.282233
-0.32083622 -0.029421333 0.3300599 -0.31578636 -0.3671071 -0.5600284 -0.4982576 -0.54896635
-0.45461237 -0.45056608 1.6343993 -0.44772255 0.96541697 1.086074 -0.09258325 0.96265525
0.28080907 -0.70771855 0.73781085 -0.74570185 -0.67528963 0.54599506 0.04581474 0.3260207
0.45590043 -0.07387939 0.69756657 0.6616364 0.52859676 0.35071328 0.70895535 -0.47464845
-0.2904554 -0.52236056 -0.8541667 -0.0016027853 -0.32606617 0.069352835 -0.72248405 0.49436626
0.34571612 0.5437058 1.0350704 0.74618036 -0.36258033 -0.3534674 -0.34790942 -0.28936842
-0.56254953 0.23026824 -0.82529336 0.37776726 0.9052733 0.67912483 -0.8610147 0.3051896
0.7943643 -0.34470785 0.42900467 -0.5369102
