models/weights/layers_20_20_drop_lr_0.0001.pt (torch, 6775 bytes, 5 tensors)

mlp.0.weight f4 [20, 31]
0	0x3e19e797	0.15029751
1	0xbc1248af	-0.008928462
2	0xbe6ba5d9	-0.23012485
3	0x3c08b9ed	0.008345109
4	0xbd1891c1	-0.037248377
5	0xbe7c5480	-0.24641609
6	0xbeb1776f	-0.34661433
7	0xbc40a6a7	-0.011758483
8	0xbe0a606e	-0.13513348
9	0xbd455327	-0.048175003
10	0x3d922acf	0.07137071
11	0xbd626904	-0.055275932
12	0x3ced1ef7	0.02894543
13	0xbea285fd	-0.3174285
14	0xbce40e4b	-0.027838847
15	0xbd9331cd	-0.07187233
16	0x3d890f99	0.06692428
17	0xbcfbed83	-0.030752903
18	0x3d34129d	0.043963064
19	0xbe4a45da	-0.19753209
20	0x3e0bd0fb	0.13653938
21	0x3e0690a2	0.1314111
22	0xbc3f6c76	-0.011683574
23	0xbd67eaa3	-0.05662025
24	0xbe2353eb	-0.15949981
25	0x3d91ca16	0.07118623
26	0xbd6c1bfd	-0.05764388
27	0x3e35504b	0.1770641
28	0xbcc9740a	-0.024591465
29	0xbe20c498	-0.15699995
30	0x3d9de799	0.07710189
31	0xbdae1063	-0.08499219
32	0xbd5bd476	-0.053669415
33	0x3d26979f	0.04067194
34	0xbcbea8fb	-0.023273936
35	0x3d33f6b8	0.04393646
36	0xbd16c0f7	-0.03680512
37	0xbe19252b	-0.14955585
38	0xbd87b742	-0.066267505
39	0x3eda7cd5	0.42673364
40	0x3e7cc51c	0.24684566
41	0x3db163a7	0.08661585
42	0x3dd1635b	0.10224029
43	0xbd8ccc0f	-0.068748586
44	0x3e0a24d8	0.13490617
45	0x3de5b8b9	0.11216874
46	0xbe1b9230	-0.15192485
47	0xbea364c5	-0.3191282
48	0x3e54d817	0.20785557
49	0xbdd71ae8	-0.10503179
50	0x3b2861a1	0.0025692957
51	0x3b6ff715	0.0036615778
52	0x3de36d01	0.11104775
53	0x3e457ff8	0.19287097
54	0x3de7251f	0.11286377
55	0x3e8a3825	0.2699596
56	0x3d5a7c56	0.053341232
57	0xbe52d4b6	-0.20588955
58	0xbdfb8582	-0.12281324
59	0x3d0c4523	0.03424562
60	0x3e5de423	0.21669059
61	0x3e18b200	0.14911652
62	0x3d92d185	0.07168869
63	0xbd5801e4	-0.052736178
64	0xbd179124	-0.03700365
65	0x3d9a085d	0.075211264
66	0x3c3543db	0.011063541
67	0x39e6ad0b	0.00043997946
68	0x3e1dc197	0.1540588
69	0xbda605ef	-0.081066005
70	0xbd9cb762	-0.07652165
71	0xbdbee0e7	-0.093202405
72	0xbd9966a5	-0.07490281
73	0xbce88bde	-0.028387006
74	0x3dd0fcdf	0.10204481
75	0x3d73c379	0.05951259
76	0xbc8bef65	-0.017081926
77	0xbe6f646b	-0.2337815
78	0xbe3db6e0	-0.18526793
79	0xbe244664	-0.16042477
80	0xbbba55f0	-0.005686514
81	0xbd32422f	-0.04352015
82	0x3c66eead	0.014094991
83	0xbda45cac	-0.08025488
84	0x3c859cf2	0.016310189
85	0xbd98ef86	-0.074675605
86	0x3e558d06	0.20854577
87	0xbdec7235	-0.11545221
88	0x3e23b789	0.15987982
89	0xbddadcb1	-0.10686625
90	0x3e19f0c9	0.15033258
91	0xbd2933d8	-0.041309208
92	0xbe3ae1fd	-0.1825027
93	0x3ca97ba6	0.020688843
94	0x3d933973	0.07188692
95	0x3ddbc938	0.10731739
96	0xbd0015c8	-0.031270772
97	0xbefe4012	-0.49658257
98	0xbe7e101a	-0.2481083
99	0x3d9aa66b	0.07551273
100	0xbd4a1997	-0.04934081
101	0x3e0bf4d2	0.1366761
102	0xbe5bd9bb	-0.21469776
103	0xbe11932a	-0.14216295
104	0x3eba658e	0.36405605
105	0xbe671c55	-0.22569402
106	0xbb703482	-0.003665239
107	0xbd18e939	-0.037331793
108	0xbd22cad9	-0.03974423
109	0xbe2f3949	-0.17111696
110	0x3daaa1c8	0.083316386
111	0xbd83505f	-0.06411814
112	0x3bb82f27	0.0056208554
113	0x3d9c57d9	0.07633943
114	0xbc60d410	-0.013722435
115	0x3ceec545	0.0291468
116	0xbd1a352b	-0.03764836
117	0xbdb8d98a	-0.09025867
118	0xbda0190e	-0.07817279
119	0x3e0a4782	0.1350384
120	0x3e6355f6	0.2220076
121	0xbd9b23a1	-0.07575155
122	0x3dfce0b4	0.12347546
123	0x3e1a8b6f	0.15092252
124	0xbe02e477	-0.12782465
125	0x3e2141d3	0.15747766
126	0x3d477fd9	0.04870591
127	0x3b6c4469	0.0036051518
128	0xbdb28198	-0.08716124
129	0xbdd2d697	-0.10294836
130	0xbe510ad6	-0.2041429
131	0xbe9778e4	-0.2958442
132	0x3e5b0eb1	0.21392323
133	0x3d834ddb	0.06411334
134	0xbe3aa48c	-0.18226832
135	0x3c45ac27	0.01206497
136	0xbe285129	-0.1643721
137	0x3e0026a1	0.12514736
138	0x3d68cf7b	0.056838494
139	0x3dadc499	0.08484764
140	0xbc3977b9	-0.011320048
141	0x3e08aaa5	0.13346346
142	0x3db4a8d3	0.08821263
143	0x3d04e005	0.032440204
144	0xbd66f123	-0.05638231
145	0x3d017726	0.03160777
146	0x3e43662f	0.19081949
147	0x3dee4236	0.116337225
148	0xbe09afae	-0.13445923
149	0xbe04c426	-0.1296545
150	0xbba4821d	-0.0050203935
151	0xbc21fed7	-0.009887419
152	0xbe01ec8d	-0.12687893
153	0xbe117b94	-0.14207298
154	0x3dc26c5d	0.09493325
155	0xbd86d5e5	-0.06583766
156	0x3d82f584	0.06394485
157	0x3d4adb7d	0.049525727
158	0x3e26ffd0	0.16308522
159	0x3c0e6a82	0.008692386
160	0x3e6db728	0.232144
161	0x3d0cd961	0.034386996
162	0x3d243235	0.040086944
163	0x3e104116	0.14087328
164	0x3e406144	0.18787104
165	0x3e5353bc	0.20637411
166	0xbdac0bfa	-0.08400722
167	0xbdd6dfcf	-0.10491907
168	0xbd2013ef	-0.03908151
169	0x3b685e9d	0.0035456785
170	0xbd96637b	-0.07343193
171	0xbd038c43	-0.032116186
172	0xbe02413f	-0.12720202
173	0x3de795c3	0.11307862
174	0xbc97df65	-0.01853914
175	0x3cfb2da5	0.030661413
176	0x3da10f55	0.078642525
177	0x3ec90cad	0.39267483
178	0xbe0a2bf8	-0.13493335
179	0xbdab239f	-0.083564036
180	0x3e01d8e5	0.12680395
181	0xbe23b22e	-0.15985939
182	0xbe742e8e	-0.23845884
183	0xbe81e132	-0.25367123
184	0x3e849032	0.25891262
185	0x3e58092a	0.21097246
186	0x3f03836b	0.513724
187	0x3c5052d1	0.0127150575
188	0x3dd69a72	0.10478677
189	0xb96b7000	-0.0002245307
190	0xbbcf73d7	-0.006330948
191	0x3dc0b6a9	0.0940984
192	0xbb96481c	-0.004586233
193	0xbdc9f500	-0.09861183
194	0x3d556257	0.052095737
195	0xbccb0ea0	-0.024787247
196	0x3d8d309e	0.068940386
197	0xbd31b772	-0.043387838
198	0xbd9eee0a	-0.07760246
199	0x3cc2bbe4	0.023771234
200	0xbd69f539	-0.05711863
201	0xbdc06cc2	-0.09395744
202	0x3d5fb605	0.054616947
203	0xbda63a32	-0.081165686
204	0x3cb1da35	0.021710495
205	0x3d579be4	0.052638903
206	0xbdc4a1df	-0.09601187
207	0xbd20620a	-0.039155997
208	0xbf279cd1	-0.6547366
209	0x3d8b285a	0.06794806
210	0xbce6dd7a	-0.02818178
211	0xbdbc2231	-0.09186209
212	0x3cd6700b	0.026176473
213	0x3d2db856	0.042412125
214	0x3e3580ae	0.17724869
215	0xbe7ca6a4	-0.24672943
216	0x3e13d3ef	0.14436315
217	0xbe675867	-0.22592317
218	0xbe21cc4f	-0.15800594
219	0xbda2d081	-0.07949925
220	0xbda1a09b	-0.07891961
221	0xbe092336	-0.13392338
222	0xbe345e26	-0.1761404
223	0xbdeec4e7	-0.1165865
224	0x3daf007a	0.08545013
225	0xbdeff071	-0.117157824
226	0xbcec8151	-0.028870257
227	0xbe906e27	-0.2820904
228	0x3e4bec5e	0.19914386
229	0x3dc39a40	0.09550905
230	0xbd763a91	-0.060114447
231	0x3ddf4ac7	0.109029345
232	0x3de508c1	0.1118331
233	0x3daf484c	0.085587114
234	0x3e269d9d	0.16271062
235	0x3de5e9d6	0.11226241
236	0xbdaae95a	-0.083452895
237	0xbdc5ccf3	-0.096582316
238	0xbd46d12a	-0.04853932
239	0x3e86d61f	0.26335236
240	0x3dbad3f3	0.09122457
241	0x3dfab582	0.12241651
242	0xbd95a84e	-0.07307492
243	0xbe62e8ec	-0.22159165
244	0xbdcccad6	-0.099996254
245	0xbd776b49	-0.06040505
246	0x3d30160b	0.04298977
247	0xbdb7df45	-0.08978132
248	0xbe9933b4	-0.2992226
249	0x3ca4fcc7	0.020140065
250	0x3b983469	0.0046449197
251	0x3d24df18	0.04025182
252	0xbf90290c	-1.1262527
253	0xbf198ca0	-0.599802
254	0xbc832c6e	-0.016012397
255	0xbd611855	-0.054954845

mlp.0.bias f4 [20]
0	0xbcb9b064	-0.022667117
1	0x3eed9460	0.46402264
2	0xbdd203a8	-0.102546036
3	0x3d1666b7	0.03671905
4	0xbdc4c095	-0.096070446
5	0xbecb28a0	-0.39679432
6	0xbe84045b	-0.25784573
7	0x3e2547d1	0.16140677
8	0xbf6795ca	-0.90462935
9	0xbcfe20e6	-0.031021547
10	0xbc688a45	-0.014193122
11	0xbd9e720b	-0.07736596
12	0x3db287b3	0.08717289
13	0xbde0ec3d	-0.10982559
14	0x3cc22109	0.023697393
15	0x3dc23e38	0.094845235
16	0xbf3bd246	-0.73367727
17	0xbda27ef4	-0.07934371
18	0x3cfac7a0	0.030612767
19	0xbe8581d6	-0.2607562

mlp.2.weight f4 [20, 20]
0	0x3dd45548	0.103678286
1	0xbcabbba4	-0.020963497
2	0xbc6684cd	-0.014069748
3	0xbe44b39d	-0.19209142
4	0xbe4d8df9	-0.2007369
5	0xbe50a420	-0.20375109
6	0x3e16bd22	0.14720586
7	0xbdbfe350	-0.09369528
8	0x3e762100	0.24036026
9	0xbe21b680	-0.15792274
10	0xbe90c011	-0.28271535
11	0x3dd87683	0.10569479
12	0x3e8fdb74	0.28097117
13	0xbe8d907f	-0.27649304
14	0x3d12f0c8	0.03587416
15	0x3ea1c02e	0.31591934
16	0x3ebc7fda	0.36816293
17	0xbe2237b8	-0.15841568
18	0xbe94125f	-0.28920266
19	0x3e61771c	0.22018093
20	0x3e866e29	0.2625592
21	0xbe6d1269	-0.23151554
22	0xbb16b2fa	-0.0022994862
23	0xbc56cccb	-0.01311035
24	0x3d92ea32	0.071735755
25	0x3e19f9c9	0.15036692
26	0x3eb7a01e	0.35864347
27	0xbd6ae816	-0.05735024
28	0x3e99e29f	0.3005571
29	0xbe48fa6b	-0.19626777
30	0xbddfd548	-0.10929352
31	0x3e54b6db	0.20772879
32	0xbe314f84	-0.17315489
33	0xbe074d68	-0.13213122
34	0x3e8830d0	0.2659974
35	0x3e459766	0.19296035
36	0x3f10e6a6	0.5660194
37	0x3b9bb784	0.0047521014
38	0x3c3a8ba6	0.011385834
39	0x3e0e6910	0.13907266
40	0x3b913eda	0.0044325413
41	0xbdebd25e	-0.11514734
42	0x3e0ee50d	0.13954563
43	0x3e111601	0.1416855
44	0x3d3554e2	0.044270404
45	0xbe3882ec	-0.18018693
46	0x3dc96226	0.098331735
47	0xbd386c9a	-0.045025446
48	0xbc7bb6f3	-0.015363443
49	0x3d98c34a	0.074591234
50	0xbba3e1ad	-0.005001268
51	0x3d846e7c	0.06466386
52	0x3d4ac820	0.04950726
53	0x3dc2c356	0.095099136
54	0xbe449345	-0.19196804
55	0x3e128d19	0.14311637
56	0x3b3deda1	0.002898075
57	0xbda7e312	-0.08197607
58	0x3d1bf2f0	0.03807348
59	0xbe2f2c11	-0.17106654
60	0xbcfeb6c7	-0.031093014
61	0xbe863f17	-0.2622001
62	0xbe326689	-0.17421927
63	0xbdb72f87	-0.08944612
64	0x3d1e2c83	0.03861667
65	0xbe4eabae	-0.20182678
66	0x3e9f65a8	0.31132245
67	0x3e2d0328	0.16895735
68	0x3d31f043	0.043442022
69	0xbd932bca	-0.071860865
70	0x3e6c800d	0.23095722
71	0xbe144317	-0.14478718
72	0xbd4980bd	-0.04919504
73	0x3d4d7151	0.050156895
74	0x3ea76c46	0.32699794
75	0xbe076df1	-0.13225533
76	0x3edbc4bf	0.42923543
77	0xbd889d85	-0.066706695
78	0x3e820e51	0.25401548
79	0x3e91f709	0.28508785
80	0xbe5b7d6c	-0.21434563
81	0xbd733c1e	-0.059383504
82	0xbe430cb8	-0.1904782
83	0x3e2eb760	0.1706214
84	0xbdca8587	-0.098887496
85	0xbe269f45	-0.16271694
86	0xbe595317	-0.21223103
87	0xbe2b43b7	-0.1672505
88	0x3e05f383	0.13081174
89	0xbbaeb683	-0.0053318157
90	0x3cf7738c	0.030206464
91	0xbde2111d	-0.1103842
92	0xbdbf14ba	-0.09330125
93	0xbe07e0a5	-0.13269289
94	0xbdf36ea1	-0.11886335
95	0x3d006913	0.031350207
96	0xbd2e30a6	-0.042526864
97	0xbe254cc3	-0.16142564
98	0x3dc16f2a	0.09445031
99	0xbc970e96	-0.018439572
100	0x3d0e4994	0.03473814
101	0xbdc11ac2	-0.09428932
102	0xbe507d8c	-0.20360392
103	0xbe2e74a1	-0.17036678
104	0xbe850427	-0.2597973
105	0x3db132ba	0.086522534
106	0x3e8f0c04	0.27938855
107	0x3df221f4	0.11822882
108	0x3f1521b3	0.58254546
109	0xbe176cc3	-0.14787583
110	0xbd4945e2	-0.04913891
111	0xbc7ecb7f	-0.015551447
112	0x3e2f1110	0.17096353
113	0xbcb804b2	-0.022463176
114	0x3e6261f5	0.2210768
115	0x3e8f4c03	0.2798768
116	0x3f03c9af	0.5147962
117	0xbeb75ab3	-0.35811386
118	0xbe2fead0	-0.17179418
119	0x3ee18524	0.4404689
120	0xbc8b4c9b	-0.017004302
121	0x3e1614d4	0.14656383
122	0x3bbc8114	0.005752692
123	0x3e9df610	0.30851793
124	0x3e4859a3	0.19565444
125	0x3ecd04d6	0.40042752
126	0xbc7dc029	-0.015487709
127	0x3dd5cbdc	0.10439274
128	0xbf086b76	-0.5328897
129	0xbddb12a2	-0.10696913
130	0xbe06ef20	-0.13177156
131	0xbc04dd3c	-0.008109387
132	0xbd0b1269	-0.033953104
133	0xbe099288	-0.13434803
134	0xbba4f3e4	-0.005033957
135	0xbe03b630	-0.12862468
136	0xbe1403c6	-0.14454564
137	0xbd523453	-0.05131943
138	0x3e019878	0.12655818
139	0x3dd01ef0	0.10162151
140	0x3e846746	0.2586004
141	0xbe4c7b1e	-0.1996884
142	0xbe1e7e65	-0.15477903
143	0xbe10baf3	-0.14133815
144	0xbc7e4022	-0.01551822
145	0x3dfec530	0.12439954
146	0x3dabc4cc	0.083871454
147	0xbe4857a8	-0.19564688
148	0x3ee50afb	0.4473494
149	0x3d905528	0.07047492
150	0x3e46fad8	0.19431627
151	0x3d9533e5	0.07285289
152	0xbe1ef699	-0.15523757
153	0xbe0a5356	-0.13508353
154	0xbc33bdad	-0.010970515
155	0xbd94a2ff	-0.072576515
156	0x3e83bf6e	0.25731987
157	0xbe82e70f	-0.2556691
158	0x3e8bee62	0.2733031
159	0x3e2d98b4	0.16952783
160	0xbe087839	-0.13327111
161	0x3d3707f2	0.04468531
162	0xbe307c7c	-0.17234987
163	0xbdcd6f90	-0.100310445
164	0x3e85dd1f	0.26145265
165	0x3cf9dd39	0.030500995
166	0x3d822d4b	0.06356295
167	0x3e889eff	0.26683804
168	0xbdde6c68	-0.108605206
169	0xbd5b6d6f	-0.05357116
170	0xbe5d88a5	-0.21634157
171	0xbdeed66b	-0.11661991
172	0xbcc5c520	-0.024141848
173	0x3c8b9ba6	0.017041992
174	0xbd8dfd75	-0.06933109
175	0xbe75bef0	-0.23998618
176	0x3cb81e90	0.02247551
177	0xbe4de00d	-0.20105
178	0x3e1da78c	0.15395945
179	0xbd47a653	-0.048742604
180	0x3d94dfa0	0.072692156
181	0x3e9095e3	0.28239354
182	0xbc2076fb	-0.009793992
183	0xbd33ff97	-0.04394492
184	0x3d35caa8	0.04438272
185	0x3ed6d41f	0.4195871
186	0xbdbde8c5	-0.09272913
187	0x3e156f3b	0.14593212
188	0xbe512821	-0.20425464
189	0x3d0a22fc	0.03372477
190	0x3ddf804f	0.10913145
191	0x3da91b59	0.08257169
192	0xbdff08c5	-0.124528445
193	0x3d777c07	0.060421016
194	0xbdda4a33	-0.10658684
195	0xbe4d1938	-0.20029151
196	0xba09fb7d	-0.000526361
197	0x3dfb2913	0.12263694
198	0xbdf49374	-0.11942187
199	0xbe41ef6a	-0.18938985
200	0xbd663df8	-0.05621144
201	0x3e7e9e91	0.24865176
202	0x3e0611f4	0.13092786
203	0x3da5be06	0.08092885
204	0x3e33d26e	0.17560741
205	0x3e9a2745	0.30108085
206	0xbb12aaa5	-0.0022379544
207	0x3daae044	0.083435565
208	0xbe3337b9	-0.17501725
209	0x3d957b33	0.07298889
210	0xbc1b066b	-0.009461979
211	0xbd1cc20e	-0.038271002
212	0xbd3b5806	-0.045738243
213	0x3e3bda8f	0.18345092
214	0xbe6d1352	-0.23151901
215	0xbd37055d	-0.04468285
216	0xbe8d0f4d	-0.27550736
217	0x3e105eec	0.1409871
218	0xbd7e156f	-0.06203216
219	0x3dc9fd25	0.098627366
220	0x3ba51741	0.0050381725
221	0xbda322ee	-0.07965647
222	0x3d8bf8d8	0.068345726
223	0x3ddd1954	0.107958466
224	0xbe5e17ef	-0.21688817
225	0xbd900adb	-0.070333205
226	0x3e13a36c	0.14417809
227	0xbcdcc8eb	-0.026951274
228	0x3e8f3a41	0.27974132
229	0xbe4d13b0	-0.20027041
230	0xbcb9abb1	-0.022664877
231	0xbd259bed	-0.040431906
232	0x3bd4af3e	0.006490617
233	0x3c9bd0ef	0.019020526
234	0x3e1a3768	0.15060198
235	0x3e1ffb28	0.15623152
236	0x3de4f2d3	0.111791275
237	0xbc5f71cf	-0.013637974
238	0x3e03c590	0.12868333
239	0xbe0ac7f1	-0.13552834
240	0xbe748c84	-0.23881727
241	0x3e1abf82	0.15112117
242	0x3e475d7c	0.19469255
243	0x3eae460c	0.34037817
244	0xbc8d3c9b	-0.017240813
245	0x3eb633f5	0.35586515
246	0xbe3b36d2	-0.18282631
247	0x3e6775fa	0.22603598
248	0xbf100b55	-0.5626729
249	0xbe1d6d6f	-0.15373777
250	0xbd9fc03a	-0.07800336
251	0xbe2736fe	-0.16329572
252	0xbe00fe05	-0.12596901
253	0xbd4ce085	-0.050018806
254	0xbce0eefb	-0.027457705
255	0xbc45123e	-0.012028275

mlp.2.bias f4 [20]
0	0x3e0d8bae	0.13822815
1	0xbe84aca4	-0.25912964
2	0xbddf5fee	-0.10906969
3	0xbe21c009	-0.15795912
4	0x3d729295	0.059221823
5	0xbe1ea721	-0.15493442
6	0xbc22a6d6	-0.009927472
7	0x3d909d13	0.070612095
8	0x3de77f98	0.113036335
9	0xbd95b0f6	-0.07309143
10	0x3d6fd18a	0.05854944
11	0x3de826f4	0.11335555
12	0x3d2ba3ec	0.041904375
13	0xbe03f870	-0.1288774
14	0x3e0b31ef	0.13593267
15	0xbe0164d8	-0.12636125
16	0xbd02b836	-0.03191396
17	0x3d2dfac4	0.042475477
18	0x3da78e70	0.08181465
19	0xbd87a24f	-0.06622755

mlp.5.weight f4 [1, 20]
0	0xbf4a3ba7	-0.7899727
1	0xbf447eb9	-0.76755863
2	0x3db5b68e	0.0887271
3	0xbf268a16	-0.6505445
4	0xbcb4426b	-0.022004327
5	0xbf80a4e6	-1.0050323
6	0x3f2315ca	0.6370512
7	0xbf17323b	-0.5906102
8	0x3e9f11f7	0.31068394
9	0x3ec5893e	0.3858127
10	0x3e8ee7a6	0.2791111
11	0xbe232521	-0.15932132
12	0x3f2e0d6d	0.67989236
13	0x3d4e73df	0.050403472
14	0xbf230986	-0.63686407
15	0xbf26334c	-0.6492202
16	0x3f024a0a	0.50894225
17	0xbeb3f9bc	-0.3515147
18	0x3f7167b5	0.9429887
19	0x3e2bc3fb	0.1677398
