models/weights/layers_100_drop_lr_1e-05.pt (torch, 15045 bytes, 3 tensors)

mlp.0.weight f4 [100, 31]
00000000: d03b c03c c8fa 273e bd2f 773d 5be1 3d3e
00000010: 9b3e b4bd 8f8c 0d3e a1b7 92bd ba1d 62bd
00000020: 8080 8a3d 3cbf ba3d e0b9 8abc 1d24 0f3e
00000030: 277b 2e3e 7fb4 873d 8d11 fc3d 8a17 c3bd
00000040: c4a8 dcbd 0475 8bbd bc0b 8b3e f1e7 9bbd
00000050: 280b 51bd 9628 7bbd f8d9 4abe 7372 933d
00000060: 4ed8 6f3d 1790 3f3b 7da2 a7bd 2cdd e23c
00000070: d461 5cbe 119f 123e aacd 243e 7ff4 8d3d
00000080: a991 513d c75b 413e ec7b 673e 8d1c a7be
00000090: 2e08 b5bd 43b2 963d 8295 743d 8c4a 2cbc
000000a0: 7ef4 f2bd cc3d 1fbe dbc1 61bd 3900 b1bd
000000b0: 274a 30be 4bf3 9e3d 9b9a 0ebe 456f 07be
000000c0: 8765 88be a119 33be 7ff7 ac3d 249e d73b
000000d0: 20db 42bd 4f62 03bd 0ec8 d03d 9238 803c
000000e0: 8f50 023d e2df ca3d 0820 e8bd 1092 733e
000000f0: d01a 05be b0da ec3d 4acd f43d 217b 3cbe
00000100: 5b46 59be f559 c03d cd9b 96bc 0c2e 9b3d
00000110: 03ed 3e3e 4f16 073c 11a2 2b3d 5e69 863d
00000120: e105 c5ba 31fa 683d 3e4d ffbd 7742 523d
00000130: 79d4 db3d bbe0 bd3d d253 71bd 7037 7fbd
00000140: 31ed a1bd e488 18bd 9699 bc3c c9c5 e6bd
00000150: 4c21 9c3d 1ca9 40be 9187 853d 2a00 a13c
00000160: 1bdf ef3d 0d31 793d d081 04bd ce1a 4c3e
00000170: 69e6 74bc cb4d 9e3d ecbd ac3e 11b4 95be
00000180: d1b0 723d b612 0d3e 914c 13bd a4dc c13b
00000190: 173f e23d 4567 83bd 144d ccbd f914 0e3e
000001a0: 49e6 5d3c e21d 2a3e 3c71 08be baf4 0dbe
000001b0: 72dc 4f3e c410 9ebc 5631 8ebd 7240 f5bd
000001c0: adb1 21be 76a0 cd3d 5e7d e5bd 9819 6ebc
000001d0: fd55 a93d 95eb 183e b2e6 24bd b5df 8dbd
000001e0: 1067 bbbd 16e5 863e 4df8 6fbe 5287 82bc
000001f0: 3461 9e3c c06d 843e 2849 86bc 79a1 8cbe
00000200: 8c98 1cbd a408 a7bc e4aa 573e 0e26 16be
00000210: c006 223e 8362 c93d 5281 403d 2e62 82bd
00000220: cc7c 5c3c 829f fcbd 4a39 493e 0e8e 3abd
00000230: e548 813c cff5 563d 0a3b 37be 88e1 f83d
00000240: 40c3 06bd 86e0 213e 63a9 b9bd 64d5 363d
00000250: 5449 48be 4f55 30be 4c4f 9e3d a292 e03c
00000260: b87a 9b3d 9064 bb3d 81ca 963d 37cc 9b3e
00000270: 1994 44be 18b3 0bbe fb03 313d 2120 8ebe
00000280: 8bba 9ebe e54c b73d 6787 143d ad6b 46bd
00000290: 7205 e73d 02f4 6c3e 2ed4 7fbd ad38 df3d
000002a0: 539c babe 4634 bb3d ae1e 8b3d 307e e0bd
000002b0: 3827 c1bb 911a 993d 56eb 10bd a816 38bd
000002c0: 3520 17be c684 f13d 2da8 1cbe 12f1 e2bd
000002d0: cb16 2dbd cf40 6dbc d82a a03e fd97 0e3e
000002e0: 2c91 89be a0ee 36be 37af 81be 0832 363e
000002f0: 4cfd 2cbe 1fb9 a9bd 4c82 ea3e 3751 7e3e
00000300: a600 efb8 583a 373d c59f 35be a4b1 7fbd
00000310: 7e13 07be a3da 2d3e 1be1 97be 9cbc fabb
00000320: 0dc6 96bc 6eb0 d93d a44d 8a3e e54b a23d
00000330: 74dd 0ebe f107 bd3d 2853 8d3e 9339 30bd
00000340: 4695 6d3e 5b43 28be a308 edbc 1403 31be
00000350: 5dc5 1abd 31e0 65be 8bae d0bd e0e2 433e
00000360: 2f2b a33e a694 a53e ff3c 853c 1648 e13d
00000370: 01e3 aebd 7315 653c ba42 d13a 8c3c 0cbe
00000380: 73e5 cfbd 0e88 efbc 629e d03d 9e88 d0bd
00000390: 60ae bb3d 6d8d 06be 325e 89bd c777 cbbd
000003a0: 90da 17be f879 6a3d a9b2 9abd c0a3 febc
000003b0: 0b60 c9bd 6dfb 98be f678 46bd 652d f8be
000003c0: dbdf 8e3e 9e2f a33c 7ab4 08bd ae38 dcbe
000003d0: 2cd0 9a3d 4e9d 1bbe a275 3a3b 0978 8a3e
000003e0: 21c6 59be 27b9 313d 1057 cb3d 3bb4 ea3d
000003f0: 0de1 c337 af6e ed3c 6ec5 5cbe f13b aabd
0.02346602 0.16404259 0.06034826 0.18542998 -0.088010035 0.1382315 -0.07163931 -0.05520413
0.06762791 0.09118506 -0.016934335 0.1397862 0.17039166 0.06626224 0.12308035 -0.09525974
-0.10774377 -0.06809428 0.2715739 -0.07612599 -0.05103603 -0.061318003 -0.19809711 0.07199564
0.058555894 0.0029230171 -0.08185289 0.027693354 -0.21521693 0.14318492 0.1609408 0.069313996
0.051164303 0.18882667 0.22605866 -0.3263897 -0.08839451 0.073582195 0.059712894 -0.01051582
-0.118630394 -0.15550917 -0.055116516 -0.086426206 -0.17215787 0.07761248 -0.13926165 -0.1322604
-0.2663996 -0.17490245 0.08445644 0.006580131 -0.047572255 -0.032076176 0.101944074 0.015651975
0.031815108 0.099059835 -0.113342345 0.23786187 -0.1299851 0.11565149 0.11953218 -0.18406345
-0.21218245 0.09392158 -0.018384838 0.07577142 0.186451 0.008245065 0.041902605 0.06563066
-0.0015031659 0.056879226 -0.12465905 0.051332917 0.10733885 0.092713796 -0.058917828 -0.06230873
-0.07906569 -0.037239924 0.023022454 -0.11268193 0.076235384 -0.1881451 0.06519998 0.019653399
0.11712476 0.060837794 -0.03235036 0.199321 -0.014947512 0.077296816 0.3373865 -0.29238942
0.059250657 0.13776669 -0.03596169 0.005916195 0.1104719 -0.064161815 -0.09975639 0.13875188
0.013543674 0.16612962 -0.13324445 -0.13862887 0.20298937 -0.019295104 -0.06943004 -0.119751826
-0.15790434 0.10040371 -0.112055525 -0.014532469 0.08268354 0.14933617 -0.04025907 -0.06927434
-0.09150517 0.26346654 -0.23434563 -0.015933666 0.01933346 0.25864983 -0.016392305 -0.27466944
-0.038231418 -0.020389862 0.21061283 -0.14662954 0.15822887 0.09833243 0.04699833 -0.063663825
0.013457488 -0.12335111 0.1965076 -0.04554563 0.01578183 0.052480515 -0.17893615 0.12152392
-0.03290105 0.15808305 -0.09065511 0.0446371 -0.19559222 -0.17220043 0.077299684 0.02741367
0.07591766 0.0915004 0.07362843 0.3042924 -0.1919712 -0.13642538 0.043216687 -0.27758887
-0.31001696 0.08950213 0.036261942 -0.04844253 0.112803355 0.23139957 -0.06245821 0.10899482
-0.3644739 0.0914083 0.06792961 -0.10961568 -0.005894568 0.0747577 -0.035380684 -0.04494348
-0.1475838 0.11792903 -0.15298529 -0.11081137 -0.042258065 -0.014480784 0.31282687 0.13925166
-0.2686857 -0.17864466 -0.2532899 0.17792523 -0.168935 -0.08287262 0.45802534 0.24835669
-0.00011396529 0.044733375 -0.17736728 -0.06242527 -0.1319103 0.16977935 -0.2966393 -0.0076518785
-0.018404985 0.106293544 0.2701236 0.07924632 -0.13951665 0.0923003 0.27602506 -0.043023657
0.23201475 -0.16431944 -0.028934782 -0.1728633 -0.037785877 -0.22448803 -0.101895414 0.19129515
0.31868884 0.32339972 0.016264437 0.110000774 -0.08539391 0.013982165 0.0015965321 -0.13694972
-0.10151186 -0.02923968 0.10186459 -0.10182308 0.09164119 -0.13139887 -0.067074195 -0.09934955
-0.14829469 0.057245225 -0.07553608 -0.031083941 -0.09832772 -0.29879323 -0.0484552 -0.48472133
0.27905163 0.019920167 -0.03337524 -0.43011993 0.07559237 -0.15196726 0.0028451462 0.27044705
-0.21266986 0.043389466 0.09928715 0.114601575 2.3350609e-05 0.028983442 -0.21559688 -0.08312214

mlp.0.bias f4 [100]
00000000: d9cd a23c 7781 313e a67f d9bd aa2e a63e
00000010: 99af 28bc 0043 b73e 25b3 1a3e 49f6 8ebd
00000020: fc39 dcbd bc7e f73d 9b76 1c3f ad98 5fbe
00000030: 0155 02be 6efc b63d c7cf 1f3e 04c5 aebd
00000040: 2381 483a 4c55 9dbe 977f 76bc 3a77 363e
00000050: 2bdb dc3d 92be d23d 5a5c d03c 4338 c7be
00000060: cc52 21be 7666 ae3e 0d83 0e3e b174 f53d
00000070: d638 08bf 7b15 38bd 9181 093e 1af2 4f3e
00000080: d56b aabe 01bd 9ebe e200 b93d e881 9ebe
00000090: 68d4 60be 6ad3 3d3e 8960 dbbd c531 5abd
000000a0: 862b 2a3e 0f63 ea3c 1565 dc3e b225 71be
000000b0: a05e 8d3e 7ff6 1abc c02a ed3d 2b60 a9bd
000000c0: 0755 71be 1073 623e 8378 933e 08b3 5cbe
000000d0: 7b04 343e a1dd 183f 332f 32bd c09b 8ebe
000000e0: 786f 173e bb79 cbbe 516d 20be 99a0 c63d
000000f0: fce2 0abe 09c5 3bbf 2f54 923d 65b0 213e
00000100: c563 083e 00a1 04be 6f3b 3abd d5c8 bf3e
00000110: 1f73 68be 9c5e 69bf be74 d7bb 7f8e eabc
00000120: 64d6 5dbe 3bf4 8f3f b52c 3bbe dc60 dabd
00000130: fcd7 9bbd d55a 053e 7f86 a5bd b6b0 c0be
00000140: 4656 d5be 074b d7bd 2e9a 613d c517 193e
00000150: deca c43d 2908 ddbd 745d 73bf 5dd0 3bbe
00000160: bb4c e7be 8502 24bd 614e 3bbe 00d3 bbbd
00000170: 18c3 b53c 0cbe a93d a711 dd3c 02e8 693e
00000180: c7a3 9b3d 3f68 c23d a55a 293d 9a6f 913d
0.019873546 0.17334543 -0.1062005 0.32457477 -0.010295772 0.35793304 0.151074 -0.06980569
-0.10753247 0.120847195 0.6111848 -0.21835585 -0.12727739 0.08934866 0.15606605 -0.085336715
0.00076486374 -0.3072914 -0.015045068 0.17818919 0.107839905 0.10290255 0.025434662 -0.38910112
-0.15754241 0.34062546 0.1391718 0.11985148 -0.53211725 -0.04494236 0.13428332 0.20307198
-0.33285394 -0.31003574 0.090333715 -0.30958486 -0.21956027 0.1853768 -0.10711772 -0.05327012
0.16618165 0.028611688 0.4304587 -0.23549536 0.27611256 -0.009458183 0.115804195 -0.08270296
-0.23567592 0.22114205 0.2880288 -0.2155267 0.17579834 0.5971318 -0.043502044 -0.27853203
0.14788616 -0.3974131 -0.15666701 0.096986 -0.1356315 -0.73347527 0.07144963 0.15789945
0.13319309 -0.12952042 -0.045466837 0.3745791 -0.22700165 -0.9115999 -0.006575196 -0.0286324
-0.21663815 1.1246408 -0.18278773 -0.10663006 -0.07609555 0.13022931 -0.08082294 -0.3763482
-0.41667384 -0.10512357 0.055078678 0.14950474 0.09609006 -0.10792572 -0.95064473 -0.18341203
-0.45175728 -0.040041465 -0.18291618 -0.091711044 0.022187755 0.08288202 0.026985956 0.2284241
0.075995974 0.094925396 0.04134621 0.071013644

mlp.2.weight f4 [1, 100]
00000000: b1e8 9cbe 4d2a f83e c23d 703e 3eb9 febe
00000010: 1d03 9d3e 812c 32bf d59c 393f 4194 11bf
00000020: 1264 02bf 3731 06bf a3ea b23f 1752 1c3f
00000030: c921 c2be 0b74 503f 1306 043f 1c46 fbbe
00000040: 43f1 bebe 30c9 3c3f 433c fbbe 3a04 153f
00000050: f60d 8ebe 6bfc acbe 4cd9 9c3e 149f 483f
00000060: d619 11bf c4aa 4dbf bcee 29bf cf3e dbbe
00000070: 5088 80bf e891 1b3f a9d1 4e3e 8bea 07bf
00000080: 0ea3 913f 4e5f 573f 9992 363f 6347 4dbf
00000090: 9205 1cbf c7da 08be 6372 c13e 317e e4be
000000a0: 41e2 cc3e 8a0f a7be ff3c 25bf 73d2 2d3f
000000b0: 2f99 7a3f b3a2 dabe 9b37 f33e f24a b3be
000000c0: bb7b 2a3f 69b7 02bf 6355 12bf ece9 463f
000000d0: 4763 69bf cccb cfbf 8ea3 3e3f 42d9 5840
000000e0: 7b02 05be 2c6d 193f 88a2 bfbe dcee fcbe
000000f0: 4ddd 4d3f 0bbe a9bf 8090 013f 77ba cdbe
00000100: 9248 b0be 1ff0 1cbe 0686 3e3e 0de2 05bf
00000110: 1c3c c93e de1a bdbf 65dc cabe f3b3 cf3e
00000120: 33f6 d63e 977b 0640 79a5 d13e 2e58 1d3f
00000130: c50b 313f a43f 983e fd89 c93e d182 603f
00000140: 22fe 7e3f 85dd 293f 3a4f d3bd 4dcd e3be
00000150: b68c 10bf 5a44 3a3f df14 0240 f7eb c0be
00000160: e20b 41bf 83ec 093f d0bd 4dbe 50f4 383f
00000170: 5fc1 78bf 6e86 93be ff89 18be 4145 e2be
00000180: 126f c6be 088b 13bf 0dee b63e a23c 15bf
-0.3064628 0.48469773 0.23461059 -0.49750704 0.30666438 -0.6959916 0.7250493 -0.5686684
-0.50933945 -0.52418846 1.3977855 0.6106276 -0.379164 0.8142707 0.5157177 -0.49076927
-0.37293443 0.7374449 -0.49069414 0.58209574 -0.27745026 -0.3378633 0.30634534 0.78367734
-0.5668005 -0.8033869 -0.66379905 -0.42821357 -1.0041599 0.6076951 0.20197167 -0.5309226
1.1377885 0.841298 0.7131744 -0.8018705 -0.60946 -0.13364707 0.37782583 -0.44627526
0.40016368 -0.32629043 -0.645462 0.67899245 0.9788999 -0.42702255 0.4750336 -0.35018116
0.6659505 -0.5106111 -0.5716154 0.77700686 -0.9116711 -1.6234069 0.74468315 3.3882604
-0.12989227 0.5993221 -0.3742869 -0.49400985 0.80415803 -1.3261122 0.50611115 -0.40181324
-0.34430367 -0.15325974 0.18605813 -0.5229805 0.39303672 -1.4773824 -0.39621273 0.40566978
0.4198471 2.1012933 0.40946558 0.61462677 0.69158584 0.29736054 0.3936309 0.8769961
0.99606526 0.66353637 -0.10317846 -0.4449257 -0.5646471 0.72760546 2.0325239 -0.37680027
-0.75408757 0.53876513 -0.20091939 0.7224779 -0.9717006 -0.288135 -0.14896391 -0.44193462
-0.38756615 -0.5763402 0.35728493 -0.58295643
