models/weights/layers_20_20_20_drop_lr_0.0001.pt (torch, 9077 bytes, 7 tensors)

mlp.0.weight f4 [20, 31]
0	0x3e0b0c82	0.1357899
1	0xbd211fcb	-0.03933696
2	0x3d8c9c81	0.06865788
3	0x3d61c76e	0.05512183
4	0xbe54c5da	-0.207786
5	0x3e3a294c	0.18179816
6	0xbc829dce	-0.015944388
7	0xbd70cf4b	-0.05879144
8	0x3dda1015	0.10647599
9	0x3bfd4edf	0.0077303494
10	0xbe2c1260	-0.16803885
11	0xb9ae5855	-0.0003325368
12	0xbe0471dc	-0.12934059
13	0xbe0d5075	-0.13800223
14	0x3d95f7ee	0.073226795
15	0xbdc4d21a	-0.09610386
16	0xbba5c89b	-0.0050593144
17	0x3e05002c	0.12988347
18	0xbc96e9d3	-0.018422043
19	0xbd98557a	-0.07438178
20	0xbd1aecbb	-0.03782342
21	0xbe37ea62	-0.17960504
22	0xbf30f8b0	-0.69129467
23	0x3d986dd7	0.07442825
24	0x3dba32da	0.090917304
25	0x3e2866a9	0.16445412
26	0xbe0135df	-0.12618206
27	0xbe5ed1fc	-0.2175979
28	0xbd36aad4	-0.04459651
29	0xbd5fca30	-0.05463618
30	0xbdf7679c	-0.12080309
31	0xbd1307c3	-0.035896074
32	0xbc0cc2b8	-0.008591346
33	0x3d5a608e	0.053314738
34	0xbd09b927	-0.03362384
35	0x3e7e5ee8	0.24840891
36	0xbde2c430	-0.11072576
37	0x3dc65430	0.09684026
38	0x3da72224	0.08160809
39	0xbc9b92fe	-0.01899099
40	0x3d3d790d	0.04625802
41	0x3d9e4572	0.077280894
42	0x3bd1901b	0.0063953525
43	0x3d1dbf7a	0.038512684
44	0x3cdffc18	0.027341887
45	0xbcfc3257	-0.030785723
46	0xbd9a7089	-0.07540996
47	0xbd8ac772	-0.067763224
48	0xbcb43822	-0.021999422
49	0x3e0ea68c	0.1393072
50	0x3cbf614f	0.02336183
51	0x3cc37d3d	0.02386343
52	0x3e3438e1	0.17599823
53	0xbf83d13c	-1.0298228
54	0xbe4c6bbf	-0.19962977
55	0xbda304c0	-0.0795989
56	0x3d64f5e6	0.05589857
57	0xbcea1565	-0.028574655
58	0x3c027673	0.007962811
59	0xbde9820f	-0.1140176
60	0x3cd4aafa	0.025960434
61	0xbd82eb6e	-0.06392561
62	0x3d22d5d1	0.039754692
63	0xbdaf02ef	-0.085454814
64	0xbda32499	-0.07965965
65	0xbe7a45fa	-0.24440756
66	0xbde7c3b7	-0.113166265
67	0xbdfaf0fd	-0.12252996
68	0xbe27f829	-0.1640326
69	0x3df915bd	0.121623494
70	0xbdeabeba	-0.114621595
71	0xbd1995d4	-0.037496403
72	0xbd798475	-0.060917336
73	0x3a4f5333	0.0007908821
74	0x3e1bcf66	0.15215835
75	0xbc8f19e8	-0.017468408
76	0xbd7eee4f	-0.062238988
77	0xbc9cdc3a	-0.019147981
78	0x3d6dd27b	0.058062058
79	0xbe44a312	-0.19202831
80	0xbe13b73f	-0.14425372
81	0x3ced6bab	0.028982004
82	0x3dd10b78	0.102072656
83	0x3c8ac3fb	0.016939154
84	0x3d25124a	0.040300645
85	0xbdc7a541	-0.097483166
86	0x3e567b00	0.20945358
87	0x3d31a8ed	0.04337399
88	0xbd944435	-0.07239572
89	0xbe18cae0	-0.1492114
90	0x3db22eee	0.087003574
91	0x3e3685bf	0.17824458
92	0x3d245648	0.040121347
93	0xbe17a75e	-0.1480994
94	0x3d6518b3	0.055931758
95	0x3d1fa550	0.038976014
96	0x3e2365fc	0.15956873
97	0xbe19bb76	-0.15012917
98	0x3c0bbe73	0.008529293
99	0x3d85afff	0.06527709
100	0x3e32c3bb	0.17457478
101	0x3dcedeed	0.101011135
102	0x3da796db	0.0818307
103	0xbd649bf0	-0.055812776
104	0x3d6b3b68	0.0574297
105	0xbd8149c3	-0.06312897
106	0x3e03ca9f	0.12870263
107	0x3e366361	0.17811348
108	0xbdec6c69	-0.11544115
109	0xbda3094e	-0.07960759
110	0xbd37ee7c	-0.04490517
111	0x3e2a1f5e	0.16613528
112	0xbcc64107	-0.02420093
113	0x3e0ee91e	0.13956115
114	0x3e2a6b7d	0.16642566
115	0x3c96101f	0.018318234
116	0x3e084f37	0.13311468
117	0x3e082f87	0.1329938
118	0xbe2b09d1	-0.16702963
119	0xbcff78d1	-0.03118554
120	0x3e118092	0.14209202
121	0x3d4d289e	0.050087564
122	0xbd67535d	-0.056475986
123	0x3ce8e041	0.028427245
124	0xbcbec451	-0.02328697
125	0x3d9b4f72	0.07583512
126	0xbd045023	-0.032302987
127	0xbdd72f51	-0.10507072
128	0x3df76fda	0.12081881
129	0x3dbb6180	0.09149456
130	0xbdb50723	-0.08839252
131	0xbc164b94	-0.009173293
132	0x3d3437e2	0.043998607
133	0x3e14f020	0.14544725
134	0x3e129723	0.14315467
135	0x3e776d89	0.24162878
136	0xbe040fcc	-0.12896651
137	0x3dd71620	0.10502267
138	0xbdf238b4	-0.118272215
139	0xbe2b364e	-0.16719934
140	0x3dd6453f	0.104624264
141	0xbe0b401e	-0.13598678
142	0xbe42059b	-0.18947451
143	0xbd08cc2e	-0.033397846
144	0x3d78af16	0.06071385
145	0xbe0cd02b	-0.13751285
146	0xbce510b4	-0.027962066
147	0xbe113be2	-0.14183
148	0x3e0eaa9e	0.13932273
149	0x3e0288df	0.12747525
150	0x3d4b77a4	0.049674645
151	0xbe276798	-0.16348112
152	0x3df0798d	0.11741934
153	0x3d270693	0.040777754
154	0xbd8305a0	-0.06397557
155	0xbe2d16da	-0.16903248
156	0xbd37f212	-0.04490859
157	0xbcc8e831	-0.02452478
158	0xba83442e	-0.0010014826
159	0x3d93f7fb	0.07225033
160	0x3da9dd43	0.082941554
161	0x3d641671	0.055685464
162	0xbe2538cc	-0.16134948
163	0x3e31846e	0.17335674
164	0x3d99a3c1	0.07501937
165	0x3e50b7d8	0.20382631
166	0x3d739412	0.059467383
167	0xbdaa1db3	-0.08306446
168	0xbc5932a4	-0.013256703
169	0xbc56cb76	-0.013110032
170	0xbdd7a65e	-0.10529779
171	0xbbf61d77	-0.0075108367
172	0x3dc19311	0.09451879
173	0xbd07074d	-0.032965947
174	0x3e067d80	0.13133812
175	0xbe04a2e4	-0.12952763
176	0xbcf10d70	-0.029425353
177	0x3eb1a555	0.3469645
178	0x3c7d0a86	0.0154444035
179	0x3e457796	0.192839
180	0xbe17b8e8	-0.1481663
181	0x3e01f806	0.1269227
182	0x3bcf3041	0.006322891
183	0xbe535d14	-0.20640975
184	0x3e902480	0.28152847
185	0x3dd5a90b	0.10432633
186	0xbce163de	-0.02751344
187	0xbd182359	-0.037143085
188	0x3d7ff8fd	0.062493313
189	0x3c162f5b	0.009166564
190	0xbebf92a2	-0.3741656
191	0xbdbc284c	-0.091873735
192	0x3e182255	0.14856847
193	0x3ba98b8a	0.005174105
194	0x3b6174eb	0.0034401964
195	0xbea57285	-0.32313934
196	0xbe48d7a4	-0.1961351
197	0x3e9b7916	0.3036582
198	0x3b496999	0.0030733107
199	0x3c06d2cc	0.008228969
200	0x3d3945b0	0.045232475
201	0xbe17e231	-0.14832379
202	0xbeaa8c4d	-0.33310166
203	0x3d84ba0c	0.06480798
204	0xbdb38de7	-0.087673
205	0x3da8fec8	0.08251721
206	0xbc86b8cf	-0.016445545
207	0xbc8dff11	-0.01733354
208	0x3e459743	0.19295983
209	0x3c43ce58	0.011951052
210	0x3e700c05	0.23442085
211	0x3e03919a	0.12848511
212	0xbc855676	-0.01627658
213	0xbdad8094	-0.0847179
214	0xbc8101a2	-0.015747849
215	0x3dae81be	0.0852084
216	0xbe4df2f5	-0.20112212
217	0xbe865e33	-0.26243743
218	0x3df08580	0.11744213
219	0xbce9e3af	-0.02855095
220	0xbd94203d	-0.072327115
221	0x3e840e9f	0.25792405
222	0x3eca62ed	0.395286
223	0x3bca9af3	0.006183022
224	0xbe0fedb2	-0.14055517
225	0xbdc70bc4	-0.09719041
226	0xbd002fd9	-0.03129563
227	0xbd3de480	-0.046360493
228	0xbcb129a9	-0.02162631
229	0xbd685b20	-0.05672753
230	0x3de8db79	0.11369986
231	0xbe2a97ad	-0.16659422
232	0xbcc36b66	-0.023854923
233	0xbe1eab73	-0.1549509
234	0x3d930e72	0.071804896
235	0x3dc4eb62	0.09615208
236	0x3d33b072	0.043869443
237	0xbdb86bb1	-0.090049155
238	0x3dfcdc92	0.12346758
239	0xbdf26f97	-0.1183769
240	0x3e1704ef	0.14747976
241	0xbcf07479	-0.029352413
242	0xbe2c4e36	-0.1682671
243	0xbe049e66	-0.12951049
244	0xbd354569	-0.044255648
245	0xbd9a0c4d	-0.075218774
246	0x3d882d3d	0.066492535
247	0x3db72e8d	0.08944426
248	0x3e9747ab	0.29546866
249	0x3d86573b	0.06559607
250	0xbe1ff2d6	-0.15619978
251	0x3c026920	0.007959634
252	0xbdba7a07	-0.09105306
253	0x3da5673c	0.08076331
254	0x3d0539aa	0.032525696
255	0x3d2de7ae	0.042457275

mlp.0.bias f4 [20]
0	0xbe884d12	-0.266213
1	0xbf266c28	-0.65008783
2	0x3e019b61	0.12656929
3	0xbe220728	-0.15823042
4	0xbe062636	-0.13100514
5	0x3d49f69a	0.049307443
6	0x3e8cc5f7	0.27494785
7	0xbd78a1fc	-0.060701355
8	0x38de7b7c	0.00010608786
9	0x3dff1d53	0.12456765
10	0xbe963b73	-0.2934223
11	0x3e9b501b	0.30334553
12	0xbe094c99	-0.13408126
13	0xbf1ede39	-0.62057835
14	0xbe9b6762	-0.30352312
15	0x3d3af223	0.045641076
16	0xbe04e822	-0.12979177
17	0x3db34650	0.087536454
18	0x3d2cf1c2	0.042222746
19	0xbdef5cfd	-0.11687658

mlp.2.weight f4 [20, 20]
0	0xbd3a3c0b	-0.045467418
1	0xbce0929c	-0.027413659
2	0x3e0764d4	0.13222057
3	0xbe1836f7	-0.14864717
4	0xbd10eba3	-0.03538097
5	0xbbd20b52	-0.006410041
6	0xbdb7c361	-0.089728124
7	0xbbe79e70	-0.007068448
8	0xbdf42230	-0.11920583
9	0xbce9f25b	-0.028557947
10	0x3e4debe6	0.2010952
11	0x3e2845b0	0.16432834
12	0xbe3cea5a	-0.18448773
13	0xbeb60fc9	-0.35558918
14	0x3d2239fd	0.039606083
15	0x3e123400	0.14277649
16	0xbde98897	-0.114030056
17	0xbd8d8758	-0.069105804
18	0x3e843028	0.2581799
19	0x3e159eb0	0.14611316
20	0xbde40eba	-0.11135621
21	0x3db43fff	0.08801269
22	0x3e2241fa	0.1584548
23	0x3c0f8a5f	0.008761018
24	0x3e0fb626	0.14034328
25	0xbe0b5b81	-0.13609125
26	0xbdea6a26	-0.114460275
27	0x3dd65e96	0.104672596
28	0xbe6046b9	-0.21901979
29	0xbddac7b3	-0.10682621
30	0x3e2b57b8	0.16732681
31	0xbe6f5ae9	-0.23374523
32	0x3d9cbf7b	0.076537095
33	0xbdc9cd67	-0.098536305
34	0xbe282b1e	-0.16422698
35	0x3de0218e	0.109439
36	0xbe639e6b	-0.222284
37	0xbbbe0ade	-0.0057996353
38	0xbd4215e6	-0.047384165
39	0x3e01c861	0.12674095
40	0xbe3538b9	-0.17697419
41	0xbe6f1001	-0.23345949
42	0x3daf4320	0.08557725
43	0xbe2505f4	-0.16115552
44	0xbe70a827	-0.23501645
45	0x3c919c99	0.017774867
46	0xbc7c1af3	-0.015387285
47	0x3d4091c3	0.04701401
48	0x3e22e88e	0.15909025
49	0xbe400aa9	-0.18754067
50	0xbd7f6ec3	-0.06236149
51	0xbd8828fc	-0.06648442
52	0xbc456287	-0.0120474165
53	0xbe64b615	-0.22335084
54	0x3c807a25	0.015683243
55	0xbd9c57b9	-0.07633919
56	0x3e517966	0.20456466
57	0x3e1e4e2b	0.15459506
58	0xbe863390	-0.26211214
59	0xbd1aba82	-0.037775524
60	0x3edd503c	0.43225276
61	0x3f1dfbe3	0.61712474
62	0x3de00416	0.10938279
63	0xbdf3f459	-0.1191184
64	0x3dbc71bc	0.092013806
65	0x3db58de1	0.08864952
66	0xbdfafbbc	-0.12255046
67	0x3d0240c1	0.031800035
68	0x3d9cc3ba	0.076545194
69	0xbd680b14	-0.05665119
70	0xbdc1638e	-0.09442817
71	0xbe1aa036	-0.15100178
72	0x3e481b21	0.19541599
73	0x3eb75700	0.35808563
74	0x3e5eef6f	0.21771024
75	0xbe69be8c	-0.22826594
76	0x3e18987b	0.14901917
77	0xbe625e4f	-0.22106288
78	0x3e177a9e	0.14792868
79	0xbdd48bce	-0.10378228
80	0x3dc9c7d2	0.09852566
81	0xbc300433	-0.010743189
82	0x3df803b9	0.12110085
83	0xbe14494d	-0.14481087
84	0x3e1fa59c	0.15590519
85	0x3c8fcb7c	0.017553084
86	0x3e24c445	0.16090496
87	0x3d2847f4	0.041084245
88	0xbe7ffad8	-0.24998033
89	0xbe3c0f2f	-0.18365167
90	0x3db95edf	0.09051298
91	0x3df24f58	0.1183154
92	0xbdc4cb2e	-0.09609066
93	0xbe8e9493	-0.27847728
94	0xbe24049f	-0.16017388
95	0x3d8cb9be	0.06871365
96	0xbd20289d	-0.03910123
97	0xbe355308	-0.17707455
98	0x3e327a67	0.17429505
99	0xbe08826c	-0.13331002
100	0xbe25e001	-0.16198732
101	0xbda8268c	-0.08210477
102	0x3d514cc4	0.0510986
103	0x3e6d90ec	0.23199815
104	0xbe1927ad	-0.14956541
105	0x3e980695	0.29692522
106	0xbe44eef1	-0.19231774
107	0x3db7a53f	0.08967065
108	0x3daadf0d	0.08343325
109	0xbe6f1d7e	-0.23351094
110	0x3d01a9c4	0.03165604
111	0x3dd235b3	0.102641486
112	0xbe0c82fd	-0.13721843
113	0x3d0f507e	0.034988873
114	0x3d0ed11c	0.03486739
115	0x3d7b5a68	0.061365515
116	0xbdbd941d	-0.09256766
117	0x3e05efb3	0.13079719
118	0x3e13224d	0.14368553
119	0x3d27c821	0.040962342
120	0x3e050e15	0.12993653
121	0x3ecd02eb	0.4004129
122	0x3e86020e	0.26173443
123	0x3e4da824	0.20083672
124	0xbe86555d	-0.26237002
125	0x3e54525e	0.20734546
126	0xbe196907	-0.14981471
127	0x3e6ee1a3	0.23328261
128	0x3e12ef44	0.14349085
129	0xbe0ffb8d	-0.14060803
130	0xbe8da743	-0.27666673
131	0xbdaf3fe5	-0.08557109
132	0x3e2e0e39	0.16997613
133	0xbe12884a	-0.14309803
134	0xbda1bae0	-0.07896972
135	0xbdb758d3	-0.08952489
136	0x3e1dfdeb	0.15428893
137	0x3e173972	0.14768007
138	0xbe6417f0	-0.22274756
139	0xbe6448f1	-0.2229345
140	0xbd9197c8	-0.07109028
141	0x3defe177	0.11712926
142	0x3dde5f7d	0.10858057
143	0x3cc7019b	0.024292758
144	0xbd5502e7	-0.05200472
145	0x3e15ca67	0.14627992
146	0xbd87f149	-0.06637818
147	0x3c2fe838	0.010736518
148	0xbe11be49	-0.14232744
149	0x3d78ab4d	0.06071024
150	0x3e53ca83	0.20682721
151	0x3da02a86	0.07820611
152	0xbe1841fd	-0.14868923
153	0xbdbfbba2	-0.0936196
154	0x3c8fbe3b	0.017546764
155	0xbe401cb6	-0.18760952
156	0xbde85673	-0.11344614
157	0xbdd1e17f	-0.10248088
158	0xbd79311f	-0.06083786
159	0xbd1ce7e3	-0.038307082
160	0x3d937083	0.07199194
161	0xbde94373	-0.11389818
162	0x3c6536d3	0.013990122
163	0x3da766d3	0.08173909
164	0x3b19186c	0.0023360504
165	0x3d905c08	0.070488036
166	0x3e6be375	0.23035987
167	0xbd4dd813	-0.050254893
168	0xbdf4398a	-0.11925037
169	0x3cb07d2b	0.02154406
170	0x3e3fff87	0.1874982
171	0x3df53719	0.119734
172	0xbe46f99f	-0.1943116
173	0xbe959ec2	-0.29222685
174	0xbd2fdf2e	-0.04293745
175	0x3e2a2044	0.16613871
176	0xbd85842e	-0.06519352
177	0xbe250bb3	-0.16117744
178	0x3dda7617	0.10667055
179	0xbda79182	-0.0818205
180	0x3db4d3f0	0.08829486
181	0xbe1d1aa7	-0.15342198
182	0x3d936391	0.07196725
183	0xbda36131	-0.07977522
184	0xbd3cf719	-0.04613409
185	0xbd2a7886	-0.041618846
186	0x3d202d2b	0.039105576
187	0xbe173dc4	-0.14769655
188	0xbe5fcc83	-0.21855359
189	0x3e4a84f3	0.19777279
190	0x3e902cc5	0.28159156
191	0x3e753e2b	0.23949496
192	0xbcde496f	-0.027134625
193	0xbeb80ed3	-0.3594881
194	0xbe1b8167	-0.15186082
195	0x3d3b4f03	0.04572965
196	0x3c1de3ae	0.009636803
197	0xbe0b0064	-0.13574368
198	0x3e356182	0.17712978
199	0xbc907c1b	-0.017637303
200	0x3d73457f	0.05939245
201	0xbd7b76f0	-0.061392725
202	0x3e1d64b5	0.15370448
203	0x3d98d886	0.074631736
204	0xbdb1a3f7	-0.08673852
205	0xbcb20b44	-0.021733887
206	0x3e64d895	0.22348244
207	0xbe43b89b	-0.1911339
208	0xbd2a7aab	-0.04162089
209	0x3d0fd080	0.03511095
210	0x3e8e5b00	0.27803802
211	0x3e163211	0.14667536
212	0x3d9be4c7	0.07611995
213	0xbea59d05	-0.3234636
214	0xbe5103b5	-0.2041157
215	0xbc3ce6d4	-0.011529643
216	0xbdfa488e	-0.1222087
217	0xbdbc2c1e	-0.09188102
218	0x3e011249	0.12604631
219	0xbc69fd7b	-0.014281626
220	0x3e7f6a9d	0.24943013
221	0x3ea43bb2	0.32076794
222	0xbdc48cbe	-0.09597157
223	0xbe534116	-0.20630297
224	0x3dd471f9	0.10373301
225	0x3e60beed	0.21947832
226	0xbdd19afb	-0.10234638
227	0x3e9fbf0a	0.3120044
228	0xbc60babe	-0.013716398
229	0x3e074af9	0.13212194
230	0xbe74d705	-0.23910148
231	0xbe327837	-0.17428671
232	0xbd087be2	-0.03332127
233	0x3eb00410	0.343781
234	0x3e0ac40e	0.13551351
235	0xbebf23ba	-0.37331945
236	0x3e0cf949	0.1376697
237	0x3e757350	0.2396977
238	0x3dda38c5	0.10655359
239	0xbe456a12	-0.19278744
240	0xbe3172ba	-0.17328921
241	0x3c2d26df	0.01056835
242	0x3babce15	0.0052430728
243	0x3dae6991	0.08516229
244	0xbce90dee	-0.028449025
245	0xbd8d90b0	-0.069123626
246	0x3ddc07d1	0.10743678
247	0xbe5955e5	-0.21224172
248	0xbe131f23	-0.14367346
249	0x3dc64b42	0.09682323
250	0x3e3476f6	0.17623505
251	0x3e5f4194	0.2180236
252	0x3e276741	0.16347982
253	0xbf0f483e	-0.5596961
254	0xbe291c14	-0.16514617
255	0xbeb07ff1	-0.34472612

mlp.2.bias f4 [20]
0	0xbda29f2c	-0.07940516
1	0x3c1896a9	0.009313264
2	0x3dc9a41a	0.09845753
3	0xbf01a001	-0.5063477
4	0x3d64b6f7	0.05583855
5	0xbe8db21e	-0.27674955
6	0x3c03b37f	0.008038401
7	0xbd8e421a	-0.069462016
8	0xbc631384	-0.013859633
9	0xbddd5f54	-0.10809198
10	0xbdad5b33	-0.084646605
11	0xbe633b52	-0.22190598
12	0x3c3fe7c5	0.011712973
13	0x3d934ca4	0.071923524
14	0xbda17840	-0.07884264
15	0xbe8ade89	-0.27122906
16	0xbe1a6fc9	-0.15081705
17	0xbe07886c	-0.13235635
18	0xbe8bc26f	-0.2729678
19	0xbd86b34a	-0.065771654

mlp.5.weight f4 [20, 20]
0	0xbe7dcf15	-0.24786027
1	0xbd1c1ff9	-0.03811643
2	0xbd78e649	-0.060766492
3	0x3f02cbf2	0.51092446
4	0xbe88ef65	-0.26745144
5	0xbd17bb64	-0.037043944
6	0x3ea13167	0.31483003
7	0x3de77f31	0.11303557
8	0xbe2a9274	-0.1665743
9	0xbe580d75	-0.21098883
10	0xbc893129	-0.016747074
11	0x3e8f1142	0.27942854
12	0xbe072827	-0.1319891
13	0x3d61e19f	0.05514681
14	0x3ea90d1a	0.33017808
15	0x3d52cbe0	0.05146396
16	0x3e1f376e	0.15548488
17	0x3d77f3d4	0.060535267
18	0x3e213c33	0.1574562
19	0xbe5efc43	-0.21775918
20	0x3de75d68	0.11297113
21	0x3e33df1f	0.17565583
22	0xbdaceb8f	-0.08443367
23	0xbd0bf21f	-0.03416645
24	0x3d6ef01b	0.05833445
25	0xbda1d59e	-0.07902072
26	0xbe55ef2b	-0.20892017
27	0xbb1724e7	-0.0023062767
28	0x3e37b516	0.17940173
29	0xbddea633	-0.10871544
30	0xbd84f263	-0.06491544
31	0xbe665c12	-0.2249606
32	0xbd94a663	-0.07258298
33	0x3d8421a1	0.06451727
34	0x3e329e8c	0.17443293
35	0xbe58b28f	-0.21161865
36	0xbda4c369	-0.08045084
37	0xbc66ea17	-0.014093897
38	0x3e300434	0.17189103
39	0xbadac199	-0.0016689777
40	0x3e9afd9b	0.3027161
41	0x3cd65ef4	0.026168324
42	0x3ddaeea8	0.10690051
43	0xbdad42c1	-0.08459998
44	0xbd122cd1	-0.03568727
45	0x3d15cac5	0.03657033
46	0xbe8099d2	-0.25117356
47	0xbd5c7142	-0.05381895
48	0x3e897fce	0.2685532
49	0x3d35f29e	0.04442083
50	0x3e1faf4e	0.15594217
51	0xbe23c79d	-0.15994115
52	0x3e3770b1	0.17914082
53	0xbe2a3671	-0.1662233
54	0xbe3d7418	-0.18501318
55	0x3e593fb1	0.21215703
56	0xbc45e512	-0.01207854
57	0x3c4aeaf9	0.012385123
58	0x3d746565	0.05966701
59	0xbc2ed170	-0.010670051
60	0xbe22e4f6	-0.15907654
61	0xbdc755da	-0.09733172
62	0x3d8de9e3	0.06929376
63	0x3efd91ef	0.495254
64	0x3d690763	0.05689181
65	0x3dbcf143	0.092257045
66	0x3d96191e	0.073290095
67	0xbe035fc1	-0.12829496
68	0xbe1dcbd6	-0.15409788
69	0xbd442aa6	-0.047892235
70	0xbc4b8c1c	-0.012423541
71	0x3ecdf24d	0.40223923
72	0xbe104b72	-0.1409128
73	0x3e507012	0.20355251
74	0x3eb045b1	0.3442817
75	0xbcb9e6cf	-0.022693066
76	0xbd85ab1c	-0.06526777
77	0x3e12926d	0.1431367
78	0x3eaf0c31	0.3418899
79	0xbe3ecfad	-0.1863391
80	0x3d28d793	0.041221213
81	0x3d2b2a96	0.04178866
82	0xbe488afd	-0.1958427
83	0xbe2e3672	-0.17012957
84	0x3e8d4769	0.27593544
85	0x3ca541a1	0.020172896
86	0x3d0f53e7	0.034992125
87	0xbdc18e25	-0.0945094
88	0x3d58473d	0.052802313
89	0x3e8e70ad	0.2782034
90	0x3ec405be	0.3828563
91	0xbd967840	-0.073471546
92	0x3e62179d	0.2207932
93	0x3cc90046	0.024536263
94	0x3c1bdf99	0.009513759
95	0x3e8ed2fd	0.27895346
96	0xbe04f8ef	-0.12985586
97	0xbe5032f8	-0.20331943
98	0xbe8ebf9a	-0.27880555
99	0x3ea1c6b3	0.31596908
100	0x3e872f45	0.2640325
101	0x3d8a9b19	0.06767864
102	0xbd7a6879	-0.06113479
103	0x3de7b8f1	0.11314572
104	0xbdc8681e	-0.09785484
105	0x3e67ed24	0.22649056
106	0xbe31a415	-0.17347749
107	0xbc705e57	-0.01467093
108	0x3e45946e	0.19294903
109	0xbe385eba	-0.18004885
110	0xbd864199	-0.065554805
111	0x3d809dbe	0.06280087
112	0x3e44d585	0.19222076
113	0xbded29c3	-0.11580231
114	0xbc7f197d	-0.015570042
115	0xbe481639	-0.19539727
116	0x3df0699a	0.11738892
117	0x3e4ee62a	0.20204988
118	0xbdcd9bea	-0.10039504
119	0x3c9188c5	0.017765412
120	0xbe559ff4	-0.20861799
121	0xbe53cd4f	-0.20683788
122	0x3cf93187	0.030419124
123	0x3eb8c2f0	0.36086226
124	0xbe1e3b10	-0.15452218
125	0xbe2d287c	-0.16909975
126	0x3ead2d76	0.33823746
127	0x3d4184cb	0.047245782
128	0xbe12ad7b	-0.1432399
129	0xbe4e5b9d	-0.20152135
130	0xbd27499a	-0.040841676
131	0x3e5d9a54	0.21640903
132	0xbc0d0026	-0.008605992
133	0x3df2bb92	0.118521824
134	0x3e55ba74	0.20871907
135	0xbe45f748	-0.19332612
136	0x3e2a3a7b	0.16623871
137	0x3d71bae1	0.059016112
138	0x3d8a1679	0.067425676
139	0xbd10e42a	-0.035373844
140	0x3e7bb0cb	0.2457916
141	0xbddd43e9	-0.108039685
142	0xbd3a39de	-0.045465343
143	0xbba9e0ff	-0.0051842923
144	0x3e731725	0.23739298
145	0x3e543a8d	0.2072546
146	0xbe70fa7e	-0.23533055
147	0xbd19c511	-0.037541453
148	0x3c890ecc	0.016730689
149	0x3ea7dbec	0.32784975
150	0x3de2b4a4	0.11069611
151	0xbc8ccf00	-0.017188549
152	0x3ee7d248	0.4527762
153	0xbb5e77c3	-0.0033945895
154	0xbdd0c857	-0.10194462
155	0x3d352628	0.04422584
156	0xbdc80775	-0.09767047
157	0x3d5d712e	0.054063015
158	0xbe815699	-0.2526138
159	0x3e7b8c43	0.24565224
160	0xbd73bb14	-0.059504583
161	0x3deb79ff	0.11497878
162	0xbe55988d	-0.20858975
163	0xbd695c7f	-0.056972977
164	0x3d373fe2	0.044738658
165	0xbc7eeb8c	-0.015559088
166	0x3d2902be	0.04126238
167	0xbc2506af	-0.010072394
168	0x3da298c3	0.07939293
169	0xbe4ca7de	-0.19985911
170	0x3db197f4	0.08671561
171	0x3e0348c2	0.12820724
172	0xbc932b52	-0.017964993
173	0xbcab971c	-0.020946078
174	0xbe4b1565	-0.1983238
175	0x3df6a3f3	0.120429896
176	0x3deb3300	0.11484337
177	0x3e1e438a	0.15455452
178	0xbe13d51b	-0.14436762
179	0x3daf5ea4	0.08562973
180	0x3e29b33e	0.16572282
181	0xbe046fed	-0.12933321
182	0xbd888dbc	-0.06667659
183	0x3c6305d4	0.01385637
184	0xbd132903	-0.035927784
185	0x3e2424d1	0.1602967
186	0x3e1955af	0.14974092
187	0x3cb3429a	0.021882344
188	0x3e5106da	0.2041277
189	0x3dcb4a09	0.099262305
190	0xbe021c8a	-0.127062
191	0x3cd2e4f4	0.025743939
192	0xbe09d856	-0.13461432
193	0x3d0c35c1	0.03423095
194	0xbe02a566	-0.12758407
195	0xbe63cd43	-0.2224627
196	0x3d6cb08d	0.05778556
197	0x3e0eefd7	0.13958679
198	0x3e59eea2	0.21282437
199	0xbe5bb0fa	-0.2145423
200	0x3cb34808	0.021884933
201	0xbc64ec44	-0.013972346
202	0xbd53b9ea	-0.051690973
203	0xbe2df545	-0.16988094
204	0x3d5c9a18	0.053857893
205	0xbdde231e	-0.10846542
206	0x3da6749a	0.08127709
207	0xbdc98e84	-0.09841636
208	0x3de9e9d7	0.114215545
209	0x3e235bdd	0.15953012
210	0x3c1421b7	0.009041241
211	0xbdbf6b91	-0.093466885
212	0xbd4f2669	-0.05057374
213	0x3e284949	0.16434206
214	0xbe1d0ee1	-0.15337707
215	0xbe3fdd71	-0.18736817
216	0x3e00c3d8	0.12574708
217	0xbcb6f87f	-0.022335289
218	0xbdcb970b	-0.099409185
219	0x3def3968	0.11680871
220	0x3d9f8a8d	0.07790098
221	0x3e17519c	0.14777225
222	0xbe0bf9f8	-0.13669574
223	0x3d90e2bb	0.070744954
224	0xbdcab765	-0.09898261
225	0x3e54c62f	0.20778726
226	0x3dbb4783	0.09144499
227	0xbe50b77a	-0.20382491
228	0x3ddc758d	0.107646085
229	0x3bd5b7b3	0.006522143
230	0xbe41687b	-0.18887512
231	0xbdaf7a1c	-0.085682124
232	0xbdef90a9	-0.116975136
233	0xbde23360	-0.11044955
234	0xbe1a8c9a	-0.15092698
235	0x3cfb8654	0.030703701
236	0xbcd8c51e	-0.02646118
237	0xbe363157	-0.17792259
238	0x3deac94c	0.114641756
239	0x3e56fed1	0.20995642
240	0xbe06d545	-0.13167293
241	0x3d9b086b	0.07569965
242	0x3e7712b6	0.24128231
243	0x3ef0f698	0.47063136
244	0x3dcee0a9	0.10101444
245	0xbe16356c	-0.14668816
246	0x3e7fc144	0.24976069
247	0x3da4f426	0.0805438
248	0xbbb2b2e2	-0.0054534534
249	0x3db73fbd	0.08947704
250	0xbdeecaa3	-0.11659744
251	0x3ea1fa70	0.3163638
252	0xbe3d0a2c	-0.18460912
253	0x3e6f98bd	0.23398109
254	0x3e8b9fc5	0.27270332
255	0x3ca4b225	0.020104477

mlp.5.bias f4 [20]
0	0x3de7f1d7	0.11325424
1	0xbcaf2637	-0.021380527
2	0x3dab5eac	0.083676666
3	0x3d7f0262	0.06225813
4	0x3cc061a5	0.02348406
5	0xbc985da8	-0.018599346
6	0x3deb0a3f	0.11476564
7	0x3cc4efc5	0.024040112
8	0xbe7e3a20	-0.2482686
9	0xbc27c962	-0.0102408845
10	0xbe3c62d4	-0.18397075
11	0xbdc98fce	-0.09841882
12	0x3ca5264d	0.020159865
13	0x3e028824	0.12747246
14	0xbd0bbc79	-0.03411529
15	0x3d199c3d	0.037502516
16	0xbe215f08	-0.15758908
17	0x3d56e1a7	0.052461293
18	0x3c3a56e7	0.011373258
19	0x3da5371b	0.08067151

mlp.8.weight f4 [1, 20]
0	0xbf3516d1	-0.7073794
1	0xbb8e78db	-0.004347903
2	0x3ebc50e3	0.36780462
3	0xbf375be8	-0.7162461
4	0x3f256a16	0.64615
5	0x3e4c4e34	0.19951707
6	0xbf18aa24	-0.59634614
7	0x3f2503a7	0.644587
8	0xbe140655	-0.1445554
9	0xbcec724d	-0.028863097
10	0xbcea5a3a	-0.028607477
11	0x3c99c424	0.018770285
12	0xbf445577	-0.7669291
13	0xbe8583d2	-0.26077133
14	0xbcb53435	-0.02211962
15	0x3f25d06c	0.6477115
16	0x3cab49e5	0.02090926
17	0xbf461e0a	-0.77389586
18	0x3f3270f5	0.6970361
19	0xbeeda9ed	-0.46418706
