models/weights/layers_100_100_100_drop_lr_0.0001.pt (torch, 97107 bytes, 7 tensors)

mlp.0.weight f4 [100, 31]
0	0xbdd22342	-0.10260631
1	0xbdc4f187	-0.0961638
2	0xbe4a5125	-0.19757517
3	0x3e4bab46	0.19889554
4	0x3ccc7613	0.024958646
5	0xbdc6c965	-0.09706382
6	0x3dcaed49	0.0990854
7	0x3dbfae22	0.09359385
8	0x3be5a459	0.007008117
9	0x3dd4cd2d	0.10390697
10	0x3e4cb62d	0.1999137
11	0x3d9bfe2d	0.076168396
12	0x3e049577	0.12947641
13	0x3dbf9f79	0.09356589
14	0x3db74bf3	0.08950033
15	0x3daae474	0.08344355
16	0x3b568712	0.0032734317
17	0x3d6b4040	0.05743432
18	0x3e0711ec	0.1319043
19	0xbdee2b4b	-0.11629351
20	0x3ca82c58	0.020528957
21	0x3e17b24c	0.14814109
22	0xbda9e3a4	-0.08295372
23	0x3e3964d1	0.18104865
24	0x3d55d6f9	0.052206967
25	0x3ceab1cf	0.028649239
26	0x3c0ce22e	0.008598847
27	0xbd1d26cf	-0.03836709
28	0x3dd03ec4	0.101682216
29	0xbd57dbae	-0.052699737
30	0xbc491b00	-0.012274504
31	0x3e451407	0.19245921
32	0x3e6014ae	0.21882889
33	0x3d82bfeb	0.06384262
34	0x3de4e4b6	0.11176436
35	0xbd290fd1	-0.04127485
36	0xbe7c74ab	-0.2465388
37	0xbdab60fe	-0.08368109
38	0x3c7921f7	0.015205852
39	0xbe3b5727	-0.18294965
40	0x3be378f2	0.006941908
41	0xbc9c505c	-0.019081287
42	0xbcc52b58	-0.02406852
43	0x3e3cf281	0.18451883
44	0xbdafe82c	-0.08589205
45	0xbdaf174e	-0.08549367
46	0x3c320a2d	0.010866684
47	0xbe365c0a	-0.17808548
48	0x3caa54fa	0.020792473
49	0xbbdff393	-0.006834456
50	0xbd0931f5	-0.03349491
51	0xbe55d879	-0.20883359
52	0x3e1fdaf4	0.15610868
53	0xbdd1a502	-0.10236551
54	0xbd1c65c1	-0.038182978
55	0xbddaec38	-0.106895864
56	0xbdbbd540	-0.091715336
57	0x3c1ebb82	0.00968826
58	0x3e1e1e0d	0.15441151
59	0xbc39dd29	-0.011344233
60	0x3d5dd98d	0.05416255
61	0x3e1e202d	0.15441962
62	0x3dfe7372	0.12424363
63	0xbcb7cfec	-0.022438012
64	0xbd896956	-0.06709544
65	0x3ddc7b2f	0.10765683
66	0xbd994b46	-0.074850604
67	0x3e259444	0.1616984
68	0x3e1beeee	0.15227863
69	0xbb5412ac	-0.0032359762
70	0x3e233593	0.15938406
71	0xbe0f1922	-0.13974431
72	0xbe2765c4	-0.16347414
73	0x3d808ffe	0.06277464
74	0xbe19d8c0	-0.1502409
75	0xbc4190b7	-0.011814288
76	0xbba71720	-0.0050991923
77	0x3e421aeb	0.18955581
78	0x3d562c17	0.05228814
79	0xbe77ce74	-0.2419985
80	0x3d9ca22e	0.07648121
81	0xbdcea056	-0.100891754
82	0x3dd9cb26	0.106344506
83	0x3d179de2	0.037015803
84	0x3e443dbe	0.19164178
85	0x3dea2933	0.114336394
86	0x3e88ea7d	0.267414
87	0xbd052315	-0.03250416
88	0x3d4a0019	0.0493165
89	0xbdae4196	-0.08508603
90	0xbd509a4e	-0.050928406
91	0x3ccb8f59	0.024848627
92	0xbc4ff353	-0.01269229
93	0x3e00bdcf	0.12572406
94	0xbdb65c92	-0.08904375
95	0xbe487ce5	-0.19578893
96	0x3e28f057	0.16497932
97	0x3d8710d9	0.0659501
98	0x3e129197	0.1431335
99	0xbd8bf6ef	-0.06834208
100	0xbe032015	-0.12805207
101	0x3e47e64d	0.19521447
102	0xbbdeff3c	-0.0068053287
103	0x3e0fb200	0.14032745
104	0x3e161096	0.14654765
105	0xbccae419	-0.024766969
106	0x3ca4f459	0.020136045
107	0xbde51a6c	-0.1118668
108	0x3d61644c	0.05502729
109	0x3ccff7c6	0.025386702
110	0x3d95a552	0.07306923
111	0xbe05a834	-0.13052446
112	0xbd826588	-0.06367022
113	0x3d900c74	0.07033625
114	0x3caa1ae9	0.020764785
115	0x3db4a778	0.08821005
116	0xbe13ade0	-0.14421797
117	0xbe1f4ebd	-0.1555738
118	0x3e27d8b6	0.16391262
119	0x3dda5a62	0.106617704
120	0xbe199a7c	-0.15000337
121	0xbab5a01e	-0.0013856923
122	0x3e5bcc29	0.214646
123	0x3d50eea1	0.051008824
124	0xbe250a30	-0.16117167
125	0xbde48b5b	-0.111593924
126	0x3e2c09f4	0.16800672
127	0x3e3ccd49	0.18437685
128	0x3e48487b	0.19558899
129	0x3df622ca	0.12018354
130	0xbca48bad	-0.020086134
131	0x3d3bf786	0.045890354
132	0x3e98d877	0.2985265
133	0xbda017dc	-0.07817051
134	0x3d7d740f	0.06187826
135	0xbdb344ed	-0.08753381
136	0x3e283300	0.16425705
137	0x3e20b4bb	0.15693943
138	0xbd0c1e7d	-0.034208763
139	0x3e68c31f	0.22730683
140	0x3dcb9197	0.099398784
141	0x3df0669c	0.11738321
142	0xbdb740c2	-0.089478984
143	0xbd53d2e2	-0.051714785
144	0x3db2bbae	0.08727203
145	0x3e0da513	0.13832502
146	0xbd7cf544	-0.06175734
147	0xbd77fc43	-0.06054331
148	0x3d4a4410	0.049381316
149	0x3e29301b	0.16522257
150	0xbddab1e0	-0.10678458
151	0xbd982596	-0.07429044
152	0x3d94b862	0.07261731
153	0x3c904eb2	0.01761565
154	0x3d8c3de0	0.06847739
155	0x3de75114	0.11294761
156	0xbd04c152	-0.032410927
157	0x3e46fb86	0.19431886
158	0x3d83ddc3	0.06438782
159	0x3e149bae	0.14512512
160	0x3ca776d8	0.020442411
161	0x3c65346c	0.013989549
162	0xbdbf6a75	-0.09346477
163	0x3e01c165	0.1267143
164	0x3dddeda5	0.10836343
165	0x3e3f54a6	0.18684635
166	0x3c7bf120	0.015377313
167	0xbda6ca48	-0.08144051
168	0xbd98adb8	-0.07455009
169	0x3d99fdd9	0.07519121
170	0x3def5091	0.11685289
171	0x3e313988	0.17307103
172	0x3c499fe9	0.012306192
173	0xbc46230c	-0.012093317
174	0x3cd88b6a	0.026433665
175	0x3e38d8e2	0.18051484
176	0x3b498e59	0.0030755012
177	0xbe1820a7	-0.14856206
178	0xbdc7faa1	-0.097646005
179	0xbd9aa07b	-0.075501405
180	0xbe0f5497	-0.13997112
181	0x3d6047ce	0.05475598
182	0xbdcc00df	-0.09961104
183	0xbe306123	-0.17224555
184	0xbdd0a813	-0.101883076
185	0x3ce8e2da	0.028428484
186	0x3b0b60c7	0.00212674
187	0xbc25bbf9	-0.010115617
188	0x3e0eafbd	0.13934226
189	0x3dcf69cb	0.101276
190	0x3e5ab00e	0.21356222
191	0x3c38b19c	0.011272814
192	0x3e054e71	0.13018204
193	0x3e92019b	0.2851685
194	0xbdfb2cc2	-0.12264396
195	0x3e09fea2	0.13476041
196	0xbcad24fc	-0.0211358
197	0xbd253d63	-0.040341746
198	0x3dab805e	0.083740935
199	0x3cfe52c6	0.031045329
200	0xbdf5b128	-0.119966805
201	0x3cea64e1	0.028612556
202	0xbd915c81	-0.07097722
203	0x3c41232a	0.011788169
204	0x3d9b6294	0.07587162
205	0xbd96ce15	-0.07363526
206	0xbbe105e4	-0.0068671573
207	0xbe1033e8	-0.140823
208	0x3e5f3cfc	0.21800607
209	0x3c921c84	0.017835863
210	0x3dc1207d	0.09430025
211	0x3e33efc8	0.17571938
212	0xbe6adefb	-0.22936623
213	0xbe4324aa	-0.19056955
214	0xbe26d6bd	-0.16292854
215	0x3e2b640e	0.16737387
216	0x3e1c3e7d	0.15258212
217	0xbe2fbfd6	-0.17163023
218	0xbd51ef99	-0.05125389
219	0xbe23aaa3	-0.15983061
220	0x3d1e5f9f	0.03866541
221	0xbdfde197	-0.123965435
222	0x3e283edb	0.16430227
223	0xbc86b10c	-0.016441844
224	0xbd80abb5	-0.062827505
225	0x3d38aa98	0.045084566
226	0x3cfb1b57	0.030652685
227	0xbce97203	-0.028496748
228	0x3e43e6ee	0.19131061
229	0xbe5c23da	-0.21498051
230	0xbddf6bf5	-0.10909263
231	0x3da2f24d	0.079563715
232	0x3b6488af	0.0034871509
233	0x3e17ca76	0.14823326
234	0x3deaeec9	0.11471326
235	0xbddb050d	-0.10694323
236	0xbd1466e4	-0.036230937
237	0xbccd4bdf	-0.025060592
238	0xbe037474	-0.12837392
239	0xbe9c6b43	-0.30550584
240	0x3d89a047	0.067200236
241	0x3e0aa097	0.13537823
242	0x3e2f7728	0.17135298
243	0x3db525cd	0.088451006
244	0xbd9cadfb	-0.07650372
245	0xbdaff757	-0.08592098
246	0xbce50702	-0.027957443
247	0x3d51d22f	0.051225837
248	0xbe340e01	-0.17583467
249	0xbd230adc	-0.03980528
250	0xbd5c8a9b	-0.053843122
251	0x3d23e4e1	0.040013198
252	0x3e026e18	0.1273731
253	0xbdea0626	-0.11426954
254	0x3c9ed203	0.01938725
255	0x3cdbbc2d	0.026823128

mlp.0.bias f4 [100]
0	0x3e66a952	0.22525528
1	0xbde2c7dd	-0.11073277
2	0xbe4ca0f4	-0.19983274
3	0xbcd34ba6	-0.025792908
4	0xbe015459	-0.12629832
5	0xbde7aba6	-0.11312036
6	0xbd43f4cc	-0.04784088
7	0xbd0fdfe0	-0.035125613
8	0xbe2a262f	-0.16616128
9	0x3cb46093	0.022018706
10	0x3d0b5c78	0.034023732
11	0x3dd03a39	0.10167355
12	0x3db223f0	0.08698261
13	0x3d53632d	0.051608253
14	0xbd4d3aaf	-0.050104793
15	0x3e002978	0.12515819
16	0xbe32c416	-0.17457613
17	0xbe26bec0	-0.16283703
18	0x3e7225ce	0.23647234
19	0xbe15ce84	-0.1462956
20	0xbd56b505	-0.052418727
21	0xbe2917d4	-0.16512996
22	0xbc665f75	-0.014060845
23	0x3dcd74d9	0.100320525
24	0x3e0116d3	0.12606363
25	0x3de6bde3	0.11266687
26	0x3e28f979	0.16501416
27	0xbda37edc	-0.07983181
28	0x3d09836f	0.03357261
29	0x3d642c0b	0.055706065
30	0xbd8470c7	-0.06466823
31	0xbe26fed3	-0.16308145
32	0x3e367c36	0.1782082
33	0xbd36afdb	-0.044601303
34	0xbe19d36a	-0.15022054
35	0xbe3c77c1	-0.18405057
36	0xbe19d5d6	-0.15022978
37	0xbe630828	-0.2217108
38	0x3c5ed9f4	0.013601769
39	0x3e91056f	0.28324458
40	0xbe0e706a	-0.1391007
41	0xbdea2086	-0.114319846
42	0xbed0406a	-0.40674144
43	0x3e0491b3	0.12946205
44	0x3e3028b8	0.17203033
45	0x3c96d757	0.018413229
46	0x3d06f6be	0.032950155
47	0x3d437275	0.047716577
48	0xbe47b996	-0.19504389
49	0x3d8741b9	0.066043325
50	0xbdb53f66	-0.08849983
51	0xbe4c9515	-0.19978745
52	0xbde0dc5b	-0.109795295
53	0xbcbb3a74	-0.022855021
54	0xbdfda475	-0.12384883
55	0xbe3b1065	-0.18267973
56	0xbdb02ab9	-0.08601899
57	0x3d8d9f45	0.06915144
58	0x3dd137ca	0.10215719
59	0x3db9fb80	0.09081173
60	0xbe44e552	-0.19228104
61	0x3e22d653	0.1590207
62	0x3da1a0c4	0.07891992
63	0x3c0f6fd9	0.008754694
64	0xbcb16a0e	-0.021657016
65	0x3dde5421	0.1085589
66	0xbc2a3185	-0.010387783
67	0xbe14fc73	-0.14549427
68	0xbde5eb08	-0.11226469
69	0x3e21cc7a	0.15800658
70	0x3e070b2c	0.13187855
71	0xbcd6b2a4	-0.02620823
72	0x3e037eb6	0.12841305
73	0xbd8450ad	-0.064607
74	0xbbaab074	-0.005209023
75	0x3dcfafdd	0.10140965
76	0x3e830109	0.25586727
77	0x3e3ce343	0.18446068
78	0x3dd0c638	0.10194057
79	0xbe72e87c	-0.23721498
80	0x3d5c47a6	0.053779267
81	0x3dbc73db	0.09201785
82	0xbe06f8a7	-0.13180791
83	0xbe0538a7	-0.13009892
84	0x3d33b41b	0.043872934
85	0xbcafce2f	-0.02146062
86	0x3db1270a	0.08650024
87	0xbe472ea2	-0.19451383
88	0xbdd1f810	-0.10252392
89	0xbd9913ed	-0.07474504
90	0xb9fbc0dc	-0.00048018142
91	0xbdacb20c	-0.08432397
92	0xbe6c5e68	-0.23082888
93	0x3ca61965	0.02027578
94	0x3e11afdf	0.14227246
95	0xbbe8b725	-0.0071019107
96	0xbe22e3ee	-0.15907261
97	0xbe90cec0	-0.28282738
98	0x3e13778f	0.14401077
99	0x3b806343	0.003918083

mlp.2.weight f4 [100, 100]
0	0xbe0adebe	-0.13561532
1	0x3d8c4210	0.06848538
2	0xbdae454d	-0.08509312
3	0xbd1e6efc	-0.03868006
4	0xbda55733	-0.080732726
5	0x3df1d69e	0.11808513
6	0xbc48df27	-0.012260235
7	0x3d708bab	0.058726948
8	0xbc6e3aa9	-0.014540353
9	0xbd1cf701	-0.0383215
10	0x3d8eceaf	0.069730155
11	0xbc439126	-0.011936462
12	0xbb2c8921	-0.0026326852
13	0xbd52c5d8	-0.05145821
14	0xbd970486	-0.0737391
15	0x3d392039	0.045196746
16	0xbd50d10b	-0.05098061
17	0xbd53521d	-0.05159198
18	0x3db76e88	0.08956629
19	0xbc8003f4	-0.015626885
20	0x3d410f21	0.04713357
21	0x3d66d306	0.05635359
22	0xbd7e7129	-0.062119637
23	0xbde4615a	-0.11151381
24	0xbddf4d7c	-0.10903451
25	0xbd9e2ad8	-0.077230155
26	0x3ad03db5	0.0015887531
27	0xbd89da20	-0.06731057
28	0xbc043d38	-0.008071236
29	0xbce6a5ad	-0.028155172
30	0x3d9fb836	0.07798807
31	0xbdd7212a	-0.105043724
32	0x3ae2da51	0.0017307495
33	0xbd6ced7a	-0.057843663
34	0x3d839ce6	0.064264104
35	0x3ce2ee7e	0.027701613
36	0x3de6669a	0.112500384
37	0x3d5d9de8	0.05410567
38	0xbc91803b	-0.01776134
39	0x3b848cff	0.0040451284
40	0x3cbdcdc5	0.023169408
41	0x3d7b6400	0.061374664
42	0xbc9cb984	-0.01913143
43	0xbd2627b8	-0.040565223
44	0xbaea32d4	-0.0017867931
45	0x3c218390	0.009858027
46	0x3cd71443	0.026254779
47	0x3c9e4f36	0.01932488
48	0xbd95bd92	-0.07311548
49	0xbcc0ae7d	-0.023520702
50	0xbd9a0d6b	-0.075220905
51	0xbd87b11b	-0.06625577
52	0x3d832156	0.06402843
53	0x3d199a20	0.0375005
54	0x3d2dc434	0.042423442
55	0xbc35cce5	-0.011096214
56	0x3d8e0fa5	0.06936578
57	0x3df7a767	0.12092476
58	0xbd82498e	-0.06361686
59	0x3d949309	0.07254607
60	0xbdb53bc7	-0.08849292
61	0xbd517375	-0.0511355
62	0x3d926bf3	0.07149496
63	0xbd2557ce	-0.04036694
64	0xbc60efbb	-0.013729031
65	0x3c857940	0.016293168
66	0x3d9b0e85	0.07571129
67	0x3bffbf8b	0.007804816
68	0x3da88317	0.082281284
69	0xbc8822aa	-0.016618092
70	0x3cbb3f21	0.02285725
71	0x3d7f5e92	0.06234605
72	0x3d5d8e29	0.054090653
73	0x3c2e6346	0.010643786
74	0x3d6074bc	0.054798827
75	0xbdb0af43	-0.086271785
76	0x3cb6624d	0.02226367
77	0xbca6634b	-0.020311018
78	0xbbabff72	-0.0052489573
79	0x3daa8589	0.08326251
80	0xbd01c4a0	-0.031681657
81	0x3d2f1426	0.042743824
82	0xbccb19ce	-0.024792578
83	0x3dab3bf4	0.083610445
84	0xbd3884e5	-0.045048613
85	0xbdade0cb	-0.084901415
86	0x3d281a77	0.041040864
87	0x3d44f12d	0.048081566
88	0x3a876c2c	0.001033192
89	0x3d267427	0.040638115
90	0x3abc8c5b	0.0014385091
91	0xbdbcea31	-0.09224356
92	0x3c8b8a17	0.01703362
93	0xbd6509e7	-0.055917647
94	0xbd7cb5e2	-0.061696894
95	0x3d439fe7	0.047759917
96	0xbdc74732	-0.09730376
97	0x3dc38a69	0.09547884
98	0x3d59e07c	0.0531926
99	0xbd492b54	-0.049113587
100	0x3d9fc3c4	0.07801011
101	0x3d414743	0.0471871
102	0x3da498e9	0.08036978
103	0x3c8b1a18	0.016980216
104	0xbd628dd0	-0.055311024
105	0x3d25f1ac	0.04051368
106	0xbc900e1a	-0.01758485
107	0x3d00ddc9	0.03146151
108	0xbdc73ca1	-0.09728361
109	0x3da97ff5	0.08276359
110	0xbd5e97fd	-0.054344166
111	0x3dcc24d1	0.0996796
112	0xbc8116dd	-0.015757972
113	0x3d4b7772	0.04967446
114	0x3dc38752	0.09547295
115	0xbc0b5017	-0.008502982
116	0xbda662ab	-0.08124288
117	0xbdbf47f8	-0.09339899
118	0xbd3121cf	-0.043245133
119	0xbdde6f4c	-0.10861072
120	0xbd695078	-0.056961507
121	0xbd5b9d7f	-0.053616997
122	0x3d073b2d	0.03301542
123	0x3db0490b	0.08607682
124	0xbd8cb272	-0.06869973
125	0x3d8288dd	0.06373761
126	0xbb91dca8	-0.004451353
127	0x3d0e9f80	0.03482008
128	0xb9c4911c	-0.00037492148
129	0xbc7f0244	-0.015564505
130	0x3d43427c	0.047670826
131	0x3c81fc94	0.015867509
132	0xbd3f59bd	-0.04671644
133	0xbc892931	-0.016743274
134	0xbcbbc2bb	-0.022920003
135	0xbce54f0d	-0.027991796
136	0xbc164384	-0.00917137
137	0xb948871c	-0.00019123818
138	0xbb54b716	-0.003245776
139	0x3cfe4876	0.031040411
140	0xbcaad5fc	-0.020853989
141	0x3cbb5e32	0.022872064
142	0xbdbf9882	-0.093552604
143	0xbd8399dd	-0.064258315
144	0x3cbf6132	0.023361776
145	0xbdcb4ee5	-0.09927157
146	0xbd4aafe3	-0.049484145
147	0xbc62ad15	-0.013835211
148	0x3d503ad2	0.050837345
149	0x3d11b5c6	0.035573743
150	0xbd38d4a1	-0.045124654
151	0x3dc703c8	0.09717518
152	0x3cab0ca2	0.020880047
153	0x3d9ca981	0.07649518
154	0xbd0d1b62	-0.034449942
155	0xbd8ed60c	-0.0697442
156	0xbc020655	-0.00793608
157	0xbd8846a1	-0.066540964
158	0xbc3e611b	-0.011619831
159	0x3cddd506	0.027079117
160	0x3d80ed36	0.062952444
161	0xbdaeba8f	-0.08531677
162	0xbdbcdb6d	-0.0922154
163	0xbc521fd1	-0.012824968
164	0x3db1cbe7	0.086814694
165	0x3d5c878c	0.053840205
166	0xbc6cb927	-0.014448441
167	0xbdbdac17	-0.09261339
168	0xbc3170af	-0.0108300885
169	0x3c471d6b	0.01215301
170	0x3c8cd11c	0.017189555
171	0xbd6f314b	-0.05839662
172	0x3d5bc70c	0.053656623
173	0xbda990e7	-0.08279591
174	0x3aadcc5e	0.0013259759
175	0xbb967af7	-0.0045922953
176	0xbd55304e	-0.05204802
177	0x3d38c5b0	0.045110404
178	0x3d2af484	0.041737095
179	0xbd195bff	-0.03744125
180	0xbd8510ff	-0.064973824
181	0x3d613a49	0.054987226
182	0xbd1e592e	-0.038659267
183	0xbdb07c74	-0.086174875
184	0x3c1e0b34	0.009646226
185	0x3d5b0891	0.053474966
186	0x3c1087b2	0.008821415
187	0x3d8a6650	0.06757796
188	0x3d846dc3	0.06466248
189	0x3d75a809	0.059974704
190	0x3db8e66d	0.09028325
191	0x3d7ea9aa	0.062173523
192	0xbb85355e	-0.0040651998
193	0x3dd015b1	0.10160387
194	0x3d1da5c0	0.03848815
195	0x3c38cc6a	0.011279205
196	0xbd69e4ac	-0.057102844
197	0xbca29328	-0.01984556
198	0xbd5dcdf0	-0.054151475
199	0xbd12862e	-0.035772495
200	0x3cda8752	0.026675854
201	0x3c96e7a7	0.018421007
202	0x3c863999	0.016384887
203	0x3daf29f5	0.085529245
204	0xbd0ab14f	-0.0338605
205	0xbd5a3fd3	-0.053283524
206	0xbdb9a7b7	-0.09065192
207	0x3d6c5d59	0.05770621
208	0x3dc01b7b	0.093802415
209	0x3d8c4b05	0.06850246
210	0xbcd21640	-0.025645375
211	0xbc1a8d30	-0.009433076
212	0xbd01facb	-0.031733315
213	0x3cffee63	0.031241601
214	0xbda03367	-0.07822304
215	0xbd7fe129	-0.06247059
216	0x3d921a2b	0.071338974
217	0xbdaccef3	-0.0843791
218	0x3dd6d458	0.1048972
219	0xbd959ddd	-0.07305501
220	0x3d86c9ac	0.065814346
221	0xbc3fbea3	-0.011703166
222	0x3e030847	0.12796126
223	0x3d96b58f	0.07358848
224	0x3d8cc4d3	0.06873479
225	0x3d2ea07c	0.04263352
226	0x3c17c654	0.009263594
227	0x3d5fc670	0.054632604
228	0xbe1886f6	-0.14895234
229	0x3de3235a	0.11090727
230	0x3bea0a39	0.007142332
231	0x3dc73f39	0.09728856
232	0xbda36ba3	-0.079795144
233	0x3d6a9282	0.057268627
234	0xbbe04adc	-0.0068448614
235	0x3b89d58f	0.0042063664
236	0x3bfc0cad	0.0076919408
237	0xbd89ee17	-0.06734865
238	0xbd3f9396	-0.04677161
239	0x3dd39d5d	0.10332749
240	0x3ca58a59	0.02020757
241	0x3d023961	0.031793002
242	0x3d8c7e6b	0.0686005
243	0x3d2359e7	0.03988066
244	0x3d17be0e	0.037046485
245	0xbcb0aae1	-0.021565856
246	0xbda66ae4	-0.081258565
247	0x3d841037	0.06448405
248	0xbcf984f5	-0.030458907
249	0xbd8bb4e5	-0.06821612
250	0xbc21e410	-0.0098810345
251	0x3d607e69	0.054808054
252	0x3d4fc7c5	0.050727624
253	0xbdbbaf0c	-0.09164247
254	0xbd659041	-0.056045774
255	0xbc8b64ea	-0.017015893

mlp.2.bias f4 [100]
0	0x3db2bb9b	0.08727189
1	0x3c530f42	0.012882056
2	0xbe053e9d	-0.13012166
3	0xbd4ba269	-0.049715433
4	0x3de36927	0.111040406
5	0xbd442412	-0.04788596
6	0xbe10183e	-0.14071748
7	0xbd424d05	-0.047436733
8	0xbd1edb23	-0.038783204
9	0x3d9ccf6e	0.076567516
10	0x3ce248f1	0.027622672
11	0xbb324a2f	-0.0027204861
12	0xbd7c92ce	-0.06166344
13	0x3d2b7148	0.04185608
14	0xbe8cd757	-0.2750804
15	0xbe99b66c	-0.3002199
16	0xbd598283	-0.05310298
17	0x3daec599	0.085337825
18	0xbadc2a71	-0.0016797316
19	0xbdaef706	-0.0854321
20	0x3dce2e0e	0.10067378
21	0xbdba67f8	-0.09101862
22	0x3b2fbfe7	0.0026817264
23	0x3e246211	0.16053034
24	0xbc285b57	-0.010275683
25	0xbd933a99	-0.07188911
26	0x3ddfc0b4	0.10925427
27	0xbe1804be	-0.14845559
28	0xbd7808fe	-0.06055545
29	0xbd9cd985	-0.07658676
30	0x3dc6ac24	0.09700802
31	0xbd2d82b7	-0.042360988
32	0xbccabddc	-0.024748735
33	0xbd5cae65	-0.053877253
34	0xbe2adc08	-0.16685498
35	0xbb1109d0	-0.0022131093
36	0xbdae9ab8	-0.08525604
37	0xbdc26588	-0.09492022
38	0x3ba980ab	0.005172809
39	0x3b81d91c	0.003962649
40	0x3d413927	0.047173645
41	0xbe02ca7e	-0.12772557
42	0xbe008906	-0.1255227
43	0x3cac2ba6	0.021016907
44	0xbd9e83c7	-0.07739978
45	0x3cdf0efe	0.027228829
46	0x3d53d6c7	0.0517185
47	0xbb02182e	-0.0019850838
48	0xbdf0c56a	-0.11756404
49	0xbda1d26b	-0.07901462
50	0xbde7f30b	-0.11325654
51	0x3d373eea	0.044737734
52	0xbce20f70	-0.027595252
53	0x3d88d7aa	0.0668176
54	0x3da35fb0	0.07977235
55	0x3dc0b408	0.09409338
56	0xbd25976d	-0.040427614
57	0xbbcc83fb	-0.0062413192
58	0xbdaa3ba5	-0.083121575
59	0xbe0ce0ad	-0.13757582
60	0xbca4a6cc	-0.020099066
61	0xbd37eb28	-0.044901997
62	0xbe063955	-0.13107808
63	0xbda555f7	-0.08073037
64	0x3cbb0051	0.0228273
65	0xbd6c953d	-0.057759512
66	0xbdb370ad	-0.087617256
67	0xbcd20da5	-0.025641272
68	0xbc9b876f	-0.018985478
69	0xbdac8e7f	-0.084256165
70	0x3db95369	0.09049112
71	0xbc7905ce	-0.015199138
72	0xbda5b03e	-0.08090256
73	0x3dbda2ae	0.09259544
74	0xbd6ca659	-0.05777583
75	0xbdb3d6c5	-0.087811984
76	0xbcdf2794	-0.027240552
77	0xbde1069c	-0.10987589
78	0x3d0842ca	0.03326682
79	0x3d604fce	0.054763608
80	0xbcd9f4b3	-0.02660594
81	0xbde99721	-0.11405779
82	0xbda80572	-0.082041636
83	0x3d45a8a6	0.04825654
84	0x3d30078f	0.04297596
85	0xbda9635c	-0.082709044
86	0x3e124a0c	0.14286059
87	0xbdf91a20	-0.12163186
88	0x3d475546	0.048665307
89	0xbc8f074d	-0.017459536
90	0x3d225e55	0.039640743
91	0xbd389772	-0.045066305
92	0xbda4ba17	-0.08043306
93	0x3b1c5ce5	0.002385908
94	0x3da8b993	0.082385205
95	0xbd3fa696	-0.046789728
96	0xbe68a0e5	-0.22717626
97	0xbd9c1a0f	-0.07622158
98	0xbdd00271	-0.10156716
99	0x3c8d28a5	0.017231295

mlp.5.weight f4 [100, 100]
0	0xbc98deb2	-0.018660877
1	0xbb2bb038	-0.0026197564
2	0x3ddcd5cf	0.10782968
3	0x3be2036e	0.0068973815
4	0x3dbd431b	0.09241315
5	0xbdc420c7	-0.09576564
6	0xbceb1a32	-0.028699014
7	0x3d842fd4	0.06454435
8	0x3dc79950	0.09746039
9	0xbd95fcc6	-0.07323603
10	0x3d6986e7	0.05701342
11	0xbd6610d1	-0.05616838
12	0xbd091a6b	-0.03347246
13	0xbd80c754	-0.06288019
14	0x3d9cea01	0.0766182
15	0xbd81d39b	-0.06339189
16	0xbdb38450	-0.08765471
17	0x3c07d636	0.008290818
18	0x3bc246f3	0.005928868
19	0xbdb8c60e	-0.09022151
20	0x3de025e5	0.10944728
21	0xbb9e5dbb	-0.004832951
22	0xbd3f8c68	-0.04676476
23	0x3d945273	0.072422884
24	0xbd4b9009	-0.04969791
25	0xbd9a8965	-0.07545737
26	0xbcc45a1d	-0.02396875
27	0xbdbbcc51	-0.0916983
28	0x3de917ed	0.113815166
29	0x3cd245ab	0.025667986
30	0x3d3bb9c0	0.045831442
31	0xbd35df64	-0.044402495
32	0x3c6c0a9e	0.014406828
33	0xbcf63281	-0.030053379
34	0xbdb73798	-0.089461505
35	0x3d962ed0	0.073331475
36	0xba060c61	-0.0005113539
37	0x3e0ea6b8	0.13930786
38	0x3cf4f2a2	0.029900853
39	0xbb1fba65	-0.0024372574
40	0x3c93293a	0.017963994
41	0xbcb4aa6d	-0.022053922
42	0xbdcbf564	-0.09958914
43	0xbd05eb7a	-0.03269527
44	0x3d758dac	0.059949562
45	0xba71e641	-0.0009227731
46	0xbda5a79a	-0.08088608
47	0x3cf6b217	0.030114217
48	0xbdbe1d6c	-0.092829555
49	0x3ccadb9f	0.024762927
50	0xbdc0ce40	-0.09414339
51	0x3da23f63	0.07922246
52	0xbd51d3a0	-0.051227212
53	0xbd437612	-0.047720022
54	0x3e0789ec	0.13236207
55	0x3db77745	0.08958296
56	0xbd3a7540	-0.045521975
57	0x3d8b6447	0.06806236
58	0x3d31173f	0.04323506
59	0xbdb7cd54	-0.0897471
60	0xbceb8ca2	-0.028753582
61	0x3d920aa2	0.07130934
62	0x3d83e341	0.064398296
63	0x3d497f2b	0.049193542
64	0xbd40ab0b	-0.04703812
65	0x3b73573d	0.0037130855
66	0x3d5348e7	0.051583197
67	0xbe039dcc	-0.12853163
68	0x3d212d84	0.039350048
69	0xba96d4c2	-0.0011507499
70	0x3ba13775	0.004919941
71	0xbd931357	-0.07181423
72	0xbdce6bad	-0.10079131
73	0x3dc1d915	0.09465233
74	0xbcca9710	-0.024730235
75	0xbd524a17	-0.05134019
76	0xbd30c621	-0.0431577
77	0xbbd0b3f5	-0.006369109
78	0xbda792ed	-0.08182321
79	0x3d600452	0.05469162
80	0x3c31b653	0.010846692
81	0x3d9d2f0e	0.076749906
82	0xbc56d443	-0.013112131
83	0x3e059c32	0.13047865
84	0xbd735bff	-0.059413906
85	0xbca0edb4	-0.019644596
86	0x3e2b7041	0.1674204
87	0xbd14d8c4	-0.036339536
88	0xbd9dce3a	-0.0770535
89	0xbc0d051d	-0.008607176
90	0xbdcc1dfc	-0.099666566
91	0x3d2d6bf8	0.042339295
92	0xbce6237c	-0.028093092
93	0x3d1f4544	0.038884416
94	0x3d59f9c9	0.05321673
95	0x3d96e9ba	0.073687986
96	0x3d9820be	0.0742812
97	0xbc837136	-0.016045194
98	0xbcca7955	-0.024716059
99	0x3db93e93	0.09045138
100	0xbdd27c3a	-0.102776006
101	0x3d6c7530	0.057728946
102	0x3d9c960d	0.076458074
103	0x3c2fb77c	0.010724898
104	0x3d40d3ce	0.047076993
105	0x3d75e2a7	0.060030606
106	0x3d2d38a1	0.042290334
107	0x3da7551c	0.0817053
108	0x3d34ad52	0.044110604
109	0xbcea33f5	-0.028589228
110	0x3da85c0c	0.082206815
111	0xbd562a85	-0.052286644
112	0xbc221e13	-0.009894866
113	0xbd80401c	-0.06262228
114	0xbcd461cc	-0.02592554
115	0x3d2ecc54	0.04267533
116	0x3c967663	0.018366998
117	0x3da36487	0.079781584
118	0xbd04cb2a	-0.032420315
119	0x3d7b62f8	0.06137368
120	0xbc11a9c6	-0.008890575
121	0x3d96177d	0.07328699
122	0x3d95ba1d	0.07310889
123	0x3d2173fd	0.039417256
124	0x3d8cd351	0.06876243
125	0xbdb8944c	-0.090126604
126	0x3dbdd5dc	0.09269306
127	0xbca7502d	-0.020423973
128	0xbdbc1cff	-0.09185218
129	0x3d907651	0.07053817
130	0x3d60898c	0.054818675
131	0xbdb2ea63	-0.08736112
132	0xbd7b4954	-0.061349228
133	0xbd5a786a	-0.053337492
134	0xbdb51f63	-0.08843877
135	0x3d85d327	0.06534415
136	0x3d55b6c7	0.052176263
137	0x3dd72e94	0.10506931
138	0x3dac3ed0	0.08410418
139	0x3d859142	0.06521846
140	0x3c7be65d	0.015374747
141	0x3cd627c1	0.026142003
142	0x3cec5e12	0.02885345
143	0x3dbaa481	0.09113408
144	0xbd2cb76d	-0.042167116
145	0xbc00d529	-0.007863321
146	0x3d9717dc	0.07377598
147	0xbdb46515	-0.08808342
148	0xbd387f2b	-0.04504315
149	0x3db65f90	0.08904946
150	0xbd4847e9	-0.048896704
151	0xbdb5af75	-0.088713564
152	0x3d80de04	0.06292346
153	0x3cc40de9	0.023932414
154	0x3d6630b1	0.05619878
155	0xbdb73ca7	-0.089471154
156	0x3d4fac4e	0.050701432
157	0x3ce38768	0.027774528
158	0xbde610e3	-0.1123369
159	0xbc5530e4	-0.013012145
160	0x3d50f627	0.051016
161	0xbbc60cff	-0.0060440297
162	0xbd9f2ec8	-0.07772595
163	0x3cdb9570	0.026804656
164	0x3d60fd96	0.05492934
165	0x3d94440e	0.07239543
166	0x3d8c1c8a	0.06841381
167	0x3c0cb13b	0.008587177
168	0x3d14cb88	0.036326915
169	0x3ceef613	0.029170072
170	0xbdac9290	-0.08426392
171	0xbcb9c7f1	-0.022678347
172	0x3c3efdf3	0.011657226
173	0x3c49e03d	0.012321529
174	0x3c30b7d2	0.010786014
175	0xbd29d461	-0.041462306
176	0x3d3577e9	0.04430381
177	0x3d43f4eb	0.047840994
178	0x3dc1bd02	0.094598785
179	0x3ddab94c	0.10679874
180	0xbd07e662	-0.033178695
181	0xbd0a5951	-0.033776585
182	0xbc406da5	-0.011744891
183	0x3d9e9bbb	0.07744547
184	0xbcb008e5	-0.021488616
185	0xbd4f0af1	-0.050547544
186	0x3d6d6095	0.057953436
187	0xbd71144c	-0.058857247
188	0xbd9edad8	-0.07756585
189	0x3db8bcab	0.090203606
190	0xbc4f6420	-0.012658149
191	0x3ccd3635	0.025050262
192	0xbdc1de31	-0.09466208
193	0x3c9494f0	0.018137425
194	0x3da22e11	0.07918943
195	0x3dc08a7a	0.09401412
196	0xbd662395	-0.056186277
197	0xbd91d09c	-0.07119867
198	0x3da5ed18	0.08101863
199	0xbdc96b82	-0.098349586
200	0x3c67a44b	0.014138292
201	0xbcbb1fa5	-0.022842238
202	0x3a916fdc	0.0011095959
203	0xbd2aff0a	-0.04174713
204	0xbbad1156	-0.0052816076
205	0x3b93c306	0.0045093326
206	0xbd5392e0	-0.051653743
207	0xbd67c288	-0.056582004
208	0x3d5f62c0	0.054537535
209	0xbdd56107	-0.10418897
210	0xbd8ddc19	-0.06926746
211	0x3d7eb14e	0.06218081
212	0xbd32b8f2	-0.04363341
213	0xbc0181a3	-0.007904443
214	0x3dedb65f	0.1160705
215	0x3e33e567	0.17567979
216	0xbdb41633	-0.08793297
217	0xbc3460df	-0.011009424
218	0x3d16c15a	0.03680549
219	0xbd2a2b9a	-0.041545488
220	0x3c790d6c	0.015200954
221	0xbc6b2d54	-0.014354069
222	0xbdf23364	-0.11826208
223	0x3d4d9d3d	0.050198782
224	0xbbfbb248	-0.007681165
225	0x3d4b61d4	0.049653843
226	0xbdb402c0	-0.08789587
227	0x3d71c38d	0.059024382
228	0xbbadec0f	-0.0053076814
229	0x3d01681b	0.031593423
230	0x3d7ec7e5	0.062202353
231	0xbc645e32	-0.013938474
232	0x3d29d5ab	0.041463535
233	0x3d983465	0.074318685
234	0x3e07d214	0.13263732
235	0xbd85cb7f	-0.065329544
236	0x3d5b5e53	0.05355675
237	0x3bbeb948	0.005820427
238	0x3c645897	0.013937137
239	0x3cb68eea	0.022284944
240	0x3b1bf9c4	0.0023799995
241	0xbb61983e	-0.0034423019
242	0xbd3427be	-0.043983214
243	0xbd0beda5	-0.034162182
244	0x3d20e2e9	0.0392789
245	0xbd84a82b	-0.06477388
246	0x3ce6d1b6	0.02817617
247	0x3d44f6aa	0.0480868
248	0x3da23500	0.07920265
249	0x3e0098f9	0.12558354
250	0x3c7ad6c2	0.015309991
251	0xbc4f1b16	-0.012640735
252	0xbd5bb640	-0.053640604
253	0xbd5bf62f	-0.053701576
254	0x3cfe9daa	0.03108104
255	0xbcd52c7b	-0.026022187

mlp.5.bias f4 [100]
0	0x3d4e7d5c	0.05041252
1	0x3ccd6148	0.025070801
2	0xbc8c0591	-0.017092498
3	0x3c624863	0.013811204
4	0xbc6b2d9e	-0.014354138
5	0xbddb7cba	-0.10717149
6	0x3d92c8b2	0.07167186
7	0x3d6eacfa	0.058270432
8	0x3d17b85e	0.03704106
9	0x3d8cd6d3	0.06876912
10	0xbdb9a110	-0.09063923
11	0x3dc15929	0.09440834
12	0x3cc9774d	0.02459302
13	0x3c9d3783	0.01919151
14	0xbd820cfa	-0.06350131
15	0xbcb26552	-0.021776829
16	0xbdcecd5d	-0.10097764
17	0xbcd425f5	-0.025897006
18	0x3d70c37a	0.05878017
19	0xbd94258f	-0.07233726
20	0x3cc29cef	0.023756472
21	0x3db07e74	0.08617869
22	0x3da81872	0.082077876
23	0xbb008db4	-0.0019615712
24	0x3c207746	0.009794062
25	0x3dc8c63d	0.09803436
26	0x3d01565e	0.031576507
27	0x3d068bf7	0.032848325
28	0xb7fe1866	-3.0290521e-05
29	0x3cff72fe	0.031182762
30	0x3cfcd6b1	0.030864092
31	0xbd7c0f43	-0.061537992
32	0x3d11de23	0.035612237
33	0x3d0d2a2f	0.034464058
34	0x3d56d075	0.052444894
35	0x3d1ebe99	0.038755987
36	0xbb34a045	-0.0027561348
37	0x3d206c2b	0.039165657
38	0x3c5b951d	0.013402251
39	0x3d569efd	0.052397717
40	0x3d0df965	0.03466167
41	0xbcc56b9d	-0.024099166
42	0x3c7c106a	0.015384773
43	0x3cfe6b91	0.031057151
44	0xbd96a591	-0.07355798
45	0x3da61bdc	0.081107825
46	0x3d9477ac	0.07249388
47	0xbdb3e07e	-0.08783053
48	0xbc3fb4e8	-0.011700846
49	0x3d1aa7af	0.03775757
50	0x3aeba74f	0.0017978939
51	0xbbb60114	-0.0055543277
52	0x3d94b3eb	0.07260879
53	0x3d26a6ab	0.04068629
54	0x3cfe94d4	0.031076826
55	0x3d371e3c	0.044706568
56	0xbd6166de	-0.055029742
57	0xbd601884	-0.05471088
58	0xbc016f7c	-0.007900115
59	0xbdac37f5	-0.084091105
60	0x3d44f1bd	0.048082102
61	0x3d38befc	0.045104012
62	0x3c25d0a2	0.010120543
63	0xbd025742	-0.031821497
64	0x3d2679e5	0.04064359
65	0x3d1d01f7	0.038331952
66	0x3c3ceb08	0.011530645
67	0x3c2cee10	0.010554805
68	0x3b9d752a	0.004805227
69	0x3dab2f19	0.083585925
70	0x3d061fd9	0.032745216
71	0xbda5cad3	-0.08095326
72	0xbdcd5cd4	-0.10027471
73	0x3d542170	0.0517897
74	0x3c36148b	0.011113296
75	0x3dabf140	0.08395624
76	0xbca5de27	-0.020247532
77	0x3d85cfe2	0.06533791
78	0x3cdc8839	0.026920425
79	0xbc0feed5	-0.008784969
80	0x3b83bd2a	0.004020353
81	0xbdc05f73	-0.093932055
82	0x3d64f252	0.055895157
83	0x3cd91565	0.02649946
84	0xbd4af464	-0.049549475
85	0x3d6d39cf	0.05791646
86	0xbceda7d9	-0.0290107
87	0x3ac006fa	0.0014650517
88	0xbd988ec7	-0.074491076
89	0x3d94edd2	0.07271923
90	0x3d1cf3e9	0.03831855
91	0x3da70802	0.08155824
92	0x3cb8fc5f	0.022581277
93	0x3c529933	0.012853908
94	0x3d3a8f90	0.045547068
95	0xbdca607a	-0.09881683
96	0xbc1783cc	-0.009247731
97	0x3bee8df9	0.007280108
98	0x3d89c16a	0.06726344
99	0x3c832487	0.016008629

mlp.8.weight f4 [1, 100]
0	0x3ea00954	0.31257117
1	0x3e1a6d3e	0.15080735
2	0xbe8f506c	-0.27991045
3	0x3dbc17e9	0.09184248
4	0x3dbec0e7	0.09314137
5	0xbdb66834	-0.08906594
6	0xbec4594d	-0.3834938
7	0x3e8922bd	0.26784316
8	0xbeab2bd8	-0.33431888
9	0xbef09c0e	-0.4699406
10	0xbbba2096	-0.005680154
11	0xbe443c3f	-0.19163607
12	0xbed43063	-0.41443166
13	0xbe910df0	-0.28330946
14	0x3ccefecb	0.02526798
15	0xbe2459aa	-0.16049829
16	0x3d39ff39	0.045409415
17	0xbe0906ce	-0.13381502
18	0xbe02d22c	-0.12775487
19	0xbd76803e	-0.060180895
20	0xbe66a966	-0.22525558
21	0x3eb5ee9a	0.355336
22	0x3e911eeb	0.283439
23	0x3ea3cc7a	0.3199194
24	0x3e106ee4	0.14104801
25	0x3e952a9e	0.29134077
26	0x3e66d315	0.22541459
27	0xbf022193	-0.5083248
28	0x3f02b247	0.5105328
29	0x3dce6850	0.1007849
30	0x3eaf73e0	0.34268093
31	0x3d506956	0.050881706
32	0xbef4ff09	-0.47850826
33	0x3ebf7123	0.37391004
34	0x3ea3cb98	0.31991267
35	0xbea4c47a	-0.3218115
36	0x3e80eef5	0.2518231
37	0xbe93d6aa	-0.28874713
38	0x3eb1fee4	0.3476478
39	0xbf06abd8	-0.5260596
40	0x3edb9a65	0.4289123
41	0xbe1e6b84	-0.15470701
42	0x3e21afa2	0.15789655
43	0xbee0a7a2	-0.43877894
44	0xbc308a88	-0.010775216
45	0x3e75e2f7	0.24012361
46	0x3e759ae4	0.23984867
47	0xbdb488b8	-0.088151395
48	0xbc950433	-0.018190479
49	0xbf1224e7	-0.5708756
50	0x3c34550e	0.011006607
51	0xbcfb279c	-0.030658536
52	0x3ea00d4c	0.31260145
53	0xbeb8568f	-0.3600354
54	0xbeac7689	-0.33684185
55	0xbe6ae067	-0.22937165
56	0x3d31ec15	0.043438036
57	0xbda605ef	-0.081066005
58	0x3db85fd3	0.09002652
59	0xbd90b625	-0.07065991
60	0x3cc2a4c1	0.023760201
61	0x3ed0c9a5	0.40778843
62	0x3eb31855	0.349795
63	0x3bc91040	0.0061359704
64	0xbecfe43e	-0.40603822
65	0xbe517448	-0.20454514
66	0x3edfc205	0.43702713
67	0xbe921445	-0.2853109
68	0x3d428395	0.047488768
69	0x3d2ce34f	0.042208966
70	0xbecfeddb	-0.40611157
71	0xbc305e93	-0.010764736
72	0xbd1a9e6e	-0.037748747
73	0xbec83de1	-0.3910971
74	0xbef31b2e	-0.47481674
75	0x3e437f15	0.19091447
76	0x3e883650	0.26603937
77	0xbd8f2f24	-0.06991413
78	0x3e99ce49	0.30040196
79	0x3e9fd864	0.3121978
80	0xbe926edd	-0.28600207
81	0xbd821959	-0.06352491
82	0x3ecdb486	0.4017679
83	0xbebd4af2	-0.3697124
84	0x3dc8f976	0.09813206
85	0xbe324465	-0.17408903
86	0xbe3023e6	-0.17201194
87	0x3c69e7d0	0.01427646
88	0xbda07f2a	-0.078367546
89	0xbe80c0c6	-0.25147074
90	0xbf06027d	-0.52347547
91	0x3d612a20	0.054971814
92	0x3bd03109	0.0063535017
93	0xbe809b8d	-0.25118676
94	0x3b7e94ad	0.0038845942
95	0x3cece4e3	0.028917735
96	0xbe87b07d	-0.26501837
97	0x3edc9bf2	0.43087727
98	0x3e5e7187	0.21722995
99	0xbedbf655	-0.42961374
