models/weights/layers_100_100_lr_0.001.pt (torch, 55959 bytes, 5 tensors)

mlp.0.weight f4 [100, 31]
000000 b5 77 2d 3e aa 35 42 3e 1b 03 b9 3d 65 68 03 be
       0.16940196 0.18965784 0.090337954 -0.12832792
000010 65 a9 a3 3e aa c1 51 3a 92 16 1c bd cc 0d 90 bc
       0.31965175 0.00080015755 -0.038107462 -0.017584704
000020 4f 08 4b be 0b ba a2 bb 6e 51 9e bd c2 f4 5e be
       -0.19827388 -0.0049660257 -0.07730375 -0.21773055
000030 fb 4a 84 bd 15 ad 96 ba bc e2 4e bd 64 f0 e8 bd
       -0.06459614 -0.0011495674 -0.0505092 -0.11373976
000040 41 fb 16 be c3 0e d1 bd f3 b6 96 ba 3c 6a ee 3d
       -0.14744283 -0.10207894 -0.0011498615 0.11641356
000050 3b 9b d1 3c b9 97 d4 3a f6 dc 37 be 2f cf 26 3e
       0.025586715 0.0016219533 -0.17955384 0.16289972
000060 5f 0d 87 3d 4f 26 06 3e 89 8c dd 3d 61 7a a7 bd
       0.06594347 0.13100551 0.108178206 -0.08177639
000070 c0 69 de 3c 60 a3 03 bd fe ec 9f 3c ca 39 f4 bd
       0.027150035 -0.03213823 0.019522186 -0.11925085
000080 b1 2e 51 be c6 d9 c8 3d e0 11 f0 3d 3f e0 aa 3e
       -0.20427968 0.09807162 0.117221594 0.3337421
000090 8c 69 06 3d 10 cc 42 3d 6b bc 96 3d ed 3e ff bd
       0.0328155 0.04755789 0.073601566 -0.12463174
0000a0 20 75 83 bd 2d e3 09 3d d8 a4 20 be 9c 34 c7 3d
       -0.06418824 0.033663917 -0.15687883 0.09726831
0000b0 4b ea 39 be a9 8c 00 bc a4 f5 7c bd 4a ad 28 be
       -0.18155782 -0.007846036 -0.0617577 -0.16472355
0000c0 f3 28 80 bd 53 67 6b 3e 18 62 a4 3c 80 e1 5f bc
       -0.062578104 0.22988634 0.020066306 -0.013664603
0000d0 b5 96 7e be 3b 84 28 3e e0 08 f0 3c 63 b0 e6 bd
       -0.24862178 0.16456692 0.029301107 -0.11264112
0000e0 b3 5d 5f bd 26 b2 0c bd a6 91 4f be 0e 80 49 be
       -0.054532718 -0.034349583 -0.20270404 -0.19677755
0000f0 4b a7 1c be 69 36 5f be 01 02 68 3e 03 a0 d6 3d
       -0.15298192 -0.217981 0.22657014 0.104797386
000100 05 d7 fe bd 27 63 a7 3d 3d 2c 81 3e 19 1e 09 be
       -0.124433555 0.08173209 0.25229064 -0.13390388
000110 a7 76 30 3c 76 d8 77 3d 24 d2 99 bd 0a cf c4 3d
       0.010770476 0.060509168 -0.07510784 0.09609802
000120 c7 1c 1f 3e 55 3a ff bd ab e1 80 3e a5 ad b3 be
       0.15538321 -0.12462298 0.2517217 -0.35093418
000130 a8 00 28 be 8b ef f7 3d 5e 97 e6 3c 9f 60 55 be
       -0.164065 0.12106236 0.02814835 -0.2083764
000140 6a c8 c0 bb bf cc 34 be 59 13 1c 3d 50 dd a0 bd
       -0.005883266 -0.1765623 0.03810439 -0.07854712
000150 d1 76 bd 3c 49 6c ea 3c 65 20 07 be b1 13 0d 3e
       0.023127945 0.028616088 -0.13195951 0.13777043
000160 ef 9b 16 be b3 76 16 3d 55 b0 80 3e 54 9b c9 3d
       -0.14707921 0.036734294 0.2513453 0.098440796
000170 31 c8 36 bd 75 23 84 be 0e dc a0 3d 03 41 41 3d
       -0.04462451 -0.25808302 0.07854472 0.04718114
000180 04 44 bf be 6a fd 13 3d f1 10 2f be a2 43 94 bd
       -0.3735658 0.036130346 -0.17096306 -0.072394624
000190 60 70 fa ba cb 80 c7 be bd 81 9e 3d b7 b9 cc 3d
       -0.0019106977 -0.3896545 0.07739589 0.0999636
0001a0 bc 64 8f 3c 50 9f 1a 3e 09 9a 89 bc e7 04 da 3d
       0.017504089 0.15099835 -0.016797082 0.10645466
0001b0 e6 28 1f be 3f 13 35 be 26 ba 97 be af 4c d4 3d
       -0.15542945 -0.17683123 -0.29634207 0.10366189
0001c0 c0 8d 3d 3c 4a da 0c be f4 32 37 3c a2 dc 76 3d
       0.01156944 -0.13755146 0.011181582 0.060269006
0001d0 e8 22 e4 3d e2 33 db 3d 60 88 f9 3d 85 99 36 3d
       0.1113947 0.10703255 0.121842146 0.04458
0001e0 e1 15 ad bd b4 07 1b be a9 06 12 be b5 ff 76 bd
       -0.08451439 -0.15139657 -0.14260353 -0.060302455
0001f0 d1 91 03 3e ee c8 1d 3d 8e e7 23 3d dd e5 7b 3b
       0.12848593 0.0385217 0.04001575 0.003843657
000200 b1 5d f2 be 57 ce 51 3f 53 06 0b bd 01 63 20 3c
       -0.47337106 0.81955475 -0.033941578 0.009789229
000210 aa a8 dd bd f9 6b 5b be a5 b5 09 bd 74 78 63 be
       -0.10823186 -0.21427907 -0.033620495 -0.22213918
000220 d9 95 fa 3d dc 0e 2a bd d2 3f 42 3d c2 cf 28 be
       0.122356124 -0.041518077 0.047424145 -0.16485503
000230 98 96 f7 3c fb 52 4e be 36 fe 36 3d 0a 90 a4 3d
       0.030223176 -0.20148842 0.04467603 0.08035286
000240 63 4a c6 bd b8 ce 4c 3d 83 e5 05 3e c8 bc ef b9
       -0.09682157 0.05000183 0.13075833 -0.00045726285
000250 54 25 a4 bc 38 d8 20 bd 76 f0 7d 3d 0f c3 4b be
       -0.02003733 -0.039268702 0.0619969 -0.19898628
000260 63 de 9c 3e 93 be 89 bd 47 d3 77 3c c4 96 41 be
       0.30638418 -0.06725802 0.015126056 -0.18905169
000270 6f 13 f8 3b 3a 31 18 be 0e 88 94 3d 74 32 41 3e
       0.007570676 -0.14862528 0.07252513 0.18866903
000280 a2 a8 a7 3d 6c b1 9c bd 13 91 b7 3d b8 c2 04 be
       0.08186461 -0.07651028 0.089632176 -0.12964904
000290 e2 82 f9 3d fa d9 41 3e f7 1b b5 bd 2b eb 30 be
       0.12183167 0.18930808 -0.088432245 -0.1727721
0002a0 ce c4 ba 3d 78 66 29 be 09 a8 0e 3e b3 39 62 be
       0.09119569 -0.16542995 0.13931288 -0.22092323
0002b0 d8 2f 17 bd 89 26 4f 3d 78 59 e0 bd 77 dc 85 bd
       -0.03691086 0.05057386 -0.10954565 -0.06536191
0002c0 8a d1 d5 bc ba bb 7f 3e a2 4e a5 bd d3 7d c8 bd
       -0.026100893 0.24973956 -0.08071639 -0.09789624
0002d0 5b ff a7 bc b7 b9 50 be 70 0e 55 3d f5 40 4a 3d
       -0.020507505 -0.20383345 0.05201572 0.049378354
0002e0 6f 69 e3 3d 21 d1 e8 3d 18 f4 c5 be 4b 31 44 be
       0.11104094 0.11368013 -0.3866279 -0.19159429
0002f0 1e bb 31 3d 9a 61 94 bd 97 cf 99 3d b7 71 81 bb
       0.04339134 -0.072451785 0.07510298 -0.0039503234
000300 c2 6e 66 bd 26 9a 15 3c 28 14 3a be d9 31 0b 3e
       -0.05625797 0.00913099 -0.18171751 0.13593234
000310 f3 d4 f7 3c 53 62 3c 3e 98 40 0f be 0b ed 39 be
       0.03025291 0.18396883 -0.13989484 -0.18156831
000320 b0 75 5f bd ed 34 64 bd 4b 6d 52 bd 8c c4 fe 3d
       -0.054555595 -0.055714536 -0.05137376 0.12439832
000330 5b ba 3a be 4d 24 27 3c 53 b4 ec 3d f7 f4 dc bd
       -0.18235151 0.010201526 0.115578316 -0.10788911
000340 fc 82 ec bc b5 1c 16 bd 41 41 21 be 5b 1b cd 3d
       -0.028871052 -0.03664847 -0.15747549 0.10014983
000350 74 2f 4a 3e 29 e0 1a 3e bc 3c aa 3c 57 a1 87 3d
       0.19744664 0.15124573 0.020780914 0.0662257
000360 6b 92 41 3e 22 99 60 be 06 ee 6d be cb b1 17 3d
       0.1890351 -0.21933416 -0.2323533 0.03703479
000370 0b 9a ee bd d8 8b 8f 3d d7 1f 4b 3d 63 d1 69 3d
       -0.11650475 0.07009095 0.04959091 0.057084452
000380 72 e6 8c 3d 7d 6e 55 bd 6c 4f 48 3e 18 6d 45 3e
       0.068798915 -0.052107323 0.19561547 0.19279897
000390 b8 7c 06 3e 3f fe 85 3d bc 4e 59 be e4 24 36 3d
       0.13133514 0.06542634 -0.21221441 0.044468775
0003a0 6a 6a 19 3e b2 d1 a4 bd e9 6a 65 3e 22 0c cb bb
       0.14982 -0.08047809 0.22404064 -0.0061965147
0003b0 38 e0 5a be e9 71 2b 3e 37 05 17 3e 0c ba 66 3d
       -0.21374595 0.16742672 0.14748083 0.056329772
0003c0 af aa ad bd b2 7a b6 bd 91 12 69 3d 42 57 25 3e
       -0.08479821 -0.08910121 0.056902472 0.16146567
0003d0 a3 a4 f3 3c 12 a3 e3 bc b6 79 8f 3d 56 10 2b be
       0.02974159 -0.027787719 0.070056364 -0.1670545
0003e0 3e 05 e7 3d c5 02 b7 3d 68 20 9d bc 39 83 f4 3d
       0.11280297 0.08936075 -0.019180492 0.11939091
0003f0 e7 fe fc 3e 25 8e 52 bb 6c 8e db bc b3 b5 24 bb
       0.49413225 -0.0032128182 -0.02680131 -0.0025132715

mlp.0.bias f4 [100]
000000 1b 7a 29 be 07 2e 27 be 04 d8 46 3c 3e d3 76 bd
       -0.16550486 -0.16326152 0.012136463 -0.06026005
000010 c5 7c 0d 3e 06 92 6a 3e ff 74 0a 3e 24 e1 fc 3d
       0.13817127 0.22907266 0.13521193 0.1234763
000020 43 82 0e be fa 7e b2 3c fc f3 13 3c 4b 3f d9 bd
       -0.13916878 0.021789063 0.009030338 -0.10607775
000030 9e bd 60 3e b0 77 39 3e d0 fc 5c be d0 9f 8c bd
       0.21947333 0.18112063 -0.21580815 -0.06866419
000040 6d 83 b9 3b c9 d9 ff bd 92 96 a0 bd fa 7f 93 bd
       0.005661419 -0.12492711 -0.07841219 -0.07202144
000050 ca 48 19 3f 04 98 c4 be 2d df 96 bc 4a de 30 bd
       0.5987669 -0.3839723 -0.018416965 -0.04318074
000060 0f 8c f4 bd 42 88 2e 3b 0b cd 69 bd 5d 12 0c 3e
       -0.119407766 0.002663151 -0.05708031 0.1367888
000070 81 17 08 3d 92 75 84 be c0 61 c5 3d 05 2d e5 be
       0.03322554 -0.2587095 0.09637785 -0.4476091
000080 10 f3 93 3c 02 7d 8f bd a7 48 88 bf 89 0f 46 3e
       0.018060237 -0.07006265 -1.0647172 0.19341864
000090 2e 4b c4 3d 77 82 cd 3d 3f 22 bc 3d e9 c5 60 3e
       0.09584652 0.1003465 0.091862194 0.21950497
0000a0 86 ce 70 bd 2f a1 c3 3d 7b bc 93 3d 62 4c f2 bd
       -0.058790706 0.09552228 0.07213684 -0.11830975
0000b0 21 c0 42 bc cb 13 28 3c 48 87 74 be d7 a6 f1 3d
       -0.011886627 0.010258625 -0.2387973 0.117994
0000c0 0e d4 f0 bd c2 68 08 3e 12 87 5d be 98 19 01 be
       -0.11759196 0.13321212 -0.21633556 -0.1260742
0000d0 69 27 1a be 0c 74 49 3d 3b b1 89 3e 86 1c c6 bb
       -0.15054096 0.049182937 0.2689303 -0.0060458807
0000e0 b2 c1 cf bd 07 92 10 be df 2d e7 3b 2e 0d 07 be
       -0.10144366 -0.14118205 0.007055029 -0.13188621
0000f0 64 5c 44 3e 48 57 78 3d fa 7e 28 bd 80 ec 2d 3e
       0.19175869 0.060630113 -0.04113672 0.16984749
000100 20 20 4c be 7d 87 24 be bf 50 31 be da 99 05 be
       -0.1993413 -0.1606731 -0.17315958 -0.13046971
000110 2f 6a e7 3d 5f 81 e8 bd 29 61 a7 bc 81 bc 30 be
       0.1129955 -0.113528006 -0.020432072 -0.17259409
000120 80 27 b0 bd 47 85 50 bd ce b9 8f be 1b 14 bc 3d
       -0.08601284 -0.050908353 -0.28071445 0.09183522
000130 0d 17 7c 3d 42 b8 d3 bc 7b 96 37 be 9b e0 b2 bd
       0.06154542 -0.025844697 -0.17928497 -0.08734246
000140 de 18 51 3e 90 12 75 be c2 47 a9 bd 9f 83 91 3e
       0.20419642 -0.23932862 -0.0826564 0.2842073
000150 33 9a 84 bd 82 3e c3 3c 80 fc 62 3d 91 4b f9 bd
       -0.06474724 0.023833517 0.055416584 -0.12172616
000160 d9 2d 42 be de f3 43 bf 5d 21 28 3e cd 35 d2 3d
       -0.18962802 -0.76543987 0.16418977 0.10264168
000170 31 c6 37 bd cf be d0 3d 36 ff 4a 3e 6c e9 82 3e
       -0.044866744 0.10192644 0.19823918 0.25568712
000180 01 de c9 bc 9c d8 e4 3d b4 fb 23 bf e0 fd 4d 3e
       -0.024641993 0.111741275 -0.64055943 0.20116377

mlp.2.weight f4 [100, 100]
000000 d0 0d 40 ba 6d 54 ce bd 54 a1 c9 3b cb de 7e 3c
       -0.0007326277 -0.10074697 0.006153265 0.015556048
000010 43 d8 1c 3d 9e e8 70 3d 7b 27 6c bd 11 eb df 3c
       0.03829218 0.05881559 -0.05765484 0.027333768
000020 1c fe 1d bd 32 98 8c 3d cb 7e e9 3d 56 e9 bb bd
       -0.038572416 0.068649665 0.11401137 -0.09175365
000030 f4 aa 9f 3d c7 31 17 bd e3 b9 af 3b 83 2a 1b 3d
       0.077962786 -0.036912706 0.0053627356 0.03788234
000040 06 1d ab 3d 47 37 a2 3d 21 d7 82 bd 96 f1 9b bd
       0.08355145 0.079206996 -0.06388689 -0.07614438
000050 c7 44 59 bc 7a b3 0d 3d 5f 30 8c bd 99 b1 12 bd
       -0.013261027 0.03459499 -0.068451636 -0.0358139
000060 7b 9a 2e 3d 6f 96 a4 bc db 8f 59 bb 84 aa 2f bc
       0.042627793 -0.020091264 -0.0033197317 -0.010721806
000070 22 33 c0 3d fb 1e a8 3d 00 95 c2 bd 4f 0f 39 bd
       0.09384753 0.08209034 -0.09501076 -0.045180615
000080 5a 39 3d bd 6d 9d bd 3d ff 2f 36 bc 84 1b c7 bb
       -0.046197273 0.09258542 -0.011119842 -0.006076278
000090 7f af b7 bd 0a 2c 2b bd da 5e b3 bd 28 0e 7b bc
       -0.0896902 -0.041790046 -0.08758326 -0.015323199
0000a0 46 75 24 3d aa 9a c1 bd 4d 43 36 bd 56 26 46 bd
       0.040150903 -0.09453328 -0.044497777 -0.048376404
0000b0 bd bb b2 bd 96 f3 2f bd c6 ac 2b 3d 40 b9 9f bd
       -0.087272145 -0.04295691 0.041912816 -0.077990055
0000c0 f2 6a 8f 3d c1 24 b6 3d cc d6 18 3d 4a d7 d1 bc
       0.0700282 0.08893729 0.03731422 -0.025615353
0000d0 58 06 03 3d 20 dc ca 3d b7 7f ca ba 4f 54 17 bd
       0.03198847 0.09905267 -0.0015449439 -0.036945637
0000e0 f5 28 aa 3d a3 cb 14 bd de 21 39 bc 0c ce 6b 3d
       0.08308593 -0.036327016 -0.0112995785 0.05756955
0000f0 47 9c 9e bd 2a 82 96 3c 06 c1 73 3d 9f 4f 20 bd
       -0.07744651 0.018372614 0.059510253 -0.039138433
000100 58 42 43 bd 2b 46 e1 bc fd ba 8d bd 15 9c 81 bd
       -0.047670692 -0.027499279 -0.06920431 -0.063285984
000110 00 4b 07 3a e6 78 40 bd 58 73 83 bd 70 08 6f bd
       0.0005161017 -0.046990298 -0.064184844 -0.058357656
000120 42 3f 0e 3d a3 41 db 3d 86 72 18 3d 92 8f b6 3c
       0.034728296 0.107058786 0.037218593 0.022285257
000130 3d c6 c9 3b 0d ab 89 3c 17 73 5b 3d b8 11 e4 bc
       0.006157665 0.016805196 0.053576555 -0.02784048
000140 07 88 d6 3d c0 86 99 3d 86 f1 be bc 93 13 d6 bb
       0.10475164 0.07496405 -0.023308527 -0.006533095
000150 c1 c3 b0 bd 7b 3b 7a bd 79 2b 47 bd e5 15 3d bd
       -0.08631087 -0.06109188 -0.048625443 -0.04616346
000160 15 77 17 bd a0 6d 9c bd 6e ce a8 bd a0 b8 bc 3b
       -0.0369788 -0.07638097 -0.08242498 0.0057593137
000170 aa c6 a0 bb 81 3c 7a 3d 78 78 d4 bb 04 65 90 3d
       -0.004906495 0.061092857 -0.0064840876 0.07050517
000180 c8 49 be 3d 07 b1 0c bd de 74 70 3d d7 39 55 bd
       0.092914164 -0.034348514 0.058705203 -0.052057113
000190 78 07 a1 bd cd 25 b5 bd d4 f9 15 bd 76 7f 14 3d
       -0.07862753 -0.088451006 -0.036615208 0.03625437
0001a0 24 cb 93 bc 0f 1b 4a bd 15 c8 06 3d e8 78 b1 3c
       -0.018041201 -0.04934221 0.032905657 0.021664098
0001b0 b2 92 d0 3c 16 47 ce bd b4 44 c4 ba 39 e1 9d bc
       0.025460575 -0.10072152 -0.0014974088 -0.019272434
0001c0 b0 6a 99 bc c5 2e bd 3c d1 38 83 3d f0 40 b2 3b
       -0.01872763 0.02309359 0.06407321 0.00543987
0001d0 a6 49 03 be 30 04 31 3c da 6c 22 3d 30 69 7d 3d
       -0.12821063 0.010804221 0.03965459 0.061867893
0001e0 c6 90 70 3d 56 f1 c3 3d 62 9d 94 bd 5a 56 90 bd
       0.058731817 0.095675156 -0.07256581 -0.0704772
0001f0 a3 05 6e bd 38 28 b0 3d 2e 93 da bd 75 0c 8e 3d
       -0.058110844 0.08601421 -0.106726035 0.0693597
000200 eb 1c 8c 3d 2f 6d 5b 3d f6 1d cb bd 0f 55 27 bd
       0.06841453 0.053570922 -0.09917824 -0.040852603
000210 48 c3 a9 bd 01 68 de 3d 1a d2 be 3d 43 80 e3 bd
       -0.082892 0.10859681 0.093174174 -0.11108448
000220 b7 cc 9a 3d cb 27 9a bd 15 2b 51 3d d8 6d 84 3c
       0.075585775 -0.07527121 0.051066477 0.016165659
000230 66 8a 12 bd f6 6b ae 3b 92 3b b9 bd 85 df 96 3d
       -0.03577652 0.0053229285 -0.09044565 0.07366852
000240 ec 62 e9 bc ce 0b 16 3e 64 59 99 bc 9f 36 99 bc
       -0.028489552 0.1465294 -0.018719383 -0.018702803
000250 a4 7c 59 bc 0c a3 c2 bb 40 43 e6 bd 80 6d a2 3d
       -0.013274346 -0.005939847 -0.11243296 0.07931042
000260 3a cc 27 bd 5f 68 8c bd 3a 52 da 3d 46 fa a3 bd
       -0.04096625 -0.06855845 0.10660215 -0.0800672
000270 9c c8 8c 3d 58 c3 77 3d ec f3 c4 bd 69 cc ae bd
       0.06874201 0.06048903 -0.09616837 -0.08535082
000280 3f 69 c3 bd 08 b6 c8 bd d3 26 bc 3d 12 42 c7 bd
       -0.095415585 -0.09800345 0.09187093 -0.09729399
000290 61 a4 94 3d cb 38 42 bd de 97 f6 3d ad d4 58 3b
       0.07257915 -0.047417443 0.12040685 0.003308575
0002a0 ad a5 fa 3c 24 aa e5 3c 79 ae db bc 4b 96 a3 bd
       0.030596578 0.028035231 -0.026816593 -0.079876505
0002b0 e5 9f b1 3b 99 d7 e0 bd d7 0a c5 bc 97 79 92 bd
       0.0054206722 -0.10978622 -0.02405302 -0.07152098
0002c0 fd 20 c9 bc 05 f9 ff bc 39 4a 4f bd 9e 12 9f 3d
       -0.024551863 -0.031246671 -0.050607894 0.07767223
0002d0 87 50 5d bc e8 a0 ba 3c 2a 6c 56 3d 1e c0 9b bc
       -0.013507969 0.022781804 0.052349247 -0.019012507
0002e0 15 c6 b9 3a 0d a8 5a 3d 36 0b 39 bd a5 99 1f 3d
       0.0014173413 0.053382922 -0.045176707 0.038964886
0002f0 65 3d ea 3d 72 bc c8 3c 23 fa ed 39 16 3a 7a 3d
       0.11437491 0.02450392 0.0004539053 0.06109055
000300 45 9f 40 3d af e9 43 bd 6a 7f a7 bd a9 a7 3a 3c
       0.04702689 -0.04783028 -0.08178599 0.011392512
000310 01 d9 a5 bd 44 27 8b 3d 89 07 0b 3d 76 a3 9d 3d
       -0.08098031 0.06794599 0.033942733 0.07697193
000320 6c 4b 8d bd ef 2c c0 3d 53 aa a8 bd 0d a6 67 3c
       -0.06899151 0.093835704 -0.08235612 0.014138711
000330 69 7d e5 3b 4d 48 33 3d e8 cf 87 3d 06 40 79 bc
       0.0070034754 0.043770123 0.06631452 -0.015213018
000340 e3 92 75 bd ab 59 8e 3c 70 98 92 bd c5 4a a9 bc
       -0.059954535 0.017376741 -0.071579814 -0.020665536
000350 7e e0 cd bc 78 bd a7 bd a6 9b 86 bc 0d 51 10 3d
       -0.02513146 -0.08190435 -0.01643164 0.035233546
000360 43 56 07 3e f2 2e 02 3d 85 cf e8 3d 25 e7 76 3c
       0.132165 0.03178305 0.11367706 0.015069758
000370 4d b2 e0 3c 77 b2 e6 bc 6a ce 0b bd a4 b3 e8 3d
       0.02742877 -0.02816127 -0.0341324 0.11362389
000380 17 b6 a0 3c 49 20 70 bd f0 8c ae bc 53 3d 07 3d
       0.019618077 -0.05862454 -0.021307439 0.033017468
000390 9e 76 b0 3d b1 1c a5 3d 49 9e 06 bd 09 bb bc 3e
       0.086163744 0.08062113 -0.032865796 0.36861446
0003a0 a0 49 b2 bd 99 12 03 3e 20 f3 8c bd 9e 67 d5 bd
       -0.08705449 0.12800063 -0.0688231 -0.10420154
0003b0 ac 53 d1 bd 7d 4c 88 3d 01 94 95 3d ee ed e7 bb
       -0.10221037 0.06655214 0.0730362 -0.007077924
0003c0 0b 2f 1c bd 11 3f 3e 3d b6 c5 4b 3d 59 71 98 3d
       -0.0381308 0.046446864 0.0497491 0.07443494
0003d0 e4 73 da bd 02 71 d5 3d d6 9b 53 bd 22 b1 8e bc
       -0.10666636 0.10421945 -0.05166229 -0.017418448
0003e0 fa ff c7 bc 84 97 a7 3c 06 23 f3 bc 56 cc de bd
       -0.024414051 0.02045799 -0.029679786 -0.10878818
0003f0 1a 03 1a bb 28 35 e5 bb 5c a2 85 bd 1a 45 b3 3d
       -0.0023500384 -0.006994862 -0.06525108 0.087534145

mlp.2.bias f4 [100]
000000 16 98 34 3c 95 13 0b 3e f2 d4 97 3d f8 52 35 bd
       0.011022588 0.13581689 0.07413663 -0.04426858
000010 b7 b5 7e bd 95 ec 10 3b 61 d8 97 bd b6 7f 20 3d
       -0.062185016 0.002211367 -0.07414318 0.039184295
000020 f2 ed 89 bd c6 e2 3e bc fb 82 6b bd b9 47 a2 be
       -0.067348376 -0.011650747 -0.05749796 -0.31695345
000030 cc 0e c2 bb 50 7a 4c 3e 07 d0 e9 3d df c9 17 3d
       -0.005922174 0.19968534 0.11416631 0.037057754
000040 75 41 22 3e 6e ae 56 3b fc 8f 5a 3d b3 31 f3 3e
       0.15845282 0.0032757777 0.05335997 0.47498855
000050 19 35 d6 3c 9a 79 72 3d 66 67 c8 3d 2a ec 0a be
       0.026148366 0.059198 0.09785347 -0.13566652
000060 ca 41 a2 bd e7 cf 26 3e c9 5b c7 bc 9d 9d 23 bd
       -0.079227045 0.16290246 -0.024335759 -0.039945234
000070 67 ba 4d bd 5a d3 41 be 81 ee 20 3f 8d e0 d6 b9
       -0.050226595 -0.1892828 0.6286393 -0.00040984564
000080 31 b0 99 3e e1 a4 ba bd f4 8c 46 bd 49 67 c8 3d
       0.30017236 -0.091134794 -0.048474267 0.09785325
000090 56 ac 42 3d c9 ba 80 3c 34 9b 8c 3d d9 cd c5 bd
       0.047527634 0.015714066 0.0686554 -0.09658403
0000a0 c2 33 8a bd d5 a0 69 3d b3 51 60 3d 14 b7 c1 be
       -0.06748153 0.057038147 0.054765414 -0.3783499
0000b0 6a 9d bd 3c a8 53 9e bd 46 58 a0 3d 82 21 ca be
       0.02314635 -0.077308 0.07829337 -0.3947869
0000c0 22 33 8c 3e e0 c4 10 3b 30 71 9f bd 1d 0b b9 3d
       0.2738276 0.0022090003 -0.07785261 0.09035323
0000d0 60 70 f3 bb 0a 65 12 3d 52 51 80 3e 11 1d a9 3e
       -0.0074291676 0.03574089 0.25062042 0.33029988
0000e0 d5 ad 05 3e dd c6 65 3e 3a e0 d8 3d b4 af 8c bb
       0.13054593 0.22439142 0.10589643 -0.0042934064
0000f0 b7 b9 cc bd de 03 00 bd d2 27 61 bd 25 4c 6b 3b
       -0.0999636 -0.031253688 -0.054969616 0.003590354
000100 d3 fe 7c 3d 27 cf 49 3e d9 da 3d 3e b8 c4 3b 3e
       0.061766457 0.19707929 0.18540515 0.18336761
000110 25 15 9d bd 9b 64 10 3d 86 e6 aa bd 53 b4 27 bc
       -0.076700486 0.035252195 -0.0834475 -0.010235864
000120 f2 9f 56 3d 25 d6 2f bd da c7 5b 3e 02 e5 87 3e
       0.05239863 -0.042928834 0.21462956 0.26541907
000130 b5 af 86 3d 90 8c 16 3e de 0b 9b bd 20 11 57 3e
       0.06576482 0.14702058 -0.07570623 0.21002626
000140 01 5f bd 3d 60 32 6f be 70 be a6 bd 1c 01 e5 bc
       0.09246636 -0.2335906 -0.08141792 -0.02795463
000150 21 3e ab 3b 01 eb 27 bd 18 06 80 bd de e4 80 3d
       0.005225912 -0.0409956 -0.06251162 0.06293653
000160 7f c0 6f bc 8d 44 15 3d 1e 18 f2 bd 7a 8d 75 bd
       -0.014633297 0.03644233 -0.11821006 -0.059949376
000170 e0 d1 95 3d 67 78 70 bd ca 24 e9 bc d2 c9 2e be
       0.07315421 -0.058708575 -0.028459925 -0.17069176
000180 be 7f a0 3d d5 5e 33 3d 52 a8 20 3d 08 2b 91 bd
       0.07836865 0.04379161 0.039223023 -0.07088286

mlp.4.weight f4 [1, 100]
000000 05 f8 a0 bd 7f a0 a3 be 73 da c3 3e 0d 1c a0 3e
       -0.07859806 -0.31958386 0.382526 0.312714
000010 a4 b6 0b bf 71 6d 06 bf 2a 52 05 3e b4 9f 07 bf
       -0.5457556 -0.52510744 0.13019624 -0.5297806
000020 11 ac c8 bd 54 ca 83 be c3 0f 8f bd d2 75 52 3f
       -0.09798444 -0.25740302 -0.06985428 0.8221103
000030 63 72 4e 3e 5a cc 3f bf 31 73 ad be a3 3a 28 3e
       0.20160823 -0.7492119 -0.33876947 0.16428618
000040 c9 25 56 bf 29 e3 0d 3e 4b 09 a0 be b0 ce 8b bf
       -0.83651406 0.13856186 -0.3125709 -1.0922451
000050 98 1c 69 bd 37 33 1c 3f fd c5 1e 3f 40 03 3d 3f
       -0.056912035 0.6101565 0.62020856 0.73833084
000060 a6 15 c8 be 95 3c 74 bf 2f 78 f5 be ac 4b 0f bd
       -0.39079016 -0.9540494 -0.47943255 -0.034984276
000070 d0 df 06 bf e0 41 d3 3e 69 5b cc 3f a7 60 9b bd
       -0.5268526 0.41261196 1.5965396 -0.07586794
000080 6b 88 80 3f e7 19 49 be e1 e4 a8 bd d6 72 06 bf
       1.0041631 -0.19638787 -0.0824678 -0.52518976
000090 ce 7f 4b bd 55 6a b1 3e 18 9d e5 3d 59 8c b7 3e
       -0.04968243 0.34651437 0.11211604 0.35849264
0000a0 1a 36 87 be 6d 49 d4 be 17 59 22 bf ae f4 2f 3f
       -0.26408464 -0.4146227 -0.6341719 0.68732727
0000b0 83 54 c6 3e a1 e1 24 3f c4 49 8b 3e 28 42 b8 3f
       0.38736352 0.6440678 0.27204716 1.4395189
0000c0 5c e3 54 3f d1 85 1d 3f 55 51 08 3f e4 68 12 be
       0.8315942 0.6153231 0.532491 -0.14297825
0000d0 7b ed 91 3e 39 f8 90 3e e6 e4 5b 3f 0a 85 6a bf
       0.28501496 0.2831438 0.85896146 -0.9160925
0000e0 02 61 4a bf b2 4c e3 be 8e 7a 30 bf 95 b7 fe 3e
       -0.7905427 -0.4439445 -0.68937004 0.49749437
0000f0 b6 be 10 3e c7 ae a0 3d 5e 92 b8 be 31 7e 06 3d
       0.1413525 0.07845836 -0.3604917 0.03283519
000100 ad 88 2c bf ff 65 3f 3f c3 9d ed 3e c9 00 db 3e
       -0.6739605 0.7476501 0.46409425 0.42774037
000110 93 96 27 bf 9f ca 20 3f da 6a 50 bd e2 d3 1b be
       -0.65464133 0.62809175 -0.05088315 -0.15217546
000120 7a 60 a9 3e 6f 38 d9 bd c7 47 e0 be 2f 88 84 bf
       0.33081418 -0.10606467 -0.43804762 -1.035406
000130 d7 12 0a bf ac 7f 2f 3f 24 fc 41 3e ce ac 3f 3f
       -0.53935 0.68554187 0.1894384 0.74873054
000140 12 8a 8a be 04 67 20 3f 1f 67 5a 3e 58 63 1d bf
       -0.27058464 0.6265719 0.213284 -0.6147971
000150 c4 1c ad 3d 17 a5 ac be 85 e6 00 be db 17 f3 be
       0.08452752 -0.33719704 -0.12587936 -0.47479138
000160 8d 0c 15 3f 4b 6e 14 be 7f 4e 63 3e 70 6d 0b 3f
       0.58222276 -0.14495198 0.22197913 0.54463863
000170 9c 1d 46 3e 5b 4a a2 3e 87 6a a6 be aa 01 06 3f
       0.19347233 0.31697354 -0.3250315 0.5234629
000180 1d 36 89 3e 57 9e 82 3d 29 59 b0 be ef 53 72 3e
       0.26799098 0.06377857 -0.34443024 0.2366483
