models/weights/layers_100_100_100_drop_lr_0.0001.pt (torch, 97107 bytes, 7 tensors)

mlp.0.weight f4 [100, 31]
0	0x3de45cc3	0.111505054
1	0xbe44273c	-0.19155592
2	0xbd1b5c1e	-0.037929647
3	0xbe3cac42	-0.18425086
4	0x3b069edb	0.0020541463
5	0x3c1d1174	0.009586681
6	0x3e1d44ed	0.15358324
7	0xbdb9e1a4	-0.09076241
8	0x3d3bda62	0.045862563
9	0x3d9f9f53	0.077940606
10	0xbcdfcae3	-0.027318424
11	0x3e7d518e	0.24738142
12	0xbd83abb0	-0.06429231
13	0x3cc273df	0.023736892
14	0x3df9dcf6	0.12200348
15	0xbd1ab661	-0.037771586
16	0x3d3736b4	0.044729903
17	0x3e4c4e6e	0.19951794
18	0xbe630860	-0.22171164
19	0x3da3625b	0.07977744
20	0x3e11e80f	0.1424868
21	0xbcddd3a3	-0.027078455
22	0xbdf3a217	-0.118961506
23	0xbc5d3e16	-0.013503572
24	0xbe175eeb	-0.14782302
25	0x3e240690	0.16018128
26	0x3e1ac7a1	0.15115215
27	0xbb3a6168	-0.0028439406
28	0xbe281141	-0.16412832
29	0x3daa4303	0.08313563
30	0xbddaaf62	-0.10677983
31	0x3a5725c3	0.0008207226
32	0x3c8a6f96	0.016898911
33	0xbc40eec0	-0.011775672
34	0x3debb62e	0.115093574
35	0x3dbb1dfc	0.091365784
36	0xbb67dfd5	-0.0035381217
37	0x3c997595	0.018732825
38	0x3e66aca5	0.22526796
39	0x3e1cffd3	0.15331964
40	0xbc899f79	-0.016799675
41	0x3c815b80	0.0157907
42	0x3df13cc1	0.11779166
43	0xbce1d76b	-0.02756854
44	0xbe69b29d	-0.22822042
45	0x3da440a3	0.08020141
46	0x3cdcd35d	0.026956255
47	0xbc84af84	-0.016196974
48	0x3da192d3	0.078893326
49	0xbcb04ae4	-0.021520086
50	0xbc66b03e	-0.014080105
51	0x3c39a828	0.0113315955
52	0x3c809d09	0.01569988
53	0xbe97aac6	-0.29622477
54	0x3c3eabcd	0.01163764
55	0xbe3bdbee	-0.18345615
56	0x3dc5e6dd	0.09663174
57	0xbdba63e1	-0.09101082
58	0xbdcf1295	-0.10110966
59	0xbe6e6761	-0.23281623
60	0xbdb2db0a	-0.08733185
61	0xbda6f291	-0.081517346
62	0x3e6d658f	0.23183273
63	0xbd0c27ca	-0.034217633
64	0xbd7a460e	-0.061101966
65	0xbe86811f	-0.26270387
66	0x3e5288da	0.20560017
67	0x3d8c8d0e	0.068628415
68	0xbdb47bbd	-0.08812664
69	0x3d8f1dc0	0.06988096
70	0xbcf07fc9	-0.029357808
71	0xbd39292a	-0.045205273
72	0x3daa9d27	0.08330756
73	0x3e7f4fb4	0.24932748
74	0xbcad2371	-0.021135064
75	0xbd8b7241	-0.068089016
76	0xbcf95539	-0.030436145
77	0x3d19861b	0.03748141
78	0x3d9123a3	0.07086875
79	0xbe171c97	-0.14757
80	0x3d4e425c	0.050356254
81	0xbe25e64d	-0.16201134
82	0x3df0ce31	0.11758078
83	0x3e1c7afc	0.1528129
84	0x3d4bf55c	0.04979454
85	0x3d04606c	0.032318518
86	0xbcbdfaf7	-0.023190958
87	0x3e2f8e25	0.17144068
88	0x3d74aaee	0.059733324
89	0x3d0477e8	0.032340914
90	0x3d6e5d3f	0.058194395
91	0xbe56ea89	-0.20987906
92	0xbcfd44b5	-0.030916551
93	0xbdb6c55c	-0.08924362
94	0x3e19d6c4	0.15023333
95	0xbd9178ca	-0.07103117
96	0x3dbd1e29	0.09234268
97	0x3dd70654	0.10499254
98	0xbd2f064b	-0.04273061
99	0xbe514990	-0.20438218
100	0x3d43ab8b	0.047771018
101	0x3d9e4b32	0.07729186
102	0x3d3152b4	0.043291762
103	0xbe03a554	-0.12856036
104	0xbe200388	-0.15626347
105	0xbe216604	-0.15761572
106	0x3c42ee96	0.011897704
107	0x3db679b6	0.08909933
108	0x3e057266	0.13031921
109	0x3d1cc0a8	0.03826967
110	0x3e027aff	0.12742232
111	0x3c56d01c	0.013111141
112	0xbdc94a5d	-0.09828637
113	0x3d432ab3	0.047648143
114	0x3dead098	0.11465567
115	0x3dce2fc4	0.10067704
116	0xbd91808d	-0.07104597
117	0x3e4c033a	0.19923106
118	0xbe36b595	-0.17842706
119	0xbe82b700	-0.25530243
120	0x3e36f193	0.17865591
121	0x3e6ca708	0.23110592
122	0x3e11a3ee	0.1422269
123	0xbe0b1bd3	-0.13584833
124	0x3b5932b4	0.0033141794
125	0xbd8d4d2d	-0.06899486
126	0xbe137e04	-0.1440354
127	0xbd58b84a	-0.052910127
128	0xbd5065ec	-0.05087845
129	0xbd39de17	-0.045377817
130	0xbd5af887	-0.05345967
131	0xbc74a410	-0.014931694
132	0x3dcefded	0.10107026
133	0xbd3e81a2	-0.046510346
134	0xbe193d16	-0.14964709
135	0xbd89be28	-0.067257226
136	0x3e88d519	0.2672508
137	0x3d8454ec	0.0646151
138	0x3cf60f28	0.030036524
139	0x3e0d8edd	0.1382403
140	0xbe17cd79	-0.14824475
141	0xbd4b4ed0	-0.04963571
142	0x3e4d3444	0.20039469
143	0x3e58514e	0.21124765
144	0xbdce4743	-0.10072186
145	0xbe363634	-0.17794114
146	0xbcccb5ab	-0.02498897
147	0xbdba3b20	-0.090933084
148	0x3dbbd460	0.09171367
149	0x3d5bce41	0.053663496
150	0x3e256e98	0.1615547
151	0x3d5fdf48	0.054656297
152	0x3dffcd49	0.12490327
153	0x3e0a7f93	0.13525228
154	0x3d20f451	0.0392955
155	0xbe6bb2c1	-0.23017408
156	0x3dfd8620	0.12379098
157	0xbdb3487c	-0.0875406
158	0x3daa877b	0.08326622
159	0xbc6fdc0a	-0.014639864
160	0xbe45c810	-0.19314599
161	0x3d82186f	0.063523166
162	0xbe9b0342	-0.30275923
163	0x3db5bcc6	0.08873896
164	0xbdaf795d	-0.0856807
165	0xbc81fe7d	-0.01586842
166	0x3a15bde0	0.00057121925
167	0x3c67ca10	0.014147297
168	0x3d0dca12	0.034616537
169	0xbe0ae086	-0.13562211
170	0xbac2c52b	-0.0014859786
171	0xbd402f03	-0.046919834
172	0x3e2d75e1	0.16939498
173	0xbd02ea33	-0.03196163
174	0x3dbbde77	0.09173291
175	0x3d9cba6b	0.07652744
176	0xbdce7933	-0.10081711
177	0x3d2e9a47	0.0426276
178	0x3e01270a	0.12612548
179	0x3d4a2b48	0.049357682
180	0x3dfa387f	0.12217807
181	0xb9aec01c	-0.00033331
182	0xbd8bdf54	-0.06829706
183	0x3dd51168	0.104037106
184	0xbdbe5e77	-0.092953615
185	0x3d904615	0.07044617
186	0xbdb8d82b	-0.09025606
187	0xbded416e	-0.11584745
188	0xbdfd9a2a	-0.1238292
189	0xbdb44348	-0.088018954
190	0x3e5340f1	0.20630242
191	0xbd94fde3	-0.072749875
192	0xbd33d6fb	-0.043906193
193	0xbb81ac23	-0.003957288
194	0xbe12afec	-0.14324921
195	0x3e46f9f5	0.19431289
196	0xbe2a8ff6	-0.16656479
197	0x3e22b023	0.15887503
198	0xbd09ae3c	-0.03361343
199	0x3ceeb45b	0.029138735
200	0x3e7fb3a0	0.24970865
201	0xbdce09ad	-0.10060439
202	0x3ddb0a54	0.10695329
203	0x3e4fb3ad	0.20283385
204	0xbc9eae34	-0.019370176
205	0xbe041808	-0.12899792
206	0x3ce4d646	0.027934205
207	0x3e090f67	0.13384782
208	0xbe6094a8	-0.21931708
209	0xbd5a93fe	-0.053363793
210	0xbdb5cdce	-0.08877145
211	0x3daaed65	0.08346061
212	0x3e5463dd	0.2074122
213	0x3d889578	0.06669134
214	0x3d8d16ab	0.06889089
215	0x3d0c8233	0.034303855
216	0xbd62eba8	-0.05540052
217	0x3ddb1711	0.10697759
218	0xbdabb8ad	-0.083848335
219	0x3d017f12	0.031615324
220	0x3e6d8588	0.2319547
221	0xbdb3584b	-0.08757075
222	0x3da77a70	0.0817765
223	0x3e156028	0.14587462
224	0xbd044260	-0.032289863
225	0x3d8c5cfb	0.06853672
226	0xbd5f78bb	-0.054558497
227	0x3d8896a0	0.066693544
228	0xbd96c96a	-0.073626354
229	0xbe43812b	-0.19092242
230	0xbd70d0cf	-0.058792885
231	0x3d5b2ee0	0.0535115
232	0x3bb724c4	0.0055890996
233	0xbe0eee9d	-0.13958211
234	0xbd1a2d6b	-0.03764097
235	0xbc0f4a95	-0.008745809
236	0x3d91af56	0.07113521
237	0xbd798007	-0.060913112
238	0x3d962d04	0.07332805
239	0x3ea96c17	0.33090279
240	0xbc450378	-0.012024753
241	0xbe21a436	-0.15785298
242	0xbd12e650	-0.035864174
243	0xbcd4474e	-0.025912907
244	0x3d97ca59	0.07411642
245	0xbe2827d5	-0.16421445
246	0x3e7b91fb	0.24567406
247	0x3cdcebc1	0.026967885
248	0x3c423e4f	0.011855676
249	0xbde61eac	-0.11236319
250	0x3d547351	0.051867787
251	0xbdbbbdb1	-0.0916704
252	0x3f0df5dd	0.5545328
253	0xbe111fa3	-0.14172225
254	0x3dbc0f42	0.09182598
255	0x3beaa593	0.0071608513

mlp.0.bias f4 [100]
0	0xbde99814	-0.1140596
1	0xbda22b4b	-0.07918414
2	0xbe11c309	-0.14234556
3	0x3cfff3ba	0.031244148
4	0xbd8322c7	-0.064031176
5	0xbd86fbaf	-0.065909736
6	0xbd4b7e5b	-0.04968105
7	0x3dadad57	0.084803276
8	0xbe351abc	-0.1768598
9	0x3d8a7d35	0.067621626
10	0xbe1dfc4b	-0.15428273
11	0x3ce6e076	0.028183203
12	0x3d6af8c3	0.057366144
13	0x3bed99ae	0.007250986
14	0xbda94022	-0.082641855
15	0x3e6dcb10	0.23221993
16	0xbe53e8af	-0.2069423
17	0x3d7f5a91	0.06234223
18	0xbe66877e	-0.22512624
19	0x3da6466d	0.081189014
20	0xbda281db	-0.07934924
21	0x3ce05af1	0.027387114
22	0x3d1b01dd	0.037843574
23	0xbddc01fa	-0.107425645
24	0x3d461b72	0.048366018
25	0x3cf7dd31	0.03025684
26	0xbd4289d8	-0.04749474
27	0xbe46364d	-0.19356652
28	0xbd781c51	-0.06057388
29	0xbd8427dc	-0.06452915
30	0x3dc08974	0.09401217
31	0xbd5b6369	-0.0535616
32	0x3d3134e2	0.043263324
33	0xbe81bee0	-0.2534094
34	0xbe6e496d	-0.23270197
35	0x3e1e1907	0.15439235
36	0x3e5d6e89	0.21624197
37	0xbdeb4452	-0.114876404
38	0xbe705ae3	-0.2347217
39	0xb8ac3f42	-8.213382e-05
40	0x3e0fe749	0.14053072
41	0xbeb987f3	-0.36236534
42	0xbe284478	-0.16432369
43	0xbe29a28a	-0.1656591
44	0x3d879bbb	0.066215
45	0x3e2d2bde	0.16911265
46	0xbd8d7f3b	-0.06909033
47	0xbd0d196d	-0.034448076
48	0xbde0addd	-0.10970662
49	0x3b224426	0.0024759858
50	0xbe18c2bb	-0.14918034
51	0xbc69706d	-0.014247996
52	0xbda2a285	-0.079411544
53	0xbe2cac75	-0.16862662
54	0x3e65512c	0.22394246
55	0xbade0def	-0.0016941408
56	0xbe839253	-0.25697574
57	0xbdac8baf	-0.0842508
58	0x3e1ec145	0.15503414
59	0x3dc34da1	0.09536291
60	0xbdb9aa09	-0.09065635
61	0xbe0ff5d1	-0.14058615
62	0xbba7025e	-0.0050967177
63	0x3d77ce86	0.06049969
64	0xbd2762b2	-0.040865608
65	0xbe0052bc	-0.1253156
66	0x3c1ef816	0.009702703
67	0xbbd3da55	-0.006465236
68	0xbe8204ba	-0.2539423
69	0xbe6a20d0	-0.2286408
70	0xbe6d6b8a	-0.23185554
71	0xbd14c6db	-0.036322456
72	0xbe227351	-0.15864302
73	0x3d0c5a1e	0.03426563
74	0x3e1de16f	0.15418027
75	0xbdf536d0	-0.11973345
76	0xbdac7f9e	-0.084227785
77	0x3ce54af6	0.027989846
78	0xbe1a39e5	-0.15061148
79	0xbe7da65d	-0.24770494
80	0x3e0f9cbb	0.14024632
81	0xbec3806f	-0.38183925
82	0x3e3deb52	0.18546799
83	0xbe6c6950	-0.23087049
84	0xbde3b756	-0.11118953
85	0xbdab8fb8	-0.083770216
86	0xbe822bc3	-0.25424013
87	0xbe493f53	-0.19653063
88	0xbe291ba2	-0.16514447
89	0xbecdce59	-0.40196493
90	0xbe1327b1	-0.1437061
91	0x3e3a505a	0.18194714
92	0xbd01b5a7	-0.031667378
93	0x3c16c533	0.009202289
94	0xbf419c76	-0.75629365
95	0x3d2ebd29	0.042660866
96	0x3da6d570	0.08146179
97	0xbe689e41	-0.22716619
98	0x3e2df154	0.1698659
99	0xbd7f33f6	-0.062305413

mlp.2.weight f4 [100, 100]
0	0x3d1cba56	0.03826364
1	0xbda91c20	-0.082573175
2	0xbd914752	-0.070936814
3	0xbdafc5ea	-0.08582671
4	0xbd89e4a5	-0.067330636
5	0xbd95869b	-0.073010646
6	0xbcbd0664	-0.023074336
7	0xbc8a5a7b	-0.016888848
8	0x3d6b80a1	0.057495717
9	0x3d7e440c	0.062076613
10	0x3d33e147	0.043916013
11	0xbd48e10d	-0.04904275
12	0xbdc380f4	-0.0954608
13	0xbd4f02f0	-0.05053991
14	0xbd376de6	-0.04478254
15	0x3d84375d	0.06455872
16	0xbd8af247	-0.06784492
17	0xbd49f73c	-0.049308047
18	0xbd386188	-0.045014888
19	0xbdb8ee0d	-0.090297796
20	0x3cf4a154	0.029862083
21	0x3d247e78	0.040159672
22	0x3c2214b8	0.009892635
23	0x3d46035e	0.048343055
24	0x3cc8801e	0.024475154
25	0x3d96a9ba	0.073565915
26	0xbd51fc7c	-0.05126618
27	0xbdb84a13	-0.089985035
28	0x3d313d56	0.043271385
29	0x38c4551d	9.361862e-05
30	0xbdbba476	-0.09162228
31	0x3b92d6fa	0.0044811936
32	0x3c2cdee4	0.010551188
33	0x3cb89dec	0.02253624
34	0x3cfc160e	0.030772235
35	0xbdbb5cc9	-0.09148557
36	0xbd90372a	-0.07041772
37	0x3c6850ad	0.014179391
38	0x3d888992	0.066668645
39	0xbdb8568e	-0.09000884
40	0x3d5e023a	0.054201342
41	0xbcb1fce9	-0.021727042
42	0xbd7b48bb	-0.061348658
43	0xbdb77e3e	-0.08959626
44	0x3c80178c	0.015636228
45	0xbd97317a	-0.07382484
46	0x3ce4f816	0.027950328
47	0xbc0d4e9c	-0.008624699
48	0x3cbd15f5	0.023081759
49	0xbd59ac03	-0.05314256
50	0x3d5b9dd4	0.053617314
51	0xbd554fb8	-0.05207798
52	0x3d2032ac	0.039110824
53	0xbd382ff2	-0.0449676
54	0x3bbb145f	0.0057092155
55	0xbaf3cc87	-0.0018600383
56	0xbc3eac7b	-0.011637802
57	0x3d6a7f97	0.057250585
58	0x3d9c4275	0.07629863
59	0x3b17cc1f	0.0023162437
60	0xbd842ee8	-0.06454259
61	0x3cb33a6a	0.02187844
62	0xbc12b5dd	-0.008954492
63	0xbd84263a	-0.06452604
64	0x3d6560b9	0.056000445
65	0x39af7884	0.00033468392
66	0x3d82a4ec	0.063791126
67	0xbc3f114c	-0.011661839
68	0x3d1840ff	0.03717136
69	0xbd8f2028	-0.06988555
70	0x3d7b85c2	0.06140686
71	0x3d2bf879	0.04198501
72	0x3d74209a	0.059601404
73	0xbd5e3c4b	-0.05425672
74	0xbd9e1dd2	-0.077205315
75	0xbc076a23	-0.008265051
76	0xbda06023	-0.078308366
77	0x3d22a773	0.039710473
78	0x3ce3224a	0.027726311
79	0x3dc5f3b5	0.09665624
80	0xbdad95c4	-0.08475831
81	0xbbc930dd	-0.006139858
82	0x3dae2c55	0.085045494
83	0x3daa3790	0.08311379
84	0x3d8e402d	0.06945834
85	0xbda7f086	-0.08200173
86	0x3c16a5f5	0.009194841
87	0x3d6bf187	0.057603385
88	0xbda7cd09	-0.08193404
89	0x3d899875	0.06718532
90	0x3c8c7048	0.017143384
91	0x3c98000b	0.018554708
92	0xbd15387d	-0.036430825
93	0xbd40c13b	-0.04705928
94	0xbd0ef5a7	-0.03490224
95	0xbdb366e8	-0.08759862
96	0xbd2bf060	-0.041977286
97	0xbc9da5d0	-0.019244105
98	0xbbe04337	-0.00684395
99	0x3dac9840	0.08427477
100	0x3d96f578	0.07371038
101	0x3bfe25db	0.0077559776
102	0xbc3a429a	-0.011368418
103	0x3d368a90	0.044565737
104	0xbcc9bf42	-0.024627332
105	0xbdf091c3	-0.11746552
106	0xbaf72ec9	-0.0018858548
107	0xbdd1da83	-0.10246756
108	0xbdfa25d6	-0.12214248
109	0x3d246b6d	0.04014151
110	0x3de10371	0.109869845
111	0xbd4924b1	-0.049107257
112	0x3d30ad0f	0.04313379
113	0x3d572013	0.052520823
114	0x3b84c48d	0.004051751
115	0xbdba421e	-0.09094642
116	0xbc0b8fa2	-0.008518131
117	0xbca1ece9	-0.019766288
118	0xbbf645f5	-0.0075156637
119	0x3d330c0c	0.04371266
120	0xbda1a5b5	-0.07892934
121	0xbd7441ef	-0.05963319
122	0xbceb7420	-0.028741896
123	0xbd423562	-0.04741419
124	0x3d94c92d	0.07264934
125	0x3d700744	0.05860068
126	0x3dbb4e06	0.09145741
127	0xbdb0502d	-0.08609042
128	0x3d8f02c5	0.0698295
129	0xbccee57a	-0.025255907
130	0xbd860801	-0.065444954
131	0xbd9128af	-0.07087838
132	0x3c13f7d6	0.009031257
133	0x3d0baba9	0.034099255
134	0xbd02c4d3	-0.031925987
135	0x3d38e0a5	0.045136113
136	0x3c786154	0.015159924
137	0xbdc41f06	-0.0957623
138	0x3d434edf	0.04768264
139	0x3d5d68aa	0.054054894
140	0xbda25c90	-0.07927811
141	0xbda2f691	-0.07957185
142	0xbda14e75	-0.078762926
143	0x3cdbde23	0.026839321
144	0x3d41995d	0.0472654
145	0xbc5293d3	-0.012852627
146	0x3d8670b5	0.06564466
147	0xbd97a099	-0.074036784
148	0xbd0c4aba	-0.034250952
149	0xbcff1641	-0.031138541
150	0x3d8628bf	0.065507405
151	0xbd753c35	-0.05987187
152	0xbdc34532	-0.09534682
153	0x3d15ae40	0.03654313
154	0x3d7de391	0.061984602
155	0x3d80e245	0.062931575
156	0xbd4c5e6d	-0.04989474
157	0xbcaa9cff	-0.020826815
158	0xbde304d0	-0.11084902
159	0x3dbd606d	0.092469074
160	0x3d803c98	0.06261557
161	0xbcd85a4a	-0.02641024
162	0x3dcca164	0.0999172
163	0x3d5c0533	0.053715896
164	0xbd8078ed	-0.06273065
165	0x3dc4c3f4	0.096076876
166	0x3d6382a1	0.0555445
167	0xbdb55d47	-0.08855682
168	0x3d3670cc	0.044541165
169	0x3d28988f	0.041161116
170	0xbc9584c8	-0.018251792
171	0xbd5f5f7c	-0.05453442
172	0xbdf5617e	-0.11981486
173	0x3c0dd75d	0.008657304
174	0x3d96da67	0.07365876
175	0xbd2cc79a	-0.042182542
176	0xbd29cd9c	-0.04145585
177	0xbd92df6e	-0.07171522
178	0x3dbc70fd	0.09201238
179	0xbc0506b3	-0.008119273
180	0x3d2f4068	0.042786032
181	0x3d2f04bc	0.042729124
182	0xbd92e7b3	-0.07173099
183	0xbd8bf084	-0.06832984
184	0xbc95dcd9	-0.018293785
185	0xbafde758	-0.0019371314
186	0xbd8b58bf	-0.06804036
187	0x3d15ab7e	0.0365405
188	0xbcd1586d	-0.02555486
189	0xbaf429ea	-0.0018628214
190	0xbcccf72c	-0.025020204
191	0x3d4f924b	0.050676625
192	0x3d850f6f	0.06497084
193	0xbd940d83	-0.0722914
194	0xbda189e4	-0.07887629
195	0x3d0a5351	0.033770863
196	0x3dc43b00	0.09581566
197	0xbd403d66	-0.046933554
198	0x3d8fa09f	0.07013058
199	0xbb5a2eeb	-0.0033292125
200	0xbdc77b61	-0.097403295
201	0xbdad2251	-0.08453811
202	0x3c5f8abf	0.0136439195
203	0x3b81040a	0.003937249
204	0xbd20cad3	-0.03925593
205	0xbdd4e4a6	-0.10395174
206	0x3d3d30cc	0.046189114
207	0x3d89f4e3	0.067361616
208	0xbe04d6f6	-0.12972626
209	0x3debb6fc	0.11509511
210	0xbd3e66af	-0.046484645
211	0x3b4dcd98	0.003140306
212	0xbd617c01	-0.0550499
213	0x3cb130f7	0.021629794
214	0xbc1868f7	-0.009302369
215	0x3c8ed6bc	0.017436378
216	0x3d15f95d	0.036614764
217	0x3cbe0f51	0.023200663
218	0x3da5c031	0.08093298
219	0xbdb11de1	-0.08648277
220	0x3d8a87d4	0.067641884
221	0xbd4df762	-0.05028475
222	0x3cea0be9	0.028570132
223	0x3abf3f61	0.0014591032
224	0x3cd57a72	0.026059363
225	0xbd8aa6d6	-0.06770103
226	0xbd3f7f06	-0.046752
227	0xbd221947	-0.039574888
228	0x3cf7d424	0.030252524
229	0x3d90d7e4	0.07072428
230	0x3da52028	0.08062774
231	0xbdfdead3	-0.12398305
232	0xbd547389	-0.051867995
233	0xbe0e4163	-0.1389213
234	0x3d5cb5d0	0.053884327
235	0xbe035ad4	-0.12827617
236	0xbdd7d38c	-0.10538396
237	0x3c99b043	0.018760806
238	0xbdcc7586	-0.09983353
239	0x3cef6dce	0.029227164
240	0x3d55640f	0.052097376
241	0xbd764741	-0.060126547
242	0xbd949553	-0.07255044
243	0xbda85b4d	-0.08220539
244	0xbdd5252f	-0.10407483
245	0xbbedcca1	-0.0072570597
246	0xbdfe11fb	-0.12405773
247	0x3cb28976	0.021794062
248	0xbcd928b5	-0.026508668
249	0xbdd8fa76	-0.10594647
250	0xbdb82324	-0.089910775
251	0xbd4cecd4	-0.050030544
252	0x3d84af2c	0.06478724
253	0x3cfdaf40	0.030967355
254	0x3d930aee	0.07179819
255	0x3dad6c89	0.08467967

mlp.2.bias f4 [100]
0	0xbdbe7f19	-0.09301586
1	0xbe0b4ff3	-0.13604717
2	0x3cddfe76	0.027098875
3	0xbcd65b65	-0.026166627
4	0x3c8acf75	0.016944626
5	0xbd89d3da	-0.067298606
6	0xbe9fb6ea	-0.3119424
7	0xbe9178a5	-0.28412357
8	0xbd9b81e4	-0.07593134
9	0x3caef55c	0.02135723
10	0xbe0904e8	-0.13380778
11	0xbe9518b4	-0.2912041
12	0xbe1104c9	-0.14161982
13	0xbc572cbe	-0.013133226
14	0x3d320fee	0.043472223
15	0xbdbfb2b0	-0.09360254
16	0xbe37b139	-0.17938699
17	0xbdab88dc	-0.08375713
18	0x3c9c1dfd	0.019057268
19	0x3d1deccc	0.038555905
20	0xbd9d6384	-0.07684997
21	0xbcbd9c61	-0.023145856
22	0x3d28f2e2	0.041247256
23	0xbd02023d	-0.031740416
24	0xbed9d5dd	-0.42545977
25	0x3d9867c6	0.07441668
26	0xbd3591ee	-0.044328623
27	0xbd7e14d1	-0.06203157
28	0x396a1215	0.00022322715
29	0xbda9263f	-0.08259248
30	0x3dc3bb3d	0.09557197
31	0xbde8ccdf	-0.11367201
32	0x3d229d91	0.03970105
33	0xbd778320	-0.060427785
34	0xbde222a4	-0.110417634
35	0x3dadc09b	0.08484002
36	0xbd516080	-0.05111742
37	0xbd59d841	-0.05318475
38	0xbcb39e75	-0.021926144
39	0xbd8ee5b0	-0.06977403
40	0xbe38825f	-0.18018483
41	0xbd66fc7d	-0.056393135
42	0xbda92f5a	-0.08260985
43	0xbda1d56f	-0.07902037
44	0x3e08590e	0.13315222
45	0xbe308a9c	-0.17240375
46	0xbe77f41f	-0.24214219
47	0x3d93f707	0.07224851
48	0xbd951fcf	-0.07281458
49	0xbd025179	-0.03181598
50	0xbca2f93f	-0.01989424
51	0xbdca27d3	-0.09870877
52	0xbe480a78	-0.19535244
53	0xbe058089	-0.13037314
54	0x3e1052f8	0.1409415
55	0xbd1fc677	-0.03900763
56	0xbe468ab1	-0.19388844
57	0xbd26d760	-0.04073274
58	0xbd05bf91	-0.032653395
59	0x3e728e9b	0.23687212
60	0xbdac4455	-0.08411471
61	0x3da6b720	0.08140397
62	0xbc063989	-0.008192428
63	0xbd2556b8	-0.040365905
64	0xbdd94856	-0.106095
65	0x3e490a77	0.19632898
66	0xbd8dcace	-0.069234475
67	0xbe07faf8	-0.1327933
68	0xbd8f678d	-0.070021726
69	0x3c5b07af	0.013368531
70	0x3d8b491d	0.068010546
71	0x3dd2f15b	0.10299941
72	0x3d667bf3	0.05627055
73	0x3d439458	0.047748893
74	0x3d2b0709	0.041754756
75	0xbe31f832	-0.17379835
76	0x3d50e05b	0.050995212
77	0xbeac1697	-0.33610985
78	0xbd1bf36b	-0.03807394
79	0x3da075e9	0.078349896
80	0xbd28ce04	-0.041212097
81	0xbbd57494	-0.0065141413
82	0xbd2b7b21	-0.04186547
83	0x3d2b8135	0.04187127
84	0x3dd084b3	0.1018156
85	0xbc9795d5	-0.018504063
86	0x3bd0354e	0.0063540107
87	0xbec6464d	-0.3872551
88	0xbcb55a16	-0.022137683
89	0x3dd54f28	0.104154885
90	0x3d89ce44	0.06728795
91	0xbd97da7c	-0.074147195
92	0xbbcfa40a	-0.0063366937
93	0xbdfe3ff5	-0.124145426
94	0xbe407a35	-0.18796618
95	0xbd1178bd	-0.035515536
96	0xbeb80ac7	-0.35945722
97	0x3dab8bbf	0.08376264
98	0x3cfda865	0.030964086
99	0xbead7315	-0.33876863

mlp.5.weight f4 [100, 100]
0	0xbdaf9eb4	-0.08575192
1	0xbd5fa968	-0.054604918
2	0x3d2b0f87	0.041762855
3	0x3d083006	0.033248924
4	0xbdba387b	-0.09092804
5	0xbd07a0f4	-0.03311248
6	0x3d620077	0.055176225
7	0xbda84144	-0.082155734
8	0x3bc68dc6	0.006059381
9	0x3d193880	0.0374074
10	0xbd6ce797	-0.05783805
11	0xbdb128a2	-0.08650328
12	0xbd810aaf	-0.06300866
13	0x3dc180f7	0.09448426
14	0x3d937fa1	0.07202078
15	0x3d23afd9	0.039962623
16	0xbb46f301	-0.0030357244
17	0x3bdc67d9	0.006726247
18	0x3d788b8c	0.060679957
19	0x3d1182db	0.035525184
20	0x3d60f4e9	0.054921065
21	0x3d051a9c	0.03249608
22	0xbcf62870	-0.030048579
23	0x3da90271	0.08252419
24	0xbd1d43bb	-0.03839467
25	0xbc74a136	-0.014931014
26	0xbd591317	-0.05299672
27	0xbd025e9a	-0.0318285
28	0xbda03489	-0.0782252
29	0x3d092013	0.033477854
30	0x3c9ead4b	0.019369742
31	0xbcb064d1	-0.021532448
32	0xbd95b558	-0.07309979
33	0x3c2b2d81	0.010447861
34	0xbdc5d65a	-0.09660025
35	0xbdbb66aa	-0.09150441
36	0xbcb5bec2	-0.022185687
37	0x3c7302e4	0.014832232
38	0x3b9562da	0.004558903
39	0xbdcd62d2	-0.10028614
40	0xbc06f666	-0.008237457
41	0x3ab1ea7e	0.0013573912
42	0xbc92db02	-0.017926697
43	0x3d1e174a	0.03859643
44	0xbd1c589f	-0.038170453
45	0x3cc9bbfc	0.02462577
46	0xbd32defd	-0.04366969
47	0xbd4d2d9d	-0.05009233
48	0xbd7b6e26	-0.061384343
49	0xbdc3c246	-0.09558539
50	0x3c9c3526	0.019068312
51	0x3d9021ec	0.0703772
52	0x3d285101	0.041092876
53	0xbd320c26	-0.043468617
54	0xbd757e60	-0.059934974
55	0xbd8facd0	-0.07015383
56	0xbd81fb6f	-0.06346785
57	0x3daaf6fc	0.0834789
58	0xbda9679b	-0.08271714
59	0x3d94fc67	0.072747044
60	0x3dcb919b	0.099398814
61	0xbcaa90d8	-0.02082102
62	0x3d93ae09	0.07210929
63	0x3bce2e4c	0.00629214
64	0xbd358685	-0.04431774
65	0x3d480586	0.048833393
66	0x3d80dbd7	0.06291931
67	0xbd205309	-0.03914169
68	0xbbdc81e1	-0.00672935
69	0x3da4cb73	0.08046617
70	0xbcc3392e	-0.023830976
71	0xbd237bca	-0.039912976
72	0x3d56d8fa	0.05245302
73	0xbdbc623d	-0.09198425
74	0xbdb5bbfb	-0.08873745
75	0xbdc3b0a8	-0.09555179
76	0x3ce0fab7	0.0274633
77	0xbda158e3	-0.07878282
78	0x3da0389f	0.078232996
79	0xbd652951	-0.055947606
80	0x3d6b2df9	0.05741689
81	0xbd60e29b	-0.054903608
82	0x3da3225e	0.079655394
83	0x3b4bea80	0.0031115115
84	0x3d9adb9e	0.0756142
85	0x3dd138e0	0.10215926
86	0x3dbc3593	0.09189906
87	0xbd9fb23b	-0.07797667
88	0xbd6f3463	-0.05839957
89	0xbd0c8f80	-0.03431654
90	0xbcdc22f4	-0.026872136
91	0x3dbc52cb	0.09195479
92	0x3d514a51	0.051096264
93	0x3d978ad7	0.073995285
94	0xbd8a1c81	-0.06743718
95	0xbd103e29	-0.03521553
96	0xbd6a0fd5	-0.057144005
97	0x3d16671b	0.036719423
98	0x3d14d98d	0.036340285
99	0x3d867905	0.065660514
100	0x3d93328c	0.071873754
101	0x3dc2cc39	0.09511609
102	0x3cb65697	0.022258086
103	0x3d89de44	0.06731847
104	0xbd05cb5b	-0.032664638
105	0x3c5bf76e	0.013425691
106	0x3e3be8bf	0.18350504
107	0x3e910cc7	0.2833006
108	0xbd1ff5f9	-0.039052937
109	0xbafd1853	-0.0019309617
110	0x3d7a9db1	0.061185542
111	0xbdb01df9	-0.08599467
112	0x3cd84fc3	0.02640522
113	0x3cc2376e	0.023708072
114	0x3d2b7316	0.0418578
115	0xbbe77f05	-0.0070647025
116	0x3e236406	0.15956125
117	0x3d50e4cf	0.05099946
118	0x3d6facbb	0.058514338
119	0x3dbacade	0.09120725
120	0x3d72dd7d	0.05929326
121	0x3dac7de4	0.08422449
122	0x3dcfc1f2	0.10144414
123	0x3caec469	0.02133389
124	0x3e2fb509	0.17158903
125	0x3e1295e2	0.14314988
126	0xbd0e5306	-0.034747146
127	0xbaf70c73	-0.0018848315
128	0x3d95f9b6	0.07323019
129	0xbd7c3692	-0.06157548
130	0xbdc2af4f	-0.09506094
131	0x3d9ad290	0.07559693
132	0xbbe6ece4	-0.0070472825
133	0x3dceb781	0.10093594
134	0x3dc6fa2e	0.09715687
135	0x3d608da6	0.054822586
136	0x3d5dca7d	0.054148186
137	0x3c47200e	0.0121536385
138	0x3d992e0e	0.07479487
139	0xbd92a5f5	-0.0716056
140	0x3dcf15d8	0.10111588
141	0xbd7e42bc	-0.06207536
142	0xbd91869c	-0.07105753
143	0xbd26091e	-0.04053604
144	0x3c8ba8f9	0.017048346
145	0xbb96032c	-0.004578015
146	0xbdefde5b	-0.11712333
147	0xb9a9b4eb	-0.00032368986
148	0x3db50f06	0.08840756
149	0x3d0cf7fa	0.034416176
150	0x3d86a2ba	0.065740064
151	0x3dfe5b8a	0.124198034
152	0x3cd0243a	0.0254079
153	0x3d75c0d8	0.059998363
154	0xbd0b229a	-0.033968545
155	0xba308fb4	-0.00067352806
156	0x3e00fe11	0.12596919
157	0xbd043db5	-0.03228541
158	0xbda19f22	-0.0789168
159	0xba98db4d	-0.0011662036
160	0x3da26800	0.07929993
161	0xbe105bec	-0.14097565
162	0x35d668a2	1.5974695e-06
163	0xbce637d3	-0.028102791
164	0x3d08566b	0.03328554
165	0x3e330dba	0.17485705
166	0x3e3dabd9	0.18522586
167	0x3d777c75	0.060421426
168	0x3cf7cbfa	0.03024863
169	0xbd5476b5	-0.05187102
170	0xbc19432d	-0.009354395
171	0x3d3d91cf	0.046281632
172	0x3c8f08cb	0.017460248
173	0x3db2c3b6	0.08728735
174	0x3c9f1a0e	0.019421604
175	0xbde15c58	-0.11003941
176	0xbd955729	-0.07292015
177	0x3e720c71	0.23637559
178	0x3e476318	0.19471395
179	0xbd8a8606	-0.06763844
180	0xbd859288	-0.06522089
181	0x3e1a7893	0.15085058
182	0xbe007467	-0.12544404
183	0xbd1f2c2c	-0.038860485
184	0x3e193d15	0.14964707
185	0x3ded5dcc	0.11590156
186	0xbdcbda08	-0.099536955
187	0x3e6b1523	0.22957282
188	0xbced0a26	-0.028935503
189	0x3d6fa1db	0.058503967
190	0x3da56f21	0.08077837
191	0x3bce47e9	0.0062951935
192	0x3dd2ffad	0.103026725
193	0xbd87a8b3	-0.06623974
194	0x3e1d229e	0.15345237
195	0xbd89d07e	-0.0672922
196	0x3e603b70	0.21897674
197	0xba981178	-0.0011601886
198	0x3dd12abf	0.10213231
199	0x3d80b4af	0.06284463
200	0xbdaf2e79	-0.08553786
201	0x3ce84cb1	0.028356882
202	0xbd72a9c2	-0.059243925
203	0x39f4e670	0.00046710996
204	0x3d28dcc5	0.041226167
205	0xbcb0a6c3	-0.021563893
206	0xbd99879f	-0.07496571
207	0x3b0919bc	0.002091988
208	0x3d397590	0.045278132
209	0xbd99d06a	-0.07510455
210	0x3b890970	0.0041820332
211	0xbd4992f0	-0.049212396
212	0xbc145690	-0.009053841
213	0x3d6a15b6	0.05714961
214	0xbb71c26e	-0.003688957
215	0x3d0b11f4	0.03395267
216	0x3c8154d5	0.015787521
217	0x3ce40b9d	0.027837569
218	0x3d8082f1	0.06274975
219	0xbcc018bf	-0.0234493
220	0xbc35e3c6	-0.011101669
221	0xbd5ff003	-0.054672252
222	0x3bced1ae	0.006311617
223	0x3d4e682c	0.050392315
224	0x3d4a45ac	0.04938285
225	0xbda75e97	-0.081723385
226	0xbd54e4b4	-0.05197592
227	0x3d1a5206	0.03767588
228	0x3cd88533	0.026430702
229	0x3da91200	0.08255386
230	0x3c5e0d15	0.013552924
231	0x3baaabdc	0.0052084755
232	0xbdbc319a	-0.09189148
233	0xbccfb3d6	-0.025354307
234	0xbda351cf	-0.07974588
235	0xbd013b55	-0.031550724
236	0xbd500b8b	-0.05079226
237	0xbd55864b	-0.052130025
238	0x3cba9e84	0.022780664
239	0xbd032694	-0.032019213
240	0x3dba4886	0.09095864
241	0x3da37244	0.07980779
242	0xbd445c37	-0.047939505
243	0xbcbe8122	-0.023254935
244	0x3da7f12f	0.08200299
245	0xb9b90d3f	-0.0003529582
246	0xbd26df3e	-0.040740244
247	0xbd4d646b	-0.050144594
248	0xbcfcdf12	-0.030868087
249	0x3d04c0eb	0.032410543
250	0x3db5f869	0.08885271
251	0xbd345a82	-0.044031627
252	0x3d2c0f84	0.042006984
253	0x3b72a2c5	0.0037023288
254	0x3d88d51a	0.06681271
255	0xbc4d5766	-0.012533044

mlp.5.bias f4 [100]
0	0xbb6a026f	-0.0035707017
1	0xbdca2f0f	-0.09872257
2	0xbdc4a914	-0.096025616
3	0x3d2e9481	0.042622093
4	0xbca0aaf0	-0.01961276
5	0x3cfa748f	0.030573158
6	0x3da26c8b	0.07930859
7	0x3dc11735	0.094282545
8	0xbe01697d	-0.12637897
9	0x3d53294b	0.051553052
10	0x3d922b03	0.0713711
11	0x3da2a15c	0.07940933
12	0xbc9766eb	-0.018481692
13	0x3dcfe7cf	0.10151636
14	0x3d528b00	0.051402092
15	0x3c70a2f8	0.014687292
16	0x3d4d273f	0.050086256
17	0xbdc66838	-0.09687847
18	0xbdcba762	-0.09944035
19	0x3c835c7d	0.016035313
20	0xbd06ec53	-0.03294022
21	0xbdc4f99c	-0.09617922
22	0x3dc8cdf8	0.098049104
23	0x3dd9d716	0.106367275
24	0xbd7a9ca7	-0.06118455
25	0x3d44e2ec	0.048067972
26	0x3db31392	0.08743967
27	0x3dcd8dc2	0.10036804
28	0x3d03a2c6	0.032137655
29	0x3d17da42	0.03707338
30	0x3cff6714	0.031177081
31	0xbdb542d3	-0.08850636
32	0x3ddca91d	0.10774443
33	0x3cf59be3	0.02998156
34	0x3d977b56	0.07396571
35	0x3cdf7077	0.027275307
36	0x3daf0012	0.08544935
37	0xbd3aad7f	-0.045575615
38	0x3d14b2ed	0.03630345
39	0x3c823eb8	0.015899047
40	0x3daa51fe	0.0831642
41	0xbd801aef	-0.06255137
42	0x3d9f4d56	0.077784225
43	0xbd78fb1b	-0.060786348
44	0x3d7a389d	0.061089147
45	0x3dafd201	0.08584977
46	0x3d46933d	0.04848026
47	0x3db61fdd	0.08892796
48	0xbda6e7b3	-0.08149662
49	0xbcd88dfd	-0.026434893
50	0x3d514e34	0.05109997
51	0x3dae87e3	0.08522012
52	0xbdc5d007	-0.09658819
53	0x3d87a94f	0.0662409
54	0x3c747ec8	0.014922805
55	0x3dae3b1a	0.085073665
56	0x3d47b68c	0.048758075
57	0xbd1862a7	-0.037203457
58	0xbc683e91	-0.014175073
59	0x3cc3f71d	0.023921544
60	0x3be55e3c	0.006999759
61	0xbdc24ed1	-0.09487689
62	0x3d7e6e3c	0.062116846
63	0x3d7501da	0.05981622
64	0xbddc3348	-0.107519686
65	0xbde493c5	-0.11160997
66	0x3d8f2fac	0.069915146
67	0x3c92d8b7	0.017925603
68	0xbca922b0	-0.020646423
69	0x3c8aaf11	0.016929181
70	0xbcb24144	-0.021759637
71	0x3d41cac3	0.04731251
72	0x3d4759b5	0.048669536
73	0x3d910c21	0.070823915
74	0x3cb34369	0.02188273
75	0x3d9fdb32	0.0780548
76	0x3d1612ba	0.036638953
77	0xbdc9fdb5	-0.09862844
78	0x3c7de95a	0.01549753
79	0x3d67a1d2	0.05655081
80	0x3da2d462	0.07950665
81	0x3d96e195	0.07367245
82	0x3daa6fbc	0.08322093
83	0x3dd25c21	0.102714784
84	0x3d9c8649	0.076428
85	0xbc16387d	-0.009168741
86	0x3d91711c	0.07101652
87	0xbd1ceccd	-0.03831177
88	0xbd8cb4cc	-0.06870422
89	0x3de0d463	0.109780096
90	0x3cbdd5b5	0.023173193
91	0x3c988d54	0.018622078
92	0xbdb99702	-0.090620056
93	0xbd8e96aa	-0.06962331
94	0xbd84b2e8	-0.06479436
95	0xbcf6bfbd	-0.030120725
96	0xbd62b3d4	-0.05534728
97	0x3d86e818	0.06587237
98	0x3dbf3fb4	0.09338322
99	0x3d4409b7	0.047860827

mlp.8.weight f4 [1, 100]
0	0x3d0df422	0.03465665
1	0x3f40ed16	0.75361764
2	0xbdc22a2c	-0.094807
3	0x3efe1c84	0.4963113
4	0x3ed741e6	0.42042464
5	0x3eacfacf	0.33785102
6	0xbf05c77b	-0.5225751
7	0xbd70dfc7	-0.05880716
8	0xbd10a43f	-0.035312887
9	0xbe1ba51e	-0.15199706
10	0xbf25f6bd	-0.6482962
11	0xbef5bbca	-0.47994834
12	0x3e85d748	0.2614081
13	0xbe9a9c19	-0.30197218
14	0xbe81cb3d	-0.2535037
15	0xbee5f83c	-0.4491595
16	0xbe7ff37a	-0.24995223
17	0xbc7c7ca0	-0.015410572
18	0xbcc013fb	-0.023447027
19	0xbe79fa30	-0.24411845
20	0x3db546a5	0.08851365
21	0x3caae090	0.020859033
22	0xbf2be172	-0.6714088
23	0xbe80eac3	-0.2517911
24	0x3dc50bda	0.09621401
25	0xbee58628	-0.44828916
26	0x3eecf01e	0.46276945
27	0xbf4e43a6	-0.80571973
28	0x3dca2a71	0.09871376
29	0x3ed5df3b	0.41771874
30	0x3b94438d	0.0045246542
31	0xbce04318	-0.027375743
32	0xbf30f7fe	-0.69128406
33	0x3db20188	0.08691698
34	0x3da4af43	0.08041241
35	0x3ef3a6e3	0.47588262
36	0xbf00a562	-0.50252354
37	0x3f2b2413	0.6685192
38	0x3f04ee26	0.51925886
39	0x3efa1f91	0.48852208
40	0x3e125f5a	0.14294186
41	0x3ea2d904	0.31806195
42	0xbee994a2	-0.4562121
43	0x3f218f84	0.6310961
44	0xbf40bfec	-0.7529285
45	0xbe9ff239	-0.3123949
46	0x3eb5f820	0.35540867
47	0xbeb94a3b	-0.36189446
48	0xbd46b818	-0.04851541
49	0x3e1bcd38	0.15215003
50	0xbef31ece	-0.4748444
51	0x3e8039bd	0.2504405
52	0xbdb5a8f7	-0.08870118
53	0x3f0684da	0.52546465
54	0x3f13b679	0.57700306
55	0x3e954bc7	0.29159376
56	0xbddf12e8	-0.10892278
57	0x3e7e0c5f	0.24809407
58	0x3f27497a	0.6534649
59	0x3ed37aea	0.41304713
60	0x3ee24db5	0.4419991
61	0xbdd4a210	-0.103824735
62	0xbd9c00d6	-0.07617347
63	0x3f088b44	0.533375
64	0xbd1ed5a3	-0.03877796
65	0x3ea17b38	0.3153932
66	0xbf11a2ba	-0.56888926
67	0x3f209fac	0.6274364
68	0xbd076c7b	-0.03306244
69	0x3e1e82da	0.15479603
70	0x3d858af4	0.06520644
71	0x3e9599e3	0.2921897
72	0x3efdf2e8	0.49599385
73	0xbeceb19d	-0.40369883
74	0xbea4fe39	-0.32225206
75	0x3f00ff8a	0.5038992
76	0x3eb8b759	0.36077383
77	0x3d47041f	0.048587915
78	0x3ed5096e	0.41608757
79	0xbd755b3c	-0.05990146
80	0xbee99862	-0.4562407
81	0x3eac8302	0.336937
82	0xbe5a1f2a	-0.2130095
83	0xbe11b847	-0.14230452
84	0xbf0e6141	-0.5561715
85	0xbd9aae8a	-0.07552822
86	0xbf086391	-0.53276926
87	0x3ef6cbbf	0.4820232
88	0xbda79e66	-0.08184509
89	0x3ea66941	0.32502177
90	0x3e8614f8	0.26187873
91	0xbe2df950	-0.16989636
92	0x3f1111fb	0.5666806
93	0x3f2c7a54	0.6737416
94	0xbdb028f1	-0.08601559
95	0x3eb7bb05	0.35884872
96	0xbce742bf	-0.02823007
97	0x3f180e38	0.59396696
98	0xbd6b6663	-0.05747069
99	0x3da35772	0.07975663
