models/weights/layers_100_drop_lr_0.0001.pt (torch, 15051 bytes, 3 tensors)

mlp.0.weight f4 [100, 31]
000000 b4 4b 03 3e 52 63 4d be 27 56 60 be 49 99 f5 3d
       0.12821847 -0.20057419 -0.21907865 0.119921274
000010 36 89 06 3e ca a5 5d bd 0d b3 3b 3d 65 a9 50 bb
       0.1313828 -0.054113187 0.045825053 -0.0031839248
000020 eb ba 76 3e 1c 85 f7 3d 2e d8 ac bd e2 f7 36 bb
       0.24094741 0.120859355 -0.084396705 -0.0027918746
000030 4e 11 f2 3d 97 8d 8f be 34 15 73 3e 19 72 5a 3e
       0.11819707 -0.28037712 0.23738557 0.21332587
000040 1e 2d 2d 3e 02 d3 2b bc b0 79 19 be 64 87 f0 3b
       0.16911742 -0.01048732 -0.14987826 0.0073403586
000050 e0 78 1b 3e c3 86 05 bd f1 7e 53 bd 78 bf b5 bd
       0.15182829 -0.032599222 -0.051634733 -0.088744104
000060 a4 19 0a 3e 1c ae 3c bd 92 9f 73 ba 40 a8 30 3e
       0.13486344 -0.04606448 -0.0009293492 0.17251682
000070 91 e7 41 3d 4b 5b bd 3d 45 23 36 3e 4b 06 80 3e
       0.04733998 0.092459284 0.17786892 0.250048
000080 64 c8 57 bd 77 4a 2f 3c b6 31 89 3c b1 b1 0d bd
       -0.05268134 0.010698906 0.016747337 -0.034593288
000090 a2 eb 8e be 87 38 3e 3e cf e8 1b ba 5e e6 51 3d
       -0.2791415 0.18576251 -0.0005947472 0.051245086
0000a0 57 1c 19 3e 7f 08 dc 3b a4 8d 39 3e 70 2f 08 be
       0.14952217 0.00671488 0.18120438 -0.13299346
0000b0 20 76 ad bd 38 8f e8 3c 4a a5 ff bd 5c 7f 02 be
       -0.08469796 0.028388605 -0.12482698 -0.12743896
0000c0 ae 8d c6 bc 12 4b c9 bd a3 a6 2c 3e 05 da 74 3e
       -0.02423748 -0.09828772 0.16860442 0.23911293
0000d0 2e ec 27 bd 1a 1e 76 3e 4d 81 48 bc b2 c1 2e be
       -0.040996723 0.2403492 -0.012237859 -0.17066076
0000e0 9c 7c d7 bc 51 6c 06 bd 53 95 f2 be 69 8b c5 3b
       -0.026304536 -0.032818142 -0.4737955 0.006028582
0000f0 a7 0a 58 3e 16 c2 90 3d 34 e3 bd 3e bd d7 45 3d
       0.21097814 0.07068269 0.37087405 0.048301447
000100 0a 6c 95 bd 36 38 77 bd 8c ef 6f 3f 10 e9 67 3e
       -0.072959974 -0.06035634 0.93724895 0.226475
000110 b8 22 94 3a 3f 10 85 bc 20 15 9b be 66 46 d7 3c
       0.0011301851 -0.016243098 -0.30289555 0.026278686
000120 bc ba 03 3e 60 04 1b be 51 3d 39 bd 9e ef e2 bd
       0.12864202 -0.15138388 -0.04522449 -0.110808596
000130 53 f2 93 bd 34 0f 8c bc 39 20 18 be dc 1a d2 3d
       -0.07223954 -0.017097093 -0.14856042 0.10259029
000140 0f b5 8a 3d 88 eb 6e bb 65 fd 3a 3b 79 46 df bc
       0.067728154 -0.0036456306 0.0028532383 -0.027255284
000150 27 fe cf 3d ee 00 9f 3e a2 21 83 3e 85 90 7a 3d
       0.101558976 0.31055397 0.25611597 0.06117298
000160 28 d3 22 be 59 cf 98 3e c3 a4 ca 3e 8c 36 47 be
       -0.15900862 0.29845694 0.39578828 -0.19454402
000170 9e af 73 bd 1c 00 db bd d5 26 f6 3d f3 df fd 3c
       -0.059493653 -0.1069338 0.12019125 0.030990576
000180 8c 98 63 3e db 1c e9 be 95 6d 96 3e 19 c9 40 3e
       0.22226161 -0.45529827 0.2938048 0.18826713
000190 2a 33 12 3e 88 b5 8e be 04 41 80 3e 4b 02 57 3d
       0.1427733 -0.27872872 0.25049603 0.05249242
0001a0 a8 db ed bd 9e 28 9d 3d 8e ec f2 3d a8 bc 6b 3d
       -0.11614162 0.07673763 0.118615255 0.057552963
0001b0 c5 18 4a be cf 20 fd 3d 03 3a ba bd 9d 11 bf 3c
       -0.19736011 0.12359773 -0.09093096 0.023323828
0001c0 5e b0 82 bd 9e 0f 8d bd b2 60 48 bd 81 b7 4e be
       -0.063812956 -0.06887744 -0.04892034 -0.20187189
0001d0 45 35 ff 3d 11 c0 63 bc 0c 95 f3 3d a2 1e bc bc
       0.12461332 -0.013900773 0.11893663 -0.022963826
0001e0 3f 6c 6a bd 2a ad 99 3c c7 5e 9b bd ea 73 9f bd
       -0.057232138 0.018759329 -0.07586437 -0.07785781
0001f0 ac d5 cc 3c 61 22 f6 3d 1b 88 10 bd 3b 1c 9f bd
       0.02500423 0.12018276 -0.03528605 -0.077690564
000200 cf cf 7a bd 60 95 21 3d 78 1d 19 3c f8 21 10 be
       -0.061233338 0.039449096 0.009345405 -0.14075458
000210 59 2a 8b ba d4 75 4b 3e ad a1 df bd e6 2d 21 3d
       -0.0010617479 0.19869167 -0.10919509 0.039350413
000220 9e 0b 4f 3b ea 96 e5 b9 a9 c8 83 bd ca d7 3d 3d
       0.0031592618 -0.00043790723 -0.06434757 0.04634837
000230 e9 80 82 bd 33 13 8e 3d 9b a3 6b 3d 8e b2 e6 bc
       -0.06372244 0.06937256 0.057529073 -0.028161313
000240 80 17 cd bd ee 0f 46 bd e1 02 1e bf 15 93 3e 3e
       -0.10014248 -0.048355035 -0.6172314 0.18610795
000250 db 9d bd 3e 9c d2 f1 bd a5 40 7d be ba 76 23 be
       0.37034497 -0.11807749 -0.24731691 -0.1596326
000260 bb 73 ca bd 0e e5 bc 3b 8e 87 53 bc da ac 1e be
       -0.09885355 0.00576461 -0.012910737 -0.15495625
000270 44 5b 5e 3e ed 6b 91 3e 25 2e 43 3e b7 a5 72 3d
       0.21714503 0.28402653 0.19060571 0.05924007
000280 39 a8 16 be c4 38 de 3d b8 2b 25 bd 83 9d 24 bd
       -0.1471261 0.10850671 -0.040324897 -0.040189277
000290 40 76 1e be 9b f7 9e 3d 4f 48 39 3e 3b d2 d5 3d
       -0.15474796 0.07762071 0.1809399 0.10440489
0002a0 c3 dc 90 be 6f 80 0a 3d fb 36 92 bd 0b 2b 9a bc
       -0.28293428 0.03381389 -0.07139393 -0.018819353
0002b0 39 de 11 bd a5 d0 99 3e c9 ac ae 3d f2 95 86 bd
       -0.03561232 0.30041996 0.0852905 -0.065715685
0002c0 f5 8f c9 bd f3 b2 2e bd d9 5f 96 bd a6 b6 00 3e
       -0.09841911 -0.042651128 -0.073425 0.12569675
0002d0 de 49 ee 3d 45 a3 6d 3d f8 9a 42 3d ce 00 36 3e
       0.11635183 0.058017034 0.04751107 0.17773744
0002e0 30 e8 33 3e 42 89 dc bd f2 ad a8 3e f7 cf ce be
       0.17569041 -0.10768367 0.3294521 -0.4039304
0002f0 fc 09 ca 3b f1 97 dd 3d bb 37 ba 3d e8 8a 3b bd
       0.006165741 0.10819996 0.09092661 -0.04578677
000300 7e 63 f1 3c 2a 3a 41 3e 1c 3f 3d 3e e8 1b ef bd
       0.029466387 0.18869844 0.18481106 -0.116752446
000310 59 a2 8e 3d 2a e2 e0 3d 28 e7 10 bd 23 81 ab 3d
       0.06964559 0.10980637 -0.035376698 0.0837424
000320 09 3e 30 3d d6 c8 03 3e 50 be 57 3d 90 ac 6b bd
       0.04302791 0.12869582 0.05267173 -0.057537615
000330 4d d2 d1 bd 9f 67 99 3b d9 cd 70 bb fa 45 1d 3d
       -0.1024519 0.004681542 -0.0036743789 0.038396813
000340 fe 96 c5 3c 9e 76 a3 3e 30 5c 43 be a9 64 5a 3d
       0.02411985 0.31926435 -0.19078135 0.053318653
000350 b4 8f 38 bd 98 c2 b3 3d cf 72 04 3d b4 fa a4 bd
       -0.04505892 0.0877735 0.032336053 -0.0805563
000360 e9 d7 0c be 1b 46 d1 3d 67 b8 22 bd 75 bd 12 be
       -0.13754238 0.1021845 -0.03972664 -0.14330085
000370 4f 27 6f 3e 70 5d 4c bd 18 ff ee bd 71 18 f5 3d
       0.23354839 -0.049893796 -0.11669749 0.119675525
000380 cf 6a 81 bd 4a d6 39 be cf a9 9e bd 96 0e c1 3c
       -0.063192 -0.18148151 -0.07747232 0.023566525
000390 e9 c9 64 3e 4f cb 01 3e bd 74 a6 bd 45 2f 6d 3e
       0.22342648 0.12675212 -0.08127735 0.23162563
0003a0 0d c8 15 3e d6 c7 49 bd e3 7d 5c bd 9b 6e a4 3d
       0.14627095 -0.049262844 -0.053830992 0.08028909
0003b0 39 c9 38 be 0d 65 cd bd ca e3 34 3e c9 0f d9 3d
       -0.1804551 -0.100290395 0.1766502 0.10598714
0003c0 28 4a d2 3d 0f 81 90 bd d3 bf d4 3d 98 d7 4d be
       0.102680504 -0.07055866 0.1038815 -0.20101774
0003d0 91 ac 2f 3e db 1c dd 3d 78 88 34 be e2 84 ec 3d
       0.17155673 0.10796519 -0.17630184 0.11548783
0003e0 43 3b 2c be 57 8b 28 bd 30 08 35 3e 39 f6 cd bd
       -0.16819482 -0.04114851 0.17678905 -0.10056729
0003f0 5a b5 42 bf 4e 5d 2a 3e 81 59 10 3e e2 b2 32 3e
       -0.7605797 0.16637155 0.14096643 0.17451051

mlp.0.bias f4 [100]
000000 c2 a7 5b 3e 9f 12 4c be fb ba 23 3f 3f 67 3d 3e
       0.21450713 -0.19928978 0.63957185 0.18496417
000010 d0 31 8e be f3 de 50 bd c4 4d 1d be 6a 2b 16 3e
       -0.2777238 -0.05099387 -0.15361696 0.14664999
000020 a4 3a b5 bd ca b9 64 be 64 6c 95 bc ca e1 bb 3d
       -0.088490754 -0.22336498 -0.018240161 0.09173925
000030 67 c5 ff bd b8 23 b1 be 2e 8d 65 3e 35 25 8f 3d
       -0.124888234 -0.34597564 0.22417137 0.069895186
000040 92 19 2b bb 1f 75 f0 be c0 9a 26 bb 3c 7a f9 bb
       -0.002610777 -0.46964356 -0.0025421828 -0.0076134484
000050 79 08 ca 3d c6 d3 b4 bd f5 bd 6e bc 8d c0 ee 3d
       0.09864897 -0.08829455 -0.0145716565 0.1165782
000060 71 58 08 c0 8f b2 64 be 5c 17 9b 3d 53 2e 00 bf
       -2.130398 -0.2233374 0.07572815 -0.50070685
000070 9c bd 6a 3a 60 e6 f1 be 92 e0 28 3d 8f c2 71 3d
       0.00089546456 -0.47246075 0.041229792 0.059023436
000080 7b 2d 08 3e aa c1 91 3c c4 18 0c bf 02 d0 46 3d
       0.132986 0.017792542 -0.5472529 0.048538215
000090 0d 80 04 be 02 90 0e 3e ea 68 8d 3d 36 d9 2d be
       -0.12939472 0.13922122 0.069047764 -0.1697739
0000a0 97 08 d9 bd 04 8e 24 3e ac 6f 94 be 6f 19 8b be
       -0.105973415 0.160698 -0.2899145 -0.27167842
0000b0 b0 02 ef 3d 84 29 50 3d bc d0 7c bc 19 1d ee bd
       0.116704345 0.050820842 -0.0154306255 -0.11626644
0000c0 37 75 27 be 35 0c fb bd 88 bd 27 3e 6c 77 23 3e
       -0.16353308 -0.12258188 0.16380894 0.15963525
0000d0 2d 2e 1e 3e 3f 01 95 be 4f 18 09 3e c0 0e 10 be
       0.15447302 -0.29102513 0.13388179 -0.14068127
0000e0 8f 48 6b bd 32 11 1a 3d 08 2c 7f be b8 3f fc 3d
       -0.057442244 0.037614055 -0.2491914 0.12316841
0000f0 3f df 19 be 58 82 a6 3e a9 c4 cb bd cb 2b af 3c
       -0.15026568 0.3252132 -0.09949619 0.021383187
000100 b0 e7 7f bc 93 c1 3c bd 52 77 28 bd 25 d5 c8 bd
       -0.015619203 -0.046083044 -0.041129418 -0.09806279
000110 d4 3e 1a be 21 9d dc bd 29 da ca b9 f5 70 3e 3e
       -0.1506303 -0.107721575 -0.00038690984 0.18597777
000120 da 39 80 be 0c 34 b8 be 69 be eb bd 51 2b e5 3b
       -0.25044137 -0.3597721 -0.11510927 0.006993689
000130 4d 4f ae bd 18 87 4e be df 3f 3d 3c a9 9b 34 be
       -0.08511219 -0.20168722 0.011550873 -0.17637505
000140 e6 55 86 3c 02 66 cb 3d bf 48 cc bd 1e 53 2f be
       0.016398381 0.09931566 -0.09974813 -0.1712155
000150 37 78 f3 bc 7b 13 56 3e 1d cb 8b 39 7e 94 cb 3d
       -0.029720409 0.20905869 0.00026663477 0.09940432
000160 d2 1d 00 3e 5b f2 62 be e4 e9 9e 3e eb 20 83 3e
       0.12511376 -0.22162764 0.3103782 0.25611052
000170 c1 de fb 3d 56 3c 5f 3e 8c db 68 bd c9 60 51 be
       0.12298346 0.2180036 -0.05685 -0.20447077
000180 8a c5 29 bf 42 8d 4e be b7 7f 6b be 47 37 20 3e
       -0.66317046 -0.20171073 -0.22997938 0.15646087

mlp.2.weight f4 [1, 100]
000000 b8 90 d6 be 51 0a 10 3f 33 68 85 bf 68 d8 18 3f
       -0.41907287 0.5626574 -1.0422424 0.5970521
000010 9f 78 1d bf ae 24 e0 be 7d 46 11 bf e4 1a 96 3e
       -0.6151218 -0.43777984 -0.5674818 0.2931739
000020 65 34 57 3f 53 b9 03 bf f3 9d f0 be f2 36 02 3f
       0.8406432 -0.5145466 -0.46995506 0.5086509
000030 fe fe 9d 3e 83 37 1d 3f ac ec 7b 3f ce ad ba be
       0.30858606 0.6141283 0.9840801 -0.36460727
000040 79 fd 33 3f bb b4 1b 3f 15 6f 9e 3f 0d 7e a0 3f
       0.70308644 0.6082265 1.237765 1.2538468
000050 89 89 da be ff 75 0c bf 26 a7 0a 3f b3 8b eb 3e
       -0.42683056 -0.5486755 0.541613 0.4600502
000060 51 71 34 40 9e a1 07 bf 01 ef 25 3f 71 a1 6f bf
       2.8194163 -0.52980983 0.64817816 -0.93605715
000070 35 ce c0 be fd f2 8b 3f 0b eb de be 33 39 05 3f
       -0.37657323 1.0933529 -0.435387 0.52040404
000080 04 03 d3 be 62 1c 85 3d 81 21 4f bf 20 3d fb 3e
       -0.41213238 0.06499554 -0.809105 0.49070072
000090 b2 4b 01 bf 95 05 fe be 33 70 9e 3e 4e 1e 9f 3e
       -0.50506127 -0.49613634 0.30944976 0.31077808
0000a0 a6 22 10 3e 9c 5a 23 3f 5a 1c 4b 40 2e cf cd bf
       0.14075717 0.63810134 3.1736054 -1.6078851
0000b0 bf 4d 1f 3f 89 71 1e bf 72 f5 18 3f 56 2d 00 bf
       0.62228006 -0.6189199 0.5974952 -0.5006918
0000c0 10 34 0e be f0 3d d8 be 8b de 1c bf 7d 7b 6b 3f
       -0.13887048 -0.42234755 -0.61277074 0.91985303
0000d0 1c 55 77 bd 7d dc 61 3f 63 3e 0d 3f f7 36 fc 3e
       -0.0603839 0.88227063 0.5517332 0.49260685
0000e0 03 32 d6 be af 6f 20 bf 83 2e 71 be ea d6 07 bf
       -0.4183503 -0.62670416 -0.23552899 -0.5306231
0000f0 3f 9a fd 3e d9 8f 2a bf 03 88 06 bf 63 d0 c2 3e
       0.49531743 -0.66625744 -0.5255129 0.3804961
000100 e0 b1 15 bf 51 b8 05 bf 0d 76 01 bf 0e 49 c2 be
       -0.5847454 -0.5223437 -0.50570756 -0.3794636
000110 2b 6b ed be 9b 05 06 3f 22 ee 0a 3f ab 42 cb bd
       -0.46370825 0.52352303 0.5426961 -0.09924825
000120 a4 38 08 3f 94 c6 3b bf d8 18 5e 3d 1e a1 14 bf
       0.53211427 -0.7334988 0.05422291 -0.58058345
000130 22 64 7d 3f 6e b9 db be e5 89 c1 be a2 91 99 3e
       0.98980916 -0.4291491 -0.37800518 0.29993922
000140 c5 19 f7 bd e1 b4 13 3f e9 34 d5 3e c0 e5 e0 3e
       -0.12065462 0.57697874 0.4164193 0.43925285
000150 fc 86 00 bf 23 b6 df 3f 13 0f 2b 3e b8 e3 fb 3e
       -0.5020597 1.7477459 0.16704969 0.49197173
000160 3d 02 16 be 57 5a 33 bf b1 1e 21 bf 0b 86 a7 3f
       -0.14649291 -0.7005972 -0.62937456 1.3087782
000170 76 33 a8 be fe cc b3 3e fe d4 b6 3e 8a 58 b3 3e
       -0.32851762 0.35117334 0.35709375 0.35028487
000180 c4 dc 92 bf d6 dc 3a 3f ca c8 06 bf 60 49 12 bf
       -1.1473622 0.7299322 -0.5265013 -0.5714321
