models/weights/layers_50_50_50_lr_0.001.pt (torch, 29945 bytes, 7 tensors)

mlp.0.weight f4 [50, 31]
0	0xbed705b7	-0.41996548
1	0x3d7dc9a5	0.06195988
2	0x3c2f09b4	0.010683466
3	0xbd9f1fea	-0.07769759
4	0xbd9193ac	-0.07108244
5	0xbd843117	-0.06454676
6	0xbb06b85e	-0.0020556669
7	0xbd2dcfad	-0.042434383
8	0xbdea4ce5	-0.11440448
9	0xbe96dffb	-0.2946776
10	0xbd73d3aa	-0.05952803
11	0x3e108a6f	0.14115308
12	0x3ba39a9c	0.004992796
13	0xbcecd494	-0.028909959
14	0xbc9dd804	-0.019268043
15	0xbc4a9f73	-0.012367117
16	0x3b997df6	0.004684205
17	0x3dd2ede2	0.10299279
18	0xbd76ea72	-0.06028218
19	0xbd098535	-0.0335743
20	0x3cb784af	0.022402136
21	0xba81752e	-0.0009876841
22	0xbdb5e350	-0.08881247
23	0x3d30dcec	0.043179438
24	0x3d923f49	0.07140977
25	0xbdf6dd65	-0.120539464
26	0xbca3f011	-0.020011934
27	0xbdb53afd	-0.08849142
28	0xbe1f4c84	-0.15556532
29	0x3ed93f42	0.42431074
30	0xbc42ed03	-0.011897328
31	0xbdc06679	-0.09394545
32	0x3adcc3e8	0.0016843053
33	0x3bcfe9dc	0.006345017
34	0x3c01a93b	0.007913883
35	0xbe9cec4b	-0.30649027
36	0xbf2c7e31	-0.6738005
37	0x3b264068	0.002536798
38	0xbca334bb	-0.019922605
39	0x3b947ba4	0.0045313407
40	0xbd7ae02c	-0.061248943
41	0xbdd95f78	-0.10613912
42	0x3dfb19b9	0.122607656
43	0xba76a25d	-0.0009408349
44	0x3c1fdfc6	0.009757942
45	0xba09e9d2	-0.0005260977
46	0xbd1d7fde	-0.03845202
47	0x3d989be1	0.074516065
48	0xbd8dba87	-0.06920343
49	0xbd00302e	-0.031295948
50	0xbc521bb8	-0.0128239915
51	0xbceee6e0	-0.029162824
52	0x3b7f79bb	0.003898247
53	0x3cac838c	0.02105882
54	0x3d448c4e	0.047985367
55	0xbe7daa94	-0.24772102
56	0x3e008e55	0.12554295
57	0xbde821ed	-0.11334596
58	0xbcc360a7	-0.023849798
59	0xbc94d9f8	-0.018170342
60	0xbdc584d5	-0.09644476
61	0xbc8529dd	-0.016255314
62	0x3e3b4270	0.18287063
63	0xbd3b374e	-0.04570704
64	0xbdc17b6f	-0.09447371
65	0x3d301a06	0.042993568
66	0xbe9f246e	-0.3108248
67	0xbdc23949	-0.094835825
68	0xbdc65db0	-0.09685838
69	0xbdc70456	-0.09717624
70	0xbde9e53e	-0.114206776
71	0xbce1fd9c	-0.02758675
72	0x3e2d4321	0.16920139
73	0x39ad599f	0.00033063904
74	0x3c1d9782	0.009618642
75	0x3e08cb70	0.13358855
76	0x3df579a2	0.1198609
77	0xbc43dcb4	-0.011954475
78	0xbe408857	-0.1880201
79	0x3a9abb0a	0.001180501
80	0x3afb24df	0.0019160769
81	0x3df6a93b	0.12043997
82	0xbbf17a9d	-0.007369353
83	0xbd7ae843	-0.06125666
84	0xbe44c645	-0.19216259
85	0x3cdcd9c8	0.026959315
86	0x3e144e7e	0.14483067
87	0xbddbb470	-0.10727775
88	0xbd89fa23	-0.06737163
89	0xbe359fa1	-0.17736675
90	0x3e0a6489	0.13514914
91	0xbde4dd60	-0.111750364
92	0xbca93d5c	-0.020659141
93	0xbe21ac52	-0.15788391
94	0xbe63deb2	-0.2225292
95	0x3e74ef68	0.23919451
96	0x3d47596c	0.048669264
97	0xbcdcc03f	-0.026947139
98	0x3d9276a4	0.07151535
99	0x3be81e9e	0.007083728
100	0xbd83c7fd	-0.06434629
101	0xbe4608a4	-0.19339234
102	0xbd7b616a	-0.0613722
103	0xbcfb5cdd	-0.03068393
104	0xbd2d9d38	-0.042386264
105	0xbddb2e6e	-0.10702215
106	0xbd1e4f8d	-0.038650084
107	0x3e00753a	0.12544718
108	0x3e2ab329	0.16669907
109	0xbd743932	-0.05962486
110	0xbe85bbfe	-0.2611999
111	0x3d0a6e94	0.03379686
112	0x3d2ecff8	0.042678803
113	0xbd4ab9db	-0.04949365
114	0xbcbbf593	-0.022944247
115	0xbd45aa92	-0.04825837
116	0xbdece292	-0.11566652
117	0xbd587d56	-0.052853905
118	0x3d0b214b	0.033967298
119	0xbdb67fd4	-0.089111
120	0x3d6d80b6	0.057984076
121	0x3e23a388	0.15980351
122	0xbe0dc31c	-0.1384396
123	0xbd56dbdd	-0.05245577
124	0x3d426f29	0.04746929
125	0xbde5b79a	-0.1121666
126	0x3c460a40	0.012087405
127	0x3d842e4a	0.064541414
128	0x3ec90b2a	0.3926633
129	0xbc1f9618	-0.009740375
130	0x3cf8cf1d	0.030372197
131	0x3e22a41c	0.15882915
132	0xbe220a69	-0.15824284
133	0xbe045f38	-0.12926948
134	0xbd2e4aa7	-0.042551663
135	0xbd1e6f1f	-0.038680192
136	0x3d16b604	0.036794677
137	0xbe00f72c	-0.12594289
138	0x3c4b5f7d	0.012412903
139	0xbe642882	-0.22281078
140	0x3d05894d	0.032601643
141	0x3daf04fe	0.08545874
142	0xbbf3a348	-0.007435236
143	0x3e17f2fa	0.14838782
144	0x3d1edace	0.038782887
145	0x3d378b49	0.044810567
146	0x3dd866b2	0.105664626
147	0xbd5e2d31	-0.054242317
148	0x3ba826d3	0.0051315813
149	0xbd72ef3a	-0.059310175
150	0x3d99aac1	0.07503272
151	0x3cc520b2	0.024063442
152	0x3c38c2be	0.011276899
153	0xbc963bcc	-0.01833906
154	0x3df8f007	0.121551566
155	0xbe58aedc	-0.21160454
156	0xbd069b88	-0.03286317
157	0x3b7c118e	0.0038462612
158	0xbd1372e1	-0.03599823
159	0x3d1a1751	0.037619893
160	0xbef6e714	-0.48223174
161	0xba001779	-0.000488631
162	0xbd663c4d	-0.05620985
163	0x3c8f5491	0.01749638
164	0xbef4d84d	-0.47821274
165	0xbd1769db	-0.036966186
166	0x3dfc2da1	0.123133905
167	0x3a9c6550	0.0011932049
168	0x3df3361b	0.11875554
169	0xbd89a641	-0.067211635
170	0x3e7df501	0.24800493
171	0x3cf4740c	0.029840492
172	0x3db36aa2	0.08760573
173	0xbddb34d2	-0.10703434
174	0x3cc083df	0.023500381
175	0x3a1eaa6e	0.00060526177
176	0xbd4487d5	-0.047981102
177	0x3c624ed6	0.013812741
178	0xbe3738f5	-0.17892821
179	0x3e3fcc5c	0.187303
180	0x3d1d53f5	0.038410146
181	0xbe565f11	-0.20934702
182	0x3d6626bc	0.056189284
183	0xbd3c9e0c	-0.046049163
184	0x3d86ac20	0.06575799
185	0xbd36432c	-0.044497654
186	0xbe56eee7	-0.20989572
187	0xbe783acf	-0.24241184
188	0x3ddf0fc2	0.108916774
189	0xbd58e45d	-0.05295216
190	0xbd1a90f9	-0.037735913
191	0x3d5478f4	0.051873162
192	0x3db29efb	0.08721729
193	0xbe5a17ee	-0.21298191
194	0xbd1ea7d5	-0.038734276
195	0x3e4faaa3	0.20279936
196	0xbe1d1561	-0.15340187
197	0x3db93383	0.09043028
198	0xbc933d79	-0.017973648
199	0x3b3430a9	0.0027494824
200	0xbccf4fce	-0.025306609
201	0xbde4067b	-0.111340486
202	0xbdbc21b9	-0.091861196
203	0x3d310505	0.043217678
204	0x3e15ef3a	0.14642039
205	0x3e58bb9c	0.21165317
206	0xbde2a9ef	-0.110675685
207	0x3d9cdebb	0.0765967
208	0x3db39e66	0.087704465
209	0xbc87c106	-0.016571533
210	0x3de97be2	0.11400582
211	0xbe041e9b	-0.129023
212	0x3d6f1b01	0.058375362
213	0xbcd2f0e6	-0.025749635
214	0xbe4afdf1	-0.19823433
215	0x3e5d29fa	0.21598044
216	0x3ddaa503	0.10676005
217	0x3dc0bc58	0.09410924
218	0xbca25237	-0.019814594
219	0x3d52c86a	0.05146066
220	0xbd3e1463	-0.04640616
221	0xbd8df81f	-0.06932091
222	0xbdc11691	-0.09428132
223	0xbdce3def	-0.10070407
224	0xbe285d21	-0.16441776
225	0xbc514252	-0.01277216
226	0x3d83a250	0.06427443
227	0x3e160143	0.14648919
228	0x3e293e90	0.16527772
229	0xbe165bfb	-0.14683525
230	0x3d941184	0.07229903
231	0x3df25a0d	0.11833582
232	0x3e23b4d0	0.15986943
233	0xbe1e9b9a	-0.15489045
234	0xbcec9f7e	-0.028884646
235	0xbdcefebe	-0.10107182
236	0xbdc388eb	-0.095475994
237	0xbdc4137c	-0.09574029
238	0x3dbdd413	0.092689656
239	0xbdb2bb98	-0.08727187
240	0x3e3f7ecb	0.18700711
241	0x3d3f3401	0.046680454
242	0x3e1644e3	0.14674716
243	0xbd844bd6	-0.06459777
244	0x3db144d1	0.08655704
245	0xbdb48f59	-0.08816404
246	0xbda8613e	-0.082216725
247	0xbbb14778	-0.005410131
248	0xbe640aa5	-0.22269686
249	0x3dc87c7f	0.09789371
250	0x3e4b35cb	0.19844739
251	0xbdee3d5d	-0.11632798
252	0xbd2d7176	-0.042344533
253	0xbcee1f23	-0.029067582
254	0xbd601141	-0.054703955
255	0x3e0ba10a	0.1363565

mlp.0.bias f4 [50]
0	0xbd8399e5	-0.064258374
1	0xbf54a4fa	-0.83064234
2	0xbe073395	-0.1320327
3	0xbd8677d8	-0.06565827
4	0xbe08e961	-0.13370277
5	0x3d0c75de	0.034292094
6	0xbe456afc	-0.19279093
7	0x3c9a8e96	0.018866818
8	0x3e08e42c	0.1336829
9	0xbe2c6842	-0.16836646
10	0xbe5f71a6	-0.21820697
11	0xbdfd98be	-0.12382649
12	0xbebca56c	-0.36844957
13	0xbd94aad8	-0.07259148
14	0xbeaad78c	-0.33367574
15	0x3d8a57c7	0.067550234
16	0x3c0d784e	0.00863464
17	0xbe9ef071	-0.31042817
18	0xbe449178	-0.19196117
19	0xbdf8610b	-0.121278845
20	0xbf6da675	-0.9283212
21	0x3dfd9693	0.123822354
22	0xbc0a21f5	-0.008430948
23	0xbddd0387	-0.107916884
24	0x3ea6b423	0.32559308
25	0x3cbffd07	0.023436083
26	0x3e325b77	0.17417704
27	0xbc0c1044	-0.0085488
28	0xbce04504	-0.02737666
29	0x3c3923cf	0.011300041
30	0x3d4dea73	0.050272416
31	0x3e97461e	0.29545683
32	0xbcde187f	-0.02711129
33	0xbe7bae5c	-0.24578232
34	0xbdf1e50e	-0.11811267
35	0xb81bcb0a	-3.7143975e-05
36	0xbd8d3959	-0.06895704
37	0x3ddf624a	0.10907419
38	0x3e79a45f	0.24379109
39	0x3dffdfad	0.12493835
40	0xbe1b691a	-0.15176812
41	0x3d78714b	0.06065492
42	0x3cf5da84	0.030011423
43	0x3a8472a6	0.0010104969
44	0xbd913c74	-0.07091609
45	0xbd46de57	-0.048551884
46	0x3cdd6376	0.027024966
47	0xbd541680	-0.05177927
48	0xbd96a971	-0.07356537
49	0x3db3968b	0.08768948

mlp.2.weight f4 [50, 50]
0	0x3e21a70c	0.1578638
1	0xbde17d5e	-0.1101024
2	0xb99446ab	-0.00028281412
3	0x3dd15164	0.10220602
4	0x3dc8ac2c	0.09798464
5	0xbd1fab8f	-0.03898197
6	0x3e0a540c	0.13508624
7	0x3d854035	0.06506387
8	0xbc46314f	-0.012096717
9	0x3e35b9db	0.1774668
10	0xbe3bfa6c	-0.18357247
11	0x3d0aeeae	0.03391903
12	0xbe7c344c	-0.24629325
13	0x3dd854c6	0.10563044
14	0x3eb9626f	0.3620791
15	0xbd6ca3f6	-0.057773553
16	0xbc69cd7a	-0.014270181
17	0x3cd0309e	0.025413807
18	0x3c2aed6b	0.010432581
19	0x3dbdc651	0.092663415
20	0xbe07d45f	-0.13264607
21	0x3e4eed6c	0.20207757
22	0x3e2097de	0.15682933
23	0x3be60e1f	0.0070207263
24	0xbdf776f1	-0.12083233
25	0xbceae9ae	-0.02867588
26	0xbda609b2	-0.08107318
27	0x3d847b24	0.064688
28	0xbd4387ea	-0.04773704
29	0x3c9cbedc	0.019133978
30	0xbe329174	-0.17438298
31	0xbe01b942	-0.12668326
32	0x3d2cfe70	0.042234838
33	0x3d6270f8	0.055283517
34	0xba1cd2f9	-0.0005982365
35	0x3dbaf4a4	0.09128693
36	0x3be5d9b3	0.007014477
37	0xbd817e74	-0.06322947
38	0x3dc6bc92	0.09703936
39	0x3e1df328	0.15424788
40	0x3e20895e	0.15677401
41	0xbd95af1f	-0.07308792
42	0xbdb5c1cf	-0.08874857
43	0xbca891d6	-0.020577352
44	0x3d55a713	0.052161288
45	0xbd41ed86	-0.04734566
46	0xbe245d8c	-0.1605131
47	0xbe1d9e15	-0.15392335
48	0x3e065521	0.13118412
49	0x3dca865b	0.098889075
50	0xbce86244	-0.02836717
51	0x3dd790de	0.10525678
52	0x3e064040	0.13110447
53	0xbcb769fa	-0.0223894
54	0x3de39f57	0.11114376
55	0x3e2bc46e	0.1677415
56	0xbd0d4766	-0.03449192
57	0x3d17a26a	0.037020124
58	0x3dabfee4	0.08398226
59	0x3d6213c6	0.05519464
60	0x3dff6a0c	0.12471399
61	0x3d41cfc3	0.047317278
62	0x3b8a8016	0.004226695
63	0xbe21c8d2	-0.15799263
64	0x3f19081d	0.59778005
65	0xbd65c422	-0.05609525
66	0x3e1e1ca0	0.15440607
67	0x3e1753c7	0.14778052
68	0x3da8c130	0.082399726
69	0x3d441246	0.04786899
70	0xbe0b9756	-0.13631949
71	0xbdc384c4	-0.095468074
72	0xbd161d80	-0.036649227
73	0xbcde8639	-0.027163612
74	0x3df8972f	0.12138211
75	0xbac29a0f	-0.0014846938
76	0xbca04d7a	-0.019568194
77	0xbe3933ba	-0.18086138
78	0x3dd7a1f4	0.10528937
79	0x3d2817e9	0.041038428
80	0xbc9413be	-0.01807582
81	0x3bab0268	0.0052187927
82	0x3e3f4aad	0.1868083
83	0x3e5ae26e	0.21375439
84	0x3df055fc	0.1173515
85	0xbca424b8	-0.02003704
86	0x3c9f860a	0.019473094
87	0x3c31ab20	0.010844022
88	0x3e002017	0.12512241
89	0x3d31f9a3	0.043450963
90	0xbd4d9fd6	-0.05020126
91	0x3e08b6cc	0.13350981
92	0x3d2b6e4f	0.041853245
93	0x3e17b80e	0.14816305
94	0x3e1f6fce	0.15569994
95	0x3e46bc9e	0.19407889
96	0xbc5ffe37	-0.013671449
97	0xbd253bee	-0.040340357
98	0xbd0a1e93	-0.033720564
99	0xbd115afb	-0.035487156
100	0xbd1552ae	-0.036455803
101	0xbd9f0583	-0.07764723
102	0xbe08abe0	-0.13346815
103	0x3dcb896d	0.09938321
104	0xbdf6e81b	-0.12055989
105	0x3d83f2d0	0.06442797
106	0xbddd15b2	-0.10795154
107	0x3e14dd25	0.14537485
108	0xbd8634ac	-0.06553015
109	0xbbacaefa	-0.0052698823
110	0xbe090596	-0.13381037
111	0xbd731db6	-0.059354506
112	0x3d9eae3f	0.077480786
113	0xbe053cb8	-0.13011444
114	0x3d400b31	0.046885673
115	0x3daabfe1	0.08337379
116	0xbd8967c2	-0.06709243
117	0xbde099a8	-0.109668076
118	0xbd790d56	-0.060803734
119	0x3ca8de89	0.020613926
120	0x3db4f73b	0.08836218
121	0x3d8dcab3	0.069234274
122	0x3d55e342	0.052218683
123	0x3df41ba6	0.11919336
124	0xbc92e6d2	-0.01793233
125	0xbda964be	-0.08271168
126	0x3c983427	0.018579556
127	0x3caac679	0.020846592
128	0xbd329334	-0.043597415
129	0x3dbe8cb8	0.09304184
130	0x3b5d287f	0.0033746061
131	0xbe01d8fa	-0.12680426
132	0xbe22481b	-0.15847819
133	0x3decf86b	0.115708195
134	0x3dfd0e26	0.12356214
135	0xbd983626	-0.07432203
136	0x3dc1fd87	0.09472185
137	0xbdd2021d	-0.10254309
138	0xbdf872a0	-0.12131238
139	0x3d5defb1	0.054183666
140	0x3de3dd1e	0.11126159
141	0xbc9a794f	-0.018856673
142	0xbdf22c0d	-0.11824808
143	0xbdaa742c	-0.08322939
144	0xbe024f63	-0.12725596
145	0xbd6721e2	-0.056428798
146	0x3e103bcb	0.14085309
147	0xbde67cff	-0.1125431
148	0x3db50f4e	0.0884081
149	0xbd7815e4	-0.06056775
150	0x3cbec553	0.02328745
151	0xbe41ddb2	-0.18932226
152	0xbe23c60b	-0.15993516
153	0xbdba9a91	-0.091115125
154	0x3c32952b	0.010899822
155	0x3cf73dd0	0.030180842
156	0x3d64a603	0.055822384
157	0xbe1adb4e	-0.1512272
158	0x3d75dbb0	0.060023963
159	0xbdbe3124	-0.092867166
160	0x3ccce745	0.025012622
161	0x3d072e06	0.033002876
162	0xbebc6fee	-0.36804146
163	0xbc355b66	-0.011069154
164	0xbd959748	-0.07304245
165	0x3b3ea2a6	0.0029088645
166	0xbe129f5f	-0.14318608
167	0x3e435650	0.19075894
168	0x3cfa3578	0.030543074
169	0x3e07a96d	0.13248225
170	0x3d2102c1	0.039309267
171	0x3d349323	0.044085633
172	0xbcf189ad	-0.029484594
173	0xbb8d43e1	-0.0043110703
174	0xbcc6f892	-0.02428845
175	0x3d9714bc	0.07377002
176	0xbce9cd15	-0.028540174
177	0xbe86c7be	-0.26324266
178	0x3e0670d8	0.13128984
179	0x3df2f0c7	0.11862331
180	0x3e0d1b0f	0.13779853
181	0xbe403030	-0.18768382
182	0xbd003958	-0.031304687
183	0x3b8a88d1	0.0042277356
184	0x3ca7567d	0.020426983
185	0x3da3c356	0.07996242
186	0xbd9f1207	-0.0776711
187	0xbdb7f28d	-0.0898181
188	0x3df6d8ff	0.120531075
189	0x3da15c4b	0.078789316
190	0x3d6ccadb	0.057810646
191	0xbd765b4e	-0.06014567
192	0xbe1193ac	-0.14216489
193	0x3d75131e	0.059832685
194	0xbddb38c5	-0.10704187
195	0x3d3bec1a	0.04587946
196	0x3d870241	0.06592227
197	0x3d3d4996	0.046212755
198	0x3e05809c	0.13037342
199	0x3dfa0d1d	0.122095324
200	0x3dc5c118	0.0965597
201	0xbd520388	-0.0512729
202	0x3cbc07c6	0.022952925
203	0x3c7fcdf8	0.015613072
204	0xbd376803	-0.044776928
205	0xbdcd58c4	-0.10026696
206	0xbd2a09ab	-0.041513126
207	0x3d22a7e8	0.03971091
208	0x3de96fca	0.11398275
209	0xbcc75b8e	-0.024335649
210	0xbdc65b98	-0.09685439
211	0x3ce4b456	0.027918022
212	0xbda130ed	-0.0787066
213	0xbd9d275b	-0.07673522
214	0x3c003f7d	0.007827637
215	0xbcc8a86b	-0.02449437
216	0x3e5fb634	0.21846849
217	0xbdaccefb	-0.08437916
218	0x3dc75dfa	0.097347215
219	0xbda5949b	-0.08084985
220	0x3d1f7a01	0.03893471
221	0x3c573120	0.013134271
222	0xbe2bf428	-0.16792357
223	0x3e026638	0.12734306
224	0xbd652dc1	-0.055951837
225	0x3d8020e5	0.06256274
226	0xbd4c7f33	-0.049925994
227	0x3de343a4	0.11096886
228	0x3cb5b622	0.022181574
229	0x3da5459f	0.0806992
230	0x3d0fb110	0.03508097
231	0x3df5dc93	0.12004962
232	0xbd9f424d	-0.07776318
233	0x3e377b0c	0.17918032
234	0xbe296b54	-0.16544849
235	0xbbd75aab	-0.0065720878
236	0xbd8830d6	-0.0664994
237	0x3e2d3d1e	0.16917846
238	0x3da2ae3c	0.07943389
239	0xbd8c9baf	-0.06865632
240	0xbdd90b77	-0.1059789
241	0xbe12abd9	-0.14323367
242	0xbd31f64f	-0.04344779
243	0x3d2c8637	0.042120185
244	0x3e03d7bf	0.1287527
245	0xbd3574d8	-0.044300884
246	0x3dad5f4d	0.08465443
247	0xbd4234b7	-0.047413554
248	0xbdc55ba6	-0.09636621
249	0xbdf36fdd	-0.118865706
250	0xbc1aeada	-0.009455407
251	0x3d01ce64	0.03169097
252	0xbc60e763	-0.013727042
253	0xbd687629	-0.05675331
254	0xbb4393f0	-0.0029842816
255	0xbdb5cad9	-0.08876581

mlp.2.bias f4 [50]
0	0x3e95d2c7	0.29262373
1	0xbdd4193b	-0.10356375
2	0x3ce229c5	0.027607808
3	0x3c93c16a	0.018036563
4	0xbd977c74	-0.073967844
5	0x3e3e2d28	0.18571913
6	0x3caa4ff6	0.020790081
7	0x3e2c4e50	0.16826749
8	0x3db44268	0.088017285
9	0x3dd68294	0.104741246
10	0xbe67fb35	-0.22654422
11	0x3edc1dd8	0.4299152
12	0x3d905a48	0.0704847
13	0xbe059d76	-0.13048348
14	0x3cbb1313	0.022836244
15	0x3e751402	0.23933414
16	0xbe0fc503	-0.14039998
17	0xbd4ecc99	-0.05048809
18	0x3e19102f	0.1494758
19	0x3d489edf	0.048979636
20	0x3eaf98f8	0.34296393
21	0xbd35c68b	-0.0443788
22	0x3ddbdde8	0.10735685
23	0xbe5f5bbd	-0.21812339
24	0x3e6e13dd	0.23249765
25	0x3f30702a	0.6892115
26	0x3ee26261	0.44215682
27	0x3d34a30e	0.044100814
28	0xbeb7726d	-0.35829487
29	0xbcd2a1bf	-0.025711892
30	0xbd1ea274	-0.038729146
31	0xbe0e0b66	-0.13871536
32	0x3e0f234a	0.13978305
33	0x3e0e3b59	0.13889827
34	0x3d2e4b8c	0.042552516
35	0x3de8973d	0.113569714
36	0x3da05102	0.07827951
37	0xbea2febc	-0.31834972
38	0x3d57675e	0.052588813
39	0xbe139929	-0.14413895
40	0x3e158cf0	0.14604545
41	0x3c0cecae	0.008601351
42	0xbe0d07bd	-0.13772483
43	0x3cf7e708	0.030261531
44	0xbe2cd37d	-0.16877551
45	0xbd87ebec	-0.066367954
46	0xbe2657f6	-0.16244492
47	0x3d9ee2d2	0.07758106
48	0x3d86015b	0.06543227
49	0x3dcd4a9f	0.100239985

mlp.4.weight f4 [50, 50]
0	0xbdcfb449	-0.101418085
1	0xbcfa2ee0	-0.03053993
2	0x3c1830a3	0.00928894
3	0xbe3f80b8	-0.18701446
4	0x3b882f59	0.004156035
5	0x3e48b118	0.19598806
6	0x3e3a42fd	0.18189617
7	0x3e2def3e	0.16985795
8	0x3897bb2e	7.235106e-05
9	0x3e50772c	0.2035796
10	0xbd68281f	-0.056678887
11	0x3eae45cd	0.3403763
12	0xbbc1be9d	-0.0059126155
13	0xbbd27956	-0.006423156
14	0xbe544c80	-0.20732307
15	0x3e082556	0.13295493
16	0x3e3e8a24	0.18607384
17	0xbdd5da91	-0.10442079
18	0x3d23bdc8	0.03997591
19	0x3ba4b901	0.005026937
20	0x3ea237b6	0.3168313
21	0xbe2fa37a	-0.17152205
22	0xbccf5715	-0.025310079
23	0xbe623785	-0.22091492
24	0xbdf5ef73	-0.12008562
25	0xbe4a482e	-0.19754097
26	0xbe858263	-0.2607604
27	0x3e3b8c90	0.18315339
28	0xbe6a5af7	-0.22886263
29	0x3c0277fd	0.007963178
30	0xbdb7fef7	-0.089841776
31	0xbdfb23e6	-0.122627065
32	0xbcbbe8e4	-0.0229382
33	0xbe35f75f	-0.17770146
34	0x3e0a85a0	0.13527536
35	0xbdd639c7	-0.10460239
36	0xbdfa8450	-0.12232268
37	0x3e752af0	0.2394216
38	0x3dfff186	0.12497239
39	0x3b427774	0.002967325
40	0xbe049749	-0.12948336
41	0x3dcfe886	0.10151772
42	0x3dd73af8	0.10509294
43	0x3d667415	0.05626305
44	0x3e74e1a7	0.23914205
45	0xbc80f2e7	-0.015740825
46	0x3d6d8c9c	0.057995424
47	0x3e598ea6	0.21245822
48	0x3d28748c	0.041126773
49	0x3e29835e	0.16554019
50	0xbd818806	-0.063247725
51	0xbdd33392	-0.10312571
52	0x3dc0e16e	0.09417997
53	0x3e092d66	0.13396224
54	0x3de61b76	0.112357065
55	0xbdf023cf	-0.1172558
56	0x3c48ef06	0.012264019
57	0xbdbd943a	-0.092567876
58	0x3d0957e5	0.03353109
59	0xbbee8287	-0.0072787437
60	0x3e06b85a	0.13156262
61	0xbd953bb0	-0.07286775
62	0x3c6cecbd	0.01446074
63	0x3df28f2e	0.118437156
64	0x3dce9e22	0.10088755
65	0x3df09010	0.11746228
66	0xbe0f1e9f	-0.13976525
67	0xbe05e90b	-0.1307718
68	0xbe0c3901	-0.1369362
69	0xbce562a4	-0.028001137
70	0xbc3e315f	-0.011608451
71	0xbd3e6926	-0.046486996
72	0xbdd2e47e	-0.10297488
73	0xbd535166	-0.0515913
74	0xbdacb415	-0.084327854
75	0xbdc939cc	-0.09825477
76	0xbd0e744b	-0.034778874
77	0xbd12f1e6	-0.035875224
78	0xbd9c86b9	-0.07642884
79	0xbda0de0b	-0.07854851
80	0x3dfaf5f0	0.1225394
81	0xbda58d8c	-0.080836385
82	0xbde88fe7	-0.11355572
83	0x3d4aeb9a	0.049541093
84	0x3d62b182	0.055345066
85	0xbd33bbd1	-0.043880288
86	0xbdf62917	-0.12019556
87	0xbd871516	-0.06595819
88	0xbde1e04c	-0.11029109
89	0x3bff4c50	0.0077910796
90	0xbca330bc	-0.0199207
91	0x3dc714b6	0.09720747
92	0x3dbfc916	0.09364526
93	0xbd40e5c0	-0.047094107
94	0x3d8faf81	0.070158966
95	0x3d4f5838	0.05062124
96	0x3d749cae	0.059719734
97	0x3d918ac7	0.07106548
98	0xbe0389a0	-0.12845469
99	0xbdf06a06	-0.11738972
100	0x3d2212b2	0.03956861
101	0x3e145bd1	0.1448815
102	0xbddc8d6f	-0.10769164
103	0x3e4e6f94	0.20159751
104	0xbe00ec1d	-0.1259007
105	0x3d87e6e2	0.06635834
106	0x3d67b2ae	0.056566887
107	0x3d181af7	0.03713509
108	0xbdcf2897	-0.10115164
109	0xbda288e1	-0.07936264
110	0x3e8786e8	0.26470113
111	0xbd971421	-0.07376886
112	0xbdad7d31	-0.08471144
113	0x3c2e227e	0.010628341
114	0x3e29c1a7	0.16577779
115	0xbe2403a5	-0.16017015
116	0xbd97d0bd	-0.074128605
117	0x3e02d5c6	0.1277686
118	0xbdbfd9e8	-0.09367734
119	0x3cd8efef	0.026481597
120	0xbd024b85	-0.031810302
121	0x3e68dcbb	0.22740452
122	0xbbb24b55	-0.005441109
123	0x3e11ad0a	0.14226165
124	0x3e388bd0	0.18022084
125	0x3e874e9f	0.2642717
126	0x3e878fd2	0.26476914
127	0xbe2f4d82	-0.1711941
128	0x3e875c6c	0.264377
129	0xbdea3fdf	-0.11437964
130	0x3da19c3d	0.07891128
131	0x3c60d880	0.013723493
132	0x3d909689	0.07059962
133	0x3d03096b	0.031991404
134	0xbd0a7644	-0.033804193
135	0xbc4b271a	-0.012399459
136	0xbb415875	-0.0029502187
137	0xbdbc06e6	-0.09181003
138	0xbc74b891	-0.014936582
139	0x3cb437c0	0.02199924
140	0x3e18b5e2	0.14913133
141	0x3e04b8c9	0.12961115
142	0xbe167aa9	-0.14695229
143	0xbce62b05	-0.028096685
144	0xbe3ef90c	-0.18649691
145	0x3dbce600	0.092235565
146	0x3cf3ad97	0.02974586
147	0xbe0ce27b	-0.1375827
148	0x3db085ec	0.086192936
149	0x3d15d233	0.036577415
150	0x3d0c9461	0.034321193
151	0x3e9ae4a3	0.3025256
152	0xbdeb6658	-0.1149413
153	0x3dcc9083	0.09988501
154	0xbdae5963	-0.08513143
155	0xbd50106f	-0.050796922
156	0x3d6cefa7	0.057845738
157	0xbce1e73f	-0.027576087
158	0xbcb944f8	-0.022615895
159	0xbd15040e	-0.03638082
160	0x3dcfad90	0.10140526
161	0x3c44a425	0.012002026
162	0x3e2677fc	0.16256708
163	0x3d1b44cc	0.037907407
164	0x3c1607cd	0.009157133
165	0xbe12a8f3	-0.14322262
166	0xbd501b64	-0.05080737
167	0xbdacb352	-0.0843264
168	0xbdbb244d	-0.09137783
169	0x3db48c9c	0.088158816
170	0xbe5dee28	-0.2167288
171	0x3e7ce753	0.24697618
172	0x3c294641	0.010331691
173	0xbccdc13e	-0.02511656
174	0x3e602467	0.21888886
175	0x3ebaea62	0.36506945
176	0x3e28add3	0.16472559
177	0xbe075b2a	-0.1321837
178	0x3d8acdc5	0.06777529
179	0xbd283716	-0.04106816
180	0x3e53fdc9	0.2070228
181	0x3e54111f	0.20709656
182	0x3e02e850	0.12783933
183	0x3e739880	0.23788643
184	0xbd133c50	-0.03594619
185	0xbd63d732	-0.055625148
186	0xbd33541d	-0.04378139
187	0xbe41e40d	-0.1893465
188	0xbdd978f7	-0.10618775
189	0x3e678b54	0.22611743
190	0x3d954237	0.0728802
191	0xbde2015f	-0.11035418
192	0xbe04f05b	-0.12982313
193	0xbdc5f2e1	-0.09665466
194	0xbe255c4b	-0.16148488
195	0xbe18d5e8	-0.14925349
196	0x3c3654cc	0.011128616
197	0xbe7cffaa	-0.24706903
198	0x3d1170a6	0.03550782
199	0xbe4abc7f	-0.19798468
200	0x3dd06040	0.10174608
201	0x3c1644f2	0.009171711
202	0x3da6d400	0.081459045
203	0xbdc05525	-0.0939124
204	0xbdd2a116	-0.10284631
205	0x3d46ceb6	0.04853698
206	0xbdaceb6c	-0.08443341
207	0x3e109de7	0.14122735
208	0xbd508d10	-0.050915778
209	0x3b8f1342	0.0043663094
210	0xbdb2204b	-0.08697566
211	0x3ddb098e	0.10695182
212	0xbcfca3e5	-0.03083987
213	0xbd08d0c2	-0.033402212
214	0xbdfe6e66	-0.124234006
215	0xbdfd2c90	-0.12362015
216	0xbb992a27	-0.0046742144
217	0x3d330a57	0.043711033
218	0xbdd8cb7b	-0.10585686
219	0xbd97fd33	-0.07421341
220	0xbdbb9685	-0.09159569
221	0xbd57b558	-0.052663177
222	0x3dd25595	0.1027023
223	0xbd042c66	-0.032268904
224	0xbcd47a09	-0.025937097
225	0xbc92f35d	-0.01793831
226	0x3e1d7494	0.15376502
227	0x3da42e7a	0.08016677
228	0xbdb4ed7f	-0.08834361
229	0xbccdf02d	-0.025138939
230	0xbe0060cf	-0.1253693
231	0xbc8c72ad	-0.017144525
232	0x3c8773b3	0.016534662
233	0x3b522d95	0.0032070626
234	0x3e07969e	0.1324105
235	0x3dcfd392	0.10147776
236	0x3d6328a2	0.055458672
237	0x3da9c5b1	0.0828966
238	0x3d351db2	0.044217773
239	0xbd576d62	-0.05259455
240	0xbd74022f	-0.059572395
241	0xbdbabb0e	-0.09117709
242	0xbcc0c12f	-0.023529617
243	0xbdc5d684	-0.09660056
244	0x3dfbbcd9	0.12291879
245	0x3c5a5acb	0.013327311
246	0xbdf88a0e	-0.12135707
247	0xbd583acc	-0.052790448
248	0x3db87832	0.090073004
249	0x3ac421a9	0.0014963645
250	0x3dc58ed0	0.0964638
251	0x3e466472	0.19374254
252	0x3c74faf2	0.014952408
253	0xbd2ccc9a	-0.04218731
254	0x3d9f54ca	0.07779844
255	0xbdf0e51e	-0.11762451

mlp.4.bias f4 [50]
0	0x3ec264a5	0.3796741
1	0xbdd427d9	-0.10359163
2	0xbccf8b11	-0.025334867
3	0x3c0ef20d	0.008724702
4	0xbd30ac60	-0.04313314
5	0x3cbccef3	0.0230479
6	0xbc388002	-0.011260988
7	0x3ddbd25c	0.10733482
8	0xbd4b13be	-0.049579374
9	0xbdb58c07	-0.08864599
10	0x3dde5b62	0.10857274
11	0xbdd14063	-0.10217359
12	0x3e2394a9	0.15974678
13	0x3cf3bdc0	0.029753566
14	0x3cce40a8	0.025177315
15	0xbdc023ed	-0.09381852
16	0x3ea47dec	0.3212732
17	0x3e0724e6	0.1319767
18	0x3dc44196	0.09582822
19	0x3dc8469b	0.09779092
20	0x3d98086a	0.0742348
21	0x3da32705	0.07966427
22	0xbd1a5444	-0.03767802
23	0xbca4a1e3	-0.020096725
24	0x3ca19cf5	0.019728163
25	0x3e5d9599	0.21639098
26	0x3c63193b	0.013860996
27	0x3ee3d40c	0.44497716
28	0x3dc8d87b	0.098069154
29	0x3db9c324	0.09070423
30	0x3d7f4ef0	0.06233114
31	0x3dfaad29	0.12240059
32	0x3ee26fc3	0.44225892
33	0xbe03c3ae	-0.12867615
34	0xbd08f1ac	-0.0334336
35	0x3e1a4f7e	0.15069386
36	0x3bb4223d	0.0054972456
37	0xbcaa9e52	-0.020827446
38	0xbde6ce2f	-0.11269795
39	0x3cca5df8	0.02470301
40	0xbe096af7	-0.1341971
41	0xbbf8cb93	-0.0075926273
42	0x3e3d5e25	0.18492945
43	0xbd233038	-0.039840907
44	0xbdcba933	-0.099443816
45	0x3e2a425a	0.16626874
46	0x3c5a9b29	0.013342657
47	0xbe054499	-0.13014449
48	0xbe08a0a8	-0.13342535
49	0x3cc9a912	0.024616752

mlp.6.weight f4 [1, 50]
0	0xbf7008f7	-0.9376368
1	0x3ba88f35	0.0051440247
2	0x3f2960b9	0.6616321
3	0x3f4c35b8	0.7976947
4	0xbe1c2309	-0.1524774
5	0x3e4aee31	0.19817425
6	0xbd8f2a7b	-0.069905244
7	0xbe9f4990	-0.3111081
8	0xbde3825f	-0.11108851
9	0xbdb4ee08	-0.08834463
10	0xbe92f3ff	-0.2870178
11	0x3e47c622	0.19509175
12	0xbf217cc5	-0.6308101
13	0x3d8b3793	0.06797709
14	0x3f27302b	0.65307873
15	0xbe178777	-0.1479777
16	0xbf274ce4	-0.653517
17	0x3f254c97	0.6456999
18	0xbeaccaa5	-0.33748356
19	0xbd8b8139	-0.06811757
20	0xbeb185d0	-0.34672403
21	0x3d980592	0.074229375
22	0x3daa2d38	0.08309406
23	0x3f896c37	1.073615
24	0x3dbcfb44	0.092276126
25	0xbf32d744	-0.6985972
26	0xbeafe577	-0.34354755
27	0xbf76f811	-0.9647227
28	0xbeaafe25	-0.33397022
29	0xbee3a046	-0.44458216
30	0xb871e9df	-5.7676687e-05
31	0xbcced90d	-0.025249982
32	0xbf8b9b07	-1.0906686
33	0x3dd39031	0.10330237
34	0x3e015583	0.12630276
35	0xbebcee6d	-0.36900654
36	0xbc9be6d9	-0.019030975
37	0x3d4e78a7	0.05040803
38	0x3f51f542	0.8201486
39	0x3e367122	0.17816594
40	0x3dde595d	0.108568884
41	0x3dfa8524	0.12232426
42	0xbe9c55b5	-0.3053414
43	0x3cbcf4d6	0.023065966
44	0x3db8573d	0.090010144
45	0x3e24d534	0.16096956
46	0x3ea4cfdc	0.32189834
47	0xbe611cb6	-0.21983609
48	0x3e07e327	0.13270245
49	0xbc9a825a	-0.018860985
