models/weights/layers_200_200_200_drop_lr_1e-05.pt (torch, 350985 bytes, 7 tensors)

mlp.0.weight f4 [200, 31]
000000 14 fc d5 be 52 82 8b be 2a 93 9f bd a2 e8 84 bc
       -0.41793883 -0.27247864 -0.07791741 -0.01622421
000010 30 34 0c be 5e 26 34 3c f5 5c b2 bd ba e9 a4 3c
       -0.13691783 0.010995476 -0.087091364 0.02013098
000020 90 fa 88 bd 35 9d 0a 3e 83 e7 fa 3d 4e 67 af bd
       -0.06688416 0.13536532 0.122511886 -0.08564626
000030 89 47 13 bc c5 8b 4f 3b 8e 8f a6 3c 2c ae 35 3d
       -0.008989223 0.0031669002 0.020332124 0.044355556
000040 3c 94 89 3d 05 bf 02 be 86 01 9b bb 0f 85 e0 3d
       0.067177266 -0.1276818 -0.004730406 0.10962879
000050 36 e2 b2 3c 38 5a 94 bd a5 e1 cf 3c d3 b7 58 3c
       0.021836381 -0.0724377 0.02537615 0.013227421
000060 45 71 0d 3e 5a 3e 2a be 19 c1 00 3e 55 12 9d 3d
       0.1381274 -0.16625348 0.12573661 0.07669512
000070 bc 48 5d bd a3 99 8d 3c b6 a6 1d 3c 9e 2a 13 3e
       -0.054024443 0.017285174 0.0096222665 0.14371726
000080 bb da 00 3e a9 01 b6 3d 7a ad 9c 3d 18 e6 0e be
       0.12583439 0.088870354 0.076502755 -0.13954961
000090 8d 1d ca bd 91 49 a8 bc bc 7a 06 bd e1 60 04 3e
       -0.098689176 -0.020542892 -0.032831892 0.12927581
0000a0 37 bf c7 3d 30 a8 2d bd 0c 10 af 3c 70 47 c8 3d
       0.09753268 -0.042396724 0.021369956 0.097792506
0000b0 6a 94 7a bc a3 95 55 3e 1a d3 cb bd a5 fb ee bd
       -0.015294174 0.20857863 -0.09952374 -0.11669091
0000c0 f4 d7 14 3e ee 40 e5 3d 98 43 48 3d 63 78 45 bd
       0.14535505 0.11194025 0.048892587 -0.048210513
0000d0 39 db 9f bd 9a e5 58 3e 10 1f 1f 3e 10 95 14 be
       -0.07805485 0.21181336 0.15539193 -0.14509988
0000e0 be f8 a8 3c fd 13 cf 3c af 08 a3 bc f1 56 d6 bd
       0.020626422 0.025278086 -0.019901602 -0.104658015
0000f0 67 77 24 3c 8e 11 bd bd d7 4a e3 3d 16 b0 22 be
       0.010038233 -0.09231864 0.11098259 -0.15887484
000100 cd bd 0f 3d 16 df 28 3d 57 5a 18 be 46 bd c6 3e
       0.035093118 0.041228376 -0.14878212 0.3881628
000110 01 fa a4 3d e0 3a bd bd 0b bf d4 bd 1d c5 0d be
       0.08055497 -0.09239745 -0.10388001 -0.13844724
000120 c3 5d 74 be 4f c1 c6 3d ae 75 0f 3e 71 c5 01 3d
       -0.23863892 0.097048394 0.14009735 0.031682435
000130 ad 7f 0a 3e 37 77 f5 bd 64 92 f2 3d 9c 3b 2d 3e
       0.13525267 -0.11985629 0.11844328 0.1691727
000140 1b 34 d6 bd c5 61 bc bc f1 59 19 3d 5a 10 f6 3d
       -0.10459157 -0.022995839 0.03743929 0.120148376
000150 4b 9e c6 3c d8 dd ba 3c 4d 70 34 3e ec 0e 80 bc
       0.024245402 0.022810861 0.17620964 -0.015632115
000160 cd 9a f7 3d 6d 8b 31 3d eb d3 ab 3c 32 c8 c7 bc
       0.12090073 0.043345857 0.020975074 -0.024387453
000170 87 02 a9 bd 90 78 17 be 00 87 21 be 31 77 2c 3d
       -0.08252435 -0.14792085 -0.15774155 0.042105857
000180 3d 8a fb 3d 72 c1 2d bd e1 e9 e3 3d 9f ee 71 3d
       0.12282226 -0.042420812 0.11128593 0.059065457
000190 42 d2 dc 3d 7c ba 6e be 10 b5 b6 bd 63 92 95 3d
       0.10782291 -0.23313326 -0.08921254 0.07303312
0001a0 db 93 22 bd c4 0e 30 3e 86 58 10 3e 80 fb 05 3e
       -0.039691787 0.17193133 0.14096269 0.13084221
0001b0 32 79 f5 bd 43 ad 54 3c 7e 01 22 be a0 23 d6 3b
       -0.11986007 0.012980762 -0.15820882 0.0065350085
0001c0 d6 9a 52 bd db fd d8 bc 29 07 2c be e8 54 19 3d
       -0.051417194 -0.026488235 -0.16799606 0.03743449
0001d0 99 27 19 3b 8a a1 db bd 5a 1e a9 bb b1 27 4c bd
       0.002336955 -0.107241705 -0.005161089 -0.04984254
0001e0 03 7a a8 bd d0 f9 01 3e f6 8c 02 3e 36 ae 13 be
       -0.08226397 0.12692952 0.12749085 -0.14421925
0001f0 ec ab c4 3d cd 68 98 3d 25 0b e1 bd c2 b7 23 3d
       0.09603104 0.07441864 -0.10988454 0.039970167
000200 7d b8 9d be 31 63 a4 3e 06 b3 05 3e 84 00 da bc
       -0.30804816 0.32106927 0.13056573 -0.026611574
000210 72 de 34 be 3e 09 a7 3d cb 70 6d bd a4 36 24 3d
       -0.17662981 0.0815606 -0.057968896 0.04009117
000220 14 0c 81 3d 19 65 ea bd 5b 7d 11 bd a6 ec 15 be
       0.06301132 -0.11445064 -0.03551994 -0.14641055
000230 ab 0d d3 bd 7b bb 0c 3d 09 b2 b6 bd 84 62 81 bd
       -0.10305341 0.034358483 -0.08920676 -0.063176185
000240 72 d6 93 3c 26 06 a0 bd fe b2 f6 3d 50 2b 69 3e
       0.018046591 -0.07813673 0.12045859 0.22770429
000250 9c 98 ef bd f5 8a 9b bd 77 e1 1e 3e f6 df b0 bc
       -0.1169903 -0.07594863 0.15515696 -0.021591168
000260 6c 1a b3 3d e5 3d c5 3d 28 b8 5c bb 01 1b eb 3b
       0.08745274 0.09630946 -0.0033679102 0.00717485
000270 ca 70 04 be 6f 4d aa 3c 0f 9b 28 3e 48 57 4a be
       -0.1293365 0.020788876 0.164654 -0.19759858
000280 30 b8 5a 3e b8 22 34 be 98 52 bd bd bd 6e 2e 3e
       0.21359324 -0.17591369 -0.09244269 0.17034431
000290 fb 92 e5 3d 9f 51 e2 bd f7 36 0d 3b 91 a7 c9 3d
       0.11209675 -0.11050724 0.0021547654 0.09846414
0002a0 88 a0 75 3d ea 48 27 bd 0b 62 0f 3e 6a f1 ff 3d
       0.059967548 -0.04084102 0.14002244 0.12497218
0002b0 d5 d4 2a 3e 60 6c 73 3d ae 74 26 3c 86 96 e2 3d
       0.16682751 0.059429526 0.010159655 0.11063866
0002c0 67 e9 8e bd a6 5b 1e 3d ee e2 e3 bd 7a 67 9a 3d
       -0.06978112 0.03866162 -0.11127268 0.07539268
0002d0 96 ce 0b be 7c 58 97 bd 00 00 29 be cf c6 5a 3d
       -0.13653025 -0.07389924 -0.16503906 0.053412255
0002e0 65 d9 a0 3d 98 97 11 3e ae d1 94 be 1d 49 e3 3c
       0.07853965 0.14217985 -0.29066223 0.027744824
0002f0 3b eb bf bd 6c fb 38 bd 82 85 a2 be 21 c0 8b bd
       -0.093710385 -0.04516165 -0.31742483 -0.06823755
000300 49 99 1d 3e a7 f8 80 bd 4f 93 43 be 19 76 2b be
       0.15390505 -0.06297427 -0.19099163 -0.1674427
000310 70 44 04 3e 74 47 ee 3c ac 2a 43 be 36 cb ab 3d
       0.12916732 0.029086806 -0.19059247 0.08388369
000320 3d de ea 3d 1d 09 43 3e ad 1b 9c bd c0 66 ab bd
       0.1146817 0.19046445 -0.07622466 -0.083692074
000330 41 8f 6d 3d 53 31 eb 3d 7c b6 17 3e de 92 2c be
       0.057997946 0.11484017 0.14815706 -0.168529
000340 59 66 3d 3d bc c7 a7 bd 36 2e a2 3d eb f7 01 be
       0.046240184 -0.08192393 0.0791897 -0.1269223
000350 7e 1b f1 bd 42 93 42 3e 07 45 b7 3d 0f ec 12 3e
       -0.11772822 0.19001487 0.08948713 0.14347862
000360 03 39 11 3d 1c e6 85 3e 18 6a 01 3e a7 3a aa bc
       0.03545476 0.26152122 0.12638128 -0.02077992
000370 87 93 5f 3d 5f 0a 13 3e d3 c3 24 be b5 9c c4 bd
       0.054584052 0.14359425 -0.16090326 -0.09600202
000380 f1 3a dc bb 60 90 a1 bd a9 7c e7 bd 03 e8 9d bd
       -0.0067208936 -0.078888655 -0.11303074 -0.07710268
000390 9c 90 1b 3d f8 e8 27 bd 39 f7 b4 bd 8f 20 66 3d
       0.037979707 -0.04099366 -0.088362165 0.056183394
0003a0 48 ef a6 bd 90 d1 ae 3c 0f c0 69 bd 96 70 0f 3d
       -0.08151108 0.021340162 -0.057067927 0.03501948
0003b0 6e 18 0d be eb 6c b7 bd ab 34 24 3e 15 1a 66 be
       -0.1377885 -0.08956321 0.16035716 -0.22470887
0003c0 bb 69 dc 3d 57 cb fc 3d ae 5e 01 3d fd b3 00 3e
       0.10762354 0.123434715 0.031584434 0.1256866
0003d0 2c c5 76 bd 0b 6c 9a 3d 2f 36 1b 3e a6 85 e6 bd
       -0.06024663 0.07540139 0.15157388 -0.1125596
0003e0 09 d9 c1 3a 19 9e 3d bd d8 e9 96 bd 59 e4 2f 3e
       0.0014789413 -0.04629335 -0.07368821 0.17176951
0003f0 e0 10 c4 3e 92 46 0f 3d 3c 37 a9 3d 83 21 a4 bd
       0.38294125 0.03497941 0.08262488 -0.08014204

mlp.0.bias f4 [200]
000000 3d 14 56 be b0 6f 11 3d 16 48 a4 3d 46 9e 97 3b
       -0.20906158 0.035506904 0.08021562 0.004627022
000010 80 25 1f 3e c8 4b 12 be 39 b9 45 3d a4 f4 4e bd
       0.15541649 -0.14286721 0.048272345 -0.050526276
000020 23 44 b7 bd e2 d4 b8 bd a7 f0 4f bd 39 68 17 3e
       -0.08948543 -0.09024979 -0.050766613 0.14785852
000030 cc 59 10 be fd 98 d3 3d 75 62 ff bd 75 f9 7b 3d
       -0.14096755 0.103319146 -0.12469951 0.061517198
000040 e1 f8 2b 3e 49 74 ae 3d 51 f8 47 be 78 7f b3 be
       0.16794159 0.085182734 -0.19528319 -0.35058188
000050 9b 43 19 bd 3f e1 a8 be de 3f 43 be fe b0 ad bd
       -0.03741799 -0.3298435 -0.19067332 -0.08481024
000060 27 e7 f3 3d 8d 52 c2 bc 19 af 7d bd c5 ce 41 3d
       0.11909323 -0.023721004 -0.061934564 0.04731633
000070 1d 05 0d be 97 fc bc bd 48 f0 0f 3e 6b 2b 9e bd
       -0.13771482 -0.09227865 0.14056504 -0.07723125
000080 03 ea f5 bc 8e f7 1a be c7 e8 13 3e 5d 0c 36 be
       -0.030018812 -0.15133497 0.14444266 -0.17778154
000090 65 e9 a6 bd f1 20 c9 3d 9d fb 98 bc 66 1e cf 3d
       -0.08149985 0.09820736 -0.018674666 0.1011322
0000a0 75 a8 20 be 29 d2 02 be 1d fb e4 bd 94 3c b8 bc
       -0.15689261 -0.12775482 -0.111807086 -0.022489823
0000b0 6e 1c 5c be 7b 77 f7 3d 93 33 30 be 13 fc 1b be
       -0.2149522 0.12083336 -0.17207174 -0.15232877
0000c0 7e 25 9a 3c 41 d5 9a 3d a0 13 18 be 70 8b d5 3d
       0.018816706 0.07560206 -0.14851236 0.10426986
0000d0 fa a2 ce bd 69 04 61 bd cd a7 62 be c1 41 e5 3d
       -0.10089679 -0.054935846 -0.22134323 0.11194182
0000e0 52 42 b3 3d 1e 51 d0 3d 48 7b 60 3b cb 79 23 be
       0.08752884 0.10171722 0.003425317 -0.15964429
0000f0 a7 04 e8 3d af b1 8a 3d 4a 3d 46 3d 0c 3c cc 3d
       0.11329012 0.06772172 0.048398294 0.099723905
000100 2f 23 c7 3d 7e ef 55 3e d2 6a 0b bd 47 b3 6b bd
       0.097235076 0.2089214 -0.03403742 -0.05754402
000110 55 21 99 3d bb 20 cb 3d db 49 7c 3d 3e 93 e6 bd
       0.07477061 0.09918352 0.06159387 -0.11258553
000120 a4 d1 9d 3b 05 cc e9 3d e5 6f 40 3d 88 db 2b be
       0.004816251 0.11415867 0.04698171 -0.16782963
000130 f4 d4 5c be d3 bc 1a be 94 e1 03 be 1a 11 55 be
       -0.2156561 -0.15111093 -0.1287902 -0.20807305
000140 99 0b 51 be 47 36 f7 be 82 8e 12 bd d8 3d 22 3e
       -0.2041458 -0.48283598 -0.035780437 0.15843904
000150 1a e9 86 bd a5 1a 87 be 1a 44 aa bc 1b 80 17 bd
       -0.06587429 -0.26387516 -0.020784426 -0.036987405
000160 61 21 92 bd 43 8e 75 3d 8a 0e f1 3d cd b7 25 3e
       -0.07135273 0.059950124 0.11770351 0.16183396
000170 31 4c 14 3e 6d 57 21 be af bb 99 3d 1e f5 1d be
       0.1448219 -0.15756007 0.07506501 -0.15425536
000180 9d 95 81 be 73 25 d8 bd b5 58 a8 3d 20 6b 0b 3d
       -0.25309458 -0.10554018 0.082200445 0.03403771
000190 3f 1e 45 3c 59 ef 91 3d ad 7c 72 bc 1c 14 00 be
       0.012031137 0.0712573 -0.014800233 -0.12507671
0001a0 8e 57 05 3c 42 e7 26 3e 64 5a 3f be 53 3d 06 be
       0.00813855 0.16299155 -0.18686825 -0.13109331
0001b0 4c ac 26 3c 54 1a b5 3d 13 f3 88 bd 0c 04 92 be
       0.010172915 0.08842912 -0.06686988 -0.28518713
0001c0 f3 e1 cc bd 24 f2 76 be 43 8e 50 bd 24 44 af 3d
       -0.10004034 -0.24115807 -0.05091692 0.08557919
0001d0 08 49 88 bd 87 72 c1 bc a2 1e d4 bd ab ac e2 bd
       -0.066545546 -0.023614181 -0.10357405 -0.1106809
0001e0 02 d3 ae bd e6 dd c2 bd ca 79 26 3d 62 4b fc bd
       -0.0853634 -0.0951498 0.04064349 -0.12319066
0001f0 06 32 28 be 50 af 4b 3d 98 34 3c be 13 35 ee 3c
       -0.16425332 0.049727738 -0.18379438 0.029078042
000200 e9 83 2e be 00 51 1c 3e 91 70 f3 bd 62 b6 b2 3d
       -0.17042507 0.15265274 -0.11886705 0.08726193
000210 66 0b 55 be 06 ee c9 bd ce 7c 07 be 72 d7 ec bd
       -0.2080513 -0.098598525 -0.13231203 -0.115645304
000220 e3 a8 ad bc ce d2 04 3e 53 a9 47 be 5d 91 9b 3b
       -0.021198696 0.1297104 -0.19498186 0.0047475533
000230 6c ed 74 3d 8f a8 17 3d 9b c5 dc bd d0 7a 2a be
       0.059796736 0.037025984 -0.10779878 -0.16648412
000240 05 a7 32 3d f0 78 98 bd d4 c1 f0 3d 27 3d 27 3e
       0.043616313 -0.07444942 0.1175572 0.16331922
000250 3b 81 45 be fe 25 30 be 8f ab 87 b9 d1 a2 54 be
       -0.19287579 -0.17201993 -0.00025877028 -0.20765235
000260 e8 34 35 3d f5 41 86 be 55 4b 23 be 4f 19 d9 3d
       0.04423991 -0.26222196 -0.15946706 0.1060053
000270 93 e8 1f be 94 c4 b4 be 56 b8 e7 3d 5a 24 c1 3d
       -0.15616064 -0.35306227 0.11314456 0.09430762
000280 b2 d5 25 be 41 37 5c be d8 70 08 3c a5 64 28 be
       -0.161948 -0.21505453 0.008327685 -0.16444643
000290 ff 70 70 3e 2d 36 dd bd fe 62 83 bd 0c 96 cb bd
       0.23480605 -0.10801349 -0.06415366 -0.099407285
0002a0 49 54 c6 3d b2 f4 4a be 82 c8 55 3e 1f a4 1b be
       0.09684045 -0.19819906 0.20877269 -0.15199326
0002b0 07 ba 66 3c 6b 30 cb 3d 9b 01 97 bd 65 cd a4 3d
       0.014082438 0.09921344 -0.07373353 0.080469884
0002c0 02 fa 00 be 64 f3 6a be 8f 46 7d bc 42 2a 5e be
       -0.1259537 -0.22944409 -0.015458717 -0.21695808
0002d0 00 44 73 bd ea 4f 4c 3d 01 bb 60 bd b5 42 2a be
       -0.05939102 0.0498809 -0.05486584 -0.16627009
0002e0 a8 ab 13 be 8c 61 95 3d 0f 17 22 bd 38 80 44 bd
       -0.1442095 0.07293996 -0.03957277 -0.04797384
0002f0 49 e6 16 be 63 a3 88 bc 5e ee ed bc a1 2a de 3c
       -0.14736284 -0.016679471 -0.029044326 0.027119936
000300 48 e2 fd bc 66 65 9f 3d 43 13 bc 3d d7 5b b9 3d
       -0.030991688 0.07783012 0.091833614 0.0905072
000310 3f ba 02 be 0d 26 7a be 1f 5b 33 be 9f 73 c2 bd
       -0.1276636 -0.24428578 -0.17515229 -0.09494709

mlp.2.weight f4 [200, 200]
000000 7b 13 f0 bc 5c 9e 60 3d 75 68 2b 3d 6e 19 ab 3b
       -0.029306164 0.054838523 0.041847665 0.0052215373
000010 fa 55 32 bd b9 d4 0e 3c da a2 02 bd 84 f7 be 3c
       -0.043539025 0.008717709 -0.03189359 0.023311384
000020 9a 06 b2 bc 50 67 04 3c 7a 20 99 bd 14 a6 84 3d
       -0.021731663 0.008081272 -0.074768975 0.064769894
000030 db d2 8a bc 24 44 c6 3c 11 cf 42 bd 6f 84 87 3d
       -0.016946247 0.024202414 -0.047560755 0.066170566
000040 61 ec aa bc f5 21 5f 3d 32 e4 86 bd fa cc 17 3d
       -0.020864667 0.054475743 -0.065864936 0.037060715
000050 58 e0 a1 bd 0d 84 73 3c 69 a6 91 bd 8a 6e ff bb
       -0.07904118 0.014863026 -0.07111818 -0.0077951597
000060 3e 8a 32 3c b5 42 33 bd 20 8d 21 3d 7c 29 ae bb
       0.010897217 -0.04376479 0.039441228 -0.005315004
000070 6b 2b 07 bd 86 28 74 bc 53 69 4c 3c 0b 2d 5b bd
       -0.03300039 -0.01490224 0.012476283 -0.053509753
000080 2f a6 83 3d f6 87 69 3c 56 8f 92 bd c7 7e 91 3c
       0.064281814 0.014253607 -0.071562454 0.017760647
000090 f9 8a 86 3d 3a ba b0 bb ba df 16 3d f4 84 8f 3d
       0.06569476 -0.0053932937 0.036834456 0.07007781
0000a0 15 9f ca bc b2 81 03 bd 31 98 5e bc d7 11 2f bd
       -0.02473406 -0.03210611 -0.01358609 -0.042741623
0000b0 b5 b7 13 bd da 19 83 bd 89 d8 65 bd 22 2e 65 3d
       -0.03606387 -0.06401415 -0.056114707 0.0559522
0000c0 1d 65 f5 bc 69 69 d9 3a 13 3c 9d bc e1 7f 92 bd
       -0.029955441 0.0016587201 -0.019193685 -0.07153297
0000d0 e5 7c f5 bc 90 4b d6 bc 79 04 64 bd 5c d3 5b bd
       -0.02996678 -0.026159078 -0.055668328 -0.053668365
0000e0 a8 58 63 bd 75 2c f9 3c 75 a6 a4 3c fd be 40 3d
       -0.05550447 0.030416707 0.020098904 0.04705714
0000f0 7e a5 a9 bc d0 d2 b7 3b dc 65 6d 3c 61 d1 4e 3d
       -0.020708796 0.0056098476 0.014489617 0.050492648
000100 6e 53 93 3c a8 ff 15 3c ac 14 27 bd 66 05 78 bd
       0.017984118 0.0091551915 -0.0407912 -0.060552023
000110 cf 6f d1 3c a2 7a 20 3d 13 57 67 3d 18 5a 65 3d
       0.02556601 0.03917945 0.056479525 0.055994123
000120 17 ae 6c bd ac 86 2b bc e9 dd 39 3d c8 76 67 bd
       -0.057783213 -0.01046912 0.045377646 -0.056509763
000130 bf 5b be bc 28 d5 69 bd 1a 1a 53 3d f9 b3 42 bd
       -0.023237107 -0.057088047 0.051538564 -0.047534917
000140 44 57 08 3d c1 bd 87 bd 26 d9 99 3c 61 b8 fa 3c
       0.033286348 -0.066279896 0.018780302 0.030605497
000150 6d 30 32 bb ec e5 24 3d 15 ec 45 b9 35 81 fb 3c
       -0.0027189509 0.040258333 -0.00018875331 0.03070126
000160 b9 32 85 3d 21 46 c8 bc 9d dd 87 3b 59 ed 9e 3b
       0.06503815 -0.024447503 0.0041462914 0.0048500714
000170 c6 ba 8b bd a6 88 3b 3d 4e 3b fa ba 1e 4e 7c 3d
       -0.068227336 0.045784615 -0.001909116 0.061597936
000180 21 dd 80 3d 02 1f 4f bc 90 05 25 bd 7e 8d 91 bd
       0.06292177 -0.01264167 -0.040288508 -0.071070656
000190 7f 20 2e bd a3 40 06 3b 28 65 29 bd 7d 2f 1f bd
       -0.04251146 0.0020485304 -0.041356236 -0.038863648
0001a0 98 0d 92 bd d5 56 33 bd 50 01 46 3d 94 9a 39 3d
       -0.07131499 -0.04378398 0.048341095 0.045313433
0001b0 cb 92 6f 3d 7c 7f 5b bd ed 75 2f 3d d4 e8 77 3c
       0.058489602 -0.053588375 0.042837072 0.015131194
0001c0 ad d6 5e bd 02 33 a0 bc 9a db 88 3d c9 8d 12 3c
       -0.05440395 -0.019555572 0.06682511 0.008944937
0001d0 f5 31 32 bb 30 9d 38 bd 0e 07 13 bd c8 a8 9c 3c
       -0.0027190421 -0.04507178 -0.0358954 0.01912345
0001e0 c5 06 4c 3d 9b 69 3f bd a9 4c 41 3c 9a 7a 91 ba
       0.049811143 -0.046731573 0.011798062 -0.001109916
0001f0 60 8d 2a 3c 19 ee 2b 3d e9 fe 5b 3d 78 97 61 3d
       0.010409683 0.041975114 0.0537099 0.055076092
000200 b7 1b 51 bb 40 f8 4b bd f4 ed 06 bd b6 3c 93 3c
       -0.0031907388 -0.049797297 -0.032941774 0.017973285
000210 ef 78 81 bc a5 98 8b 3d dd 9a 96 3d 23 7b 84 3d
       -0.015804736 0.06816224 0.073537566 0.06468799
000220 1a 42 92 bc 2a cb 83 3d 5b 00 a5 bc cf 76 3e bd
       -0.017853785 0.06435235 -0.020141771 -0.046500023
000230 a0 e9 fb 3c ed f0 32 3d a5 ef d8 3b d2 11 da 3c
       0.03075105 0.043686796 0.0066203647 0.026619826
000240 71 b1 15 3d e6 e5 19 3d 2b 72 41 3d 93 4a 14 3d
       0.036546174 0.037572764 0.04722802 0.036203932
000250 c1 e1 06 3d b3 19 25 bd 47 78 db bb 4e 85 6c 3d
       0.03293014 -0.04030771 -0.006697688 0.057744317
000260 e3 08 51 bd 3d ab c1 3c ff 60 61 bd de 2a a7 bc
       -0.051033866 0.023641223 -0.055024143 -0.020406183
000270 67 0c 2a 3d ea 0a 5c bd b5 19 06 3d f6 58 7a 3d
       0.041515734 -0.053721346 0.03273936 0.061119996
000280 81 92 88 3d 8b 56 cc bb 76 40 20 bd 59 e5 74 3d
       0.066685684 -0.0062359027 -0.039123975 0.059789035
000290 6d 75 b7 bc cf c0 04 bd bd 46 8a bd 57 4f a9 bb
       -0.02239486 -0.03241044 -0.067517735 -0.0051669287
0002a0 43 7b 22 bd b1 c7 70 bd 4b ab 34 3d e1 a3 ed bb
       -0.039668333 -0.05878419 0.04410867 -0.007252202
0002b0 cc 86 78 3c 55 6b 65 bd d1 bc 1b 3d 70 75 0f bd
       0.015168857 -0.056010563 0.038021866 -0.035024107
0002c0 31 dd ba bc 42 b3 cf bc 69 c5 9d bc 4f 15 44 bd
       -0.02281055 -0.025354031 -0.019259172 -0.047871884
0002d0 ec ec 48 3d 8e 4d ce bc 5a 01 3f 3d 88 af 86 bd
       0.04905407 -0.025183465 0.04663215 -0.06576449
0002e0 e4 9e 6f 3d a2 05 02 bd 83 b7 c8 bb 4e 47 38 3d
       0.05850114 -0.031743653 -0.006125392 0.044989876
0002f0 f1 0f d2 3c 30 f3 ac bb 66 9e 1b bd cc cd 32 3d
       0.025642367 -0.0052780136 -0.037992857 0.043653294
000300 b7 33 91 bd 9d e5 04 bd 84 7d c3 3b 4a 4f 82 3c
       -0.07089942 -0.03244554 0.0059658904 0.015906949
000310 fe c8 91 bd b5 31 02 3c 37 4e 6c 3d b3 64 b2 3c
       -0.07118414 0.007946421 0.05769178 0.021776533
000320 36 3d 09 bd cf a1 55 3d c3 06 44 bd e0 f3 77 bc
       -0.03350564 0.052156266 -0.04785801 -0.015133828
000330 10 25 85 3d 2b 21 c7 bc 4c 4b b6 3d 9a 40 64 bd
       0.0650121 -0.024307808 0.089010805 -0.05572567
000340 1d 9c d1 bc 46 c7 95 3d ed 79 e8 bc e2 d9 39 bd
       -0.025587136 0.07313399 -0.028378451 -0.045373805
000350 fa 59 88 3d 0a 80 ab 3c bc f3 0c bd b4 fc 47 bd
       0.06657787 0.020935077 -0.03441213 -0.04882498
000360 43 18 4e 3c af 85 9b bd 6b 45 84 bc 8f 1c 9c 3b
       0.012579027 -0.075938575 -0.016146382 0.0047641466
000370 e6 4a 44 3c 1b 27 12 3d 9a 64 2a 3c ec e7 91 3c
       0.011980748 0.035681825 0.010399962 0.017810784
000380 50 ce 6e 3d f2 a4 00 3b d1 f2 08 3d c8 93 42 bd
       0.058302224 0.0019629565 0.033434693 -0.047504216
000390 0f 6e 22 bd 25 c9 e5 3c 2e 41 00 3d df 20 32 3d
       -0.03965574 0.028050015 0.03131216 0.04348838
0003a0 89 a6 9b bc 2f fd c0 3c ff 13 99 3c b8 1b 4e bd
       -0.019000309 0.023558227 0.018686293 -0.050319403
0003b0 80 78 2a 3d 9b 2f 5d bb d0 3d f1 bc 80 36 79 bd
       0.041618824 -0.00337503 -0.02944842 -0.06084299
0003c0 42 c5 bc 3c be 9e 91 3d c3 7e 97 bd 4d c3 01 3d
       0.023043279 0.07110356 -0.07397225 0.031680394
0003d0 18 c4 5d 3c 47 f8 fb 3c f6 48 f8 bc 6b 19 f9 3c
       0.013535522 0.030758036 -0.030308228 0.030407628
0003e0 a4 ab 32 bd 30 d5 81 3c d0 be a0 3c b2 cf cf bd
       -0.04362072 0.015848726 0.019622236 -0.101470366
0003f0 f3 17 65 bd 18 c0 3f bd 1b fc 5a 3c f3 58 86 3d
       -0.055931043 -0.046814054 0.013365771 0.065599345

mlp.2.bias f4 [200]
000000 da 01 e3 3c 08 0d e0 3c 4d fd 03 bd 1b f4 fa 3c
       0.027710844 0.027349964 -0.03222399 0.030633977
000010 68 85 43 be e1 44 9a bb 16 5a ec bc 4f a5 48 bd
       -0.19093859 -0.004707918 -0.02885155 -0.048985776
000020 06 0b d5 be ba 31 e4 3d 4e 90 93 bc b7 a4 f2 3c
       -0.41609973 0.11142297 -0.018013146 0.029619558
000030 8d e9 56 3d 9f 31 5f bc e1 77 1f 3d 77 94 8c bd
       0.052468825 -0.01362267 0.038932685 -0.06864255
000040 f9 cf 23 3d 3f 7e 2a 3d 97 e3 39 3c 84 22 31 bd
       0.03999326 0.041624304 0.011345766 -0.043245807
000050 89 4e 6d 3d 77 83 77 bc 7f a5 39 bd 1f 15 9a bd
       0.057936225 -0.015107027 -0.045323845 -0.0752356
000060 2c c6 70 bd 44 74 04 3d 68 9f b6 bc 6f 40 18 3d
       -0.05878274 0.032337442 -0.022292808 0.037170824
000070 39 d5 1d bd e9 20 1c 3c 72 3d 6d bd 68 6c 91 bc
       -0.038533423 0.009529331 -0.057919927 -0.017751887
000080 19 93 3f 3d 3b cf 8a bb f7 cf 1a bd db 96 fb bd
       0.046771143 -0.0042361296 -0.037795987 -0.12284633
000090 fb cc 59 be 1f f9 9e bd 94 1b d6 3c 6c 46 99 bd
       -0.212696 -0.0776236 0.026136197 -0.07484135
0000a0 72 8d 44 bd 8c 4b f2 bc 4b 68 91 bd 01 45 a5 bb
       -0.047986455 -0.02957704 -0.070999704 -0.0050436263
0000b0 c1 07 0d 3c 0a 30 9c 3d 39 63 0d 3c 0c fd de bc
       0.008607806 0.0762635 0.008629614 -0.027220272
0000c0 5a af 83 3a f3 93 c2 3b 21 7f c5 3c 36 de 29 bd
       0.0010046766 0.005938047 0.024108471 -0.041471682
0000d0 40 1b 59 3d e6 79 83 ba 46 0e d1 bc cd 1f c5 3d
       0.053004503 -0.0010030835 -0.025519501 0.09625206
0000e0 31 9c 65 3d 74 d0 ca 3d 92 05 60 3d ab f2 81 3c
       0.05605716 0.099030405 0.054692812 0.015862783
0000f0 cd d7 ce 3c ab 6c b2 bd 7e 8d 43 3c 9e 51 a6 bb
       0.025249386 -0.08712133 0.01193559 -0.0050756475
000100 17 b3 89 bc 1b f2 92 3d 62 1a c5 3c e2 af e7 bc
       -0.01680903 0.07175084 0.024060432 -0.02828211
000110 e3 a5 20 3c 46 3a 5e bd d8 8e 2f bd 09 61 8f bd
       0.0098051755 -0.054254793 -0.042860836 -0.0700093
000120 66 53 00 bc af 36 df 3c ed 8b 2c 3d e2 35 d9 3a
       -0.007832384 0.027247755 0.04212563 0.0016571844
000130 34 72 a1 3d f1 27 bf 3c 1c 84 50 3d 16 88 45 bd
       0.07883111 0.023334475 0.05090724 -0.048225485
000140 a4 a9 ee bd 62 aa 58 be 31 09 51 3c 88 ea 1d 3d
       -0.1165345 -0.21158746 0.012758539 0.038553745
000150 90 77 a6 3d c6 33 4d be c6 42 3e 3d 86 11 12 3e
       0.081282735 -0.20039281 0.0464504 0.14264497
000160 25 92 82 bd 52 e0 61 bd 20 7a 77 bd 7f 0b 39 bd
       -0.06375531 -0.05514557 -0.0604192 -0.04517698
000170 99 0a 8a 3d 25 ca aa bb 6f 98 fe bc 88 c3 71 bc
       0.067403026 -0.005212086 -0.031078545 -0.014756091
000180 59 30 31 3c 98 89 93 bb 03 fd 17 3d ff 8a f8 bc
       0.01081475 -0.0045024864 0.037106525 -0.030339716
000190 e0 31 84 3d 41 75 a3 bc 16 b2 39 bd 24 56 0f be
       0.064548254 -0.019953372 -0.04533585 -0.13997704
0001a0 04 a6 db bc b7 74 9a 3d bf 43 16 be 72 de 14 3b
       -0.02681256 0.07541793 -0.1467428 0.0022715596
0001b0 c5 ba 0c bd 40 00 41 bd d7 6a 4b bc 77 43 c1 3a
       -0.034357805 -0.04711938 -0.012415609 0.0014744838
0001c0 0a 60 0f 3d 8d 26 4b bc 1d e6 63 bd 65 68 1a bd
       0.0350037 -0.012399328 -0.055639375 -0.037697215
0001d0 91 18 ec bc bf 59 87 bd f9 90 d4 3c 14 4a 3b be
       -0.028820308 -0.066089146 0.025948035 -0.18289977
0001e0 96 e5 be bc 6a aa 38 3d d0 74 63 3b f8 f4 e2 bb
       -0.023302834 0.045084395 0.0034707077 -0.006926175
0001f0 77 d0 79 bd a4 0c e6 bc 20 b3 ed bd 19 fb 76 bd
       -0.060989823 -0.0280822 -0.11606431 -0.06029806
000200 67 fe 63 bd bb 8c 5a 3d aa dc 08 bd 7b e5 9c bd
       -0.05566254 0.053356867 -0.033413567 -0.076609574
000210 d2 2b 25 3c d2 cc 98 be c3 db 1f 3d ca bf 69 3c
       0.010081248 -0.29843765 0.03902794 0.0142669175
000220 bf 11 e8 bd 76 cd a6 bd 30 ca cb 3c f5 68 c2 3c
       -0.1133151 -0.08144657 0.024876684 0.023731688
000230 1d 27 24 3d a5 5b 02 3e c9 bc ed bd 73 91 94 3d
       0.040076364 0.12730272 -0.116082735 0.07254305
000240 87 10 2a bd 10 3f 7a bd 44 7e a0 3c b6 33 22 bc
       -0.041519668 -0.061095297 0.019591458 -0.009900024
000250 96 f5 12 3c 00 6a f3 bc 36 44 7e bb dc 5c d5 3b
       0.008969685 -0.02971363 -0.003879798 0.006511314
000260 c0 9d 5f bd 16 ec 2e bd 55 01 c9 bd a4 1d 36 3c
       -0.0545938 -0.042705618 -0.09814707 0.011115465
000270 50 68 c7 3d 4a 20 7c 3b 83 4f b9 3d 6f b8 97 3d
       0.09736693 0.0038471394 0.09048369 0.07408225
000280 39 17 82 3c 76 dc 13 3d f8 79 9a 3c bc 39 cf 3c
       0.015880214 0.03609892 0.018856987 0.025296085
000290 0d 6a 26 3d 07 c5 80 3c 22 05 a8 bd 04 db 93 3d
       0.04062848 0.01571895 -0.08204104 0.07219508
0002a0 7f e7 9f bc f8 63 8e bd ee 5b 47 3c 03 6a 0c 3d
       -0.019519566 -0.06952661 0.012167914 0.03428079
0002b0 ce 22 bc bc e1 a7 71 3c d9 d3 09 be 5c 32 9c bd
       -0.022965815 0.014749498 -0.1345972 -0.07626793
0002c0 ab 59 ac 3d 2e e7 85 bc a4 25 84 bd e1 6c cb 3d
       0.0841554 -0.016345587 -0.06452492 0.099328764
0002d0 ae 3d 63 bd 60 0f df 3c 36 d0 10 bd dc 34 b2 bd
       -0.055478744 0.027229011 -0.035354815 -0.087014884
0002e0 97 92 ee bc b1 8b 55 3d 84 b3 a1 3c 19 53 90 bd
       -0.029122634 0.052135173 0.01973892 -0.070470996
0002f0 30 70 18 3d 01 f5 cb bc 1e 44 37 bc 2e db f8 ba
       0.037216365 -0.0248971 -0.011185674 -0.0018986219
000300 71 3c aa 3b 42 ea 9e 3d 64 a2 cf 3d 6d e5 32 be
       0.0051951935 0.07759525 0.101383954 -0.17470331
000310 a5 e0 53 bd 5e af 88 3d cd 22 08 3d 9f 2b bc bc
       -0.05172791 0.06674074 0.033236314 -0.022970019

mlp.5.weight f4 [200, 200]
000000 14 13 26 bc c1 a9 00 bd c2 e5 8b 3c 2c 03 12 bd
       -0.0101363845 -0.03141189 0.01707733 -0.035647556
000010 e7 1c 5b 3d 4a 5d 28 bd b6 06 a3 3c cb 2e de bc
       0.05349436 -0.041104592 0.019900661 -0.027121922
000020 f9 06 86 bd b6 af 00 bd 94 f0 2c 3d 1c 10 af 3c
       -0.06544299 -0.03141757 0.04222162 0.021369986
000030 22 37 81 bd 36 fc 36 bd 6a 62 84 bd 43 78 81 3d
       -0.06309344 -0.04467412 -0.064640835 0.06321766
000040 88 5d 44 bd c6 fe 25 bd 38 ca 64 bd 59 59 22 bc
       -0.04794076 -0.040526174 -0.055856913 -0.009908997
000050 04 38 05 bd 48 00 da bc a5 e5 8c 3d c9 27 3a 3d
       -0.032524124 -0.026611462 0.06879739 0.0454481
000060 85 aa 2a 3d 68 2f cd bc a2 d6 96 bc 63 55 99 bc
       0.041666526 -0.02504702 -0.018412892 -0.018717473
000070 a6 eb 5f 3d 40 1c 82 bd aa 7e 5a 3d f5 6c 45 3d
       0.05466809 -0.063530445 0.053343453 0.048199613
000080 b7 64 88 bc 04 4e 5d 3c 21 f7 d8 bc 54 d1 0b bd
       -0.016649587 0.01350737 -0.026485028 -0.034135178
000090 8c ad 3b bd ef 82 76 3d 65 b4 0e bc 54 fd 64 3d
       -0.045819804 0.06018346 -0.008710002 0.055905655
0000a0 35 fe ed bc b7 9e b9 bc dd 5b 39 3c 32 13 66 3d
       -0.02905188 -0.022658689 0.011313406 0.05617065
0000b0 d8 85 47 3d 96 c4 68 bd 20 5d 8d 3d ac 02 5b 3d
       0.048711628 -0.056828104 0.06902528 0.053469345
0000c0 14 ba 11 3d 73 5b 3d bd b2 84 30 bc 03 63 7d bd
       0.03557785 -0.04622979 -0.0107738245 -0.061862003
0000d0 3f fb 86 3d 72 90 2d 3d a4 5b ad 3c 7e ac 73 bd
       0.0659089 0.042374082 0.021161862 -0.059490673
0000e0 dd 93 03 bd ee 1b 46 bd 4c 80 0e 3d 55 48 8d bd
       -0.032123435 -0.04836648 0.034790322 -0.06898562
0000f0 82 b6 08 3d ca aa 48 3d 15 54 3a bc 98 80 bd 3b
       0.033377178 0.048991002 -0.011372586 0.005783152
000100 04 6d 3e 3d 94 7d 9d 3c 6f 47 37 3b 03 97 46 3d
       0.046490684 0.01922492 0.0027966162 0.04848386
000110 4b 42 8b 3c db 2d d4 3c b3 d0 68 3c a3 a0 86 3c
       0.016999384 0.025900772 0.014209914 0.01643402
000120 84 66 8d 3d 57 81 33 3d b3 bb 8d 3d c4 98 65 3d
       0.06904319 0.04382452 0.069205664 0.05605389
000130 2b 1e 7f ba 8f 30 3b 3d c0 dd 85 bc cc f8 df 3a
       -0.00097319734 0.045700606 -0.01634109 0.0017087697
000140 e5 46 4e bd 5c c6 23 3d 00 8e a0 3c ab 48 16 3d
       -0.05036058 0.039984092 0.01959896 0.036690395
000150 07 f6 e3 bb bb 17 aa bc f1 e0 2d bc 38 0b 94 bb
       -0.006956819 -0.020763269 -0.010612712 -0.004517939
000160 e1 6d 6b 3b c3 6c 15 3d 78 00 10 3d be 92 6c 3d
       0.0035923647 0.036480676 0.035156697 0.05775713
000170 05 b4 9e bc 02 b9 60 bd f1 2d d4 3c 60 fd f8 3c
       -0.01937295 -0.054863937 0.025900813 0.030394256
000180 d9 32 80 bc 70 35 0d 3c 88 6c 3c bd f2 fa 73 bc
       -0.015649246 0.0086186975 -0.04600194 -0.014891373
000190 1e 45 a6 bc 02 de e0 bc cf 87 8e 3d 1b 5f 44 3d
       -0.02029663 -0.027449612 0.06959497 0.047942262
0001a0 33 b0 fb 3c fe 36 3b 3c 83 58 f2 bc 70 cc 83 bd
       0.030723667 0.011426685 -0.029583221 -0.06435478
0001b0 36 05 8a 3c d3 4b 65 3d 2e 87 1c bd 62 b3 16 3d
       0.016848188 0.055980515 -0.038214855 0.036792167
0001c0 e4 53 75 3c c0 b9 63 bd 20 63 e1 bc 8f 6c 0a bd
       0.014973614 -0.055597067 -0.027513087 -0.033794936
0001d0 d0 81 f2 3b 12 71 8d bd 6e 98 6d bd b0 09 f4 3c
       0.0074007288 -0.06906332 -0.058006696 0.029789776
0001e0 ba fb 59 3b 21 57 88 3c 21 bd 86 bd 6c e2 6d bd
       0.0033261613 0.016643109 -0.06579042 -0.05807726
0001f0 3a ee 61 bd b6 07 82 3c ca 3f 3b ba 6a 83 49 bd
       -0.05515883 0.015872817 -0.0007142989 -0.04919759
000200 d2 f8 a5 bb b7 2e d3 3b 82 84 81 3d 03 a2 dc bc
       -0.005065062 0.006444778 0.06324102 -0.026932722
000210 3b a7 2d bd 93 98 71 3c 77 2f 79 3c 0d 8e 96 3c
       -0.04239581 0.014745849 0.01520907 0.018378282
000220 78 06 37 bd 81 da d6 bc bd 28 0e bd b7 01 e7 3c
       -0.044683903 -0.026227238 -0.03470682 0.02819906
000230 eb 75 08 bc b5 48 90 bd b6 53 de 3c d6 1a 8d bd
       -0.008328895 -0.07045118 0.027139526 -0.06889884
000240 11 cd d2 bc 02 e7 8b 3c 0b 1c 35 bb ca 6d d5 bc
       -0.025732549 0.017077927 -0.0027635123 -0.026053328
000250 73 53 64 bd 93 06 41 3c 6c fe 40 bb ca 09 98 bc
       -0.055743646 0.011781353 -0.0029448522 -0.018559355
000260 1c a7 b3 3c 04 6b 6e bd fb cb 22 3d 9b 55 16 bd
       0.02193027 -0.058207527 0.039745312 -0.036702733
000270 d7 08 75 3d 7d 84 08 3c e2 88 0f 3d 00 1a 4a bd
       0.059822883 0.008332369 0.03504265 -0.0493412
000280 e1 b1 4f 3d 80 b8 62 3c dc 93 0f bd 36 7f 8a bd
       0.050706748 0.013837934 -0.03505312 -0.06762545
000290 06 ce 77 bc 10 e0 4d ba 12 50 2c bd 9c cd 8b bd
       -0.015124803 -0.00078535173 -0.04206855 -0.06826326
0002a0 99 1a 07 bd 8b 1b 19 3d 4c 8a 6d bd 5a 5f 4a 3d
       -0.03298435 0.037379783 -0.05799322 0.04940734
0002b0 e1 d9 5f 3d de 1a 2a 3d 3e 0f 08 3c b7 6b 85 3d
       0.054651145 0.04152953 0.008304415 0.065146856
0002c0 2e 41 d8 3c 00 0b ed 3c 9e bf 7f 3d d0 ca a0 3b
       0.026398268 0.02893591 0.0624386 0.0049069896
0002d0 c7 f6 32 3d 61 ef bb 3c 90 4b 8c 3d ba d3 1f 3d
       0.043692376 0.022941293 0.0685035 0.039020278
0002e0 64 af 5a bd 96 7d 62 3c 14 0b 28 bc 91 93 84 3d
       -0.05338992 0.013823887 -0.0102565475 0.064734586
0002f0 68 58 44 3c 78 e0 2c 3c 9c 91 39 3d 51 b6 72 bc
       0.011983968 0.010551564 0.04530488 -0.014813975
000300 38 a8 68 bc 3a 8e e9 bc 19 d4 16 bd da 6c 3f bd
       -0.014200263 -0.028510202 -0.036823366 -0.04673467
000310 67 73 f8 bb 65 52 f2 bb 11 20 16 bd f7 25 47 bd
       -0.0075821164 -0.007395076 -0.036651675 -0.04862019
000320 9e e6 99 3b df 40 e0 3c 8c 04 9b ba 0e 33 5d bc
       0.004696681 0.027374683 -0.0011826917 -0.013500942
000330 05 27 21 bc f8 7d 94 bc b6 68 27 3c e6 3c d5 3c
       -0.009835963 -0.018126473 0.010217836 0.026030015
000340 d3 88 30 3d 2a a3 72 bd be 78 e0 3c 84 3e bc bc
       0.043099236 -0.059237637 0.027401324 -0.022979029
000350 b8 73 fd 3c a8 7e 96 3b db 99 38 bd d6 16 a1 bc
       0.030938968 0.0045927353 -0.045068603 -0.01966421
000360 91 d3 41 3d 8b 6e ca 3b c5 34 8b 3c 9f 35 1f 3d
       0.047320906 0.0061777285 0.016992936 0.038869496
000370 e3 3e a9 3c ee d4 33 3c 69 f7 8c bd 61 61 6b bd
       0.02065987 0.010976059 -0.06883127 -0.057465915
000380 80 71 69 bd 36 31 8c bd 66 3b 4a bd 49 b0 02 bd
       -0.056993008 -0.06845324 -0.049373053 -0.0319064
000390 60 ed 6d bc bd fd 7e bd 03 94 4b 3d 9b 86 9d 3c
       -0.014521927 -0.062253702 0.0497017 0.019229224
0003a0 4e b8 15 3d 2e a0 27 bd ee bc 26 bd 42 2c 1e 3c
       0.03655272 -0.040924244 -0.04070752 0.009654107
0003b0 a5 57 8a 3b 49 63 cb bc 95 15 00 bd 8b 11 8b 3d
       0.004221874 -0.024827616 -0.031270582 0.067904554
0003c0 fe ae f4 bc f0 0c 27 3d cb 93 75 bd 90 3f 07 3a
       -0.029868599 0.040783823 -0.0599554 0.0005159313
0003d0 da 86 c9 3c f8 c6 1b bd 1b 35 db 3c 8e 62 20 3b
       0.024600435 -0.03803155 0.026758721 0.0024472806
0003e0 43 93 d1 bc c4 c4 c4 bc c6 88 e5 bc 68 9c 90 bc
       -0.025582915 -0.024019606 -0.02801932 -0.017652705
0003f0 6d 5a 05 3d 0f 33 d2 3b 5c 97 77 bd a4 b7 88 bd
       0.03255694 0.006414778 -0.060447082 -0.06675652

mlp.5.bias f4 [200]
000000 af fc 50 bd ea 3f c7 3b 3c 08 af 3b 78 67 32 bd
       -0.051022228 0.006080617 0.005341558 -0.043555707
000010 b1 61 4d 3d 1a 8c 59 bc 8e 9a 9a 3d 45 e5 46 bd
       0.050141994 -0.013278032 0.0754901 -0.048558492
000020 66 bb 8f 3d 29 d6 f8 3b e8 1b 82 bc cd 73 b4 3d
       0.07018165 0.0075938893 -0.015882447 0.0881115
000030 12 9c c4 3d 83 51 54 3d dc 98 8d ba 01 d9 bb 3c
       0.096000805 0.051835548 -0.0010803002 0.022930624
000040 62 16 92 3d cc ff ad 3d 9f 13 76 3c 0e a4 5b 3d
       0.071331754 0.08496055 0.0150193265 0.05362325
000050 d6 84 82 3c 6c e2 88 bc 62 0a f1 bc f8 69 6b 3d
       0.015932482 -0.016709529 -0.029423896 0.057474107
000060 02 9a 3c 3d 57 2e 25 3d 36 52 4d 3d ea 14 56 3d
       0.04604531 0.040327396 0.05012723 0.05226604
000070 d7 85 10 bb 1d f1 ae 3d 84 7b 5c 3c 7f 8c 63 3d
       -0.002205243 0.085420825 0.013457183 0.05555391
000080 8a 76 97 3c 38 cc b0 ba a6 c2 2f 3d d9 0a c2 3c
       0.018489141 -0.0013488596 0.04291024 0.023686813
000090 33 c0 89 3d e3 44 14 3d 36 43 65 bd e4 2e 1e 3d
       0.06726112 0.036198508 -0.0559723 0.038618937
0000a0 a5 23 f2 bc 2e a9 60 3d 33 94 d7 3d a7 33 cf 3c
       -0.029558012 0.054848842 0.10526314 0.025293184
0000b0 a9 ea 8e 3d 7b bf 11 3d a8 3b af 3c 50 ca 81 3d
       0.069783516 0.035583 0.021390751 0.06337416
0000c0 40 5d ce 3d bd 5d 08 3d 6b 7d 77 3d d1 25 42 bd
       0.1007638 0.03329252 0.060422342 -0.047399346
0000d0 17 1a 08 bd f2 b7 b5 3a 89 27 87 bd e8 e2 86 3d
       -0.033228006 0.0013864024 -0.065993376 0.06586248
0000e0 d6 ee 84 3b d5 13 d0 3c f0 e9 4e 3d fe e7 4f 3d
       0.004056792 0.025400082 0.05051607 0.050758354
0000f0 ae f8 70 bd ff cc 98 bb 68 26 90 3d 79 18 a5 bd
       -0.05883091 -0.0046631093 0.070385754 -0.080613084
000100 1f 07 89 bd fb b3 6f 3d 00 dc 1e 3d dc 16 7d 3d
       -0.06690811 0.058521252 0.038784027 0.06178938
000110 a8 7c 88 bd b9 a1 1a bc b9 a9 22 3d 2e bf 87 3c
       -0.06664401 -0.009437972 0.03971264 0.016570654
000120 bd 71 27 3a aa 5d 6e 3d 84 f6 89 3d eb d5 95 3d
       0.0006387493 0.058194794 0.06736472 0.07316192
000130 69 d3 5d bc 6d 85 3a bc 7c a2 09 3c 22 6a a9 3d
       -0.013539174 -0.01138435 0.008400556 0.08272196
000140 13 e6 8c 3d 86 da 1b 3d 1e ec c8 3d a2 65 c9 3c
       0.06879821 0.038050197 0.09810661 0.024584595
000150 56 21 31 3d b5 01 8b 3d 4d 12 5c bd 2b fa 27 3d
       0.043244682 0.06787435 -0.05372839 0.041010063
000160 08 f0 9a bd da b0 11 bc 2e 99 fb bc a2 bf 49 3d
       -0.075653136 -0.008892262 -0.03071269 0.04925502
000170 d0 2f 90 bd ef 21 2d bd 1e 99 5a 3d 36 d8 67 3d
       -0.070403695 -0.04226869 0.05336868 0.05660268
000180 83 3e 1c 3d 2e d1 8a 3d fb 91 f0 3c 3a c5 81 3d
       0.038145553 0.06778179 0.029366484 0.06336446
000190 d2 1e 10 3c fa d0 15 bd 42 4b 22 3d 1c c1 86 3b
       0.008796411 -0.03657625 0.039622553 0.004112376
0001a0 75 09 f9 3c 84 b7 4f 3d 52 61 ab bc 1f 50 8a 3c
       0.030400017 0.050712124 -0.02092043 0.016883908
0001b0 ff ef 11 3d 9a 0e aa 3c de a0 94 bc 6b 6d 51 3b
       0.03562927 0.020758916 -0.018143114 0.0031956087
0001c0 ea 72 95 bc 4d ca f8 3b 7d 88 b4 3d 31 76 e3 bb
       -0.018243272 0.0075924755 0.088150956 -0.0069415797
0001d0 3f f5 18 3d e5 37 1d 3d cd 51 82 bc 42 22 72 3d
       0.03734326 0.038383383 -0.015908146 0.059114702
0001e0 bb eb a7 bc 80 81 11 3d eb 74 37 3d 6a 84 f0 3c
       -0.020498147 0.03552389 0.044789236 0.029360015
0001f0 f2 92 da bc 98 8c 1e 3d 11 18 89 bd f2 7e 20 3d
       -0.026681397 0.0387083 -0.066940434 0.039183564
000200 ba 09 96 3d e5 70 41 bc 41 0b 0a 3d bd 47 b0 3d
       0.07326074 -0.011806701 0.03370214 0.08607433
000210 0d 18 28 3d ae 2e ee bc 28 d3 85 bc e4 d5 e7 3c
       0.04103856 -0.029074993 -0.016336039 0.028300233
000220 f1 c0 87 3d 14 cd c9 3b 87 bd 88 bd c4 3c da 3c
       0.066285975 0.0061584804 -0.066767745 0.026640303
000230 92 8c 24 3d 12 f0 2c 3d 64 35 3b 3b de 92 51 3c
       0.04017312 0.042221136 0.002856576 0.0127913635
000240 86 b1 37 bd 27 4a ed bc 71 d0 8d 3d cb 19 e1 bc
       -0.044847034 -0.028966023 0.06924523 -0.02747812
000250 03 dc fa bc a5 82 bd 3c f3 1d 97 3d a0 6e 2f 3d
       -0.030622488 0.023133585 0.07378759 0.04283011
000260 a3 a8 8c bd 28 7e bc 3c ca 46 12 bc 96 ed 7d bb
       -0.068681024 0.023009375 -0.00892801 -0.0038746349
000270 d4 ea 1b 3d 2f ef fa 3c 05 18 c1 3d 83 08 5c bd
       0.038065746 0.03063163 0.094284095 -0.053719055
000280 23 84 75 3c 5a 03 33 3d a2 55 f2 3c c6 ba 58 3d
       0.014985117 0.04370437 0.029581849 0.052912496
000290 57 9f 88 3c 05 bc b0 3c 77 f2 a0 3d e2 f6 48 3d
       0.016677542 0.02157403 0.078587465 0.04906357
0002a0 49 d1 65 3d 1a 63 aa 3c 2b ed b0 3d bf 1a 4c bd
       0.056107793 0.020799208 0.08638986 -0.049830195
0002b0 ca 59 56 3c 6c 67 6e 3d 29 17 05 bd 30 32 31 bd
       0.013082931 0.0582041 -0.03249279 -0.043260753
0002c0 83 e6 4a bd dd 30 2e 3d 85 53 df 3b 5b b4 88 3d
       -0.04953624 0.04252707 0.006815376 0.06675025
0002d0 45 f9 fc bc 7e c4 ff 3c 71 ce 34 bd 3c 8b 88 3c
       -0.03088058 0.031221624 -0.04414219 0.016667955
0002e0 e2 d6 04 bd d9 cf d4 3c 33 16 28 3d b1 29 ba 3b
       -0.03243149 0.025978016 0.041036796 0.0056812395
0002f0 41 73 58 3d 8a 88 20 3d c7 a9 84 3d 8f 8c f0 3c
       0.05284429 0.039192714 0.06477695 0.029363899
000300 87 1f 9c 3d 04 21 0c 3d 2d ef 7f 3d 21 2d 64 ba
       0.07623201 0.034211174 0.062483955 -0.00087042345
000310 1d df c2 3c be 18 c7 3c af 30 6e bd d0 97 8d 3d
       0.02378803 0.02430379 -0.058151897 0.069137216

mlp.8.weight f4 [1, 200]
000000 09 d2 48 3c a6 7b 7a 3c b3 0f d4 3e 63 e2 86 3d
       0.0122571075 0.015288269 0.41418228 0.065861486
000010 a5 ab 01 3f 0b bf 07 3e 46 a1 d9 3d eb e8 04 3d
       0.50652534 0.13256471 0.106264636 0.03244869
000020 3d 8b 62 be 7b 56 6f 3e 61 7e 68 39 44 b9 c1 3e
       -0.22123428 0.23372833 0.00022172324 0.3783666
000030 3e 7b fc be 26 41 85 3e 08 fb 7a 3d 82 5e 19 bf
       -0.49312776 0.26026267 0.06127456 -0.5990983
000040 3e f9 11 bf be 38 be be 93 83 ad bd de 00 b5 be
       -0.5702094 -0.37152666 -0.084723614 -0.35352224
000050 f5 26 3d 3e 19 d7 df 3e 54 15 5e ba 33 be a1 be
       0.18471892 0.43718794 -0.0008471806 -0.31590423
000060 b8 37 4a 3e a3 2d bb bd 5c b7 c0 3e 3f 15 39 bf
       0.19747818 -0.09139564 0.37639892 -0.72298044
000070 f2 08 05 3f 5a 05 47 3e 63 25 40 be b2 94 7a be
       0.51966774 0.19435635 -0.18764262 -0.24470785
000080 97 1d 40 3e 81 a4 c9 3c e4 65 fa be 07 f2 ee 3e
       0.18761288 0.024614574 -0.4890586 0.46669027
000090 0f b1 96 be 24 cb 69 3e ce b6 3e bd a9 62 fa 3c
       -0.2943196 0.22831398 -0.046561055 0.030564623
0000a0 51 c5 7d 3c 2e b4 bd be 02 90 9d 3e 31 3c c3 be
       0.015488938 -0.3705153 0.30773932 -0.3813186
0000b0 96 1b d9 3e 00 7b 4b be 50 02 8d 3d f8 7e 0c 3e
       0.4240386 -0.1987114 0.06885207 0.1372031
0000c0 d2 5d 7c be a7 1b 61 3e b9 27 c5 3d 44 c9 88 bd
       -0.24645165 0.21983205 0.09626717 -0.06679013
0000d0 80 94 05 bd 99 cc da bd 2b a7 ed bb 37 ac f0 3e
       -0.032612324 -0.10683555 -0.007252594 0.4700639
0000e0 f6 86 73 3e ec d4 06 3e 33 8b e0 bd f9 23 15 3e
       0.23781952 0.13167161 -0.1096405 0.14564504
0000f0 ae c2 ee 3d 18 51 0c 3f 69 8b e2 3e 20 f9 26 3d
       0.11658226 0.5481124 0.44246987 0.040764928
000100 6a 19 9e 3c d7 bb 08 3e 96 59 9c bd 54 ab fd 3e
       0.019299228 0.13352905 -0.07634275 0.49544775
000110 ce 06 b0 bb 79 02 1a 3e 91 cc ab be a8 71 56 3e
       -0.005371905 0.15040006 -0.3355451 0.20941794
000120 02 2c 61 3d c2 70 05 bf 35 b7 8a be cd a4 9e be
       0.05497361 -0.5212518 -0.270929 -0.30985108
000130 83 e4 76 3c f3 69 2f bd 6b e7 9f 3e a2 b3 51 be
       0.01506913 -0.04282565 0.31231245 -0.2047868
000140 2a cd c7 be e8 95 6b be a9 09 ad 3e f1 00 90 3c
       -0.39023715 -0.23006403 0.33796433 0.017578574
000150 a7 ca 04 3f e2 c1 c0 be 5a 56 88 3d 80 e2 f2 3e
       0.5187172 -0.3764792 0.06657095 0.4743843
000160 3c ec cb 3b 8b 84 de 3c bc 77 bc 3c 84 5d 3e be
       0.0062232297 0.02716281 0.023006313 -0.18590361
000170 46 8e da bc 17 84 be 3d 62 28 b2 be 81 c3 f0 bd
       -0.02667917 0.09302538 -0.34796435 -0.117560394
000180 16 32 2c 3e 94 ab 9f 3d 10 39 01 3d 13 4a 06 bf
       0.16815981 0.07796398 0.03154856 -0.5245678
000190 67 f1 31 3e 49 ca be 3c 78 67 ef 3e 52 47 ff bd
       0.17377244 0.023289816 0.46758628 -0.12464775
0001a0 9c 90 9d bc 99 df df be 23 56 86 bd 4c d9 6f 3b
       -0.019233994 -0.4372528 -0.06559398 0.0036598025
0001b0 4b ff 1b 3f 37 0d 8e 3e 31 31 3a bc 77 3c 6f be
       0.6093642 0.27744457 -0.011364267 -0.2336291
0001c0 c5 aa 91 bd c5 d9 9f 3e d1 ab a4 bd 13 6d 11 3f
       -0.0711265 0.31220832 -0.08040584 0.5680706
0001d0 53 24 8d 3d fd f6 c4 3e ea 0f 06 3f 7b 0c 0d 3f
       0.06891694 0.38469687 0.5236803 0.5509717
0001e0 c2 59 ec 3e 72 93 77 bd 94 2f cc bd 40 fd 61 bd
       0.4616223 -0.06044335 -0.09970012 -0.05517316
0001f0 ec f4 18 3e 69 40 42 3e 64 11 91 bc 61 77 02 be
       0.1493718 0.18969883 -0.017708488 -0.12740852
000200 05 9e a3 be 76 ea 25 bd 27 12 a4 3e 09 21 cb be
       -0.31956497 -0.040506802 0.320451 -0.3967364
000210 d6 0a 19 bf e4 f1 0e bb 6e ba 90 3d 22 e6 ce be
       -0.5978216 -0.0021811659 0.07066809 -0.40409952
000220 60 95 ea bd 0b c1 44 bd 00 9d 0c 3d a9 af e6 3e
       -0.11454272 -0.048035663 0.034329414 0.45055893
000230 61 2e 6c 3d a5 ae c9 bc 4d d6 54 3e ec be ce 3d
       0.057661418 -0.02461941 0.20784874 0.10095009
000240 f0 74 6f bd 8f 9d 44 3c a6 e1 06 be e4 95 30 3d
       -0.05846113 0.0120004555 -0.13172016 0.043111697
000250 05 97 75 bd 28 f9 aa be 25 cf ae be 8a a5 a7 bd
       -0.059958477 -0.33393216 -0.34142414 -0.08185871
000260 45 86 0c 3d ae 0f 4b be f4 2c 7a 3e 15 8c 09 bc
       0.034307737 -0.198302 0.24431211 -0.008395215
000270 61 5c 65 bd e3 8a 4c 3e b5 a8 fa 3e 90 4f 29 bd
       -0.055996303 0.19974856 0.48956838 -0.041335642
000280 ec 46 08 bd 91 72 84 be f0 f1 8f be 41 36 ec 3e
       -0.03327076 -0.25868657 -0.2811427 0.46135142
000290 de 13 2c 3e 69 e9 93 be 30 37 ad 3e a3 ce 00 bf
       0.16804454 -0.28889015 0.33831167 -0.503153
0002a0 d8 6c b0 be 12 47 fd 3e 6a 5a 6d be b6 a7 53 bd
       -0.3445804 0.49468285 -0.23179021 -0.051673613
0002b0 f5 cd ac be 03 a5 ee 3d 16 72 26 3d 4d f2 78 3e
       -0.33750883 0.11652567 0.040636145 0.2431118
0002c0 7e cf 80 3d 92 d8 d6 be d8 b5 ab bb ae fe 77 be
       0.06289576 -0.41962105 -0.0052401833 -0.24218246
0002d0 c3 45 b2 3b 5d e4 8d 3e a2 c4 07 3d 6f b1 91 3d
       0.005440445 0.2771329 0.033146508 0.07113921
0002e0 8e 2e 89 3d e7 f4 e1 3b 93 ea 0c 3e 25 1f f9 bd
       0.06698333 0.0068956497 0.13761358 -0.121641435
0002f0 d6 cc 67 be 1d 27 7c 3d 26 34 5d be 9d 0a 33 bc
       -0.22636732 0.06156074 -0.21601924 -0.010927823
000300 62 52 2d 3e 52 0d 34 bd 9f 4d a1 be 1a 95 0d be
       0.16925958 -0.043958016 -0.31504533 -0.13826409
000310 89 15 51 bd 96 3a 9a 3d 62 6f d4 3c 88 89 fc be
       -0.05104593 0.07530706 0.025932018 -0.49323678
