models/weights/layers_50_50_drop_lr_1e-05.pt (torch, 19247 bytes, 5 tensors)

mlp.0.weight f4 [50, 31]
-0.16885479 0.25414172 0.0739335 0.06129536 -0.08310891 -0.14654265 -0.0155017385 -0.0628534
-0.011127677 0.058602244 -0.013193948 0.18660796 -0.038869485 -0.11258275 -0.15146312 -0.12185388
0.14062995 0.1685537 0.090380445 -0.059723746 -0.13371658 0.035031762 -0.2532331 0.08393535
0.14781697 0.085450746 0.11030362 -0.153667 -0.05838039 0.17083214 0.21203394 -0.08885018
0.18961325 -0.031596813 0.045468252 -0.08846209 -0.054844495 0.045277156 0.13121367 -0.049444478
0.16160141 -0.09322514 0.17757282 0.15736717 0.023976376 -0.0062160064 0.2653825 -0.10235048
0.071409255 0.10761735 0.034423795 0.13957527 -0.0032168957 0.23709804 0.06747155 0.059717882
0.043275997 -0.104609996 -0.16075191 -0.09195947 0.06353346 0.2537193 -0.21431135 -0.040461347
-0.13126993 0.119146496 0.13965155 0.16004951 0.06184187 0.029507944 0.21505141 0.21572503
0.0821247 0.008585665 -0.13978805 -0.10544666 0.008916808 -0.05041486 0.12899472 -0.036071535
0.08377293 -0.11212561 0.11985643 0.093244284 0.10794949 0.097944535 0.14913017 0.03341412
0.07564789 -0.16743423 0.36476898 0.012492526 0.30809158 0.16147876 0.09739167 -0.088952385
-0.26988843 0.18643712 0.23750761 -0.09826898 -0.12566584 -0.15436019 -0.0053660963 0.19116107
0.26244196 -0.1846566 0.27123073 -0.10870118 0.034738194 0.00032575676 0.2040963 0.23011383
-0.09506223 0.03060295 0.08239122 0.050054573 -0.14117542 0.019996047 0.009102631 0.017341174
0.097289 0.064285114 0.15198751 -0.038548376 -0.24955304 0.11906159 0.060189072 0.12553406
0.36119124 0.18341659 -0.0848809 0.099821165 -0.18094906 0.14706837 -0.17189415 0.069536775
-0.09289667 -0.04876349 0.119733036 0.07517552 -0.03391057 0.05532178 0.13537724 -0.09066246
0.074873015 0.025294408 -0.23949546 -0.12841938 0.074325815 -0.088723086 -0.043762106 -0.053331655
-0.053567644 0.059878282 -0.10569998 -0.17180878 -0.03006281 0.010549843 -0.17323841 -0.08087671
-0.12903184 0.13254288 -0.10545757 0.07216903 -0.03410593 0.00016772677 0.21813749 0.017568596
-0.04847975 -0.09047396 0.23374298 0.2204206 -0.032748125 -0.049757488 -0.11959694 -0.11846314
-0.07890454 0.18809046 0.077924035 -0.08174698 0.07875965 -0.14719778 0.22633101 -0.11028346
-0.16458032 -0.17817268 -0.109264135 -0.13297929 -0.047563694 -0.1787565 0.17995362 0.33500987
0.17094317 0.17460966 -0.028796924 -0.095736474 0.05432318 -0.041613497 -0.12691706 0.11375352
0.2564053 0.044583235 0.13461167 -0.19955532 0.035724536 0.09651026 -0.08350576 -0.118624516
-0.07279877 0.16110665 -0.13117494 0.0052393363 -0.02702901 0.01830031 0.035981636 -0.12265133
0.13264138 -0.020255262 0.12208134 0.05186776 -0.16478184 -0.14753065 -0.022105299 -0.1748429
-0.057974286 -0.042422865 0.2588913 0.11094048 0.24238971 -0.26188913 0.05510649 0.14330466
0.10915587 -0.014825252 0.070892416 -0.19674186 0.072683126 0.045648977 0.109214686 -0.17439465
-0.063630044 -0.040360603 -0.13408294 -0.026298597 0.04777338 -0.23002174 -0.07592079 0.230932
0.13007869 -0.08021824 -0.12045694 -0.008411994 0.14379042 -0.19146264 0.039382484 -0.030327337
00000000: 45e8 2cbe dd1e 823e 726a 973d d810 7b3d
00000010: 0135 aabd 470f 16be 01fb 7dbc 49b9 80bd
00000020: dc50 36bc e808 703d 6e2b 58bc 2816 3f3e
00000030: 9c35 1fbd c991 e6bd 2619 1bbe 878e f9bd
00000040: 4c01 103e 5799 2c3e 6219 b93d e3a0 74bd
00000050: 00ed 08be 777d 0f3d c5a7 81be 4ce6 ab3d
00000060: 555d 173e cd00 af3d dde6 e13d e25a 1dbe
00000070: 4720 6fbd 9fee 2e3e 6d1f 593e 15f7 b5bd
00000080: fa29 423e a96b 01bd eb3c 3a3d 9d2b b5bd
00000090: 9fa4 60bd 8a74 393d e05c 063e 4b86 4abd
000000a0: d77a 253e d2ec bebd a6d5 353e dc24 213e
000000b0: 1b6a c43c a4af cbbb 37e0 873e 219d d1bd
000000c0: 043f 923d 7c66 dc3d f7ff 0c3d d2ec 0e3e
000000d0: 8ed2 52bb d4c9 723e 862e 8a3d bd9a 743d
000000e0: 2c42 313d c43d d6bd 269c 24be 3f55 bcbd
000000f0: d51d 823d 7fe7 813e 6f74 5bbe ccba 25bd
00000100: a06b 06be 1403 f43d d100 0f3e 05e4 233e
00000110: e74d 7d3d a5ba f13c 7036 5c3e 06e7 5c3e
00000120: ff30 a83d e4aa 0c3c 9924 0fbe 6bf4 d7bd
00000130: ce17 123c d07f 4ebd 3117 043e bfbf 13bd
00000140: 2491 ab3d 1da2 e5bd 4a77 f53d dcf6 be3d
00000150: 9f14 dd3d 2597 c83d 94b5 183e 3fdd 083d
00000160: 48ed 9a3d e173 2bbe 00c3 ba3e 74ad 4c3c
00000170: 2ebe 9d3e b05a 253e 4975 c73d ab2c b6bd
00000180: d12e 8abe 5fe9 3e3e 3235 733e 3f41 c9bd
00000190: 8cae 00be 9910 1ebe 14d6 afbb babf 433e
000001a0: cb5e 863e 9f16 3dbe c1de 8a3e b99e debd
000001b0: a349 0e3d 55ca aa39 9ffe 503e f6a2 6b3e
000001c0: fdaf c2bd 0ab3 fa3c babc a83d 0606 4d3d
000001d0: 4a90 10be c0ce a33c 3423 153c 140f 8e3c
000001e0: 753f c73d eaa7 833d 9da2 1b3e e7e4 1dbd
000001f0: d58a 7fbe 90d6 f33d d188 763d 008c 003e
00000200: 0fee b83e 8fd1 3b3e 0ad6 adbd 0a6f cc3d
00000210: b64a 39be 1799 163e 0505 30be 4c69 8e3d
00000220: 9c40 bebd 3abc 47bd 9836 f53d 9ff5 993d
00000230: cfe5 0abd 1799 623d 55a0 0a3e 3dad b9bd
00000240: 0657 993d 3836 cf3c 4c3e 75be 5f80 03be
00000250: 2238 983d 73b4 b5bd e53f 33bd 4b72 5abd
00000260: bf69 5bbd ee42 753d 3b79 d8bd a4ee 2fbe
00000270: 4846 f6bc 40d9 2c3c 6965 31be b0a2 a5bd
00000280: ec20 04be 52b9 073e 23fa d7bd 5bcd 933d
00000290: a9b2 0bbd d0df 2f39 6f5f 5f3e 04ec 8f3c
000002a0: b492 46bd 694a b9bd 525a 6f3e f0b5 613e
000002b0: e622 06bd 82ce 4bbd 3eef f4bd ce9c f2bd
000002c0: b498 a1bd c99a 403e a396 9f3d f66a a7bd
000002d0: bd4c a13d 04bb 16be 51c3 673e 4bdc e1bd
000002e0: be87 28be e672 36be e0c5 dfbd b92b 08be
000002f0: 26d2 42bd f20b 37be c345 383e 6a86 ab3e
00000300: ba0b 2f3e e0cc 323e 87e7 ebbc 7c11 c4bd
00000310: fc81 5e3d ea72 2abd 8cf6 01be 9bf7 e83d
00000320: 8e47 833e e99c 363d a4d7 093e 3b58 4cbe
00000330: e453 123d 2ca7 c53d 1105 abbd 69f1 f2bd
00000340: 8617 95bd 24f9 243e b952 06be bdae ab3b
00000350: f16b ddbc 88ea 953c 7b61 133d 9f30 fbbd
00000360: 24d3 073e 5dee a5bc c805 fa3d 4a73 543d
00000370: 92bc 28be 4612 17be 2c16 b5bc 040a 33be
00000380: 7276 6dbd 99c3 2dbd 678d 843e c334 e33d
00000390: 0235 783e 5516 86be 58b7 613d 75be 123e
000003a0: 1d8d df3d 9de5 72bc 0b30 913d b376 49be
000003b0: e4da 943d 6cfa 3a3d f3ab df3d 8394 32be
000003c0: 7850 82bd 2951 25bd 0a4d 09be 2870 d7bc
000003d0: 05ae 433d d28a 6bbe 5c7c 9bbd 7079 6c3e
000003e0: 5933 053e 7649 a4bd 21b2 f6bd 76d2 09bc
000003f0: cc3d 133e c80e 44be 874f 213d 0971 f8bc

mlp.0.bias f4 [50]
-0.06822778 -0.017441578 0.10317796 -0.01948432 0.050477233 -0.057993717 0.1271884 -0.006785259
-0.234507 -0.34317392 -0.36681363 0.2379983 -0.024926074 -0.17098436 0.20438369 0.065908484
0.14207718 0.17776941 -0.18955834 -0.08994925 0.14971784 -0.053525813 -0.08375914 -0.07953502
-0.6450359 0.04280315 -0.3650389 -0.040809408 -0.08090884 0.32573295 -0.049374707 0.13283996
-0.035015564 -0.1224269 -0.2668825 0.112970054 -0.28016415 -0.1176123 0.014806187 -0.13442081
-0.0019593749 -0.34530565 -0.041217133 0.1463372 -0.2141082 0.032887205 0.00093385746 0.34058297
-0.22014225 0.0998043
00000000: 02bb 8bbd a4e1 8ebc f74e d33d 959d 9fbc
00000010: 37c1 4e3d d28a 6dbd ad3d 023e e156 debb
00000020: 9a22 70be 7eb4 afbe ffce bbbe d4b5 733e
00000030: c431 ccbc 8616 2fbe f549 513e 07fb 863d
00000040: ae7c 113e 2f09 363e 951b 42be 5037 b8bd
00000050: a24f 193e e23d 5bbd e989 abbd 42e3 a2bd
00000060: 1321 25bf 5b52 2f3d 61e6 babe c427 27bd
00000070: 89b3 a5bd 78c6 a63e 223d 4abd 3307 083e
00000080: 7b6c 0fbd f4ba fabd d3a4 88be d85c e73d
00000090: ad71 8fbe b8de f0bd a695 723c 9ca5 09be
000000a0: db68 00bb e7cb b0be 4cd3 28bd 6bd9 153e
000000b0: 2e3f 5bbe bcb4 063d 1dce 743a e460 ae3e
000000c0: f86c 61be 3266 cc3d

mlp.2.weight f4 [50, 50]
-0.13596486 -0.037565988 0.075557604 -0.07624952 -0.0021278714 0.22248788 -0.080782495 0.016103804
0.037793923 0.051799472 0.12942766 -0.11740925 0.14534457 -0.0498001 -0.12889114 -0.07748854
0.12840046 -0.043292757 0.1003583 -0.029309092 0.020469781 -0.12023207 0.054788172 0.10458155
-0.032031316 -0.16788957 -0.0335371 -0.1861946 -0.053469803 0.08686318 -0.07278087 0.17092256
0.06700374 0.035352398 0.0682023 0.007392063 0.16496602 -0.021520793 -0.10665682 -0.07608683
0.04217176 -0.05674422 0.0042868815 0.14544432 -0.11399671 -0.09987934 0.04181429 0.0388338
-0.089915134 -0.057962522 -0.10657661 -0.034507774 0.0017225512 0.06352316 -0.03402366 -0.11480548
0.05332507 -0.001533192 -0.09184043 -0.07783557 -0.09969437 -0.03985619 0.038700458 -0.09881576
-0.115974374 -0.031299528 0.0012909891 -0.0326193 0.077615455 0.13390099 -0.15421109 -0.06799486
0.019517805 0.012051095 -0.051560827 -0.031613484 0.12520875 0.05140285 0.016699279 -0.024957182
0.07450679 0.024736008 -0.08446223 -0.09772604 0.09901208 0.14418726 0.017004268 0.11969909
0.04010746 -0.033210456 0.099905156 0.036141444 0.114598475 -0.16989554 0.03266337 0.05204821
0.06847832 -0.09810498 -0.015894113 0.010559313 0.018304845 0.0011553441 -0.18571751 0.19384198
0.120994404 -0.07758787 -0.053276338 -0.072671205 0.05512237 0.00017676086 -0.01093663 0.083451666
-0.24782014 0.12636389 -0.11781093 -0.041549385 -0.04783771 0.009785651 -0.0897611 0.004141009
0.023337146 0.08577284 0.115432486 -0.12873146 0.20122421 0.13873276 0.16595626 0.24260183
-0.008415216 0.02791596 0.0014302006 0.09109604 0.14531621 -0.11351226 -0.039488923 -0.08207682
0.2591096 0.12199966 0.04061849 0.11196229 -0.016218353 0.14141765 -0.0009449708 0.048695702
0.05933913 0.07731472 -0.03845419 -0.061995354 -0.21878506 0.049104907 -0.06886228 -0.014543097
-0.03397643 0.061869532 -0.03722919 -0.014945085 -0.107790336 -0.1534909 0.13653553 0.032716304
-0.17665102 0.091374524 -0.07238531 0.055220254 0.06443982 0.079266526 0.011376671 -0.054072514
0.09477179 -0.23979014 0.0024391466 0.041485116 0.011599155 -0.23092113 0.119269066 -0.02735188
0.14117706 0.08965169 0.08862842 -0.058181766 0.1691255 -0.0361846 0.14241183 -0.059426352
-0.009779216 0.033699546 0.1847464 0.0061675836 0.20832843 0.016268075 -0.06008201 0.35358894
0.11902901 -0.12638046 0.15124668 0.09858798 0.06820199 -0.17435572 -0.014591098 0.16266374
0.15097287 0.20919569 -0.15261085 -0.062295295 -0.0020920231 -0.17390639 -0.03956896 -0.16742554
0.30291831 -0.104459085 0.037825555 0.050818115 0.14276081 -0.021815859 -0.03411365 0.10969203
-0.14287357 0.013871667 -0.040407345 -0.11605044 -0.17564319 -0.016520355 0.15087469 0.0044609327
0.102119386 -0.02694377 0.45370945 -0.11459935 0.27246198 -0.20340066 0.021270735 -0.008450879
0.088773176 -0.16408357 0.015416632 -0.10478162 0.3031493 -0.04885171 0.0740026 0.2407342
-0.022486843 0.3446776 -0.033943497 -0.091173194 0.10671158 -0.07028411 0.010564917 -0.2465882
0.021494975 -0.08374976 -0.07695724 0.10466054 -0.06388291 -0.09488384 -0.17193195 -0.058220014
00000000: 5f3a 0bbe cbde 19bd f2bd 9a3d b528 9cbd
00000010: c273 0bbb ddd3 633e 4b71 a5bd 20ec 833c
00000020: cdcd 1a3d af2b 543d af88 043e 4374 f0bd
00000030: 35d5 143e 31fb 4bbd 0afc 03be 50b2 9ebd
00000040: 697b 033e bf53 31bd a788 cd3d 9f19 f0bc
00000050: 3eb0 a73c 3b3c f6bd 9069 603d da2e d63d
00000060: 4533 03bd 3eeb 2bbe 335e 09bd cca9 3ebe
00000070: 2703 5bbd 53e5 b13d 230e 95bd 5306 2f3e
00000080: 4239 893d adcd 103d a6ad 8b3d 1e39 f23b
00000090: daec 283e 604c b0bc e46e dabd 69d3 9bbd
000000a0: 4cbc 2c3d a16c 68bd f878 8c3b 5bef 143e
000000b0: 1b77 e9bd 8a8d ccbd 7645 2b3d 3110 1f3d
000000c0: 6d25 b8bd 1c6a 6dbd d644 dabd 0658 0dbd
000000d0: 3ac7 e13a 6e18 823d 655c 0bbd 231f ebbd
000000e0: 636b 5a3d 63f5 c8ba d616 bcbd 4168 9fbd
000000f0: 902c ccbd 3f40 23bd 5f84 1e3d eb5f cabd
00000100: f983 edbd ef33 00bd 6836 a93a d19b 05bd
00000110: daf4 9e3d 571d 093e 83e9 1dbe e440 8bbd
00000120: cee3 9f3c f571 453c 7231 53bd 247d 01bd
00000130: b936 003e cb8b 523d edcc 883c 0173 ccbc
00000140: 0497 983d 2ba3 ca3c 89fa acbd 9724 c8bd
00000150: d8c6 ca3d d3a5 133e 894c 8b3c cc24 f53d
00000160: b847 243d b007 08bd 139b cc3d 0d09 143d
00000170: 9bb2 ea3d 19f9 2dbe 07ca 053d 8130 553d
00000180: 5d3e 8c3d 44eb c8bd 5f34 82bc f800 2d3c
00000190: 0bf4 953c ea6e 973a bb2c 3ebe 837e 463e
000001a0: eacb f73d 64e6 9ebd 4a38 5abd a4d4 94bd
000001b0: ffc7 613d e258 3939 8d2f 33bc b5e8 aa3d
000001c0: 90c4 7dbe 8965 013e db46 f1bd b02f 2abd
000001d0: 79f1 43bd ff53 203c abd4 b7bd 4db1 873b
000001e0: 8b2d bf3c aca9 af3d de67 ec3d 2ed2 03be
000001f0: b80d 4e3e f60f 0e3e 70f0 293e 9d6c 783e
00000200: f9df 09bc 03b0 e43c 9275 bb3a 9090 ba3d
00000210: c6cd 143e 1e79 e8bd 23bf 21bd e417 a8bd
00000220: 03aa 843e f5da f93d 935f 263d 7c4c e53d
00000230: 5adc 84bc cacf 103e ebb7 77ba 2575 473d
00000240: 960d 733d 2e57 9e3d 2482 1dbd d7ee 7dbd
00000250: 3109 60be 3a22 493d ab07 8dbd 2b46 6ebc
00000260: de2a 0bbd e86a 7d3d a37d 18bd 3bdc 74bc
00000270: 2ec1 dcbd b82c 1dbe f8cf 0b3e 8801 063d
00000280: 01e4 34be 9122 bb3d c03e 94bd a22e 623d
00000290: 06f9 833d 7d56 a23d 3765 3a3c 247b 5dbd
000002a0: b617 c23d 8c8b 75be 17da 1f3b 4cec 293d
000002b0: 620a 3e3c 9776 6cbe 5743 f43d 0d11 e0bc
000002c0: b890 103e 4e9b b73d d182 b53d 0150 6ebd
000002d0: 3c2f 2d3e 4e36 14bd 68d4 113e 0c69 73bd
000002e0: 0139 20bc 8908 0a3d 292e 3d3e 7119 ca3b
000002f0: 0c54 553e a044 853c 8e18 76bd 9c09 b53e
00000300: 7bc5 f33d e169 01be 69e0 1a3e 7fe8 c93d
00000310: 7cad 8b3d 4e8a 32be 800f 6fbc 5391 263e
00000320: a298 1a3e 6537 563e 0546 1cbe 5a29 7fbd
00000330: 531a 09bb 8414 32be 1013 22bd 9a71 2bbe
00000340: 1c18 9b3e a5ee d5bd f8ee 1a3d a826 503d
00000350: e42f 123e 2cb7 b2bc c1ba 0bbd 37a6 e03d
00000360: 734d 12be fd45 633c 2c82 25bd daab edbd
00000370: cfdb 33be b255 87bc e57e 1a3e 042d 923b
00000380: f823 d13d 2eb9 dcbc 9b4c e83e 10b3 eabd
00000390: 2380 8b3e 4348 50be f73f ae3c 8e75 0abc
000003a0: b6ce b53d 8605 28be 0b96 7c3c bf97 d6bd
000003b0: 6336 9b3e bb18 48bd ad8e 973d 0783 763e
000003c0: 5436 b8bc 9579 b03e 5608 0bbd 03b9 babd
000003d0: 9a8b da3d 1ef1 8fbd 7918 2d3c 9e81 7cbe
000003e0: 3b16 b03c ff84 abbd c29b 9dbd 4458 d63d
000003f0: 0bd5 82bd 7552 c2bd ee0e 30be 1c78 6ebd

mlp.2.bias f4 [50]
0.12036177 -0.043430418 -0.19096167 0.0064293696 -0.35963634 -0.041514143 -0.12597747 -0.09255008
-0.31383315 0.10643264 0.115448534 -0.09821786 0.028775772 0.07726703 -0.15818588 0.13692793
-0.14456737 0.116886884 -0.046784144 0.09887305 -0.01481518 -0.29124424 0.086290956 -0.086524166
0.051044747 0.012423568 0.08267798 0.035274897 -0.101605706 -0.011736267 0.014073813 0.0714792
0.19512552 -0.10206154 0.13425797 0.044150602 -0.010194762 -0.10210274 -0.09176312 -0.065605424
-0.05069421 -0.07815213 -0.06140361 0.12261131 -0.0031513106 -0.09337084 0.080120474 0.11796871
-0.0703383 0.20487314
00000000: 3b80 f63d 18e4 31bd 758b 43be 76ad d23b
00000010: 4122 b8be bc0a 2abd 3d00 01be e58a bdbd
00000020: bdae a0be 5bf9 d93d 4870 ec3d 7226 c9bd
00000030: 2bbb eb3c 2d3e 9e3d 7bfb 21be d636 0c3e
00000040: 7809 14be 6462 ef3d bba0 3fbd f47d ca3d
00000050: 5ebb 72bc f71d 95be 50b9 b03d 9533 b1bd
00000060: 4c14 513d 398c 4b3c 1353 a93d 697c 103d
00000070: a716 d0bd 7949 40bc da95 663c b063 923d
00000080: fcce 473e a405 d1bd ec7a 093e 43d7 343d
00000090: ee07 27bc 3e1b d1bd 4dee bbbd 235c 86bd
000000a0: bba4 4fbd 390e a0bd 5a82 7bbd a31b fb3d
000000b0: 3886 4ebb 3639 bfbd 3416 a43d 9499 f13d
000000c0: 870d 90bd 44ca 513e

mlp.5.weight f4 [1, 50]
0.4241217 -0.21204087 -0.5569246 -0.53331304 -0.95194066 0.5096199 0.5224366 -0.0049789264
-0.9478052 -0.35688326 0.018291434 0.015879257 -0.027805498 -0.037262693 0.15771106 0.38648552
0.19372803 0.400242 0.34705657 0.49179825 0.120601565 -0.5966379 0.58238786 -0.5739547
-0.12696859 -0.08323537 0.47252828 0.19740835 -0.5962398 0.513206 0.7464418 0.58577967
0.7839743 0.06781296 0.10384249 0.55063874 -0.33170485 -0.51811963 -0.7639232 0.4246182
-0.21548694 0.079436176 -0.111275494 -0.14406294 -0.12117686 -0.4964661 0.20917073 0.12563868
-0.553746 0.47038886
00000000: 7b26 d93e 3e21 59be 9c92 0ebf 3487 08bf
00000010: 62b2 73bf 7376 023f 68be 053f 4326 a3bb
00000020: 5da3 72bf 67b9 b6be ebd7 953c 3715 823c
00000030: 5bc8 e3bc c4a0 18bd 027f 213e 6ee1 c53e
00000040: a460 463e 85ec cc3e 66b1 b13e fbcc fb3e
00000050: f4fd f63d 43bd 18bf 5f17 153f b2ee 12bf
00000060: 0e04 02be 4e77 aabd 3aef f13e 6a25 4a3e
00000070: 2ca3 18bf 7861 033f cf16 3f3f a8f5 153f
00000080: 8ab2 483f 85e1 8a3d 5fab d43d a9f6 0c3f
00000090: 38d5 a9be 7da3 04bf 7990 43bf 8f67 d93e
000000a0: 9ca8 5cbe 6faf a23d 68e4 e3bd 3c85 13be
000000b0: 932b f8bd ce30 febe da30 563e 6da7 003e
000000c0: 4cc2 0dbf cfd6 f03e
